LP4-MachineLearning/HW_B_tetris/qn_1000.pth (torch, 54167 bytes, 6 tensors)

fc1.weight f8 [64, 20]
00000000: a49a 6fb8 4ac9 c83f c928 93d7 2025 c5bf
00000010: 503d a5b0 f32a 9ebf b0e8 8a00 8203 973f
00000020: 4daf 8526 d18c ccbf c0ba 2c9c 71ed be3f
00000030: b098 e1b7 083b adbf 007d 4b1a 6de0 af3f
00000040: 169b a2c1 1dc2 b7bf d8ba 4fbc a20f c9bf
00000050: 9c57 1a91 5061 b73f 4b13 05cb 20cc c9bf
00000060: d4f4 6fdd 2bba a3bf 203a 710d 5c91 b5bf
00000070: 2e6e 6a3d 606b b9bf 2927 4004 568f bfbf
00000080: f279 3d29 6428 c0bf 5ffd 91b7 c147 cbbf
00000090: a36b 6542 ca47 cabf b206 e8cc 8b83 b2bf
000000a0: 4058 6bfc f4d1 983f dca4 31bc 9708 c73f
000000b0: 4659 16b2 88f9 c03f 802f 391a f642 cbbf
000000c0: 50c7 51a6 acbf b53f a076 3b5b 6562 a73f
000000d0: 1896 3f61 b50b b93f c41f 668a eb66 b6bf
000000e0: 9682 40c2 ff56 cabf 2866 946e 2e4c c2bf
000000f0: da2a 3d21 3f4f cc3f b8e9 ffaa 3f71 a03f
00000100: d892 35be 7513 9fbf ac40 b4d9 a789 c6bf
00000110: 8ea5 6d2c 640c c03f ba00 8110 cb35 cabf
00000120: 9895 ab8a 3887 b33f f0d1 1203 f71e 813f
00000130: 8354 c56d 82af bbbf c4a8 c978 d096 c53f
00000140: e065 6f6d 16e5 cabf 9725 26fe 2503 c2bf
00000150: f8bf 42e6 cd3b a03f 0032 0821 6671 87bf
00000160: 8f4e 8e5d 991d c1bf 88a4 2ae1 dbb8 b63f
00000170: 92bd 327d 6862 c33f c404 9a90 c16b c8bf
00000180: 681d 0326 f101 ac3f f85b 671d c5bf a03f
00000190: 6e87 9fb1 a563 c53f 8c4b 09cd adfc c2bf
000001a0: 782c 0d7d c5d7 acbf 988b cf0d 7e2d c1bf
000001b0: 5081 be0e 3780 be3f aea6 8796 89b2 c8bf
000001c0: 3857 079d 228c b53f 3078 8973 ce9b c23f
000001d0: a460 ecae c3db a7bf 1d44 7a5d a662 c9bf
000001e0: 2085 4cda b206 ad3f f86b 92de bc67 943f
000001f0: d804 d44d 0840 be3f 30ea 1a65 b038 c33f
00000200: 284d 5598 b822 ae3f 3660 071d 1b92 c53f
00000210: 92e8 691f e9c2 ca3f 1c0a 1e6b 790d b03f
00000220: 5848 7ac4 3fa4 a3bf 0342 752a 2b36 c1bf
00000230: d2d9 4283 a42f cb3f 2455 bbe5 ac19 a5bf
00000240: bad4 9770 10f7 c1bf cc47 aec0 72c6 c43f
00000250: 32af e82c 7d57 c53f e837 1b2c 9346 a43f
00000260: 6e2f 646d 0027 cbbf 3662 05b6 8527 c13f
00000270: 077d dfdd 6a14 c7bf 1265 b914 1691 c53f
00000280: d835 687e 4fd3 c6bf 849e af92 3e86 cabf
00000290: 7832 95c1 0631 c7bf 90a5 7b67 f4fa c7bf
000002a0: d239 d26f 19f8 c6bf 9cd5 b34d b178 abbf
000002b0: 8017 b370 330f 71bf a8e7 fdd0 5d80 b63f
000002c0: 40ee 873f 9b13 b0bf 8814 2ac5 3258 a1bf
000002d0: 80fe 7c14 a073 6dbf c098 8f64 714a bc3f
000002e0: 8017 8442 59a0 643f a6e6 f4be 89aa cb3f
000002f0: a0a1 b0fc 01d5 9c3f f8a7 9e23 e1b3 a63f
00000300: 67c5 210f f48b c5bf 5054 22ee a81b bcbf
00000310: 8cdd 50b2 4c0c b63f 3c01 e851 920b b5bf
00000320: f80d 9205 d1d2 c9bf 78b9 8bd7 5669 a93f
00000330: 809e f6e3 244f a6bf e8fc 7f14 6d90 a13f
00000340: fcf1 fea2 f192 cbbf e4a9 a429 8a7c c73f
00000350: 3e19 7125 f4a2 c1bf 182a 47cd 3f70 a03f
00000360: e192 db4e 0896 cabf 6cd4 bf0d 1b5e bc3f
00000370: 0ab8 f29a 041c c83f 9661 bcf3 9984 b8bf
00000380: a8cb 0ccd 64d3 b83f f801 9fb9 31fe abbf
00000390: 2893 1621 516c c2bf c4e5 2eb8 abaa c23f
000003a0: b00d aba5 ac92 ca3f 2e92 b79a 10fa c83f
000003b0: 426d 1d89 1f45 cb3f 3855 2013 dded b7bf
000003c0: d828 92f0 5a7c ca3f b645 d2b1 fc10 bcbf
000003d0: 804d 82a9 7afa b63f 608c 9709 34fa 7fbf
000003e0: dc89 b45b 6fa7 c6bf 4082 b907 17aa 67bf
000003f0: 9ca9 fe98 cd25 b0bf e0f7 7d92 9b7d 93bf
00000400: 38a5 0cac 7c65 a13f 8c99 3af6 8002 b3bf
00000410: 6369 d0db 7316 c6bf e39c d6a4 2029 ccbf
00000420: a0a8 a895 bf54 b0bf 26c3 69ca 775c c2bf
00000430: e354 9928 a310 cbbf 7835 2160 0377 b13f
00000440: 88f0 4f83 ba63 b43f e030 cd4f 0f43 c63f
00000450: 9257 c768 719c cbbf 3ccc e3d9 bf73 b3bf
00000460: 60f4 b761 35d5 ba3f b4b1 2ea1 b658 cb3f
00000470: f654 dc79 0385 c9bf b248 0437 49fe b9bf
00000480: dc7e 68ff 6f52 aebf c460 03f3 894f c5bf
00000490: 30f5 5a96 97fc b73f c0fc eb75 74e3 9c3f
000004a0: f03b 416e 8c36 b43f 56bc af52 9667 c83f
000004b0: b66a e2da 775d b1bf a00a d3e5 529d ca3f
000004c0: 6811 0a50 edba b53f 2444 0a42 53fd b13f
000004d0: aa6b d691 04be c53f 0024 3793 9092 a03f
000004e0: 984c 7819 fdf0 af3f 0493 f665 9adb c0bf
000004f0: de8c 722d ce2d b7bf 9e9c b036 341a c5bf
00000500: a4a4 f487 d739 b83f b0f6 83a8 a885 94bf
00000510: 34f3 d03e a4dc ba3f 60ae 2875 9a5a a0bf
00000520: 7e36 2462 4c39 c73f 0c76 71cf cacf b03f
00000530: 9280 5b9a 5f23 b5bf aa88 4c7b 2780 c13f
00000540: 9812 745a c30f c7bf 2e2c d99b b25e c13f
00000550: 0029 f963 6b9c 8cbf f7a5 eaae 493b c1bf
00000560: 74a0 4a4f 6d74 b53f d047 a699 14a7 a93f
00000570: 5196 59ee 2941 cabf 242e f881 8683 c03f
00000580: 2a8c dfaf 5cb2 bfbf 0468 755e bba7 b1bf
00000590: 8e17 14ff a018 b7bf 221a 79f5 ba13 c8bf
000005a0: 0659 1bb8 1deb c33f f0a4 1b4f 27e4 b13f
000005b0: a061 0c62 a9e3 84bf 4083 8992 f786 c13f
000005c0: a666 ecc4 6591 c43f 0084 4ee2 e00d 363f
000005d0: a42e 4060 d500 bebf 50b9 69d7 2787 be3f
000005e0: c87a 1276 902d 9abf 7075 3b80 ab33 b8bf
000005f0: f0b0 f617 1fbf a6bf 5884 4373 664a a7bf
00000600: c08c 93b7 1b56 c1bf 5066 3438 2afb bb3f
00000610: daa4 6b51 58bd c8bf 6485 779a 6812 cb3f
00000620: 0e32 41de 463b c6bf c445 753d d7d7 c4bf
00000630: a0d0 14ca 1ddd a23f 5a63 ca4a 230b bdbf
00000640: 5ca5 718c 9cd4 c43f 5210 5390 1935 c13f
00000650: e01e 8bfb 496d 92bf 6825 b699 5171 c8bf
00000660: c4db e9ee 716f c5bf d27e e3b1 5ea2 c83f
00000670: 0636 7959 fe6d c3bf 1642 3e7d 840f c33f
00000680: a2bc 9737 4c3f c63f 8891 8a8c 1b54 ac3f
00000690: 5a33 89df 300d c43f 0835 619c af82 97bf
000006a0: d6c0 4d9e 2000 c9bf d598 295e 1be8 cbbf
000006b0: 1097 5fd9 f410 a23f 0eb3 5071 cfb0 cb3f
000006c0: 3c29 1209 5dfe b3bf 92e8 4a8e bc9a c3bf
000006d0: 2839 d209 7f67 c13f 4c3b 3cae f30f afbf
000006e0: 08ff 60c6 9bc4 c63f 37df c3cb a12c bcbf
000006f0: 2a5b 1186 9382 c03f 600a e513 6de1 97bf
00000700: 301d d837 3de4 c5bf f1d5 24b7 573a c4bf
00000710: f203 1347 849f b2bf e814 67cb 76c3 ae3f
00000720: e832 e9cf e3e1 a3bf 489f 1ddc a22f b2bf
00000730: 581a 484e e195 c03f bcb1 23fa 70d1 b0bf
00000740: 3cf3 977c bd42 b9bf 2e67 271d 3bb8 c63f
00000750: 0062 782a 2ac9 3abf 14ca ca8d 0540 c03f
00000760: a8f2 43d9 b4fd 973f ca5f cd6b 3d40 c53f
00000770: 607d 7eb7 94df a0bf e897 2007 136a b5bf
00000780: d0be 13e5 4d8a be3f 0c09 0103 020c c1bf
00000790: 2854 8d31 5e3c ab3f 3422 34de 0db7 b93f
000007a0: 38db e19a f0ac a6bf 48da be6f 6035 b83f
000007b0: 4a05 83a7 6782 b0bf 345b 6f25 a711 b3bf
000007c0: b063 a3d9 76d1 ab3f d094 43bf f23b b8bf
000007d0: 0d37 99a0 8a48 c0bf f404 5a79 f55a cbbf
000007e0: 0438 bfb2 3a0c be3f 10c2 580a d354 c5bf
000007f0: 56f0 a509 6cf4 bfbf 98d4 545d c3e9 b3bf
0.19364294057523523 -0.16519556547274863 -0.02946072354944579 0.02247431877433631 -0.2230473936173162 0.12081060469493377 -0.05709101910251613 0.06225911088926672
-0.09280572869702683 -0.195789663266132 0.09132865469504597 -0.20154199517323898 -0.03852974966137315 -0.0842492611711596 -0.09929467677505308 -0.12328088382505754
-0.12623264325789268 -0.21312734092132765 -0.20531585924149195 -0.07231973412128914 0.02423842230458484 0.17994972886234606 0.13261517234486514 -0.21298099785269287
0.08495596943410288 0.04567257631945876 0.09783490776279569 -0.08750793579940735 -0.20578000054321838 -0.14294987105749724 0.221168414335202 0.03211401903532213
-0.030347671255543357 -0.17607591753085694 0.1253781525549979 -0.2047666388116392 0.0762820566702288 0.0083598420918429 -0.10814681224776916 0.16866498849714706
-0.21011619895470712 -0.14072108182544404 0.03170627055931158 -0.011446760066086803 -0.13371579235228068 0.08875822303038394 0.15144067872232064 -0.1907884555876419
0.05470231617942539 0.032713088836025805 0.16710349247938033 -0.14833614837206388 -0.05633370543963506 -0.1342008178172278 0.11914390668835506 -0.19294853067485945
0.08416954358775974 0.14537983552412603 -0.04659854421896739 -0.19832305492721583 0.056691731593909944 0.019926978192056993 0.11816455745794785 0.15016751229070868
0.058858650775301335 0.16852129857466175 0.20907320054886164 0.06270560136002995 -0.03836249612244619 -0.13446559498926555 0.21239143761859097 -0.04121151260702963
-0.1403523015757509 0.16230616005174026 0.16673245137041587 0.03960094369323014 -0.21212773648619127 0.13401862514253232 -0.1803105910648599 0.16849018108295205
-0.1783236853811292 -0.20722181475069956 -0.18118366672787878 -0.18734602978592507 -0.17944639167804027 -0.053655186400571625 -0.004164887369546011 0.08789621689166316
-0.06279917050408645 -0.033876024787823644 -0.0035951735079889358 0.1105109091291494 0.0025178664546982588 0.21614190887503532 0.028156310127231188 0.0443411212903157
-0.16833353747237398 -0.10979705632992531 0.08612517693915417 -0.082207818028114 -0.20174610874174426 0.049631799518340125 -0.04357257159000216 0.03430500865214886
-0.215421871745903 0.1834881499610922 -0.13778545215809318 0.032106393631313235 -0.20770362711404913 0.11081093869855047 0.18835504117799956 -0.09577333641607874
0.09697561269858446 -0.05467372313387736 -0.14393056979783947 0.14583345883674614 0.20760114754930958 0.1951313739256348 0.21304697222772445 -0.09347326008749668
0.2069200205481312 -0.10963420239774888 0.08975950849917602 -0.007806971808778845 -0.17698471048158992 -0.0028887224014371438 -0.06307682976936352 -0.01903384286514853
0.033977409364818134 -0.07425695430229079 -0.17256019814596887 -0.22000511215922022 -0.06379315761356219 -0.14344689734891708 -0.2114452312695568 0.0682222470943169
0.07964673715463466 0.17392150303420006 -0.21571176162859423 -0.07598494596077016 0.10481580386836375 0.21364481802210167 -0.19937175226429077 -0.10153634637052525
-0.05922269814277367 -0.1664898335063808 0.09369800015243324 0.02821142167794899 0.07895734493034445 0.19066123044419453 -0.067832461298546 0.20792614194768522
0.08488352970204505 0.07027168619448837 0.1698613845918236 0.03236820027411369 0.06238547264015287 -0.13170175532027184 -0.09054268464619805 -0.16486218138127112
0.09463259762982773 -0.02004111794030078 0.104929223381032 -0.031941248704552505 0.18143610755980782 0.06567065777331765 -0.08257100599758108 0.13672345657784507
-0.18016855160398815 0.1357024441698242 -0.013970221508448066 -0.13462182083939897 0.08380778489902402 0.05010284782032637 -0.20511364114934108 0.1290138373009181
-0.12381533902912226 -0.06896563583487142 -0.09021955707075177 -0.18810212121953024 0.1556126736601941 0.06988759690615942 -0.010199855141352299 0.13693136839995113
0.1606871806659928 0.0003365205796460047 -0.11720021819945231 0.11924981125932743 -0.025564439016870805 -0.09453842049284389 -0.04442689101719732 -0.04548950345066122
-0.13544031585397498 0.10930122253594132 -0.19327835059747295 0.21149928610160906 -0.1736839852550393 -0.16283693791278442 0.03684323398411604 -0.11345120025579317
0.1627383886109709 0.13443297907918123 -0.01799502942847553 -0.19095821385807743 -0.16746353307436668 0.19245513616532733 -0.15179423683950705 0.14891105761900353
0.17380669321525938 0.05532919016448817 0.15665255465355693 -0.022959464950237624 -0.19531638841318139 -0.21802084062364338 0.03528561738475677 0.2163333228394539
-0.0781000277658323 -0.15315968463784607 0.13597095469999343 -0.06066857816596513 0.17787501512975035 -0.11005603050932398 0.12898487135199704 -0.0233208697693591
-0.1710278055836425 -0.15803047602246026 -0.07274653182231797 0.06008502228682194 -0.038832778100731435 -0.07103937028807394 0.12957397768350876 -0.06569582087440201
-0.0986746243651852 0.17749728129893455 -0.0004087188667383501 0.12695378707356098 0.023428750763729994 0.1660229469659938 -0.0329557870857069 -0.08364981578833375
0.1192978557844484 -0.13317895075494623 0.05319494585879908 0.10044943499463771 -0.04428817644741517 0.09456446388399187 -0.06448982085841695 -0.07448811210575174
0.05433246046749873 -0.09466473741084092 -0.12721379129146052 -0.21371334481594995 0.11737410415591404 -0.16665113454065805 -0.124823334079282 -0.0777856924876964

fc1.bias f8 [64]
00000000: fc96 c6f7 1357 bfbf 0647 9e1d 7cde b8bf
00000010: 2eae 3c75 19c9 c8bf 85da 2269 01e4 ca3f
00000020: 1e91 43b7 32a1 b43f 10e8 ee98 96e3 a7bf
00000030: 37af 1884 de01 c8bf c00a 3e80 1bd7 9ebf
00000040: 224b ccb5 5910 c5bf 30ef 0c7f 4140 aebf
00000050: 045b 476b c598 a03f 9737 dc7f 28b9 c03f
00000060: 5825 06ab b0b9 bbbf be1a aba4 c770 c6bf
00000070: cd94 51d8 190f c73f e842 36ad d6f4 a0bf
00000080: 6f34 bcbc 96ef c83f 5ae2 755f 9da3 b5bf
00000090: 7028 18ad 9d99 9abf 085b 0abe 6dc8 aabf
000000a0: 4636 8ea1 b1d6 b7bf 8ab2 a71d 6abc b73f
000000b0: 126d 5169 947b c0bf 8012 90ae 2774 a9bf
000000c0: 8a99 902c a73a bd3f a04d b8c3 4ef2 9cbf
000000d0: a8ab 97bb 8fa9 b5bf 3ecd 9e3c 8cb1 c6bf
000000e0: e225 0532 bdcc cabf ac1c 1ac8 92bd a53f
000000f0: 50b6 eebd e095 82bf 0c3c 2a3c b54b a93f
00000100: aeaf fa44 0bb4 b33f 20c8 4b1a 55c6 c0bf
00000110: b0a9 7379 560e c6bf 8ca2 9380 7ce6 a43f
00000120: 2228 0f6f 5bc5 bfbf c61f c885 0be4 c0bf
00000130: 1fbc 0bad 3fc2 c73f 6405 2a6d fed5 c5bf
00000140: 5615 79ad 08a4 b13f e0c2 7862 86b4 a2bf
00000150: 001e f533 9b26 9ebf 8135 3766 17a1 c13f
00000160: c9f8 1dfe ae83 c33f 401b 38ae 7f46 c6bf
00000170: 2ee8 b5fe 9486 c6bf 3629 2306 5364 b83f
00000180: 5af5 3779 d051 c0bf 603a 39fe 5df7 b6bf
00000190: 3c1c c845 1d28 c0bf 2422 62cd 47c7 a3bf
000001a0: 2574 03c3 590f c43f 7ba7 02cd 10bc c63f
000001b0: 4031 91ac d27d a7bf 15c2 1a05 c95c c53f
000001c0: 779a 6812 0340 c63f 8c07 fb52 4e7e c9bf
000001d0: a91d 9246 aded c7bf 7946 df66 7f59 bbbf
000001e0: 40fe 5f15 05bd 743f 08ce 562a e61a 9c3f
000001f0: 18c7 ff87 c7c5 b4bf 6b8a dd42 dc96 cbbf
-0.12242245482647357 -0.0971448490438683 -0.19363706802811137 0.21008317597962303 0.08058468794076076 -0.04665823571072292 -0.18755704355259592 -0.03011744470814892
-0.1645614755330707 -0.05908398319158292 0.03241555151514855 0.13065057986426318 -0.10830215621367267 -0.17531676807830893 0.18014834463534726 -0.03311797012714185
0.1948116704519722 -0.08452781277254343 -0.02597662323936628 -0.05231039948301058 -0.09311971849657494 0.09271872734070477 -0.12877135412677682 -0.0497143173779806
0.11417622411736353 -0.02826808042125395 -0.08461855249303929 -0.177293328857198 -0.20937313978565358 0.04246195500041358 -0.00907493190410516 0.049405730814321286
0.07696600374282411 -0.13105262550340147 -0.17231255464805662 0.04082097119846137 -0.12410518132597351 -0.13195938141165992 0.18561550092223997 -0.17059307413368707
0.06890920863323421 -0.03653354599044234 -0.0294441462004027 0.13772861948966056 0.15245616348324223 -0.17402645117564397 -0.1759821170524573 0.09528082752072894
-0.12749677580715507 -0.08971202332143369 -0.1262241926890243 -0.03862976438637514 0.15671846410887827 0.1776143075015247 -0.04588182789356887 0.1668940806316789
0.17382849120004426 -0.19916705180918048 -0.1869408220847906 -0.10683437596824231 0.005063075883299073 0.027446361860439722 -0.08114287443438817 -0.2155413938990763

fc2.weight f8 [64, 64]
00000000: 6431 00b1 2e17 a1bf d39e 6aa7 8e44 b73f
00000010: 5975 c8e3 a2da b53f 95da 5bf7 357f b03f
00000020: 45ef a5ce 7ff4 bcbf d356 fac1 cea9 b83f
00000030: 8948 2214 4060 bfbf 2cd2 649a 48f8 b0bf
00000040: 174a 93ee c3a8 b8bf 5ca5 ebfa e14c 9e3f
00000050: bfc9 caf8 17f6 b8bf bcb3 be1d ee37 adbf
00000060: f4b3 181f 3197 a8bf 8b7f 4ceb ea0b ba3f
00000070: 5078 183f 67ed 733f aba7 e846 16fb b73f
00000080: bd7b 2144 e4bd bc3f c51c 37c4 69ee bb3f
00000090: 4c86 e97f 9cab 9f3f c0c5 1a66 b307 8abf
000000a0: d901 f099 adf5 bfbf 242d 5edd 02de a4bf
000000b0: ca2a fdfd 45bd a23f dc69 9b25 5e5c 913f
000000c0: 9de5 3a12 cccc b13f a68f 8480 99ef a33f
000000d0: cae7 47a3 261d a63f b53c b3bd b07a b03f
000000e0: aa90 adbc 633b b5bf c5ce 770c 9c02 babf
000000f0: aa29 305d e805 ad3f 1599 0891 f9a3 bfbf
00000100: 6370 715c 8201 bfbf 705b 8eec 8999 9abf
00000110: eeb1 d654 4329 b1bf 5098 e14f ef2c 713f
00000120: d1d6 4c57 fc91 be3f 7c21 1d97 c399 9c3f
00000130: 4055 3742 78d2 5c3f 04c4 928e 44d5 923f
00000140: 880d 535d 8df1 a2bf 52e1 8644 c319 b7bf
00000150: bd8a 83ac 3573 ba3f c211 f23e 176e ab3f
00000160: 6bb2 3f54 f00e b13f 419d 1e46 a170 bb3f
00000170: a48c 7cf5 4df3 a1bf 898f 8ffa a729 b63f
00000180: a779 14a8 7743 bc3f 7891 6b8e 5dde b5bf
00000190: 65e4 1357 c7bd bc3f 5aa0 e461 e8e8 aa3f
000001a0: 38a0 6c57 e09d 8c3f 3f3e 8690 c312 b33f
000001b0: 6446 d714 26a8 913f 7f29 a05e 8b6b b93f
000001c0: 5a75 3468 4fab a93f 58d2 b91b e22f a1bf
000001d0: 61b6 354c 1819 b93f 8014 a4e4 0402 59bf
000001e0: b2a3 e404 2602 b3bf 68ea 1399 96a0 a0bf
000001f0: 114a f306 e77c bbbf 4050 eed1 39aa 78bf
00000200: 35e5 29ed f163 b83f b9b7 84eb 8ca7 b33f
00000210: c047 210f 1413 78bf a0e8 b195 1ebd 98bf
00000220: ddf6 295b f636 b93f 84d3 b7f1 681d 943f
00000230: 8e99 a427 0788 ac3f 07f6 b8a8 62d0 b33f
00000240: 7e67 eaf3 d184 a33f be43 27b9 8255 b5bf
00000250: 22e6 644e 2241 a13f adf4 00db 26c0 bd3f
00000260: c3d2 101a 7a9e b83f fe2d 2c3f 1c41 ad3f
00000270: 94fd af7d 54a3 afbf 0f59 860e 80c6 b03f
00000280: fcd5 b12c 9590 993f 0cfa 2b81 340d b6bf
00000290: 4bfb 87b7 93b7 bcbf c95d 3f59 3992 bbbf
000002a0: b802 a4c7 7c34 9abf 00c4 54ab ae96 afbf
000002b0: 2c4a e914 e716 973f 00a0 ccdb e90b 32bf
000002c0: eec1 7114 5e59 a73f 2796 eba7 e484 bf3f
000002d0: 33f5 fe3a d73c bc3f cc80 2085 f9ce 983f
000002e0: 4450 34fc 7867 b0bf d8d6 380f d8f9 843f
000002f0: c76f 4e2c e38c bf3f c135 f61b cb79 b8bf
00000300: b074 ce7d 4960 b0bf d84a a9ab 29bb adbf
00000310: 0f3f 54a4 e629 bebf 3801 dd70 4303 97bf
00000320: 0011 69a6 5c4a 45bf d234 4485 ae31 a53f
00000330: a08f 6702 5c70 a0bf a131 30db 29a9 bfbf
00000340: 70b7 2f3c bf61 b0bf 614e df27 6317 b53f
00000350: 5c66 6299 524e b5bf 3c20 3d35 d7aa a4bf
00000360: a6f4 34ff 22a7 a53f e085 ccd9 023d 8ebf
00000370: a668 3561 83e4 a13f 3324 6b86 4caf bebf
00000380: e4e0 3fe1 caa1 913f 0399 f7b0 c800 b83f
00000390: 6726 4dff 5784 b8bf b040 4d5f 842e adbf
000003a0: ec84 31ce 0351 a5bf 5aea 19d8 d080 a53f
000003b0: 7c10 056f 3509 abbf 8bbd 9f6e 3a49 bcbf
000003c0: 24b3 e9de a7bd a1bf 3cb5 af47 a69c 933f
000003d0: 9947 2b24 e4cc bebf 137e 5cab 91b7 bebf
000003e0: 90a1 de83 d57e 87bf b6fc 4f74 700a aa3f
000003f0: 9ca1 1e0a c79b afbf 695c 3f44 c59e b13f
00000400: 3017 ba21 857c a2bf ca33 af33 05c6 a03f
00000410: ac8a dd28 da0e 923f ddd5 5f8a b11f b93f
00000420: 86f2 75fa 686e a43f bfed 401b c5a5 be3f
00000430: 7a3e 02d7 0837 b7bf 724c 2457 ddf9 ac3f
00000440: dcde 3be5 6533 913f b051 1e31 1cd2 a4bf
00000450: d267 1bd2 7b94 a33f 80b2 bc5c 7672 5dbf
00000460: 0eb2 a395 3c13 b1bf c829 acb8 b844 abbf
00000470: 1c9c 9cd8 4da7 923f a230 23ac 3a1c a03f
00000480: 8ced 6f97 d0af b3bf f853 2ddb 65c3 b2bf
00000490: 807d f9fa 7335 9dbf 30fc f8a5 0b82 89bf
000004a0: 0b82 11f5 0d3d bcbf c6d9 381a 83bc b3bf
000004b0: bc63 4799 3520 aebf 73ac caf4 cd7c b83f
000004c0: de13 24e7 69b4 af3f 29db 33b7 f8e0 ba3f
000004d0: 145c 11b6 941f 973f 7884 7b0e 2848 a7bf
000004e0: acd6 71dc 6925 acbf 60e7 c8fd 024b 82bf
000004f0: f0f2 69f7 288a 87bf 5306 2f2c 8eb1 bf3f
00000500: 6d87 171a ff80 b73f da64 ac26 2c98 ab3f
00000510: 4241 d13d 841f b3bf 003c 4bbe 4f35 6fbf
00000520: 0851 4710 847b 9fbf 32d7 0fcb 64f4 ab3f
00000530: b8d5 7bae 77f5 a4bf e0fb b0d5 fb97 6b3f
00000540: ab1f 3541 6227 b23f 15bd 2682 c936 b23f
00000550: f398 ffdc 0dda bdbf b95c 9a71 f482 bf3f
00000560: c0a3 3c6d e789 b7bf 78c6 1311 c7f2 8e3f
00000570: c0cc 5827 b2c5 b4bf c012 99c2 121a a5bf
00000580: fd96 5e94 d26e bd3f 217b 7a34 f525 b8bf
00000590: 38b6 dd6e 0039 95bf 984f a6d6 5f02 b0bf
000005a0: 28af 663f 198f a8bf a84e 43c4 ae0f 98bf
000005b0: 3f96 b4eb ba95 bc3f a6aa 55db 68dd b1bf
000005c0: 6eea 2cb3 20d8 b6bf cd97 55df bd2b b03f
000005d0: a34a 3f4c 52da b03f 60a3 f403 a138 acbf
000005e0: c8f5 3ef3 69d6 afbf 1088 0586 f36f 7a3f
000005f0: 20ce 8e7c 9c4b 603f 5351 3d37 090e bcbf
00000600: 7f27 2605 2446 bf3f 7712 299b b295 b9bf
00000610: 1625 5744 b92f b4bf 7e57 a0ff 6a7a b6bf
00000620: a584 e241 16bc b23f 7940 ef89 3d65 b8bf
00000630: 8394 f9cf 825a bb3f 2dd2 843c cfb9 babf
00000640: 3017 94ee 03e8 84bf e3df ea1a 4351 bcbf
00000650: 29bc 28d6 968f bcbf c4bb 8ce7 3c4c 9a3f
00000660: e4b8 68b9 b52e 9b3f 8c74 a480 0244 933f
00000670: fecb e330 f996 a33f 5022 f0d0 b0d0 7b3f
00000680: dd3f 0a8e a55d bc3f 53ba cd7f 0b6d bd3f
00000690: d221 7bc6 26c2 b6bf 2c0d dced ec25 933f
000006a0: 6376 4af0 a5c5 b23f b866 bedd 8b95 9ebf
000006b0: f81c 37d8 bc6d 863f c256 e361 55b2 a93f
000006c0: fb5d f790 d548 b73f 57e5 a3a7 f614 bd3f
000006d0: 2c4a 6ac7 0920 abbf 79d1 5c54 a1e5 b03f
000006e0: 11fa 800c 4665 bcbf f8be 0794 aab3 a2bf
000006f0: 744f 510d 2dc2 a7bf 5f6f b652 45b3 bebf
00000700: b7cc 1f93 4c15 babf 20d2 196b 5b54 98bf
00000710: c06b 44d6 c547 5e3f 3871 1008 c67c b5bf
00000720: c063 e4eb 04e5 63bf 6228 8b3a 2de8 ad3f
00000730: 64e7 c3c9 1909 a3bf 4eb0 848c db4d a73f
00000740: 4ab3 7bdb ccbe b1bf 8965 612e 94a6 bf3f
00000750: 59b1 3e7c 8e55 b93f 40ce 23ed b816 8ebf
00000760: 7873 02e4 25fc 803f 50ea 4b7d 9f27 93bf
00000770: cb36 7389 7d31 b23f bbd7 401a c558 b43f
00000780: 581c f5a3 b729 8c3f 11bb 8ed1 fcf0 be3f
00000790: 7cfe 15ed aff3 aabf 1782 160d ec6a bc3f
000007a0: 2664 90ea 3f44 a73f 2966 d266 b31f babf
000007b0: 003d 33c8 542c 83bf 5800 a11d 3737 9bbf
000007c0: 8874 eec0 464d a0bf a2f5 44b9 a028 ae3f
000007d0: 8433 7d4a 7503 a0bf ee61 131c ffa6 ac3f
000007e0: db37 6764 21d3 bebf d875 b8b7 0824 b7bf
000007f0: 70f5 78a1 1d1c 723f ba4c 4598 074a ae3f
-0.03337999258664828 0.09088985049549629 0.08536737500295057 0.06444108284982016 -0.11310576243516575 0.09634105907238259 -0.12256241313505901 -0.0662885071695391
-0.09632515501588333 0.029590159358951026 -0.09750509094263914 -0.057067338114712624 -0.04802850250812432 0.10174434895134092 0.004865077311050639 0.09367503386661606
0.11227251685475799 0.10910664596950699 0.030928082759038397 -0.01271000056599092 -0.12484250076523241 -0.040756310961194836 0.03660029149485451 0.016953917546610117
0.06953120656080221 0.03893737500973708 0.04319115393805324 0.06437210685111235 -0.0829374633445378 -0.10160231880564215 0.05668569695997701 -0.12359580794199972
-0.1211167789164747 -0.025976328910100432 -0.06703587361580052 0.0041932438017281 0.11941506511069667 0.0279303132040538 0.0017591642762132126 0.01839167709539781
-0.03699914707388091 -0.09023685858745026 0.10332045995486801 0.05357430117968277 0.0666341977773272 0.10718734704879741 -0.03505939122830995 0.08657312266546859
0.110404470954086 -0.08542427756362325 0.11227079273148062 0.0525581950662974 0.013973000209787853 0.07450506475856232 0.017242999097851444 0.09929724750705836
0.05013511797936117 -0.033568445095543964 0.09803916798201719 -0.0015263603004893878 -0.0742515336938954 -0.03247519129395898 -0.10737461013494733 -0.00602171503023291
0.0952750400555445 0.07677536725961333 -0.005877569537988181 -0.02415893353143217 0.09849490857774464 0.01964344001131081 0.0557253108875556 0.07739845866395721
0.03812271215902195 -0.08333603878351334 0.03370005804977107 0.11621325346728169 0.09616816650743502 0.05713737746381396 -0.061792984335620776 0.06552887301072395
0.02496560178084016 -0.08613899377449047 -0.11217616301290183 -0.10769995144743584 -0.025590848622416756 -0.061696489729349935 0.02254830422527669 -0.0002753683036638144
0.04560369491162307 0.12312153911224098 0.11030335607843682 0.024227045774865272 -0.06407886655171163 0.010242164577998578 0.12324352103900003 -0.09560841972980595
-0.06396922418066953 -0.05806856365656693 -0.11782685768070798 -0.02247338653910555 -0.0006497337715889728 0.04139466645038116 -0.03210723428108442 -0.12367498017574131
-0.06399150103945117 0.08238811229176114 -0.0832263588403292 -0.04036591076743476 0.04229077687566844 -0.014764807006545533 0.03494654237393151 -0.11986234933569122
0.017218751905574772 0.09376196213233716 -0.09576940520232712 -0.0569955221495787 -0.041633719368073446 0.04199841154055113 -0.05280463199827154 -0.11049237442761332
-0.03465008350472079 0.019152258038890965 -0.1203138912490246 -0.11998854097009141 -0.011472385489313536 0.0508608953459712 -0.061735362992581616 0.068828896677006
-0.03610626255708238 0.032760775145653634 0.017634781593538193 0.09813985470085336 0.039904861997432525 0.11971694865581294 -0.09068351029622504 0.05659381569616863
0.01679763042099479 -0.04066551303472765 0.03824221553595887 -0.0017973094827069824 -0.06669977811152014 -0.053258678954154315 0.018216339441235005 0.03146537162101139
-0.07690147111127582 -0.07329403496744635 -0.028524219697258157 -0.012455073359090546 -0.11030661805262569 -0.0770952166575177 -0.05883948799209501 0.0956543657909366
0.061923322167821246 0.10499529335707493 0.022581409084832485 -0.04547238518512925 -0.054972942504645544 -0.008932135934731356 -0.011493988085243129 0.12380302981093765
0.09181208025941397 0.05389535877311298 -0.07469965466703335 -0.003809600590421791 -0.03074461316448754 0.054598951137377574 -0.04093526844909995 0.0033683699271302853
0.07091344921093305 0.07114848544619108 -0.11660849233121322 0.12309196256170453 -0.09194799820819721 0.015111499031692718 -0.08114160023324057 -0.041214548353797564
0.11497226831724201 -0.09432919055187174 -0.02072525669739475 -0.0625362299963953 -0.04796675585688909 -0.02349732468503754 0.11165970091368481 -0.06978469233369342
-0.08923534750366865 0.06316744520662994 0.06583132134918883 -0.05511954472814895 -0.06218272299109234 0.00645442129493469 0.0019891792657860258 -0.10958917235013148
0.12216401220044125 -0.09994045532318717 -0.07885320585696251 -0.08780544987561531 0.07318247898594395 -0.09529480569404027 0.10684983804238084 -0.10439772822866962
-0.010208159178101889 -0.11061496169247635 -0.11156599739545982 0.025681449539827886 0.026545371476623184 0.018814124204358282 0.038261210649487495 0.006790819824353436
0.11080393522047367 0.11494514341550514 -0.08890001626708191 0.018699361818119417 0.07332837215877812 -0.029867349061169363 0.010951495502821804 0.05018870181963343
0.09095511235442892 0.11360112755564465 -0.05297880706088551 0.06600387868531311 -0.11092031293171824 -0.03652699524888975 -0.0464033201939448 -0.11992295522071349
-0.10188749877834168 -0.023759296810071828 0.0018481666566631944 -0.08393514344101483 -0.002428540813650376 0.05841199245112773 -0.037178808097407395 0.04551588144599404
-0.06931763037182495 0.12363554127059308 0.09896173985788916 -0.01469177697843016 0.008293434162902832 -0.018705837271207948 0.07106766324724416 0.07947952166509158
0.013751444521984776 0.12086467853690076 -0.05264043587794462 0.11100650138406142 0.04544257868128225 -0.10204621563243478 -0.009361898765205101 -0.02657781713810467
-0.03183957200165205 0.05890371572102572 -0.031276383726981855 0.05596158235283953 -0.12040909482240585 -0.09039358601918168 0.0044213445140120905 0.05915855153821199

fc2.bias f8 [64]
00000000: f2a2 1d05 e1b3 bcbf 281b b20c 0ded be3f
00000010: a68a 1fe4 cd79 b33f 0022 fd5b 293d 653f
00000020: deae 645d 7aa0 bfbf 18eb 80cf 66aa 99bf
00000030: 6ca0 114d 5a05 bebf bcd6 5b3d 5085 b63f
00000040: ce45 be00 d4d8 bbbf 1a98 107c d7ce b3bf
00000050: 5c54 47d4 0bc5 bbbf 6411 5c1b 4492 b3bf
00000060: 4035 0b56 d556 803f b85d 7ab2 d4ed ba3f
00000070: 88f6 97d3 863c 97bf 7036 f94e 6ebe 933f
00000080: 5a26 47ae 4910 b23f 4edf 616a b4ed b7bf
00000090: 00d6 538d 8cd8 8a3f f0d6 4ca7 05f1 aa3f
000000a0: 6ce7 6b7e 515f b33f e6c3 066a 3a3a b33f
000000b0: d090 72dc b0e7 9abf 9c29 f16b fae1 adbf
000000c0: e015 ed14 8cce a2bf 08b1 a92a d74f b9bf
000000d0: 18f3 4b76 f53a b33f 382d 2ca0 2fe0 b53f
000000e0: 5c74 cd33 440c b03f acc8 89f8 f3c0 bc3f
000000f0: 049d 5f7d a07e ae3f b8ef 0506 2ea5 a33f
00000100: 1e5d 3f7c eb77 b73f c02c 5d9b 37b4 72bf
00000110: f0d2 3ab4 5072 87bf 3048 6211 95bf af3f
00000120: 4ce9 4d0c 44f3 b83f ecec 1a8d d13e af3f
00000130: 40f5 533f cb82 62bf 0c36 06a1 bda0 a6bf
00000140: c233 be41 fcd3 b73f 08bb 4068 56cc bbbf
00000150: d49e 0eeb 1abb b83f 509c 3d0c a8ac a3bf
00000160: 006c ccd2 1a79 9e3f 6830 e1fe 592e b6bf
00000170: 785d f5ae 7d57 bb3f 3cfe 8f74 c8e6 a4bf
00000180: 1a7f f433 96f0 bfbf 3eb4 8acb 245a bfbf
00000190: 7eea e024 28d5 b63f f015 e0ae f5e1 ad3f
000001a0: a06c 6003 367f b4bf 9296 bdd2 0ccf bbbf
000001b0: 0aa3 08e8 1be2 b23f 0061 00e3 a395 80bf
000001c0: fe2b d193 f4e0 bc3f 24ec d735 d893 ad3f
000001d0: 6440 88c9 12c5 a9bf a256 ba14 ae5b b6bf
000001e0: 586f 10cf e860 a0bf 3ec8 b832 2593 b7bf
000001f0: 70bd d2cd 532a 91bf 0867 690f aada a8bf
-0.11211973547836943 0.12080461082414884 0.07607733554281512 0.0025926406669081192 -0.12354244976148318 -0.025064093031896467 -0.11726917630733319 0.0879717016030907
-0.10877728479524437 -0.07737490443159381 -0.10847543652137531 -0.0764505926891324 0.007978121460292642 0.10519151074765076 -0.022691828407906317 0.01928112370506202
0.07056103234131098 -0.09347083661293462 0.013108346999142206 0.05262010256994454 0.07567319237196352 0.07510724152122314 -0.02627445550446411 -0.058364701916235634
-0.036732080034692194 -0.09887451926778479 0.07511839044668667 0.08545205746138584 0.06268717064581736 0.11231922929599375 0.059559836677914674 0.03836959670567758
0.09167358191858851 -0.004566399778762775 -0.011448507785965373 0.06200853192525846 0.09746194172285988 0.061026142573121195 -0.00225963303330326 -0.04419510450962258
0.09307839016965061 -0.10858669324145975 0.09660499800395012 -0.03842663907453725 0.02975885306942061 -0.08664476845405178 0.10680375596472469 -0.04082323477632285
-0.1247648121684474 -0.1224692341736082 0.08919001484256658 0.05836456069668461 -0.08006608564794471 -0.1086280836585394 0.07376264967809845 -0.008097915997538951
0.1128075466996705 0.0577685895659317 -0.050331675625898936 -0.08733642583896509 -0.03198936011923931 -0.0920890091736348 -0.016763028562022553 -0.04854327619677973

fc3.weight f8 [16, 64]
00000000: a977 0f69 abe3 b53f a817 9f1d 3759 833f
00000010: 4355 d903 18ae b53f f817 faec d65b 98bf
00000020: 7876 eccf 9ebe 8d3f b71f b24f 9fe1 bb3f
00000030: 5482 6809 133f a6bf d963 720d 50b2 bcbf
00000040: 5254 b482 e3ac b3bf 34a9 6e3d 1b17 923f
00000050: 40b8 da69 500a 9abf deae 13a3 0b0a a63f
00000060: 60a0 c09a 8b28 9dbf 90ad cfc5 a22a 9cbf
00000070: 9085 a2fe 0619 7e3f 3f37 b43b 7424 bfbf
00000080: c03e f15e f9dc b6bf 6c94 cb3c b5f7 983f
00000090: 1163 3e84 096a b03f 0e57 16c9 68eb a53f
000000a0: 7f72 c705 d306 b83f 0119 ed9f c9f0 b53f
000000b0: 5da3 e9a8 b49f b63f 578d d2a0 32af b33f
000000c0: 8255 7aae 4701 b3bf b0e3 531f 5e3d a0bf
000000d0: 2f30 42c7 ec8b b23f 6042 e025 c526 80bf
000000e0: f174 4fa3 e2a5 b8bf e282 64f1 986d ad3f
000000f0: 998a 7acd e5d7 bbbf bb75 70ef f854 bf3f
00000100: 04aa 96e5 41e9 aebf 8405 8d02 121f 923f
00000110: f1c9 3ec0 7652 b8bf 5b5b c92f adbd bdbf
00000120: feed 287d fbb1 a03f c9dc 5db4 edad b93f
00000130: 505d 6956 91de 763f 2b36 5b94 40bf b73f
00000140: 43d7 06f7 15c8 b13f c189 2406 0833 b53f
00000150: b2d1 4463 0316 b2bf 21df 86e9 4339 b33f
00000160: 784a beae 7ab2 b2bf 233e a317 4473 bebf
00000170: 7b51 bc1a f04d bfbf 48ee 8d82 e71b 9ebf
00000180: 54a7 a73b fbcd 913f 0efa 9075 e3ca a83f
00000190: 7429 1208 5746 9b3f bcda eecc a706 acbf
000001a0: 0c74 b385 0454 933f 76b3 e20c 9a8b b4bf
000001b0: 20a9 7db6 570c 653f 40c8 b99e 2142 9bbf
000001c0: cd33 4944 5b0f bbbf 4cfd 27e2 b4d9 a4bf
000001d0: 8688 1a37 f877 a83f f894 bd01 727b 8b3f
000001e0: 1246 1949 f6fb b6bf 2475 34a4 1739 a1bf
000001f0: 2820 c675 98c6 b3bf a627 1b88 65a1 a03f
00000200: 66ba f6f8 8557 a93f cac4 319d d8a4 af3f
00000210: 38fe 68dd 6c06 843f 2ad8 7c16 5b5a a93f
00000220: 26f4 c14a 677a b4bf f856 840a 6082 90bf
00000230: aa12 721c 0da4 b4bf d307 aab4 cc70 bbbf
00000240: 9ac9 a853 5b60 a83f 3f7b 6db4 143d b9bf
00000250: fd1f 850a db10 bcbf 339b 85a2 bd19 ba3f
00000260: c300 97d9 3881 b53f 2b10 5c7b 3f46 b03f
00000270: dd9b 8aef 84a9 be3f 6d7c 8316 3d6d b63f
00000280: fe88 1a5d 6212 a43f 2232 c534 435b a93f
00000290: 4f96 3dcf 9fac bf3f 9400 d92e 3164 b6bf
000002a0: 2858 1aed 5476 b1bf 9280 52d5 e866 b2bf
000002b0: 214a 0e8a e329 be3f ac2f f36a ef24 a7bf
000002c0: 8dcd bc24 79fd bf3f 75ef 55cf 9bdf ba3f
000002d0: 90b0 0867 a71d 8dbf 40b9 547c 82d2 9abf
000002e0: 0c4e 4574 be89 a7bf dba9 324d 5b93 b73f
000002f0: 9bb8 7c14 ac54 ba3f 8999 37fa cfe9 b03f
00000300: 9b4c 2f8f b217 bbbf 7ea8 f83b 3852 a23f
00000310: 9cb8 0817 4795 a0bf 1476 9622 4bfe a9bf
00000320: 7b20 82b0 61eb bcbf e86b b4ae 1ef9 8e3f
00000330: 9147 ed00 b75b bdbf b729 8389 b484 b63f
00000340: 9c49 056d 9a38 b7bf d2ec 6a78 14a5 af3f
00000350: 8e8e 0513 fb99 b7bf 62ec 17a8 43a9 a93f
00000360: daa4 8409 dcad b4bf 18bf 113a db3a 91bf
00000370: c7ec 7bd4 41c8 b03f 70d4 c75f 3406 acbf
00000380: acb8 0916 558a 9b3f 68b7 a9a5 cbd6 91bf
00000390: 00d3 842c 467a 8dbf cc9d f0d9 1826 abbf
000003a0: 252e 27a3 a349 b53f 6094 105b a04a a9bf
000003b0: d83c 6be0 3d30 9ebf ca7d 9d82 671c a03f
000003c0: cd99 2f9f 37b1 b23f 2bc6 1f83 685e b03f
000003d0: 34f8 c90b 1cde 953f 6da2 5571 dd7f ba3f
000003e0: 78eb 48cf 0ee6 813f faa1 f63e d945 b7bf
000003f0: 608d 17e9 d283 7ebf 8fe3 9b1b d7d9 b43f
00000400: 4d87 6253 2354 bb3f 48a9 417d 02f0 833f
00000410: 1a27 302e 6ac0 b5bf 346c 3d40 b32c b3bf
00000420: 0241 75fb 09c2 aa3f 18b0 c7ee 9c66 9bbf
00000430: 1ca0 3790 accb a3bf 4c6b 2826 2db8 953f
00000440: 9867 485b 089a 8c3f 4881 44a8 0f73 94bf
00000450: 59f3 9e41 bab9 babf 38fb e3e0 d7d6 96bf
00000460: d323 dc30 7479 bebf e56b becd 87fb b33f
00000470: 75c1 7ca5 2f1f b43f 616e 56f4 1633 bbbf
00000480: c8a7 a4e2 5d08 abbf bb10 c793 a21a b33f
00000490: 5073 3bf6 8cd4 80bf b084 f04e a745 96bf
000004a0: 3f81 551a ced7 bdbf 5f72 edf2 659f b33f
000004b0: 35c3 e541 b8a1 bebf ac75 2d0c b616 b4bf
000004c0: 6570 4aac 70da b83f 6742 1b42 73b4 ba3f
000004d0: 99e5 8919 b748 b23f dc24 db8a 85c1 b4bf
000004e0: 5971 7f9c e19d bb3f b9b3 5a79 e889 b93f
000004f0: 80e3 a2f8 dada b2bf 545d 8075 6998 b4bf
00000500: a077 0f00 34e2 95bf 932b 5f45 e260 bc3f
00000510: 5f5b 42e4 baa1 b43f 7761 4aba 8292 bebf
00000520: 6d60 185a d43c b23f cfbe df7f 31d0 bdbf
00000530: e045 e2b7 0f97 adbf 28d6 8014 6604 9cbf
00000540: 083a d401 3a12 94bf 450d 06ca 97f1 b73f
00000550: bd06 5da1 b8e1 b83f 616b 9a56 d2bb b73f
00000560: e048 e39f 36e2 84bf a569 4401 a779 bcbf
00000570: 80b2 a7e4 897c aebf bb03 e78b 477a b83f
00000580: b580 de9a 0ac6 b9bf da94 5530 6ebb b2bf
00000590: b826 a47e 1fd5 8e3f ae9f 27fd e885 b4bf
000005a0: fc91 b764 c437 a8bf 85b2 6d06 a497 bd3f
000005b0: b82a cb35 4ec5 8a3f 4825 bc1d ab88 afbf
000005c0: 5da5 faef d0d2 b03f b7c4 627e a2ef babf
000005d0: dea5 030b d454 a03f e9f4 9aa6 4cba babf
000005e0: 9b60 6e65 14b1 bcbf feae 3308 3c45 af3f
000005f0: 68c8 28a5 0a43 b0bf f1f9 d9b4 91d3 b33f
00000600: ff36 d05e c202 babf 3b8b baab 023a b83f
00000610: dc0f e07b fcea 9f3f 189d d2fc e027 8e3f
00000620: f5f2 51fa 9409 b83f a1b9 a1aa 6cd6 b33f
00000630: 7844 51ec 272d aabf cc5e bd26 8fbf a5bf
00000640: dfa4 a0d4 b7f4 b8bf 20ce 3c55 2086 86bf
00000650: 5028 b361 bcc2 96bf 443e 9e26 ff51 aabf
00000660: 2c65 e1ea 8885 a2bf 09de 29ff 6568 b93f
00000670: 00e4 0e6d c4c8 9dbf 660d 49b8 4dff a33f
00000680: 5864 e115 9a79 91bf c89b 9b1e e73f 97bf
00000690: 07b7 9e75 d213 bebf a070 1360 244e 9dbf
000006a0: 7dbd 00ed 7d03 b33f c2e0 44c8 4c54 b1bf
000006b0: 025b 0ff9 f968 b4bf 1494 9d8a b5f7 b4bf
000006c0: 5c5a b3eb 60ce a8bf 8d3f dac6 d14a b33f
000006d0: c247 67f8 eb53 a53f 9521 8b0e 1a37 bdbf
000006e0: 81cc ab7c ef85 bfbf 57ba 1f6d 62eb bfbf
000006f0: 14be 2928 42f8 943f dc2a a993 050d 9e3f
00000700: 69ea 416e 6554 b23f d8ed faef a479 aabf
00000710: 33c5 a240 8ddc b93f 98fd 6ced 785c 94bf
00000720: 0425 16cb 0981 933f c06f 4d5b 3e0e 5e3f
00000730: 8975 018b 533d bf3f 63ff 52f6 07ae bc3f
00000740: 308c ab11 0274 9cbf ac7c 6c31 93a6 a4bf
00000750: 6c29 c5b7 5e76 b2bf 748c 0fde e2c3 953f
00000760: 1e48 a1fe bc38 b0bf b93e 006c cebc bc3f
00000770: f482 24b9 72aa 9b3f 85da 6a03 d0b7 bbbf
00000780: d0db c1f4 60c3 703f 84f3 e8d0 6200 a6bf
00000790: 34f8 8f6d 8072 b3bf 0589 ad1d 738c bdbf
000007a0: 8d28 001d 77c8 b8bf 6094 3f2a 9698 acbf
000007b0: 7f31 c6b0 c335 bf3f 0050 b2fa 8b66 83bf
000007c0: a8f6 b3c3 d26c 823f 1c76 7404 3d8c a1bf
000007d0: ba56 ac3f c965 a43f e504 6abe c8bd bd3f
000007e0: 233e 2d6a c356 b73f 7092 2872 dbf9 98bf
000007f0: e8a4 d71e addf 96bf cba4 f8a5 11f3 bdbf
0.08550521197272921 0.00944750842235094 0.0846877107045048 -0.02378784009354004 0.014523735733344298 0.10891147323320537 -0.043449969194857246 -0.11209583595554252
-0.0768568224051063 0.01766626894429031 -0.025429970227087262 0.04304539075550705 -0.028474980659808913 -0.02750639278739936 0.007348086665076706 -0.12164999444595724
-0.08930929725579073 0.024382430873533797 0.06411799887281357 0.04281165556601084 0.09385413065997204 0.08570537714431127 0.08837441562503785 0.07689205576257528
-0.07423828134263569 -0.031718198131734154 0.07244758476935041 -0.007886448114761524 -0.0962812088686922 0.05747678705870897 -0.10876308695382376 0.1223903259819598
-0.06037336280435926 0.017696648984615773 -0.09500829881179819 -0.11617548386253189 0.03260789778547844 0.10031018880350752 0.005583350872789453 0.09276202795009485
0.069459317025431 0.08280992650956077 -0.07064839528613368 0.07509254885996743 -0.07303587690538815 -0.11894631936160542 -0.12228298809742981 -0.029403321593674897
0.017387319103284796 0.048422916509014965 0.026635513179408446 -0.05473827721237032 0.018875189457379135 -0.08025515379513401 0.0025693619863221967 -0.02661945849690306
-0.10570307175767298 -0.04072346935935886 0.047790295340079544 0.013419047048680785 -0.08978213581692554 -0.03363870505766389 -0.07724907756176036 0.032481358398924784
0.049495875016295085 0.06180455130459846 0.0097778801983842 0.049517485137059516 -0.07999272894990436 -0.016122341768173037 -0.0806282228896388 -0.10718993578669193
0.04761014362556466 -0.09858827023479665 -0.10963219649158869 0.1019552728445035 0.084003022310756 0.06357189904889597 0.11977415893726069 0.08760434913300381
0.0392027605678482 0.04952440280121474 0.1237277871092257 -0.087466310441416 -0.06821184910435873 -0.07188277442992533 0.11782667274955162 -0.04520366840878806
0.12496144434844876 0.1049744969549787 -0.01421671660599369 -0.026193655813750327 -0.04597277802772845 0.0920922339888998 0.10285449505019743 0.0660676942712596
-0.10583034511300797 0.035783536263196844 -0.03238889843156409 -0.05076823041165937 -0.1129666381767737 0.01512359591156627 -0.1146807076704859 0.08796242100939976
-0.09070744668614455 0.06180633516256652 -0.09219330992123728 0.05011950900003438 -0.08077788574577785 -0.016826081675787113 0.0655556815872159 -0.05473483723827932
0.026894883604136652 -0.0174209422934192 -0.014393375619513815 -0.05302503261946931 0.08315489514569004 -0.04939747916822834 -0.029480902502481893 0.03146670789169155
0.07301662098289015 0.06394055558464433 0.021355093211689005 0.1035135652251797 0.008739581776458158 -0.09090955531303982 -0.007449935788346934 0.08144897865339672
0.10675259385837173 0.009735125968479821 -0.08496726634635046 -0.07490082090718958 0.052261650033530685 -0.02675862510106705 -0.03866328487839629 0.021210389570210084
0.01396566895077793 -0.01997017349742805 -0.10439647771904727 -0.022303937054853423 -0.11904073899144345 0.07805680058520144 0.07860086240976279 -0.1062483164336583
-0.05279820815697139 0.07462516887523211 -0.008217908157740844 -0.02175008220013258 -0.11657417433662419 0.07665097409103215 -0.11965514763666081 -0.07847154424003716
0.09708313185041247 0.10431595195701392 0.07142204640867646 -0.08107790603675674 0.10787782736537589 0.0997605606341513 -0.07365196771833205 -0.08045062178313361
-0.021370708945930184 0.11085333055159045 0.08059280464872874 -0.11942307518109439 0.07124068450537076 -0.11645802852558094 -0.057793132015955484 -0.02736052990095153
-0.019600778924592915 0.09353016550271771 0.09719423236404175 0.09270968069396936 -0.010197092775716177 -0.1112312677472916 -0.05954390445899538 0.09561583676897005
-0.10067812233910696 -0.07317246131931956 0.01505493741253204 -0.08016830616509082 -0.047300469679417007 0.11559510380693368 0.013071642891551036 -0.061589572314981356
0.06571679934372328 -0.10521903596488157 0.03189718851519861 -0.10440520350944706 -0.11207702137324065 0.06107509231682505 -0.06352297336778323 0.07744703927344411
-0.10160460295466221 0.09463516895861528 0.03116983896326518 0.014724500384842673 0.0938962088711824 0.0774906078893083 -0.05112576255545148 -0.04247710559746806
-0.09748410168744524 -0.010998013116114314 -0.022227233374714495 -0.05140683504498303 -0.036175039932184155 0.09924924354151456 -0.02908617892873977 0.039057186837932176
-0.017065436921573557 -0.022704707377581262 -0.11748996135312605 -0.028618400920877307 0.07427203212932017 -0.0676925648630258 -0.07972681360784509 -0.08190474161308742
-0.048449543735547634 0.07536040406034612 0.041655897209821116 -0.11412203650536974 -0.12313744348266377 -0.124685432092272 0.020478280736311374 0.029346549165249466
0.07160028402169306 -0.05170932225652408 0.10102160289786326 -0.01988400410777799 0.019046929378906632 0.0018344506217635587 0.12202951568311539 0.11203050388121265
-0.027786285713670533 -0.040333366187263436 -0.07211868273330929 0.02125505905486276 -0.06336575714638612 0.11225595604650608 0.02701739554425138 -0.10827350696022549
0.004092577681254775 -0.04297169494791489 -0.07596590685713595 -0.11542434191281721 -0.096808857517461 -0.05585164323546432 0.12191412988449278 -0.009472936237479246
0.008996626469975524 -0.034273058694662434 0.039839066526992054 0.1161771263960137 0.09116765348630244 -0.02439062961834043 -0.022337632186382544 -0.11699018766434503

fc3.bias f8 [16]
00000000: 9c88 8472 d0b8 acbf fa13 6b86 d408 b23f
00000010: ac8d 11f8 977c ad3f 16c0 501c a1dc b33f
00000020: 4049 e198 1e2b 6bbf 686a 163a 0aec b4bf
00000030: 70f2 d40b 9d06 b7bf 4e7e 6aae 1f39 b4bf
00000040: ae99 0bcf 6450 babf 2218 5f4c 6b34 bfbf
00000050: 009d ccfe 7c94 583f 24d6 9bee f53c babf
00000060: c4be eccc 2945 ae3f a2c6 a0c6 49e8 be3f
00000070: 40a2 797a 8eb0 65bf c8a5 c5e2 d82b 91bf
-0.056097520808422646 0.07044723779388554 0.05759119895153772 0.07758528653425886 -0.0033164594270057857 -0.081726683789762 -0.089944663418416 -0.0789966393299377
-0.1027892117959712 -0.12189360250985762 0.0015002461106606302 -0.10249268603714562 0.05912142397425904 0.12073193644826088 -0.00264766528907881 -0.01676882633311097
