LP4-MachineLearning/HW_B_tetris/qn_5000.pth (torch, 54167 bytes, 6 tensors)

fc1.weight f8 [64, 20]
0	0xbfa646c36e59bae3	-0.04350863191654299
1	0x3f9357960c2b8333	0.01888880204467398
2	0x3f9ea3aeaf43ddf8	0.02992127365811645
3	0x3fd43ffe4d6045f3	0.31640584522492005
4	0xbfb758a4175d02e8	-0.0911963040389413
5	0x3fd8f4e31f06b717	0.3899467280378856
6	0x3fcfb1df79623b12	0.24761575152339127
7	0x3fe1d2ca108a3075	0.5569811175387388
8	0xbfc9e2802bfc4788	-0.20222475192764144
9	0xbfdd9c2109166be5	-0.46265436065158233
10	0xbfd96378f6443ff2	-0.3966963200518868
11	0x3fd9cd187dcc46fa	0.4031430462356266
12	0xbfad43dc49d71eed	-0.05715835954066315
13	0x3fd43f5a785d54df	0.3163667846141162
14	0xbfd962a4663885c4	-0.396645641160003
15	0xbf9d4e5528d6499f	-0.02861912786245002
16	0x3fb18d49a6d3923c	0.06856212923919086
17	0xbfd0f29700191b0d	-0.2648065091092782
18	0xbfc2025cb91060c7	-0.1406970885880183
19	0xbfe1d4b8f996f121	-0.5572171091839985
20	0xbfc5aab5133eae5f	-0.16927207412423947
21	0xbfbced74d943851f	-0.1129982977322652
22	0x3fd93955947c92df	0.3941244077744112
23	0xbfc39e0ea84eca2c	-0.15326102464821767
24	0x3fc0830367b3163b	0.1289982086511133
25	0x3fc4f3565ed29004	0.16367606763844844
26	0xbfc6a12629bd6e2e	-0.17679287946781258
27	0xbfd928f0c3f3c1fe	-0.39312380920367207
28	0xbfc525c685a91b67	-0.16521531607051118
29	0xbf74be188b9a85ed	-0.005064102058584191
30	0x3fd96a5b887ccc8a	0.39711654976708444
31	0x3fd2eda058553f96	0.2957535612704246
32	0x3f99ebefd897b897	0.025314090342299336
33	0xbfd32cfa25dc368b	-0.2996201867798411
34	0x3fc56259dab9fc60	0.16706393413548692
35	0xbfe2ef686fb50785	-0.5917246038227267
36	0x3fc131acfb09bbba	0.13432848222461563
37	0xbfe1fc932b1ad063	-0.5620818941010949
38	0xbfe218c8515e9385	-0.5655252064940305
39	0x3fd6275d52a4a832	0.3461526209890763
40	0xbfa4b2dec4f5a346	-0.04042717127123878
41	0x3f99240865de1396	0.024551516740320155
42	0x3fd0aeb05a9bad35	0.2606621632428017
43	0x3fca4ecce197d5a8	0.20552979483879352
44	0x3f871fa1e8279fef	0.01129080285768677
45	0x3fcbf970e5165a58	0.21854983507064918
46	0x3fedbaa12f14cdda	0.9290319366031625
47	0xbfd777184c194aad	-0.3666439765121748
48	0x3fb2ea217758fad0	0.07388505138167578
49	0x3fd0921dae64c50c	0.25891820936802
50	0x3fdea066dfc9bdd6	0.47854015211393397
51	0xbfea818a02a7b6e3	-0.8283128787859052
52	0xbfacdb843f28fde8	-0.05636227866170512
53	0xbfd15c3cf88ab20e	-0.271254770962316
54	0x3fdfb8b111ef0adb	0.49564768554061595
55	0xbfbf4472c729042f	-0.12213818895635663
56	0x3fc1fa52d2d27bfd	0.14045176786473226
57	0x3fc3213d43db8c05	0.14945188344344743
58	0xbfb792bf6c74984c	-0.09208294294202907
59	0xbfe72744ecdfc254	-0.7235436083265747
60	0x3fc5533f9d7a8449	0.16660304250129546
61	0x3fd2bc599fa3e3c3	0.29274597730505664
62	0xbfad74dbb6abd0e2	-0.057532182739949325
63	0xbfd89d0364bdbf2b	-0.3845833286095394
64	0x3fc0c920d074e3e0	0.1311379449705603
65	0x3fb21a5de113c2aa	0.07071482415245592
66	0xbfd61233d062421e	-0.3448609862325912
67	0x3f978c58c5b158dc	0.022996317926605822
68	0xbfa5216bb812082b	-0.04127060529664591
69	0xbfe49febd37851d7	-0.6445216303132452
70	0x3fbc7a60733a7a45	0.11124232114023254
71	0x3fe4656ab6ed2acc	0.637379987028305
72	0xbfc0b3d03c49ba05	-0.13048747009038678
73	0x3fc9503dc72e9a20	0.1977612707680274
74	0x3fd7d84549641479	0.37257511298259477
75	0x3fb3661d92f5d014	0.0757769092359129
76	0xbfe924bc7d0d15a9	-0.7857344095615889
77	0x3fcc989d0ab4217f	0.22340739271772844
78	0xbfdd66a9c6b025e2	-0.45939106372006056
79	0x3fd3664e0bc17f37	0.303119193535156
80	0xbfcbea92dbe81eaa	-0.21809612023956976
81	0x3f832e91202f87d5	0.009366163058022106
82	0xbfb3edd5fae4c3f7	-0.07784783721287157
83	0xbfd171db4588edd5	-0.2725742510844758
84	0x3fd174cb9eaa4623	0.2727536248649775
85	0xbfd83c1f23a1b7b5	-0.3786695335355675
86	0x3f98776198fb6f3b	0.023892903291979222
87	0xbfcf277a22b02f8a	-0.24339224523316388
88	0xbfbeb672edb6bcc9	-0.11997144988594068
89	0x3fbfb9b8bdc36559	0.12392763741390435
90	0x3fea0acf8390af18	0.813819653475977
91	0x3fce182cecbd91a1	0.2351127773246278
92	0x3fd04fcdfea05e6e	0.2548708902918183
93	0xbfc08f515e44406c	-0.12937371352063864
94	0x3fcad90dccab721d	0.20974895948064978
95	0xbfd85eacdf5254dd	-0.38077852066755985
96	0xbfedeae0fb480e58	-0.9349217326966466
97	0xbfd07f8396b2fb33	-0.2577828380271285
98	0x3f7a8a9014f570db	0.006479800052457042
99	0x3fe05338ab02bc0d	0.5101588573505765
100	0x3fa9d93a0efb8910	0.0504854338921793
101	0x3fc6164b21c3f09b	0.17255534313870133
102	0x3f935d5c4fb596c7	0.018910829892226724
103	0x3fb8f88beb11931e	0.09754251946430911
104	0xbfd40350f0573827	-0.31270240278979816
105	0x3fdf8dfb7f74ef5b	0.49304091879797846
106	0x3f936a8b5e513ee9	0.018961122161555464
107	0x3fa2c145bb5478ee	0.036630801312854774
108	0xbfd61b3fde90281d	-0.34541317686728396
109	0x3fae7af84d2fbdeb	0.05953193609445492
110	0x3fe943aa6357fcff	0.7895099582964632
111	0xbfe318d3ac04a120	-0.5967806205490298
112	0x3fdbe99cb769ccc8	0.4361335555215189
113	0xbf99f49a20b546b7	-0.025347145315498944
114	0xbfea69856f7e2b83	-0.8253810098261599
115	0x3fda230c1146c568	0.4083891075816468
116	0xbfb80caf6ae24331	-0.09394356116741844
117	0x3fde14b29c1f806c	0.47001328703300405
118	0x3fab53b82729bdd5	0.05337310293259249
119	0xbfceb81393bd9619	-0.2399925681485662
120	0x3fc29f4261062adc	0.1454852079153487
121	0x3f91901d9e4b5193	0.017151320253860524
122	0x3fe2208068da9a1d	0.5664674804618844
123	0x3fd6e5eced63b548	0.3577835386521042
124	0x3fd4af9bb441e915	0.3232182751013551
125	0x3fd231e1abe7cecb	0.2842945269360199
126	0x3fdf16f9ae111392	0.485777301775948
127	0x3fdfb6b594e391d3	0.4955266908639519
128	0xbfb684852ee5de83	-0.08795959849327954
129	0xbfd0a749243883e7	-0.26021030938323836
130	0xbfc5e746d31d6c96	-0.17112050350519742
131	0xbfc726507e75ca2b	-0.1808567635994945
132	0xbfe464ab6164ae91	-0.6372887518131894
133	0xbfeadb845a33dfb3	-0.839296508957878
134	0xbfd4905bf438086d	-0.321310986037253
135	0xbfe1bd683a7f607e	-0.5543709890871609
136	0x3fd455e2b2c0e3b3	0.31774203735727297
137	0xbfd0c5320ca9a839	-0.262035858503285
138	0xbfc9d47be0bdc2cb	-0.2017969939584162
139	0xbfe8113eeb063408	-0.7521051969830532
140	0x3fc4a2657cd714e0	0.1612059459277253
141	0xbfbe68861b2a58f2	-0.11878240740984206
142	0xbfca6608a9025ef5	-0.20623882534413665
143	0xbfcb7f358571ebe0	-0.2148196126543942
144	0xbf634e430c675921	-0.002356654123313665
145	0xbfc612add5c5593a	-0.1724450391581714
146	0xbfcb69cef9598b97	-0.2141665189293149
147	0xbfd262994f4aa428	-0.28726799720112917
148	0x3fb2ed61743c5b03	0.0739346417216034
149	0xbfa2829eaaa091b5	-0.03615279991962287
150	0xbfd670669970b519	-0.35061039909744945
151	0x3fce55b3d36a52f0	0.2369904310513884
152	0x3fcb7a62cbf6ecf1	0.21467242202002226
153	0xbfab0ae953602100	-0.05281762259261491
154	0x3fd95f612fd07678	0.396446510976467
155	0xbfcac724e17b9810	-0.20920239457990464
156	0xbfa6e30752ccd2c1	-0.04470084081404969
157	0xbfb79ad739a57a3c	-0.09220643193609929
158	0xbfd9deb91207ecae	-0.4042189289172694
159	0xbfe7b6b0d725996d	-0.7410511209571219
160	0x3fb772aefd621207	0.09159368215666329
161	0x3fa05c82a3983b2b	0.03195579764370956
162	0xbfade0c28e93d865	-0.05835540762375117
163	0xbfbd03405dc686b4	-0.1133308628982615
164	0x3fe7e366f1020624	0.7465090472398441
165	0xbfd4d009783b92f2	-0.32519757024264984
166	0xbfc390aa906b1e04	-0.15285236407929415
167	0x3fe1aa089ab59482	0.5520060559907878
168	0xbfcb755b84dada9a	-0.214518966551357
169	0x3fc7aaba83d2b056	0.1848977225939758
170	0x3f99fb30d5121cb3	0.02537227917175917
171	0xbfd374a33f931fab	-0.30399399956194867
172	0x3fc251c5cace2623	0.14312050249672933
173	0xbfc2f7aa8b3fede3	-0.1481831722193042
174	0xbfd23655d511630d	-0.28456636245168526
175	0x3fd99f0f1043c3bc	0.40033318127012385
176	0xbfd3faef3df15448	-0.3121908287915329
177	0x3fa87515a4abfa7d	0.047768284179245925
178	0xbfd815f8eb8e1062	-0.376341085466498
179	0xbfdd0ccf9716f997	-0.4539069152341652
180	0x3fbae2503cdd4002	0.10501576887077138
181	0x3fc4d05ea3a08d67	0.16260893811805063
182	0x3fb480c1e2e36a63	0.08008968152300038
183	0x3fbee75b736fe930	0.12071773117341844
184	0x3fde1ec8b859b734	0.47062891009305763
185	0xbfdf805c64a528b3	-0.4922095282423797
186	0xbf95314ab0cda37e	-0.020695845643249104
187	0x3fbc74b67a21f65a	0.11115589601282619
188	0xbfc288df1e3fa987	-0.14480198838220934
189	0xbfd0ffb329e8f645	-0.2656066808011455
190	0x3fcf6800c9193693	0.24536142176878126
191	0x3fcbc3923e99b20d	0.21690586144121973
192	0xbfc7943ebaced071	-0.18421157952764447
193	0x3fbb92d7988774d0	0.10770938371520633
194	0xbfbe3033c7bab396	-0.11792300821498566
195	0x3fde9dfdd11050cd	0.4783930341375367
196	0xbfd234002bd41c1b	-0.2844238689435216
197	0xbfe08a7a664a85b9	-0.5169040677903275
198	0xbfa8cc8a9f634496	-0.04843552776004249
199	0xbfc8a27d809f7eea	-0.19245880871220972
200	0x3fb64da745f10531	0.08712239701801107
201	0x3fd06d2e4f551ca8	0.2566638731700075
202	0xbfc9a08cca5b12cb	-0.2002120960297787
203	0x3fc85db5c4e89564	0.19035980333971303
204	0xbfdacae4a3d4418d	-0.41863361357629786
205	0x3fe2c4711e697c84	0.5864797204957459
206	0xbfcf8dacba1c5365	-0.24651106917795143
207	0x3fac8bacba8aeae3	0.05575313355571667
208	0x3fe0dc174ece30e8	0.5268665827911976
209	0xbfcfa41de131c25d	-0.24719594474619813
210	0x3fd501f8586b86c6	0.32824524531143273
211	0x3fb4dfcccf408932	0.08153991756310999
212	0x3fab376931870209	0.053157126708814735
213	0xbfdbcaaaebc67c9c	-0.4342448523038429
214	0x3fd4752d371b5c63	0.3196518934395895
215	0x3fdb2f24f797753a	0.4247524660002743
216	0xbfe0d119977041c9	-0.5255248983176496
217	0xbfd68988acb71bbf	-0.35214440218663506
218	0x3fb64a497db8da2c	0.08707103080164619
219	0x3fb4777ebc483d28	0.0799483499215411
220	0x3fd34212c1a41321	0.3009077921890811
221	0xbfd42347798d2054	-0.31465327139131216
222	0x3fdb9eb0d64f8a8e	0.43156071594982215
223	0xbfd15e6704adf806	-0.2713868661593327
224	0xbfcfc876dac0ec54	-0.2483051841862528
225	0x3fa89cd4f152bd0b	0.04807153173293884
226	0xbfd48969cdc2e5fa	-0.3208870419872195
227	0xbfcf417cae2d07e4	-0.24418600563700388
228	0x3fc56605dce49b1d	0.1671759918765127
229	0xbfb94f18e7160b70	-0.09886317865134031
230	0x3fd825cc43b1ed9f	0.37730700121729827
231	0x3fc5385612e5458c	0.16578174517284727
232	0x3fa83715fedf4098	0.047295272219004036
233	0x3fbc944bb741d7b1	0.11163781379749939
234	0xbfbbcfa82c837222	-0.10863734328035737
235	0x3fe3649f941741df	0.6060331241988556
236	0xbfc2511355ed937c	-0.14309922881798431
237	0x3f87709ae349e01d	0.011445245801255105
238	0xbfd4ca63816feb52	-0.32485282554960293
239	0xbfb57928d5db3355	-0.08387999745464232
240	0xbfc7538a822d9701	-0.18223697048522783
241	0xbfc0d07fd0a4aa8d	-0.1313628929868468
242	0x3fc25f5807ab31b7	0.1435346639103849
243	0x3fd0144e05e249de	0.2512393052540157
244	0x3f90c0fc963fa20c	0.016361185713238455
245	0x3fb0d5c5c5bb7745	0.06576191022346929
246	0xbfcc247f4e4645f4	-0.21986380884167966
247	0xbfbea67e9b5d83e7	-0.11972800534341808
248	0x3fbd38fed6e773d7	0.11415093180353551
249	0xbfbd7bd9fb161b78	-0.11517107372320179
250	0xbfdc5fc138f30cbe	-0.4433444076677907
251	0xbfe9c9f8c4ce1c68	-0.8059047550058382
252	0xbfb0f091498657e1	-0.06617076916731392
253	0xbfd2e5720a682a4d	-0.29525424019144425
254	0xbfe3e85eedfed5c8	-0.6221155784939407
255	0xbfe2cd0db5085bb0	-0.5875309501451422

fc1.bias f8 [64]
0	0xbfa81a9d9285ff8e	-0.04707806027999971
1	0x3fcc4feb19ff2223	0.22118891496053647
2	0xbf87fee9af30fb94	-0.01171667638675248
3	0x3fdacff428480fbe	0.41894248899211195
4	0x3fc9cf62d555661a	0.20164142052344475
5	0x3fad8c35507019dc	0.05771032912166493
6	0x3fca8860c2a3fe81	0.20728692535339024
7	0x3fd9c810e02cddc1	0.4028360547267447
8	0x3fb653a7c9a9b28f	0.08721398042116334
9	0x3fcd888fd8a4d1d3	0.23073003843604897
10	0x3fd06dc8e8605a6f	0.2567007321644387
11	0x3fd6d4462ab109a8	0.3567061821851447
12	0xbfb1620f625fc099	-0.06790252830228595
13	0x3fd31ab51771f651	0.29850508966032857
14	0x3fd81eb46b98359b	0.3768740702369883
15	0x3fdb24c2de597ddd	0.424118725908526
16	0x3fd9a1ea1c796be2	0.4005074766225204
17	0x3fc917d0715662b9	0.19603925260596158
18	0x3fca2054ee13c1c7	0.20411168694364631
19	0x3fcb8e4054f6cb4f	0.21527866505274537
20	0x3fce63e913261c39	0.23742402491572692
21	0x3fe31eb65a7a9469	0.5974990622677413
22	0x3fe0526d320af288	0.5100618340871543
23	0x3fe0f288b17e0c76	0.5296061960838319
24	0x3fd5638a7e05ccb7	0.3342004996004095
25	0x3fd516293987087c	0.3294776021758776
26	0x3fbe72e07c2008c9	0.11894038229368954
27	0x3fde49168e676c40	0.47321094423904597
28	0x3fb9631b924577cf	0.09916851349905119
29	0x3fd53bbe4a659fb6	0.3317714430363553
30	0x3fcaed698510f09b	0.21037024495479248
31	0x3fd4a63d89764f40	0.3226465074924256
32	0x3fb009bef183ebca	0.06264871021623644
33	0x3fce109f674372b8	0.23488228361283858
34	0xbfca3af3ad8c22dd	-0.20492406820291978
35	0x3fdce035cb5cd9ea	0.4511847005809658
36	0x3fae4bc272e8b949	0.05917174961756417
37	0xbfaaf9cfb00dd9d9	-0.052687158814410835
38	0x3fd92fe8aef69472	0.39354912840128187
39	0xbfb8cf0bc5064f04	-0.09690927086040452
40	0x3fcedced4fe038ef	0.2411171569842234
41	0xbfb86e1a28b3d19b	-0.09543002599440913
42	0x3fd9984e1d40cec6	0.39992096764329366
43	0x3fdbc188367863e8	0.43368726081240405
44	0x3fe53641ae986ed9	0.6628731164996352
45	0x3fdb06d94109bcfe	0.42229300834055994
46	0xbfb5947c490574f5	-0.08429695875880212
47	0x3fd7d6b8241c41d0	0.37248042608646603
48	0x3fca7c7ae28c396c	0.20692382871534265
49	0x3fc764ba8cbca986	0.1827614962761112
50	0x3fc448ba586cb1ba	0.1584694797287634
51	0x3fd929273182428c	0.39313678583952405
52	0x3fd753e239fa0e1f	0.3644948545627091
53	0x3fded0738800da6f	0.48147285729957096
54	0x3fcaa710c9ede042	0.2082234369261205
55	0x3fd73dfc3c0783fa	0.3631582819198794
56	0x3fe32c7ef682890f	0.5991816343924102
57	0xbfb8ba06d028e782	-0.0965885408594698
58	0xbfc5149da942b0b5	-0.1646916462390259
59	0x3fc9cfe4470be830	0.20165685147350265
60	0x3fdaa16caae1c246	0.4161025685089367
61	0x3fd6f1288a66623b	0.35846913829439914
62	0xbf9c9bdba1ef2389	-0.027938300856280605
63	0x3fd5630b31ca7eb9	0.33417014944459883

fc2.weight f8 [64, 64]
0	0x3fd0595fbf0aa95c	0.25545495659266293
1	0x3fb4e858de8576ba	0.08167033608102772
2	0x3fb955ae8f151991	0.09896365159247568
3	0x3fcdd6a9b3a7a905	0.2331134917470267
4	0x3f94e74351a90d02	0.0204134481994176
5	0x3fe7651a0f886fdb	0.7310915282609999
6	0x3fb3856d4e35279c	0.07625468406072716
7	0x3fba2d43701f4992	0.10225316512450025
8	0x3fdc556a3ed8977f	0.4427133191805907
9	0x3f8fb3203d37421a	0.015478374355468328
10	0xbfb1ad196ecfe8ea	-0.06904753642439557
11	0x3fcd6580858b0af7	0.22966009636555615
12	0xbfb98ade87513f52	-0.09977522662779606
13	0x3fd3080932c4a198	0.2973654742986809
14	0x3fce76a07d7a0efd	0.23799520613476224
15	0x3fd3727fd329f7ac	0.3038634836337859
16	0x3fd3d1dceec13b90	0.30968402210140145
17	0x3fe12d372e55db0b	0.53676947641256
18	0x3fc0bd9999722978	0.13078613274076267
19	0x3fb3301db2f83223	0.07495294207928586
20	0x3fbed0ca68166754	0.12037339249800755
21	0x3fa5c81e177d09da	0.04254240071033495
22	0xbfd7f791148c2e95	-0.3744852734241502
23	0x3fd2f28618b68f95	0.29605247891799397
24	0x3faffca0a776ebe0	0.06247427028889496
25	0xbf933776969cd2df	-0.01876626295343697
26	0x3fcbaf71fdfe83a8	0.2162916650968587
27	0x3fc503885fad927f	0.16417030975130228
28	0x3fcfe48f792c4ccf	0.24916261116650282
29	0x3fd39dced5d3c6a1	0.30650683290068953
30	0x3fd599b261342e10	0.3375059079414493
31	0x3fa0308a019c8f48	0.03162032384559993
32	0xbf9225a94fa67c6d	-0.01772179173132964
33	0x3fd0990f04c76804	0.25934195963566276
34	0x3fafb046905c2b18	0.06189175140578679
35	0x3fc4fb206e6b7cc6	0.16391377822490066
36	0x3fdbe6d8bcfe892d	0.43596476036522597
37	0x3ff413d648ce6b9e	1.2548430294034243
38	0x3fd0abe9bb7f08a9	0.2604927378671485
39	0x3f78c8695926e851	0.006050502316094678
40	0x3fb38386e4520433	0.07622569154956764
41	0xbf375cb005642cac	-0.00035647675885348384
42	0x3fd3f20cccc9b4ad	0.31164855955905574
43	0x3fd84418bba79932	0.3791562874379394
44	0x3fd7cae8b4afc181	0.37175958295031114
45	0x3fcc263953bf5b48	0.2199165018962168
46	0x3fd16d930021ba28	0.27231287968507667
47	0x3fb0c324f217b020	0.06547766600095928
48	0x3fe0e90f55533596	0.5284496943001382
49	0x3fc0c100a968cefc	0.13088997146552817
50	0x3fe34479f099a396	0.6021089266988493
51	0x3fc75ca64754ade8	0.18251493914554762
52	0xbfd06cdb5b110d86	-0.25664409535621535
53	0x3fc89a1a8f1d4e36	0.19220287311564882
54	0x3fe05cbd4f7ebfe9	0.5113207390440923
55	0xbf793a4028c4e475	-0.006159067747199311
56	0x3fdd8980659a6704	0.4615174286096677
57	0x3fca9bf24ed4cab5	0.20788410996609277
58	0x3fd89e6939021abc	0.3846686417313483
59	0x3fc39882bd5aef3d	0.15309175725803384
60	0xbfc71d914aff0872	-0.18058983003544743
61	0x3fd14d56c780a25f	0.2703453968302138
62	0xbfe0e71cf2f50b22	-0.5282120461709818
63	0x3fc6203546bfe90a	0.17285791353771912
64	0x3fc42c65d4d18832	0.15760491267707405
65	0x3fcacdf708b89548	0.2094105522711891
66	0x3fc534f0c1efdb8d	0.1656781146009191
67	0x3fd2a09cf19e2709	0.2910530433224357
68	0xbfc443a5d6529ccc	-0.1583144470689376
69	0x3fd4ee44aca2e479	0.3270427404309611
70	0x3f8ba62a8ae04d53	0.01350053058926074
71	0x3fd7ba0ff4ebf93b	0.3707313434423615
72	0x3f948170c626d0b4	0.020025026411261762
73	0xbfc85298ab6fd2c4	-0.19002064104974725
74	0xbf8212fa4aab3d16	-0.008825259593690887
75	0x3fc3fd14361ce568	0.15616085664968726
76	0xbfd28277fbf42957	-0.2892131767736336
77	0x3fcfc096c2e4855d	0.24806484714739954
78	0x3faa2dd0c95a8d7f	0.05113079507762119
79	0x3fc409718f42b70b	0.15653819556376222
80	0xbfc2e1837b53b157	-0.1475071289236307
81	0x3fb5e45b1443799f	0.08551568264690566
82	0xbfc9c7dbd33b4e76	-0.20141170324369612
83	0xbfc5ae8ee1aab769	-0.16938959139718726
84	0x3fcc5f99bcd4db36	0.22166749687468162
85	0x3fcc2807785d6e94	0.21997159363933305
86	0x3fda74004482f789	0.41333014193139
87	0x3fc17414d244db65	0.13635502116241152
88	0x3fd132a4e89aa4d6	0.26871607508890116
89	0x3fd5a9fbadc1e282	0.3384999462937587
90	0x3fbe48e9d7b797ab	0.11830007092029741
91	0x3fdb91891c66c057	0.43075778745242616
92	0xbfb3cebf792905b0	-0.07737347324384447
93	0xbf65c82f27b1d806	-0.002658931827279612
94	0x3fb2b45b070f61d4	0.07306450769772904
95	0xbf9987cff54fb828	-0.02493214545022951
96	0xbfbc70d693468308	-0.1110967740592167
97	0x3fc6739874197600	0.17540269535940922
98	0x3fd035b0da5cc10e	0.25327702831693066
99	0x3fb057f21e626da8	0.06384194604691251
100	0xbfc02983351e67cd	-0.1262668618554116
101	0x3f85ec4340d9b473	0.010704541603639072
102	0xbfa7f7917bd9502a	-0.046810671203872126
103	0x3fc75426371a73fe	0.18225553217499163
104	0xbfd5d887238af79c	-0.34134081336002864
105	0x3fa2bee3dbf5a14d	0.036612625694774616
106	0x3fbc6fd9d24fd1bf	0.11108170876088418
107	0xbfb5a3174ff1633f	-0.084519822137179
108	0x3fe2c848d68d5eda	0.5869487944100584
109	0x3fad546135787c41	0.057284391190699065
110	0x3fd5882006666ed5	0.33643341660511555
111	0xbfde42bdfd7364bb	-0.4728236174683606
112	0x3f802ca6ea9657b7	0.007897666963611145
113	0x3f94838a0a2a3d43	0.02003303229372234
114	0xbfba54b3427f3822	-0.10285492299519253
115	0x3fe294638e9f7d17	0.5806138787847058
116	0x3faf12471fa04f73	0.06068632374822771
117	0xbf7cda75cab27c5a	-0.007044277309574099
118	0xbfdc5b487951a3cb	-0.44307147834348076
119	0x3f97246b2d53a0c5	0.02259986366416979
120	0x3fb354336844ccef	0.0755035523950942
121	0x3fb6eccd14b3aac3	0.08955079799094805
122	0xbfd8d1615edb734d	-0.38777956260110075
123	0x3fd002e83939b7e0	0.25017743671821613
124	0xbfb99c48053cce94	-0.10004091384763064
125	0x3fbdbedf5020d13d	0.1161937304139586
126	0xbfcd283e9bf29bb9	-0.2277906667197536
127	0x3fdee2d1663021dc	0.482593869965539
128	0x3fbd17d1f4d92c50	0.11364471652739039
129	0x3fe27a93124c64ac	0.5774627072707026
130	0x3fc46e7919646442	0.15962136974192914
131	0x3fae2330c2e9a12f	0.058862232010883246
132	0xbfbd64526355c312	-0.11481203961535538
133	0x3fd1099122fb2406	0.26620891967883187
134	0x3fc7a89d403a1ea3	0.18483319889150093
135	0x3fdd1c271769e560	0.45484330450525157
136	0x3fce5fed2e7b3f79	0.23730244416810445
137	0x3fc47bfcbd4d7eac	0.16003379100128734
138	0x3fcf7c628d9a119e	0.24598342813636703
139	0xbfc1cedf95affec0	-0.1391257744689849
140	0xbfccd19f421bcc1c	-0.22514715888937153
141	0x3f9f1f4f9e5546ea	0.03039287952316886
142	0x3fc95d5ce45e43e6	0.19816170836250463
143	0x3f9389971c5751b1	0.019079552750399468
144	0x3fc4a44827484c34	0.16126348417364655
145	0x3fa8a4789856f103	0.048129814716476836
146	0x3fc63639e69cbaa6	0.17352985153543904
147	0x3fc8794f6c11bb8b	0.19120209481067393
148	0x3fd8f80f0fcfce1c	0.39014030975451575
149	0x3f9bc4e4426e1803	0.02711826949555275
150	0xbfbf1732f5c0657f	-0.12144773959916753
151	0x3fb2b31bbf4fe1b3	0.0730454771109013
152	0x3f7fe251e4e7b83b	0.007784194850030397
153	0x3fea86bdbde274fb	0.8289478977855248
154	0x3fd4e621184dd5a7	0.3265459763855127
155	0x3fb07f3f363d7300	0.06444163393230085
156	0x3fe24ca58bb2e3c9	0.5718562820903738
157	0x3fc743fe77bac0b4	0.18176251264731536
158	0x3fa4d94ca9937601	0.04072036333102958
159	0x3fe49cee3f3ebd63	0.6441565737967888
160	0x3fe32003eddf8fef	0.5976581235850044
161	0x3fb55134e4a2dc43	0.08327036458909824
162	0x3fe4879d39a6a7d4	0.6415544630046903
163	0x3f9139d7e5e7c2ac	0.016822217376047874
164	0x3fc6d8ec30940860	0.17849495288834571
165	0x3fc795a4db22383e	0.1842542715061785
166	0x3fb51a4f57ab67ca	0.08243270769472058
167	0x3fb66ea28bb66ac7	0.08762565527869547
168	0x3fdad21f3c940220	0.4190748302062577
169	0x3fd8e9bbf632a8f3	0.3892660049701952
170	0xbfa614987f63f2cf	-0.043125882673825104
171	0x3fd324a75a19d4a2	0.29911216544071284
172	0x3f9c62497f5a6908	0.027718685529728254
173	0x3fc7e8e3212297da	0.18679465406347512
174	0xbf696ea2c66baf07	-0.0031045130921166816
175	0x3fc9821d80501922	0.19928330197598948
176	0x3fd3191efb83551e	0.2984082657033741
177	0x3fcdff2cc162b831	0.2343498176828134
178	0x3fd3da6a6e7448b6	0.3102060393004068
179	0xbf984d5a43ff1ce9	-0.023732576751879817
180	0x3fc09b2470d883c2	0.1297345686917009
181	0x3fcaec2930f6314a	0.21033205881793499
182	0x3fdd68b2c37a369a	0.4595152768095915
183	0x3fd538fb625cd6d8	0.33160290342071397
184	0x3fd1763ee2448a8e	0.2728421411176577
185	0x3fde690887f6daee	0.47516072538148435
186	0x3fe68302ca9a28e9	0.7034925419877968
187	0x3fdba7e1b9ae3451	0.43212168820247593
188	0x3fd0429906c29a14	0.25406480465099546
189	0x3fcb60682986996c	0.21387960460306077
190	0x3fe2dfc81f6742e9	0.5898171056124656
191	0x3fd9e7eaa3655c4d	0.40478006321558696
192	0x3fe09c095b0b7a69	0.519047429868647
193	0x3fd1af37c0120367	0.2763194442450669
194	0xbfb68e0a819d61fd	-0.08810487427161458
195	0xbfe7b3faf4f8f5f3	-0.740720251523895
196	0x3fc9b5f70b20719f	0.2008656315164332
197	0xbfb5bd971360be6e	-0.08492416594594385
198	0x3fe36b1e3f152a8b	0.6068259460528947
199	0xbfdd047435ff4eea	-0.45339684746907827
200	0xbfd33bb617ce6523	-0.3005194885714266
201	0xbfc5cbf3be2fdde0	-0.17028662477944945
202	0xbfd7212d5d72d4ef	-0.36139997602306456
203	0xbfe0c830d89c5654	-0.524437354152449
204	0x3fe19f6e355ae486	0.5507117311564265
205	0xbfcc1805e2110e1a	-0.2194831231919217
206	0x3fac1f4fe8e5414a	0.05492639272654516
207	0xbfe998589efc2e07	-0.799846945302705
208	0x3fc8c9e44ee657ef	0.19366124966171536
209	0xbfe2d0d58a221b27	-0.5879924486078821
210	0x3fd468413e3e1663	0.31886321142551405
211	0xbfd06a0a498fa0c9	-0.2564721792573548
212	0xbfdffec5c9f87c69	-0.4999250862474072
213	0xbfd1d4de3924e0e0	-0.2786174352691102
214	0x3fb0dddda5470af7	0.06588540349097714
215	0xbfb89bd1a395dcc2	-0.09612760776313947
216	0xbfa71e2a8fe05fb6	-0.04515202528290223
217	0x3fc152276c77bd6b	0.13531964107776714
218	0x3fc24a96fc01ca2b	0.1429012995245825
219	0xbfdcef998bdd1878	-0.45212401064453145
220	0x3f5de03ed2f1a1b2	0.0018234838023777175
221	0xbfb97df9a7a8bc7e	-0.09957847922554383
222	0xbff5d80b24d237e0	-1.3652450025870095
223	0xbfebb9821e875268	-0.8663950535070173
224	0xbfe477f603489641	-0.6396436752444928
225	0xbfdc65a14abdb732	-0.44370300578053723
226	0x3fd56cd767e45d2d	0.3347681536265153
227	0xbfde6dc93795bb14	-0.4754508059331084
228	0x3fcb1789dca3d2e4	0.2116558387130204
229	0xbfd1c7e151ce9e68	-0.2778247164628511
230	0xbfd76e1ff2ad03f6	-0.3660964841729418
231	0xbfe0fc9140b20c83	-0.5308309806427051
232	0x3fc9ca8e137e5ac0	0.20149398757776815
233	0x3fc7075af4b07064	0.1799119658252294
234	0xbfb5c46a62598769	-0.08502831364742537
235	0x3fc7e774be4855c0	0.186750977431684
236	0xbfbe59e98cdc4269	-0.11855945290541005
237	0x3fd38d3391fb9bd3	0.3054932523359046
238	0xbfafd5dc2f2d03e7	-0.06217849803807223
239	0x3fd31ac816f0986f	0.2985096191426981
240	0x3fb9bb92dc651680	0.10051839714750521
241	0x3fc0b6a6a0fcc99a	0.1305740629264392
242	0xbfc75e425e06b2f7	-0.18256406394120692
243	0xbfd13a54f220ec75	-0.26918529172298317
244	0x3fe2df13edbc7093	0.5897311824114858
245	0xbfd6df4c7a87e7a8	-0.357379073771535
246	0x3f968f980d704b60	0.02203214246771823
247	0x3fccccc86f4507dc	0.22499947960937916
248	0xbfd4dbad0003a9ae	-0.3259079456462598
249	0x3fc7c499d29b49e4	0.18568728240514
250	0xbfbd04d0b30c690f	-0.11335472461033567
251	0xbfb74f4864647ee1	-0.09105350924482593
252	0xbfcc46cb81a6ae6e	-0.2209104903280265
253	0xbfc8562daa5d6b1c	-0.1901299554691257
254	0xbfc6d23396bfc5d0	-0.1782898412780427
255	0xbfcc154742986ed8	-0.21939936401110205

fc2.bias f8 [64]
0	0x3fa26dd22674fb95	0.03599411696858749
1	0x3fd4a4cc73e2ffee	0.322558510943053
2	0x3fd0fe3b13c5bb74	0.2655170147981416
3	0x3fccbe8d039ea908	0.2245651500391619
4	0x3fc48aede889667f	0.16048978666622202
5	0xbf799c6f8ff86e2b	-0.006252704420628012
6	0x3fdb65e9ae464f4e	0.42809526461609415
7	0x3fd855462d2da653	0.3802047196573756
8	0xbfc098f4fc841945	-0.12966787652858094
9	0x3fd481f11e60c605	0.3204310223255507
10	0x3fc62fc0910d8741	0.1733322819009633
11	0x3fb49367e7b14788	0.08037423521571274
12	0x3f2a57632e43c224	0.00020096860601583153
13	0x3fce3e440df034f0	0.2362752025659698
14	0x3fc1848a3764886a	0.13685729698869703
15	0x3fd83a435188cd47	0.37855608904211063
16	0x3fd6c8269db1fb66	0.3559662380211449
17	0xbfbfeab0c945a6f1	-0.12467484392041307
18	0x3f93d8d219278273	0.019381792817400666
19	0x3fd30dfbdba56457	0.29772850465594075
20	0x3fcfa6efb62c3405	0.24728199381971208
21	0x3fce6e2808d20cf1	0.23773670607270206
22	0xbfb636726ee66802	-0.08676829535980349
23	0x3fc05c978b861cc9	0.12782568276109021
24	0x3f996469ccf7b508	0.024797108779172766
25	0xbfc0ed5af8cade75	-0.13224351070470033
26	0x3fcb974b6b40e01b	0.21555464493735674
27	0x3fd9aca0ae2ff9e9	0.4011613560723207
28	0x3fd743a9c2282f0e	0.3635048290313855
29	0x3fc4ee0c2754dda8	0.1635146324203849
30	0x3fd3835275330e9d	0.30489026494272214
31	0x3fb5c8fc3ebd4984	0.08509804279063898
32	0x3fdf503f7d1d1d85	0.4892729493917261
33	0x3fd7040096fd23f5	0.3596192812443058
34	0x3fdc94f22ac9e65d	0.4465909402711981
35	0x3fd9810b84d01419	0.39850128145218516
36	0x3fd436e04622379a	0.3158493695162804
37	0x3fcaa0dbd1eae83a	0.20803401708491426
38	0x3fd2aaa4f372a2ed	0.2916653039379032
39	0x3f9739e1115e1469	0.02268172901633073
40	0x3fcf35d7e70c0e6e	0.2438306692275662
41	0xbfc5e3b0a3473322	-0.17101104710163734
42	0x3fd69c334159a577	0.35328370458463304
43	0xbfb2b1b492ddc800	-0.07302406869510492
44	0x3fd06831d7b2bce0	0.2563595396449738
45	0x3fc6258b2bbfe95b	0.17302074085439298
46	0x3fd1cd07e6d8649e	0.27813909095272915
47	0x3fc8b95591fbc3fd	0.1931559527215824
48	0x3fc105263a091540	0.1329696448685045
49	0x3fb4a1e4660a125f	0.08059527865595716
50	0x3fd39f67eefe7049	0.3066043695378125
51	0x3fd7488ebc78683f	0.36380356221491533
52	0x3fd1661184a71963	0.2718547625958278
53	0x3fdbbe19c3f5788b	0.4334778226528974
54	0x3fd2967836be006d	0.29043393464963324
55	0x3fce3e55446be71f	0.23627725449460343
56	0x3fd702fc9361a7bc	0.35955728905411966
57	0x3fd0121f9b7e5b1d	0.25110616860313134
58	0x3fa1aca7c9f5223d	0.03452038135816735
59	0x3fb838027749e5b2	0.0946046391708453
60	0x3fcfcfba94aee48f	0.24852688083573013
61	0x3fc02900f69ee751	0.1262513355448456
62	0x3fd1a3b14585a5c2	0.27561599530471537
63	0xbf97ee92a5a153b5	-0.02337102065969861

fc3.weight f8 [16, 64]
0	0xbfb4631b9166bd1f	-0.07963726329648012
1	0xbfe2e67148f8a676	-0.5906301903934963
2	0x3f929e5b81b36379	0.018182210723213885
3	0x3fe8a7a02efaa893	0.7704621236382699
4	0xbfd241bd3c578a52	-0.2852624024655245
5	0x3ff7a1dbab8426a1	1.4770161342479826
6	0x3fdad7bc336b5399	0.4194174291745241
7	0xbfd28967e66836a0	-0.2896365881032157
8	0xbfabdfaa95bcacc9	-0.05444081380695704
9	0xbfe18cd6ee77380e	-0.5484423310788331
10	0xbfc2d58bd6e6bea1	-0.1471419143031101
11	0xbff43228942eebf4	-1.262245730248421
12	0xbf9d288b9ac0a060	-0.028474980659808913
13	0xbfd1c856fdb0ed4c	-0.2778527715160706
14	0xbff271a5dc852c0a	-1.1527460683889807
15	0x3fdd03f937a9a0b5	0.4533675235347901
16	0xbfd1344c532c3fff	-0.2688170253977659
17	0x3ff1bf4896a80675	1.1092000851644148
18	0xbfa25cb8bb777f12	-0.035863659748200175
19	0xbfb17229f8ce386a	-0.06814825367311675
20	0x3fb5a02750a5cd13	0.08447499960839293
21	0xbf8c29ea0f9cd364	-0.013751820184191473
22	0x3ffdf2b1a8940df5	1.8717514596072509
23	0xbfa5bdb21ec0a1f9	-0.04246288895985013
24	0xbfd703b2b2f65a71	-0.3596007106474764
25	0xbf869c63654a5ead	-0.011040474442139592
26	0x3f5fba81a1831bcc	0.001936556427652769
27	0xbfe3f1c96913e60b	-0.6232649853038209
28	0xbfcecf00947a512f	-0.24069220781223907
29	0x3fe7bdd721d99f44	0.741923872102213
30	0xbfd0b673ae2de914	-0.26113597879124595
31	0x3fb98a6994927246	0.09976825597045388
32	0xbfe45e1bd05e13ea	-0.6364878720929685
33	0xbfe3b3a0458b4084	-0.6156770094185195
34	0xbff5b800757dc09f	-1.3574223126889036
35	0xbfd816bdfe9f75d1	-0.37638807168499705
36	0xbfb3a1d922a71607	-0.07668835731518452
37	0x3f81f6e22a4c6e7b	0.008771674075936922
38	0xbfb9ac6b4fd4950f	-0.10028715800270425
39	0xbfa7c6d63dc4dd61	-0.04643888000503683
40	0x3f9388a26b1af2cd	0.019075906550585487
41	0x3fc1974aa618bc17	0.13742955312906766
42	0xbfd2b6858ba07490	-0.29239023814609144
43	0x3fa711c60828f670	0.04505747651681424
44	0xbfcc37e3cd1dbe77	-0.22045562282027095
45	0xbfd0ab45e6f6e8a4	-0.260453677703149
46	0xbfd26e2408d68f7e	-0.28797245848749486
47	0xbfb5ec4392b283e1	-0.08563635188558251
48	0xbfb4c0344a200158	-0.08105780420010456
49	0xbfa91d3f3a5af970	-0.04905126178117569
50	0xbfba15f6a7a57209	-0.1018976363461165
51	0xbfcdbe46f6120b7f	-0.23236929907951873
52	0x3fc6f423cf3e1720	0.1793255578924624
53	0xbfdf85cb2b5edad4	-0.49254111514475807
54	0xbfbdff62bb891051	-0.1171781261301146
55	0xbfc77232ca1f5650	-0.18317255849130953
56	0xbfd1d4a3ee319142	-0.2786035371884915
57	0xbfca19c856940f24	-0.20391182162722388
58	0x3f80b484d37b8058	0.008156812385493747
59	0xbfacdea874d1f752	-0.05638624597575749
60	0xbfc7db5f61101f42	-0.18638221969035312
61	0xbfd132d28764fbd6	-0.2687269518100356
62	0xbfcccb7c1d9e9ee1	-0.22495986410398586
63	0x3f59a7da097e60dc	0.0015658978718189808
64	0xbfb8a333035770dc	-0.09624022323208997
65	0xbfbdd44fb7d23e1e	-0.11652086484740962
66	0xbfcb0075800ff084	-0.21095150712051602
67	0xbfd7a00ba08e3e9e	-0.3691433971334649
68	0xbfc8b1cfdda48639	-0.19292639086147448
69	0xbfdf5820be0ba9c0	-0.4897539001382505
70	0xbfe06be8b6054b50	-0.5131724886981406
71	0xbfd2afe41622d4d1	-0.2919855323955974
72	0x3fa30511f256ca38	0.03714805682411221
73	0xbfe4afbb0f2688f2	-0.6464515014561398
74	0xbfd33bdc34c2c593	-0.3005285754435018
75	0x3fb3a29cb7082145	0.0767000147681119
76	0x3fb58138d99700c3	0.084003022310756
77	0x3faf7141c23db80c	0.061410956345625406
78	0x3feb308c2f1a7236	0.8496762199388914
79	0x3fd0e85fa0d917e3	0.26418295581640744
80	0xbfad3be5a16d1bfc	-0.05709760280165452
81	0x3fdcea315fba9494	0.45179399822729605
82	0x3f71906ef231b640	0.004288133032884611
83	0xbfd27d989a40b61c	-0.2889157778143685
84	0xbfd4f531444e21e2	-0.3274653594058049
85	0xbfd38d0aca782489	-0.30548352978127774
86	0x3fd99013f530b90c	0.39941882080428637
87	0xbfd35bb3e397f5c9	-0.30247208810746123
88	0x3ff0137215e8715d	1.0047474723606549
89	0x3fb0418ef2f9452c	0.0635003417203463
90	0xbfc8bf943de9f0f8	-0.19334652922760376
91	0xbfdeca38bafa3a6e	-0.4810926271392536
92	0xbfcb4f24c245f239	-0.21335277067181993
93	0xbff519bdd89ef04e	-1.3187845670463676
94	0x3f8add53a839072c	0.013117459841967959
95	0xbfa473c552e113f7	-0.039945761077014134
96	0xbfe1059375b1ec94	-0.5319306658488068
97	0xbfe0eba7e2eab932	-0.5287665779085613
98	0xbfbf22e7003e3a73	-0.12162631755766444
99	0xbfc472f5df9e7dd5	-0.15975831431295143
100	0xbfdc0197e10e8b7b	-0.43759724596218746
101	0xbfc4fffd3e8c96c1	-0.16406217149886085
102	0xbfd79f81eb0829ba	-0.36911056473095594
103	0x3fea9eeecd64c7af	0.831900979194179
104	0xbfda5dc86901f3bd	-0.41197405104304236
105	0xbfba552deb5fdf6a	-0.10286223408172437
106	0xbfcb1f6ab5ceafce	-0.21189626576722137
107	0x3f9a3f93bfa8e29e	0.02563315255449316
108	0xbfd4396db0d1b1c6	-0.3160051562070091
109	0xbfbfa15fcefee3f7	-0.1235561256752503
110	0xbfa5d39ac13581f7	-0.04263003929623104
111	0xbfd3e6ff692edec2	-0.31097398063455384
112	0xbfbce4c1330b7b54	-0.11286551948749707
113	0xbfd097dd3346cb79	-0.2592690468547328
114	0xbfc975555e39a5c9	-0.1988932333072582
115	0xbfcc037084091afb	-0.21885496565865722
116	0xbfbba052f011eae2	-0.10791509972652194
117	0xbfdae0332b357a3b	-0.41993407458895476
118	0xbfcf52547e4348a4	-0.2447000137822829
119	0xbfc1ac49efa49767	-0.13807033730807491
120	0xbfa2414b67317e99	-0.03565440783199598
121	0xbfbd1888eb18398e	-0.11365562190642306
122	0xbfcedaabc8c53cb2	-0.24104831031079282
123	0xbf8c42b22ebae18f	-0.013799087573133998
124	0xbfc4ce0453de17db	-0.1625371369847802
125	0xbfd42a05addbad0e	-0.31506483057337753
126	0xbfc5bc532d115152	-0.16980972004479128
127	0xbfbcada281eb1266	-0.11202445670921576
128	0xbfc36bc988f1c57b	-0.1517269056962894
129	0x3f9cb02c60b81629	0.028015797999634415
130	0xbfc9c3e1d0e3a96d	-0.20129034709618612
131	0x3fe19028e2e861ae	0.5488476211349302
132	0xbfd28e0bacbc4f5a	-0.2899197756644206
133	0x3fbda58719306172	0.11580700268712521
134	0x3fed92fd0441a93d	0.9241929133543533
135	0xbfc0b5e4e58b495d	-0.13055096824843818
136	0x3f6ad6b9face904c	0.0032762176910683723
137	0x3fb26cc0d2166564	0.07197194222535114
138	0xbfd0bbae6a22b387	-0.2614551578979491
139	0x3fe3dd3b4089f6af	0.6207557926679409
140	0xbfbe797430dc23d3	-0.11904073899144345
141	0xbf9e2b67de2c838e	-0.02946245473424685
142	0xbfe165eb3f01a40a	-0.5436912756532604
143	0x3fe429f401aab332	0.6301212341837525
144	0xbfd392a4b017dedf	-0.3058253974590865
145	0xbfbaae67692e6d30	-0.10422369306472912
146	0xbfc1593a06999443	-0.1355354816652455
147	0xbfc552a10e57748a	-0.16658414078020584
148	0xbfd0e24c8f215ed7	-0.26381219842504094
149	0xbf61bcd3c211d5f4	-0.002165235128411375
150	0x3fa13c4ddb02d124	0.033663208946935336
151	0xbfd365762def799d	-0.303067726954305
152	0x3fe78d1e3cfffaee	0.7359763327984561
153	0x3fb954fe166d4633	0.09895313308268143
154	0xbfbe21b4c35a778d	-0.11770181435937684
155	0xbfca704766c83b4d	-0.20655148047122865
156	0xbfb37e7197bedb7f	-0.07614812807774561
157	0xbfe4d8818e00bfbf	-0.6514289639944691
158	0xbfd51a948e340b3b	-0.3297473324493471
159	0xbfd79a7be5396de4	-0.3688039530295255
160	0xbfa57f7cdfe7348d	-0.04198827965920158
161	0x3fce9fc33303e5b8	0.23925056448915227
162	0x3fecc499da2943b4	0.8989991436920861
163	0xbfd52aca0ab5728e	-0.33073664708880635
164	0xbfa7aa17a027c79f	-0.046219576168268654
165	0xbfd10f6fae0833aa	-0.2665671538859963
166	0xbfce19f831471057	-0.23516752630360102
167	0xbfc74f655c60b018	-0.18211047182683227
168	0xbfce1dc311823d0a	-0.23528326373023162
169	0xbf51639ab6ae9ad7	-0.0010613451838509724
170	0xbfc24dd69643d8bc	-0.14300043427619424
171	0x3fbb0de45ff77430	0.10568072646079041
172	0xbfc04f67fb30365a	-0.12742328419737953
173	0xbfd174e8802d7cd9	-0.27276051061012435
174	0xbfc4c49132b5a8d7	-0.162248754272986
175	0xbf9c4a7bedb8db80	-0.02762788427773044
176	0xbfd367b7de3e132c	-0.3032054586731643
177	0xbfc632e9a71f5169	-0.17342873249311744
178	0xbfc357e3227d8d8d	-0.15111960586646625
179	0xbfd2acaafc0e3a23	-0.29178881277849394
180	0xbfbe6b0da538ca55	-0.11882100375877631
181	0xbfd61d58053ca541	-0.34554100524345094
182	0xbfb0736b1e8a0e9a	-0.06426114554965992
183	0xbfce26e31e18fa39	-0.23556174249275033
184	0xbfc45b04d90a1ba8	-0.15902767751341895
185	0xbfd15958ee2abbb0	-0.271078331551446
186	0xbfb92a1235e86b8a	-0.0982982045756399
187	0xbfd75ec08f2fe2a8	-0.36515821440802165
188	0xbfd29a2cb5ddd08a	-0.2906600738563233
189	0xbfa33d45520f64fd	-0.03757683397970799
190	0xbfd20da2761a4e7e	-0.28208219083283115
191	0x3f9dc33d6158044c	0.029065093103785508
192	0xbfdde8a4fd094bfe	-0.46732449255540576
193	0x3fd69865823b78bb	0.3530515453147804
194	0xbfc8826c44c79424	-0.19148019178752052
195	0x3fea3e0ff2a6257b	0.8200759639013734
196	0x3fb6bf25f390a28d	0.08885419079218533
197	0x3fe49d6d581e200b	0.6442171784447067
198	0x3feb145673499127	0.846232628985068
199	0xbfd508532b400c0b	-0.3286331102719379
200	0xbfb2a1afe60070d2	-0.07277964940334705
201	0x3fd5c0a79bafb4bd	0.33988371089692376
202	0xbfd33507efa94725	-0.3001117554132285
203	0xbfef735a95e2832d	-0.9828312804639602
204	0xbfa28588eae1652c	-0.036175039932184155
205	0x3fa4f0cbf38ab4c7	0.040899632910944166
206	0x3fdfb1b6926ea614	0.49522175121328016
207	0x3ff2c83b1426031c	1.1738844668436235
208	0xbfc97a6d98af4a73	-0.19904870944317885
209	0xbfb8e27423fbc0a6	-0.09720540884495907
210	0xbfe0aba3e171bb6b	-0.5209521678169556
211	0xbfc7b78b09c670fc	-0.18528879144003685
212	0xbfb5bdd0fa371cef	-0.0849276171567117
213	0xbfd9c439888c6416	-0.4026016076546183
214	0xbfc742113173dadf	-0.1817037097423144
215	0xbfdbe0bc3854f278	-0.4355917501559712
216	0xbfe55f5023df1067	-0.6678848934757412
217	0x3fafd3eac0f20298	0.06216367345132773
218	0xbfcae73eebf347c1	-0.21018206139575393
219	0xbfbc503005c96613	-0.11059856549527351
220	0xbfdb6e09562993b2	-0.42859109319970934
221	0xbfd3a429a2a747fa	-0.30689469226956556
222	0xbfc08f56104b53f1	-0.1293742732583776
223	0x3fb42a6b6e3edf61	0.07877227250616904
224	0x3fd3c9f9c26ea162	0.3092026137114968
225	0x3fd0cf86c071782c	0.2626664046600833
226	0x3ff5a8482b02eced	1.3535844497808356
227	0xbfc03863acc1f5e2	-0.126720866541219
228	0xbfd0836444d4e285	-0.2580195114310658
229	0xbfce25ff581c278e	-0.2355345897888665
230	0xbfa6e446bcd2c10e	-0.04471036009761252
231	0x3ff2114506dbbfff	1.129216219702357
232	0xbfd3301b7c7162b6	-0.29981124069812937
233	0xbfbd892db8b2c4a3	-0.11537442931400448
234	0xbfd5f14677ac4cbc	-0.3428512734109963
235	0x3f922684343783b0	0.01772505348879222
236	0xbfdd3dfc1196dbd5	-0.4569082423944882
237	0xbf8a493236b4bdc4	-0.012834923071379907
238	0x3fb315e90bdf619c	0.07455307521684634
239	0xbfde9adda56f1976	-0.4782022586408837
240	0xbfc3dc6cc7be9220	-0.15516433480401393
241	0xbfd40564688ec744	-0.31282911501613264
242	0xbfdad560896e9b36	-0.4192735044584198
243	0xbfd6cd7ea7146aa8	-0.356292403377362
244	0xbfbbf39aa1c2f14c	-0.10918585252051577
245	0x3fb8d8aafcf12e9c	0.09705609011978783
246	0x3fc002ebe53894b1	0.12508915607864915
247	0xbfc7880d33073820	-0.18383946410762153
248	0xbfae319b83402466	-0.05897222497157699
249	0xbfd170a6f888b7be	-0.2725007464495056
250	0xbfcc0a54c7a572c9	-0.2190652823291173
251	0x3fb43686d9300720	0.07895701219970563
252	0x3fa76c322127dd50	0.04574734358532828
253	0xbfd205f66d88f14f	-0.28161392876406394
254	0xbfca998b2ebbe477	-0.20781078130656613
255	0xbfe7f80248194f6b	-0.7490245254689233

fc3.bias f8 [16]
0	0xbfd7f86b2996ef1c	-0.3745372682712842
1	0xbfd16d3126192ed7	-0.2722895500234989
2	0xbfc2beae2e2d3ca6	-0.1464441037628365
3	0xbf8defd1917e7e84	-0.014617573979023087
4	0xbf7303c2b34d705d	-0.004642258213461839
5	0xbfd09e0e19004143	-0.2596469158315992
6	0xbfbee3eff01874a6	-0.12066554652888559
7	0xbfcf3bf9e016f366	-0.24401782457234872
8	0xbfd07cea90a71ff5	-0.2576242840409571
9	0xbfdc5dd5756ae3e1	-0.44322716204220397
10	0xbfc9469f22b70fc1	-0.19746770091125934
11	0xbfd172088f48b45e	-0.27258504860475863
12	0x3f9d1d589fa01eef	0.02843225931431353
13	0xbfb6b117a85c4e21	-0.08863971577039155
14	0xbfc3ccbb712d9d19	-0.15468543077734223
15	0xbfcf473999a97fe9	-0.24436111453087442
