LP4-MachineLearning/HW_B_tetris/qnhat_5000.pth (torch, 54511 bytes, 6 tensors)

fc1.weight f8 [64, 20]
-0.06254219075320856 0.03243297402105494 0.025167524868891417 0.33418571294403193 -0.09509007775486514 0.37893619306200227 0.20017294240616562 0.5722375295443773
-0.2204500943724193 -0.4559808890448981 -0.41219136455329725 0.36100038907889376 -0.005434014821586784 0.29000754312341787 -0.3838047626698769 -0.04655437947545231
0.05748073361638461 -0.2631210424193859 -0.11482297744622157 -0.5189884151186852 -0.07169359762385503 -0.1358815319280484 0.38745733030047685 -0.1252292384925226
0.09967356159077838 0.18347184920091167 -0.13641233512893186 -0.4163236653393201 -0.1782658228606318 -0.025101739204513036 0.3247382566317083 0.2464320829793324
0.025166784805868914 -0.2805387018376721 0.15878438299227624 -0.5869459779738628 0.12038820468818502 -0.5261154038816546 -0.5864120773167982 0.32671244928387416
-0.03222516176805809 0.05000317245667269 0.2504687393576187 0.20056391413645744 0.010088509452764401 0.21006659009015682 0.8892870061183114 -0.3843255426569964
0.10676816369543504 0.2273838839024493 0.45244449913923307 -0.8014457073930125 -0.049811822968352244 -0.22567763858337453 0.4682254146743612 -0.12088929846555552
0.16569039069859945 0.16719984192037748 -0.11231947111348678 -0.7476476883328469 0.1587066667451361 0.3080230024257818 -0.11544588551322303 -0.433336649375087
0.16290029124451916 0.10129168295155806 -0.2571980682326401 0.17985384157388593 -0.07026066684090418 -0.6907020274635447 0.1300840555369249 0.5915384709090639
-0.11875484837798311 0.18034235581381722 0.3409816651724336 0.07797315589763973 -0.751535596210742 0.18688235913528278 -0.4718803651509441 0.3217031229742433
-0.23199423104119427 0.022139243910627757 -0.10249846004795607 -0.24628209581481825 0.30318640044972717 -0.25040987034337286 0.011280727527236214 -0.20139923470029067
-0.07607716774828342 0.06980677046348728 0.7770407722217052 0.23392742833893973 0.23259134028170236 -0.12638400020433554 0.16512391336978302 -0.39999891680865435
-0.9465084425334455 -0.3452125739271955 -0.009523702650056342 0.5051527094208408 0.04202650145783792 0.15751955449495017 0.021612279293273907 0.08746785146186982
-0.3376450821823156 0.44968246143080487 0.026036497622474508 0.018824663088363298 -0.31885793386391825 0.06130752656932173 0.7678501558889901 -0.5418711679226361
0.42769287474230416 -0.042253779303581825 -0.7967862021655506 0.4581131636538138 -0.07175166587107147 0.45713527118437497 0.0935011595166043 -0.2819488773676475
0.08291817005796615 0.05867044205432744 0.5265179648894294 0.38529242878296976 0.303586336991555 0.23039881693841258 0.4840519023530481 0.48412274125278354
-0.10932774001787449 -0.20082282756927253 -0.1780661968339884 -0.19089232469345266 -0.6223325618421991 -0.7608364694517531 -0.2769257784480048 -0.5518147884653715
0.30593275838488077 -0.22132291986896405 -0.22797677525638815 -0.7207536097950605 0.19041526843846635 -0.04858118225656577 -0.20641202774549208 -0.23976403547369124
-0.01623818034303622 -0.17906334944508828 -0.18916503818543134 -0.3041187794523586 -0.006698045442565797 -0.0052247809626352745 -0.28584083798835735 0.26465323547879066
0.17215828717509282 -0.05302556228302711 0.3838070176435764 -0.21258098196980438 -0.06339327822845543 -0.1874266164975475 -0.3732082508869931 -0.6901993394586298
0.06975338238711079 0.011353228398310817 -0.04291946910447191 -0.08730384660020023 0.6784333981043356 -0.31666834440950503 -0.20143606462078018 0.573116706565516
-0.21494640918902386 0.18154659858871092 0.048131054341190145 -0.3026967424411757 0.15408779618260723 -0.11995524128136145 -0.28186768244159943 0.3986940904168814
-0.29411218324596294 0.03586345730716518 -0.3696917380933845 -0.47339822081423644 0.05787366857132786 0.14464380287351675 0.08636095517226061 0.14428792121766595
0.42996045486063383 -0.45461948030708893 0.011208847593940342 0.057805416386113945 -0.16577366222364248 -0.2875823169155686 0.2260966499246109 0.20669184985917055
-0.234261831416286 0.08280841055729808 -0.11648149602163317 0.4710334153177376 -0.2981193216491436 -0.46929608704230225 -0.06736578210784486 -0.18933542243627055
0.09505223990064982 0.2763792276169316 -0.18171734340155496 0.14654690500920084 -0.4194843751328611 0.5695538435218896 -0.18265162768384888 0.07441280790533689
0.441578670200482 -0.2935953112164914 0.3395549933961435 0.092438175393411 0.03417499822423003 -0.43566109393322394 0.31287959870076754 0.4343015737128888
-0.542059138326148 -0.38197737092521844 0.11826910394677434 0.08980131143531893 0.27384928954368437 -0.32399695001523543 0.41184136431701684 -0.3518458313029582
-0.17789616899378854 0.031121612440284503 -0.32947391806543663 -0.2012110599138805 0.11264653184396194 -0.06477938226051011 0.33125129670836045 0.16651399388811122
0.07625194536692231 0.08482625610700059 -0.16381526097279908 0.5322851017225997 -0.11155383292348361 0.0642123700006622 -0.40056609854111824 -0.14149807785873722
-0.1698537034919142 -0.14446481882235626 0.1443438887197909 0.2576364187571583 0.01787991769097253 0.03659412589754448 -0.20930848509580158 -0.15829236365858315
0.09840624903359718 -0.10283459649472976 -0.4097104955648011 -0.7946610234776009 -0.07888958404601104 -0.31248586226016634 -0.6365948002280033 -0.543206095019294
00000000: c9bc e7d7 c302 b0bf 8003 7705 0e9b a03f
00000010: 45c0 ee00 84c5 993f d7a4 f878 4c63 d53f
00000020: 2299 21c6 d257 b8bf ef35 1e97 7d40 d83f
00000030: 7adb 9658 449f c93f 5efb 5d14 c54f e23f
00000040: 5265 dd6c b537 ccbf 3a20 8377 ca2e ddbf
00000050: 37cd 9ce3 5761 dabf d8f9 3b60 a11a d73f
00000060: fe77 1d3f fa41 76bf a7bc 53cc 7b8f d23f
00000070: 9dd5 edd9 4190 d8bf f64f aac2 f9d5 a7bf
00000080: 8f9e 105e 1d6e ad3f 0b2a 05a4 f9d6 d0bf
00000090: 65fb f5e4 0965 bdbf 0601 be97 8d9b e0bf
000000a0: bd85 20f9 825a b2bf d773 e1e7 9064 c1bf
000000b0: eb1a 8fd4 19cc d83f fe07 eafd 8207 c0bf
000000c0: 7be8 4edf 3484 b93f cdfb 066c 017c c73f
000000d0: 262b 139b f575 c1bf 04ba cb03 0ca5 dabf
000000e0: 2229 971b 6ad1 c6bf 120d d333 45b4 99bf
000000f0: 4891 fff7 82c8 d43f 046b 8a24 168b cf3f
00000100: 2d28 bf56 52c5 993f 1bed 6999 58f4 d1bf
00000110: 6b9f 08f2 0b53 c43f c853 7dee 42c8 e2bf
00000120: 91bc f5e9 c2d1 be3f 43fe b2f8 efd5 e0bf
00000130: 26c3 c142 e3c3 e2bf f7b2 3755 dbe8 d43f
00000140: 8ce2 cdff d07f a0bf b999 cb0c 049a a93f
00000150: 4686 0d09 ae07 d03f afa6 fc0d 14ac c93f
00000160: bef0 51d1 48a9 843f e8b0 3547 76e3 ca3f
00000170: 1626 0106 0a75 ec3f 13ac 2e29 ca98 d8bf
00000180: 166c 538b 2855 bb3f 36ce 7f44 ea1a cd3f
00000190: 03b8 c3c5 d9f4 dc3f edb8 d877 71a5 e9bf
000001a0: 89d8 346d ef80 a9bf 98b9 933e 01e3 ccbf
000001b0: c4ac cbba 67f7 dd3f c88f 58df 99f2 bebf
000001c0: e3ed a7bc 5735 c53f cfe1 78ee cd66 c53f
000001d0: e4ed 2207 f8c0 bcbf fc39 4ad8 baec e7bf
000001e0: 83ec a903 8050 c43f d167 751c a6b6 d33f
000001f0: 83af bc8e dc8d bdbf 9459 4ea4 c9bb dbbf
00000200: 0eb9 b3af ead9 c43f f53c a271 40ee b93f
00000210: 05d4 e9e2 ee75 d0bf c755 cf5f 7305 c73f
00000220: aade 4662 9afc b1bf 0494 6723 3b1a e6bf
00000230: cf8d 2126 98a6 c03f 3a2b 5c16 e2ed e23f
00000240: 485e 06be b766 bebf 85e7 2654 7515 c73f
00000250: dde0 1cc3 a4d2 d53f 7ed8 8b7a 0cf6 b33f
00000260: f228 f060 940c e8bf 16ba 57da c2eb c73f
00000270: 76a9 fcb3 4933 debf 1c82 0cb2 c896 d43f
00000280: 5a5f 97a9 fcb1 cdbf ec9d 3782 abab 963f
00000290: 8adc cbcd 563d babf c2b7 8ef5 2b86 cfbf
000002a0: a581 a1ee 6767 d33f d11a ee1e b706 d0bf
000002b0: 8ec0 6f9e 591a 873f 2114 3d3b 73c7 c9bf
000002c0: bf80 7313 cb79 b3bf 3118 2e44 dbde b13f
000002d0: d439 0b9c 84dd e83f 5b33 2d7f 55f1 cd3f
000002e0: 38de eb93 8dc5 cd3f 72c1 ced5 592d c0bf
000002f0: 07fa dac7 c722 c53f e73a 880e 9599 d9bf
00000300: 9b35 c212 cc49 eebf bedb cb7a f617 d6bf
00000310: 93be 59bb 2981 83bf 7e58 ce03 362a e03f
00000320: 8f46 a762 7f84 a53f 81a5 84cb 9929 c43f
00000330: ddc9 0683 8721 963f ede8 7a09 4b64 b63f
00000340: b435 681e fa9b d5bf 9186 5bf2 98c7 dc3f
00000350: 40e4 29c7 4fa9 9a3f 057c 4ac1 c546 933f
00000360: 9200 811b 2b68 d4bf 844f 3a3b b363 af3f
00000370: e2b1 787d 3a92 e83f ffef 1b34 0257 e1bf
00000380: e506 70ef 515f db3f c989 7b90 49a2 a5bf
00000390: 0d90 06c7 457f e9bf 8ca7 f0df b951 dd3f
000003a0: 9d8a 5932 515e b2bf 5770 e54b b441 dd3f
000003b0: 870b 4326 b1ef b73f 8c07 dc4d 730b d2bf
000003c0: 3ca4 a40c 203a b53f 6bfb ba5b 0d0a ae3f
000003d0: 449c fe33 3cd9 e03f a03b 4193 a1a8 d83f
000003e0: d408 3963 f56d d33f 30cf e45b b57d cd3f
000003f0: 3d11 8bd4 b4fa de3f 8c8e 3bf3 ddfb de3f
00000400: e01f ec1b e7fc bbbf 89a2 59fa 8fb4 c9bf
00000410: fc68 f685 dfca c6bf 49d2 cee1 286f c8bf
00000420: fc23 0bfa 25ea e3bf bec7 3cb9 c558 e8bf
00000430: 1ca0 76e6 26b9 d1bf c00d bd7c 77a8 e1bf
00000440: c470 02fe 6694 d33f 85a1 5837 4f54 ccbf
00000450: 28a3 fccc 572e cdbf 3d66 d1df 6910 e7bf
00000460: 5017 4d0b 875f c83f f865 fcf9 a1df a8bf
00000470: d57e 5596 b56b cabf 12e9 8e81 96b0 cebf
00000480: 355e 14d6 bda0 90bf 24b2 e33e 8ceb c6bf
00000490: 52c9 465a 8f36 c8bf 713a f69c ae76 d3bf
000004a0: f991 f7e1 686f 7bbf af00 d075 9466 75bf
000004b0: d25b c15e 374b d2bf 175e ca1f 14f0 d03f
000004c0: d781 9362 4809 c63f fd18 b79f 2a26 abbf
000004d0: 0049 304f 4b90 d83f 89eb a786 da35 cbbf
000004e0: a106 c7b8 8a3a b0bf 1ee2 206a 98fd c7bf
000004f0: 430c 0adc a4e2 d7bf 7f42 d6ec 1c16 e6bf
00000500: 7e55 2390 5bdb b13f 5dea 6585 5c40 873f
00000510: e7ad 5468 8af9 a5bf 0b7e f67d 8b59 b6bf
00000520: a2e9 2bf5 b9b5 e53f dbb4 ba4d 4b44 d4bf
00000530: 26fe e32e a8c8 c9bf 10af efd8 f856 e23f
00000540: d003 ee2a 5d83 cbbf 1cbc d13f eb3c c73f
00000550: a183 a230 a2a4 a83f 58ff 5828 625f d3bf
00000560: d793 a81e 26b9 c33f 5688 49fe 62b5 bebf
00000570: f2b3 78bf 1e0a d2bf f8bb dc37 3484 d93f
00000580: 6761 19e8 bbd2 d2bf d9f3 82f0 b15c a23f
00000590: 5699 2d89 07a9 d7bf 4c6e 180d 284c debf
000005a0: 7875 a013 9ea1 ad3f ec95 7429 b083 c23f
000005b0: 10be 1d66 c01b b63f bf39 6bcf 0678 c23f
000005c0: fec7 0cdb 7884 db3f 19c8 024e 7c18 ddbf
000005d0: 340d bc0e aaf4 863f 64ee d1e9 ab98 ad3f
000005e0: f6f3 e444 1238 c5bf 8bdb 83a9 bf67 d2bf
000005f0: 99a7 942a bcf0 cc3f 3858 bfe7 e074 ca3f
00000600: 5d27 51ac 4afc cdbf eb65 2d97 ee32 b53f
00000610: 9187 0038 bbd1 bdbf 3d39 8756 6925 de3f
00000620: 517b 3210 6314 d3bf 8132 7f74 f208 debf
00000630: c2cc 0547 e23e b1bf bc47 aba3 243c c8bf
00000640: 18eb c8f5 5755 b83f 3b24 fa7f 32b0 d13f
00000650: 7b49 838f 8342 c7bf c319 2c8a 0cc2 c23f
00000660: 8a3b 18fe d4d8 dabf 909a 67fb c839 e23f
00000670: 634d bbe7 2061 c7bf 3861 5bc0 b70c b33f
00000680: c8d2 c72e d342 dc3f eec2 fbfc 43ca d2bf
00000690: 9c1d f5dd 44bb d53f e573 373c 07aa b73f
000006a0: b787 6da7 627f a13f 484c a511 dfe1 dbbf
000006b0: 7c58 0027 3806 d43f 28af ecd3 98cb db3f
000006c0: d97a f367 8c58 e1bf 5ee5 fb36 5172 d8bf
000006d0: 7620 944d e246 be3f c3aa c0ff 37fd b63f
000006e0: 90de a72b bf86 d13f 7e6d 14b4 5dbc d4bf
000006f0: 476c b8e1 9b5b da3f 6487 ab60 a484 d6bf
00000700: c7bc f439 4dc5 c6bf 92ec 840e 58de 9f3f
00000710: 5777 bec5 1916 d5bf f638 f6b4 48c1 c9bf
00000720: 5b13 4732 67d6 bc3f c493 43b0 6195 b0bf
00000730: 17ae 87a3 3833 d53f 36b3 099f 5450 c53f
00000740: ac78 9b5b 3f85 b33f 225a d26b 2cb7 b53f
00000750: 5460 3b02 e6f7 c4bf bd7d 01c4 7a08 e13f
00000760: f659 26c0 ca8e bcbf 6bc8 26cd 3870 b03f
00000770: e6b4 47fd dfa2 d9bf 53d1 6ce8 9b1c c2bf
00000780: 9c16 cd22 c4bd c5bf efdd 21bc d27d c2bf
00000790: 55e8 b64c dc79 c23f fd83 3476 1d7d d03f
000007a0: c29b f3f6 1c4f 923f 4b4c e91b 77bc a23f
000007b0: b881 21d5 9eca cabf 3161 8f96 ec42 c4bf
000007c0: c842 52e5 2631 b93f c49b d73c 5e53 babf
000007d0: 6ed7 d15e b238 dabf f9bf 67f4 dc6d e9bf
000007e0: 4c00 7997 1b32 b4bf 65aa b7b3 c4ff d3bf
000007f0: be0d f90e fc5e e4bf 4510 a3bf f161 e1bf

fc1.bias f8 [64]
-0.07309089152426256 0.22977919522226026 -0.0108414195546608 0.41653579192580586 0.26176805466012 0.05353466590426522 0.19090298412475115 0.41650696471773146
0.09118641654224731 0.2218199878214298 0.26054962348148786 0.379780656800133 -0.0762927583396515 0.31267192685767187 0.4047301342221617 0.4163306579758381
0.4091693094248595 0.2270349519166321 0.13721977144193395 0.23603181724078984 0.22367593268546718 0.6014480386017031 0.49287580935533276 0.5282014942962969
0.30783894936248585 0.33664855001228233 0.12725656469248142 0.4692704321858804 0.11184484443870271 0.3067130347673353 0.22465103267545208 0.3236274588042964
0.05518926830173214 0.22860634732286053 -0.17732273285823955 0.4205170769437322 0.05327666248254963 -0.03938789415300119 0.4126999313569673 -0.044752192465501245
0.2695921530577125 -0.08123656948871583 0.37308781865526464 0.44526053891003065 0.6465842298397223 0.4512296598669768 -0.03991057499520583 0.3769154699900951
0.22129461873302889 0.21371954160212603 0.13803277717258533 0.3499508527949552 0.3892373788738723 0.48883701291915893 0.22034014824340548 0.3767906678075742
0.6131319865377359 -0.07005479164899031 -0.1225975118303313 0.18884899608575512 0.3861854729424135 0.3613745264146734 -0.03372138136535521 0.33047229000529793
00000000: e370 bbac 15b6 b2bf 7ef1 6398 6769 cd3f
00000010: cb94 6fb3 0634 86bf b7d3 fbbc 85a8 da3f
00000020: c0c6 79cc cec0 d03f 9baf 854e e568 ab3f
00000030: 8826 c34c 826f c83f 5f35 01d4 0ca8 da3f
00000040: 3d6d e334 fe57 b73f 7a65 a5ec 9864 cc3f
00000050: 7fa3 f553 d8ac d03f c509 2787 534e d83f
00000060: 1d8d fd15 ec87 b3bf c8c8 0e1d d102 d43f
00000070: e926 8c38 19e7 d93f 4804 1558 29a5 da3f
00000080: 626d a078 d42f da3f 76f3 c336 7b0f cd3f
00000090: f395 5adf 6a90 c13f 91ac ee63 4a36 ce3f
000000a0: 11a8 e4b7 69a1 cc3f 8434 01f5 0f3f e33f
000000b0: 81ec 8afa 468b df3f fc6d f6d1 06e7 e03f
000000c0: a199 fc22 a2b3 d33f d21b 235c a68b d53f
000000d0: 261b c76f f149 c03f 0af6 cdd9 8608 de3f
000000e0: ca26 171d dda1 bc3f 9549 65b5 2fa1 d33f
000000f0: d945 2d73 5dc1 cc3f 07bb e9f1 4fb6 d43f
00000100: 6668 e48c c441 ac3f 2771 b408 f942 cd3f
00000110: 6d53 3be5 82b2 c6bf 8a80 3875 c0e9 da3f
00000120: 4652 0126 1447 ab3f 96ab 7d6a a62a a4bf
00000130: ed55 0ff9 ac69 da3f 8493 2066 c2e9 a6bf
00000140: cf07 2972 ff40 d13f e079 3179 ebcb b4bf
00000150: 0443 eaba abe0 d73f c158 340f 267f dc3f
00000160: a9ab 2869 d1b0 e43f a149 075e f2e0 dc3f
00000170: e7e8 bcac 286f a4bf ffb0 3d10 621f d83f
00000180: 679c 1ecf 6153 cc3f 403f d974 295b cb3f
00000190: 50bc dddb 0eab c13f 8e8b fd42 9865 d63f
000001a0: ff37 29e5 43e9 d83f baf9 e309 1b49 df3f
000001b0: 86c1 5921 1b34 cc3f 5efa ea9a 561d d83f
000001c0: 6ff4 c9f8 c69e e33f 687d 0f5f 1cef b1bf
000001d0: e0da e1ef 8c62 bfbf 580e 0933 342c c83f
000001e0: e196 1e46 43b7 d83f a2be 239f c220 d73f
000001f0: 04c1 47cc ed43 a1bf 99a5 733f 7526 d53f

fc2.weight f8 [64, 64]
0.2489704877640219 0.0796297053740166 0.14370123842527047 0.2286748450429129 0.02610007131849403 0.7120462530800435 0.08249498814030612 0.08017521844383632
0.4319750610133671 0.021846865568345017 -0.01080702464090143 0.2166101164284144 -0.11587562212234846 0.33571662072784564 0.25755520697558776 0.27976504812173797
0.30941641864685304 0.5010172492096572 0.16611033896545108 0.08613874393510124 0.14640535380863523 0.05126890622732969 -0.29496317608820394 0.33178152760162327
0.08265124507224035 0.017024159061544798 0.196063171395787 0.2281486156158171 0.2293478464917819 0.31748406101597954 0.34432997859859393 0.014788077076707117
-0.07388977739534458 0.25297131294083197 0.05314713901059044 0.1686221768689843 0.43672214019567646 1.1647761585029297 0.2628813045612831 -0.03072715316370453
0.07292453379398228 0.05196264164322824 0.33961143036412056 0.35228503238737646 0.3636627733905601 0.24754776939587045 0.3113998935305658 0.07286686668434243
0.520901820042761 0.10986758533966538 0.6296652565891501 0.11186261696782517 -0.228955385779824 0.19740913224297743 0.48175184975283614 -0.013320780104698388
0.46838195778526265 0.17708187592846894 0.3484545620188817 0.1366588791432803 -0.17959427697938463 0.28348505357551257 -0.39674502090516894 0.1597435372095329
0.14327990892996342 0.19790586146644096 0.15855671999295765 0.28330080673821106 -0.14352504350361744 0.25128926401969187 0.0479812616059043 0.3011189457877154
-0.027703965485022294 -0.189450765760285 -0.008506964172318764 0.12819251272458343 -0.25982407753044384 0.249258768430837 0.03638036313388975 0.13593506642925876
-0.10851965403977168 0.05010399935503856 -0.1592379225511289 -0.13411899163143418 0.19115539121749742 0.16265737895012233 0.36307829360075233 0.1442270712635673
0.18047649427570647 0.3252997263827524 0.15477433740646943 0.3468626908629991 -0.1086861934397728 0.03757316986807368 0.06597797716431143 0.005892128975844895
-0.11562588329854784 0.21366286921802866 0.21165959660387526 0.039488922042829895 -0.08964926561948086 -0.0393526421733045 -0.034567687260471124 0.1523241653267309
-0.2767966316073343 0.085003525586825 0.08572023202530504 -0.07404799445213094 0.5934813331421621 0.08509547284151356 0.3273968827124255 -0.43468422240049126
-0.022962761881574225 -0.0024015236509495213 -0.12248824063925423 0.57885012200292 0.08622004601669295 0.015782599886132755 -0.4400333827876685 0.01696379911907026
0.10572182971450274 0.10251874661730294 -0.3872547545126238 0.26855199079437886 -0.09715431333097113 0.12394619935103196 -0.19734058287586612 0.39694414587942367
0.14931005815148615 0.5566686403704462 0.1669860388679711 0.07003736282152402 -0.027421368685600484 0.3394471098611485 0.16527370610804018 0.46725009475722107
0.2332014632994829 0.16108355980160924 0.2544177125036166 -0.054343013512151817 -0.26628803834641435 0.03649679364349773 0.18558031242964237 -0.004466830930864197
0.15811266218599895 0.07561883889734577 0.16672116792580083 0.18599071063704073 0.31015448946873786 0.02595090214553043 -0.0964797814918656 0.07046381537654808
0.0877179418839574 0.8309683632497933 0.34421290210852085 0.08448815659995801 0.5897368654252302 0.1635822479874773 0.003562447322777543 0.596387876145505
0.6067953980388143 0.05650790268277865 0.5743836212916016 0.03596922229426831 0.1587563753996352 0.21265203760124818 0.09805469934903524 0.058412462333916074
0.40173672755373185 0.383894041923764 -0.031188975718775425 0.326127174255065 0.0740616399130469 0.2117544287654003 0.030429902610798608 0.17033889165097404
0.3372495170103411 0.21746518058297756 0.23954047309340895 -0.05550645225482956 0.112016762553525 0.22637014241770764 0.47130260544092667 0.3298336954433175
0.29396543472825487 0.4644058128736717 0.6634206711021656 0.44935046362447506 0.2509220433919559 0.27027173016686395 0.4461260432602095 0.3948504155865573
0.5058736905685909 0.1985020652931369 -0.0956624964742869 -0.8087736501185637 0.24365765439390757 0.010764219264727237 0.5897043874808796 -0.4369649894225965
-0.33946096874829107 -0.20050912397070722 -0.3740837224187638 -0.45807395650453 0.547686384594192 -0.23231904591868158 0.10353102943644794 -0.8433831890847299
0.19999740155568188 -0.6179002262727559 0.31061443141225864 -0.2549601727118601 -0.5378578501685718 -0.2928746564047448 0.04895128919300003 -0.027125701277344327
-0.2294137997231319 0.07799574766152302 0.1284893078364572 -0.49265988654541587 -0.04942431270519098 -0.1040432807994296 -1.3658147955063467 -0.782928164414343
-0.6239343666896384 -0.4315006541913962 0.2914446707559219 -0.43478778248305583 0.23157391752332077 -0.20996734678534043 -0.30809968206912886 -0.5740209206566816
0.17266943806241347 0.19781503167505665 -0.08994569597119893 0.20987228767351465 -0.15263358159962595 0.29977583221783777 -0.08600868017399649 0.29217834571365214
0.1219639270778732 0.0717156973027012 -0.17610945673419198 -0.25731460790595856 0.6037666702152507 -0.38897559690633027 0.028533140289829742 0.18797812319771995
-0.2896203695115499 0.1581733978455743 -0.11972403315700395 -0.09363961599684374 -0.14632637565949486 -0.21849640117584324 -0.31848985320481005 -0.22746836234122467
00000000: 5dcd 4ed3 43de cf3f b91b 5fc4 9c62 b43f
00000010: b732 b75b cd64 c23f 6447 70a2 3745 cd3f
00000020: 45de f122 fab9 9a3f e4fa 4639 15c9 e63f
00000030: 8282 253c 641e b53f 967a 2af5 5c86 b43f
00000040: 6d5c efb9 7aa5 db3f fc6a 8b54 065f 963f
00000050: b9a9 324b fe21 86bf 377a 055b e1b9 cb3f
00000060: cf4c 6b57 06aa bdbf 9ffb af90 617c d53f
00000070: 70fa b7d5 c87b d03f 70ca 0fa9 abe7 d13f
00000080: 63c1 bb85 7acd d33f a6cb 8253 5508 e03f
00000090: c229 b184 1a43 c53f c8a9 1e50 300d b63f
000000a0: 7aa0 481f 69bd c23f dd9c 1807 eb3f aa3f
000000b0: 15ae b43a ade0 d2bf 32d1 9d96 e83b d53f
000000c0: 9317 8fca a128 b53f 4d1b a5f9 c76e 913f
000000d0: 4027 8c16 9918 c93f 434b 594d f933 cd3f
000000e0: b58c 0b2e 455b cd3f 5527 c4aa a851 d43f
000000f0: fa40 479b 8009 d63f 2c4c 521b 3649 8e3f
00000100: 2cf6 6bc1 70ea b2bf 300d fa96 ae30 d03f
00000110: e257 da0f 1a36 ab3f bd2c 8457 6995 c53f
00000120: 7817 656b 41f3 db3f b8e3 3e53 eca2 f23f
00000130: 8283 741b 0cd3 d03f f8c9 bf57 f076 9fbf
00000140: 9ca0 b8a7 2eab b23f aa5f f1ec d89a aa3f
00000150: 5abf b094 31bc d53f 5f57 3e85 d68b d63f
00000160: 1e0c 9f39 4046 d73f bd62 e032 a5af cf3f
00000170: 3144 acd1 f9ed d33f c309 5f29 67a7 b23f
00000180: 4f56 304b 3aab e03f 53a2 ec35 4820 bc3f
00000190: 884a 8fc0 3726 e43f 9f93 8549 07a3 bc3f
000001a0: 9c6d 15fb 684e cdbf 7129 75d3 b344 c93f
000001b0: c075 deb5 05d5 de3f fd4d 41d7 ec47 8bbf
000001c0: 9158 ae51 f8f9 dd3f 89de e970 9eaa c63f
000001d0: a4d6 005d 144d d63f 966f 50c4 097e c13f
000001e0: b26d 16fd f1fc c6bf 9ebe 807e 9e24 d23f
000001f0: cadd 683a 4564 d9bf 8bf9 07ea 7972 c43f
00000200: 2f97 83fd fe56 c23f 64b0 57b1 fa54 c93f
00000210: e123 772b 964b c43f 01bf f7b4 9921 d23f
00000220: 4ea4 0054 075f c2bf 2a3b b390 1f15 d03f
00000230: 9d1b d6fa ff90 a83f 9f4f 1766 8845 d33f
00000240: df25 e9a6 6d5e 9cbf 1540 9235 ec3f c8bf
00000250: 794e 4467 196c 81bf 4c40 dfbc 9c68 c03f
00000260: 5739 ed2a f5a0 d0bf 526a 5319 b6e7 cf3f
00000270: a7d9 c06b 72a0 a23f 8bbc 58fc 5166 c13f
00000280: 2ef5 12ad f1c7 bbbf 67e4 413d 3ba7 a93f
00000290: 20ee d182 e861 c4bf 4d2d 6aa5 cf2a c1bf
000002a0: b6da dda4 c777 c83f 049d 85fd f4d1 c43f
000002b0: 1fc6 39bd ac3c d73f 5d2f 235d 0876 c23f
000002c0: a931 4e90 da19 c73f 008c 8df1 b5d1 d43f
000002d0: 99de b53e a5cf c33f 8962 5d92 ff32 d63f
000002e0: e7bd 59be dbd2 bbbf 1fb3 945f ca3c a33f
000002f0: c14c 2dc6 eee3 b03f f9c1 1454 5822 783f
00000300: c89f 566b a899 bdbf 479a d40d 4e59 cb3f
00000310: 512b a662 a917 cb3f e9dc 7459 e437 a43f
00000320: ca32 f217 41f3 b6bf 5483 4a8e 0726 a4bf
00000330: b36c 901c dbb2 a1bf d901 3cb6 5b7f c33f
00000340: 9d5f 1938 09b7 d1bf 38ab 7082 cac2 b53f
00000350: c47a 27d9 c2f1 b53f 579c 8132 cff4 b2bf
00000360: e539 9490 ccfd e23f 4a57 e420 d1c8 b53f
00000370: 56fb 030e 12f4 d43f f906 d3c5 ddd1 dbbf
00000380: c791 3add 8c83 97bf 6523 5331 5cac 63bf
00000390: 50af b0ab 635b bfbf 8938 e9b0 f085 e23f
000003a0: 56bc e655 8412 b63f 475b 6d59 5029 903f
000003b0: 8b29 0ec7 8129 dcbf 31b2 ba49 f55e 913f
000003c0: 99d9 18f9 9510 bb3f fdbe f227 ab3e ba3f
000003d0: e68a 762a c8c8 d8bf 0634 6fb0 f42f d13f
000003e0: e0fe 6be6 1adf b8bf 0c1a ad28 f0ba bf3f
000003f0: d90d d0ca 7442 c9bf 8102 396b 8867 d93f
00000400: 21bc 5c8c 971c c33f fc31 a3c0 3ad0 e13f
00000410: 6ecb e96b cc5f c53f 3d08 d1f6 f7ed b13f
00000420: d566 dde6 5814 9cbf 91d2 e45e 80b9 d53f
00000430: 35b6 4f55 b027 c53f 2740 02f1 6ce7 dd3f
00000440: 6d14 20a9 8bd9 cd3f c3b5 a2d6 629e c43f
00000450: 7779 ae3a 6148 d03f 98ff 99f3 d8d2 abbf
00000460: d0e2 00fc dc0a d1bf 4822 372e b5af a23f
00000470: ed58 557e 18c1 c73f 01b7 3ccc cf4b 72bf
00000480: f00f 9624 093d c43f 408d 0698 c15b b33f
00000490: 1468 e585 1e57 c53f b3df c529 8bce c73f
000004a0: 9973 3e37 92d9 d33f c326 1190 df92 9a3f
000004b0: 0d98 3b22 e6b2 b8bf d6f9 97a6 ea09 b23f
000004c0: 96fd a9db ae74 b63f 7064 05f7 4a97 ea3f
000004d0: ceb5 5a8d 9507 d63f 7003 7f0d 04a1 b53f
000004e0: bee6 c7d8 1fdf e23f f7fb a75a 43f0 c43f
000004f0: ed77 d757 fe2e 6d3f b4d3 f806 9c15 e33f
00000500: 9014 be2e de6a e33f 46e6 f993 9aee ac3f
00000510: 7ac6 99c2 5961 e23f 2a37 d5d2 8e6a a23f
00000520: 3dbc 2f00 2152 c43f 706a 7695 2e38 cb3f
00000530: 1258 ecde 1c1a b93f 3256 cefe 3ce8 ad3f
00000540: 7580 9cf6 0db6 d93f c446 cc50 b891 d83f
00000550: 1dde d4ba 00f0 9fbf 1ecb f082 44df d43f
00000560: de8d 5021 b4f5 b23f a84f 2ae5 c41a cb3f
00000570: 46a8 2232 0429 9f3f 705c 7030 aacd c53f
00000580: 70ad 89ff 7e95 d53f 1bb2 4f27 e6d5 cb3f
00000590: 6795 0021 43a9 ce3f 948e 4d7a 576b acbf
000005a0: 886c c56b 21ad bc3f 12ca 3c63 b2f9 cc3f
000005b0: 15db 3867 d229 de3f 5910 c3c9 fe1b d53f
000005c0: 5afc 1366 54d0 d23f 8157 9728 d3b8 dd3f
000005d0: 3bf9 bbfc bd3a e53f 6669 6d72 28c2 dc3f
000005e0: 40b1 8d54 1b0f d03f af66 86cc 214c d13f
000005f0: 2593 6c3f 548d dc3f c466 70ad 3a45 d93f
00000600: f7c3 9c05 1e30 e03f 6aad 4f03 8468 c93f
00000610: 1e8f cf5d 567d b8bf 5f06 2447 79e1 e9bf
00000620: 1a5d 858c 2c30 cf3f f3fb ab0d 8d0b 863f
00000630: 0838 51bc dbde e23f 594a c400 3cf7 dbbf
00000640: 7db6 c27f bab9 d5bf 6d7c 0071 48aa c9bf
00000650: 434a 70da fcf0 d7bf a885 956d 1551 ddbf
00000660: 337d c998 a586 e13f 5cb5 3a68 a1bc cdbf
00000670: 6dfe 8c71 0281 ba3f e4ae e3bd fefc eabf
00000680: a3ba 7bcd 8399 c93f 210a 01b2 d6c5 e3bf
00000690: ca33 255a 1be1 d33f ea1d e578 4451 d0bf
000006a0: 48de 8baa 2136 e1bf bb7a c557 75be d2bf
000006b0: 8aa8 5cb4 2410 a93f d312 78ff d6c6 9bbf
000006c0: d3ed 876f 6e5d cdbf 65ed 6e81 87f7 b33f
000006d0: 8d89 856f 5672 c03f 57df 3055 bd87 dfbf
000006e0: 9f63 64bd 244e a9bf b0ef 6698 94a2 babf
000006f0: a57b 719d 60da f5bf 7bdc a85d bf0d e9bf
00000700: fc09 7934 45f7 e3bf 0519 7deb b49d dbbf
00000710: fb5e 5f8c 07a7 d23f fac3 9d22 90d3 dbbf
00000720: 0b44 2fd1 36a4 cd3f f7e0 d5c3 35e0 cabf
00000730: 2446 99ba e7b7 d3bf 9916 2e1f 615e e2bf
00000740: f295 bf3a 081a c63f 20cd d9c1 0052 c93f
00000750: f7bc 9c5e ae06 b7bf 517d f259 18dd ca3f
00000760: 5df1 9e48 7f89 c3bf 5a6f e0f8 862f d33f
00000770: ecf9 8434 aa04 b6bf 0f21 dccd 0cb3 d23f
00000780: 8158 1726 0739 bf3f 4762 86be f55b b23f
00000790: 7c47 9832 c18a c6bf 514e 6fb0 d777 d0bf
000007a0: 80a8 df7a 0e52 e33f b5e7 e9e6 f9e4 d8bf
000007b0: d486 96a1 ca37 9d3f 86b3 bfc9 aa0f c83f
000007c0: c6ae d3df 2389 d2bf 2d06 6ca1 063f c43f
000007d0: 7e5d f4f6 3ba6 bebf 5d02 5110 c4f8 b7bf
000007e0: 82f7 ff9a d2ba c2bf 5006 aca8 b0f7 cbbf
000007f0: 0ad7 e743 2362 d4bf a3ab 90ec ae1d cdbf

fc2.bias f8 [64]
0.04688656240376725 0.33047810802587246 0.2654399497093026 0.22165085483403973 0.1693699890064539 -0.004334586255231209 0.4182047149443686 0.39987104373434085
-0.12966787652858094 0.3338783793015144 0.1859472574001923 0.06682556870410515 0.00020096860601583153 0.2440254905860122 0.12054043033738224 0.39023517404239355
0.3674741833626677 -0.11547077481312948 0.0337079029220247 0.3066525087249928 0.24943029120026794 0.258376519203242 -0.0868894456018526 0.14035040993244144
0.022002720105616012 -0.13224351070470033 0.22220098353373588 0.4123060864032186 0.3768217066817184 0.18537425463727894 0.31550460489515847 0.07841303580242809
0.506172413014888 0.3831600698449509 0.4391139828890439 0.4093063486255247 0.3268495282686311 0.21911680151270074 0.29851468018305527 0.02404317355109714
0.25254930066365056 -0.16469408509136083 0.36819479760214535 -0.07302406869510492 0.2770522631348253 0.19080486602661434 0.2953791369973617 0.20148425975126552
0.13804480886503864 0.09379422922162951 0.3237014513961425 0.3761081037307096 0.24802415558287605 0.44416673160479564 0.30203017156897033 0.24680003077895918
0.37605007867666584 0.26681812442230707 0.04098177924928247 0.09431235000075527 0.2612457722705383 0.15240173383443523 0.28691983451149783 -0.01191863406985104
00000000: 36c6 4af8 8301 a83f 07f7 80a6 8d26 d53f
00000010: ea69 c3d7 f7fc d03f 2a42 5222 0e5f cc3f
00000020: d671 da71 eaad c53f 8c98 53a3 24c1 71bf
00000030: 2c05 6eb5 ddc3 da3f 5335 ddb7 7c97 d93f
00000040: 4519 84fc f498 c0bf 5641 fc6b 435e d53f
00000050: be48 a8a6 1ecd c73f 57e8 1e00 7b1b b13f
00000060: 24c2 432e 6357 2a3f 1888 ba2e 3a3c cf3f
00000070: 1e13 25d6 bcdb be3f 61b3 90f3 9cf9 d83f
00000080: 8eaf ea6f b284 d73f 0657 7721 7e8f bdbf
00000090: e96b 5589 2942 a13f e573 0dd8 31a0 d33f
000000a0: c81f abef 54ed cf3f 3a10 02ab 3d89 d03f
000000b0: 463f 3aff 623e b6bf 7dec 5192 00f7 c13f
000000c0: 664d 1b8d e187 963f 75de caf8 5aed c0bf
000000d0: 954d b5f2 1471 cc3f ebc9 4211 3963 da3f
000000e0: 95bc a7ca d81d d83f a7ff 97f4 57ba c73f
000000f0: 5dc6 f039 3a31 d43f 48fc 5970 e012 b43f
00000100: c529 017d 9032 e03f 387f 47d0 b185 d83f
00000110: 4262 ee88 711a dc3f 4d13 5941 1332 da3f
00000120: 761d a848 1aeb d43f 7026 40f4 040c cc3f
00000130: 9ac6 3051 dd1a d33f 5045 6010 c69e 983f
00000140: 6098 be8a c429 d03f cbf0 a71e b214 c5bf
00000150: 248c 90e9 8090 d73f 00c8 dd92 b4b1 b2bf
00000160: 5f99 5c6a 39bb d13f 8e40 c039 4b6c c83f
00000170: 83c2 54e5 7de7 d23f 9d2d 2579 3cca c93f
00000180: db9c bac9 73ab c13f 1978 0f0b e602 b83f
00000190: b081 da4a 86b7 d43f 9e2c 52b9 2712 d83f
000001a0: 1459 6c6a 41bf cf3f 03af 8d4c 3a6d dc3f
000001b0: d7d0 525b 7654 d33f 5c78 6cb6 2497 cf3f
000001c0: b8c4 6459 3411 d83f 73ed 9753 8c13 d13f
000001d0: 0f12 3753 90fb a43f d4b5 dcaa da24 b83f
000001e0: c7b1 0730 40b8 d03f a017 5667 e681 c33f
000001f0: 483d 7302 e55c d23f 3911 58fc cb68 88bf

fc3.weight f8 [16, 64]
-0.0772931712228385 -0.546656694687766 0.011550921010352981 0.8212124997409762 -0.2813587335052072 1.3820845476021586 0.43891239640406277 -0.2892182884509629
-0.05444081380695704 -0.5410617946900509 -0.14971266687152535 -1.173387755910546 -0.028474980659808913 -0.25877083453574035 -1.0624867481422642 0.4808414293142789
-0.2683059371843915 1.1004347917486783 -0.034360664899469 -0.07213636403546538 0.07681784388000668 -0.014317618166920435 1.8503750968150552 -0.037302694660785174
-0.29634508669402726 -0.011040474442139592 -0.0021692659029435347 -0.5856278829260259 -0.24157479052834385 0.7361118135172705 -0.25727811354542496 0.08463742257696713
-0.6175910222937123 -0.5855987500325027 -1.3336629399346636 -0.3723054691622473 -0.07299624265649618 0.0071294665681107825 -0.10847131479413515 -0.016701681086323573
0.01914055312744632 0.15509015026395973 -0.2867640365593308 0.04505747651681424 -0.21966746817169278 -0.25040883310041306 -0.28545171459352836 -0.08770587546059588
-0.08903876263057486 -0.04947027889746342 -0.10485101918977457 -0.23376726960993063 0.2264596915960293 -0.499571706997193 -0.1217182982207738 -0.18594176454230768
-0.27833827717320625 -0.19678419849883771 0.0007622820792148313 -0.058840273555967965 -0.19019779309938073 -0.2613141406403435 -0.2255043443675077 0.0008623744835928496
-0.08443605106827153 -0.1039517224747635 -0.19356508435032815 -0.3401364088980013 -0.20151362359891586 -0.3125804148156866 -0.542992518708053 -0.27357797008219764
0.03714805682411221 -0.6037188645461741 -0.28189706771305933 0.0335262565956807 0.084003022310756 0.07852224053744615 0.8110277562268301 0.22414301351234134
-0.05120128507398607 0.43793491188578154 0.024280296842255713 -0.2697466894568461 -0.3027157189347895 -0.27325800452937743 0.46156910170437204 -0.2742635035998732
0.8737996291317248 0.0635003417203463 -0.17959106268301162 -0.4014628666287744 -0.19552798642465638 -1.2537391585183741 0.025837682786257987 -0.05705352597117392
-0.4987340204658866 -0.47246190667849247 -0.10448066778102666 -0.16666023957665818 -0.3990454345834662 -0.1435922678839197 -0.35347340358845186 0.8164567843552626
-0.3756262117389171 -0.04867827560019236 -0.21001222687189686 0.02563315255449316 -0.2888666624327622 -0.12010135712148388 -0.039966974792494815 -0.2812882405164728
-0.10927582350906744 -0.23704747653196398 -0.18584563990981978 -0.20531606928973897 -0.05551833199836781 -0.4294736817428072 -0.22328044664194885 -0.12826875621562836
-0.03730256137320358 -0.09115392852874266 -0.22149279563951532 0.0023880362827296596 -0.15331032628656702 -0.279846099638769 -0.15833620480893712 -0.09740804023509042
-0.1335136897343462 0.0771089433687632 -0.1929774959272181 0.5760811717041256 -0.26006758213694703 0.09612319726138256 0.9430349894905627 -0.11994101353807012
0.0032762176910683723 0.09922644709406589 -0.25439865081544094 0.641124665388432 -0.11904073899144345 0.04400952370019524 -0.5139218397547776 0.5927556215207768
-0.28927593684560693 -0.009174175080016191 -0.12013213612385082 -0.16141409627437434 -0.26097468068335533 -0.01157868512956285 0.08138355890076286 -0.30560828747268826
0.7638488658067486 0.09895313308268143 -0.09450995495906331 -0.15487523067189032 -0.06627919167578242 -0.488212807769366 -0.30294011681273963 -0.4094544421609512
-0.01920373780727393 0.2823823599017111 0.8601988846470034 -0.3142654946044797 -0.04350285088979899 -0.25574183226750163 -0.2456274809638311 -0.19177955596669832
-0.23298348049114379 0.03701815075506698 -0.14038471970842376 0.10568072646079041 -0.11688444504272948 -0.2594976071475571 -0.16981495435850735 -0.022065293736021414
-0.30103928448553524 -0.17863713395471217 -0.13922608133120995 -0.28203628353527677 -0.1412946067376568 -0.3452306004187524 -0.07039370598504421 -0.23229311368907557
-0.16174323000557325 -0.26092345692567087 -0.09833477991142087 -0.3443291479264904 -0.28162265288463145 -0.05643254634915015 -0.267970680920415 -0.028171188123317287
-0.4504270160834097 0.32668500423389124 -0.1765380715174411 0.7018109703088131 0.055466822073882316 0.5340872936663336 0.8241659327296829 -0.31659381242338624
-0.07277964940334705 0.3216371761729715 -0.29186450153398824 -0.9574174805778158 -0.036175039932184155 0.04083010263567192 0.48061326540956534 1.1333334100921506
-0.20309174115763873 -0.15400245010010705 -0.48350638868090895 -0.18438973799683084 -0.07149658603627758 -0.380708913966381 -0.255119179152467 -0.3978893730401192
-0.4819802074136236 0.06216367345132773 -0.18333526114257492 -0.10616161586501127 -0.4188672792128359 -0.3997122256937058 -0.138844700118308 0.04118075208535518
0.28552605940575343 0.24930906179158582 1.277947255762775 -0.1302244120433973 -0.23356905095937006 -0.22219565672333433 -0.04762719537436242 1.1148591715407545
-0.2620212236719367 -0.10147621303485865 -0.33458279996360857 0.01772505348879222 -0.42872939237223984 -0.02068323286740419 0.041644241120922014 -0.44879656689341146
-0.16606922355929235 -0.2946411028642893 -0.39270272655885674 -0.35544434597224905 -0.0759150954530185 0.07234127769319612 0.10116638646909809 -0.18347225023433641
-0.0849138167372837 -0.26104519568567686 -0.1823146760625848 0.06252693482156137 0.030706829564517632 -0.283903293569228 -0.20694910902347236 -0.6835426075916283
00000000: 3731 9b3a 7cc9 b3bf 6459 3a2e 367e e1bf
00000010: dc3d d35f 02a8 873f 5c86 ae6f 5f47 ea3f
00000020: 7753 b60f c801 d2bf b221 c4af 041d f63f
00000030: f252 1705 2417 dc3f a553 936c 8d82 d2bf
00000040: c9ac bc95 aadf abbf fae1 29d3 6050 e1bf
00000050: 664c 01e0 c829 c3bf 1d9a 523d 32c6 f2bf
00000060: 60a0 c09a 8b28 9dbf 2256 df8b b38f d0bf
00000070: 4745 bb1a f2ff f0bf cdde 5d21 1bc6 de3f
00000080: d5e4 61aa ec2b d1bf ed0e 1f83 619b f13f
00000090: 6229 0698 b897 a1bf 057a 625c 8777 b2bf
000000a0: b0bf 368f 55aa b33f f5af 442e 8e52 8dbf
000000b0: b874 e2ea 229b fd3f 70d2 3dbb 5619 a3bf
000000c0: aa97 eb61 51f7 d2bf ad5e 4a65 639c 86bf
000000d0: 0dc8 80c3 47c5 61bf 3d60 99af 76bd e2bf
000000e0: 98bb 6d38 eceb cebf 8f30 a85c 3a8e e73f
000000f0: 00de e99e 3e77 d0bf c65d fc51 ccaa b53f
00000100: 1dc0 613f 4ec3 e3bf 7ffa fe96 39bd e2bf
00000110: 6781 6ef3 ae56 f5bf 5b1f 8b51 dad3 d7bf
00000120: a8c6 f0ba e1af b2bf 21a6 f79b c933 7d3f
00000130: 6d4d 98ad c6c4 bbbf ed46 37d8 3e1a 91bf
00000140: 1bc4 d6c6 9499 933f 1a60 a879 fed9 c33f
00000150: d63d ac8b 575a d2bf 70f6 2808 c611 a73f
00000160: ff71 e547 101e ccbf 54ee 32c5 b206 d0bf
00000170: 8e0b b144 d744 d2bf ec32 c56a e473 b6bf
00000180: b01a 938d 3ecb b6bf 592a fa1b 2b54 a9bf
00000190: 5852 5f32 84d7 babf 6fc8 ecfc 15ec cdbf
000001a0: 5833 a294 a1fc cc3f 64d4 e39b fbf8 dfbf
000001b0: fdd8 2e2e ee28 bfbf 2bba d592 f0cc c7bf
000001c0: 16c5 6b59 4bd0 d1bf ba06 7680 3930 c9bf
000001d0: f8f8 de4c 7cfa 483f 6c9d 38f5 4f20 aebf
000001e0: 2e0d 91ba 6658 c8bf 7116 02f2 5eb9 d0bf
000001f0: fd09 158c 53dd ccbf a794 1a1a 1f42 4c3f
00000200: 7d0d f1dd 999d b5bf a258 6480 949c babf
00000210: 6450 779d bdc6 c8bf c554 1980 cbc4 d5bf
00000220: 5f24 87cb 32cb c9bf 2539 c048 5101 d4bf
00000230: 355c bad8 3160 e1bf c82e 9a2c 4d82 d1bf
00000240: 38ca 56f2 1105 a33f c187 6639 aa51 e3bf
00000250: e69d aaff 990a d2bf 6781 457f 5a2a a13f
00000260: c300 97d9 3881 b53f 2ff2 1d97 081a b43f
00000270: 538f 247b f0f3 e93f 44c9 54e0 b7b0 cc3f
00000280: c7d7 cf09 0e37 aabf 63de 1427 2007 dc3f
00000290: f7a6 7f23 efdc 983f 94f8 5a9e 8743 d1bf
000002a0: d7d7 33c0 b15f d3bf b6ba 3424 0f7d d1bf
000002b0: 2285 2a21 598a dd3f 4fa9 9c82 888d d1bf
000002c0: 0316 cca3 2af6 eb3f 2c45 f9f2 8e41 b03f
000002d0: 544f 7006 d7fc c6bf dea7 ae4e 91b1 d9bf
000002e0: cfc4 92a1 0f07 c9bf cdd0 b8ca 500f f4bf
000002f0: 231d 498a 3175 9a3f f9d9 55a8 1e36 adbf
00000300: d16d d318 42eb dfbf 338e 72dd d03c debf
00000310: 440a 2fbb 3ebf babf 1b3c 436b 1f55 c5bf
00000320: b0dc c9dc f589 d9bf 4a8c 423f 3b61 c2bf
00000330: f3c3 1ae9 4e9f d6bf d4e6 6cfa 6920 ea3f
00000340: e818 bc85 420a d8bf 14fe 74e3 5bec a8bf
00000350: 1664 163f aee1 cabf 9ee2 a8bf 933f 9a3f
00000360: ab6a 0399 ca7c d2bf dbbf 0a69 f6be bebf
00000370: b5c1 4e23 8d76 a4bf e520 7164 a000 d2bf
00000380: 8304 3718 80f9 bbbf 2bed a65b 9257 cebf
00000390: be28 c238 cac9 c7bf 5baa 7805 cc47 cabf
000003a0: 18de 8518 e66c acbf 16ff 642e 7f7c dbbf
000003b0: b6eb 1424 7494 ccbf 67b9 8550 1c6b c0bf
000003c0: 9654 4f42 5219 a3bf a4d0 ee25 dd55 b7bf
000003d0: 5521 c93c e059 ccbf 0a31 8d37 1390 633f
000003e0: 431b c53a ac9f c3bf 9b25 779d ffe8 d1bf
000003f0: 9eac b65a 5c44 c4bf b85a 2dbb bbef b8bf
00000400: 6d18 7d01 fa16 c1bf ea79 ff65 69bd b33f
00000410: 3789 ef90 7cb3 c8bf 46f0 09c8 416f e23f
00000420: 72ca 0180 f2a4 d0bf 73e5 9fa4 879b b83f
00000430: bc0f dbb6 572d ee3f c358 984a 74b4 bebf
00000440: 4c90 cefa b9d6 6a3f 56d3 2a89 e766 b93f
00000450: a386 5947 1148 d0bf 8112 d0df 1784 e43f
00000460: d323 dc30 7479 bebf 097f 0292 6a88 a63f
00000470: 304d ce36 0c72 e0bf e275 1ea3 daf7 e23f
00000480: 9a62 1138 7f83 d2bf 4ed8 7def e8c9 82bf
00000490: 44be d9cb fac0 bebf 8d50 4e94 37a9 c4bf
000004a0: 959e a725 cfb3 d0bf c77d b2cf 90b6 87bf
000004b0: 872e e98b 8dd5 b43f 993b 0510 168f d3bf
000004c0: f240 372d 7371 e83f 3346 6d16 fe54 b93f
000004d0: 7e13 b2ed cd31 b8bf e71d 5999 f3d2 c3bf
000004e0: f61d a750 acf7 b0bf 91e5 b6ee e03e dfbf
000004f0: 53db 96f1 5e63 d3bf 1920 9267 8034 dabf
00000500: e56f 5f07 25aa 93bf 8eb0 2f76 8d12 d23f
00000510: 72aa b3cf bf86 eb3f ae99 6505 ed1c d4bf
00000520: 9f7a b573 0146 a6bf e1b6 73fd 125e d0bf
00000530: bb87 dea6 b870 cfbf 2e8d 7584 3b8c c8bf
00000540: 23de 9b16 67d2 cdbf 10ec b305 0bf4 a23f
00000550: 46be 0062 20f8 c1bf 3074 f75f e40d bb3f
00000560: 3ba0 de94 23ec bdbf 66b2 05da 9b9b d0bf
00000570: fcb6 ab15 7fbc c5bf a531 e4cb 4898 96bf
00000580: a54d 6b46 3a44 d3bf 79e4 17e4 94dd c6bf
00000590: 1cad 0805 29d2 c1bf 0071 84e9 e10c d2bf
000005a0: a00b 8511 f115 c2bf 8820 9816 4218 d6bf
000005b0: 16cd 0c69 5205 b2bf 28b7 30df c7bb cdbf
000005c0: 8196 9c8d 00b4 c4bf 4452 904c f8b2 d0bf
000005d0: ac66 c7d7 772c b9bf 3ad8 591f 7d09 d6bf
000005e0: b3f1 fc04 1b06 d2bf 1ccc ff09 bae4 acbf
000005f0: 1cc3 b57f 6e26 d1bf f868 b76e e8d8 9cbf
00000600: 010a d4d5 cbd3 dcbf c6cd 5138 68e8 d43f
00000610: ee49 d5ad cc98 c6bf 8269 ae47 3c75 e63f
00000620: 4008 a4b5 2566 ac3f 9131 703c 3e17 e13f
00000630: 72a4 f13b 915f ea3f 9c5c 9eb1 1243 d4bf
00000640: d270 00e6 afa1 b2bf 14ce 3518 b495 d43f
00000650: a4ea 3c72 e8ad d2bf f569 f6fb 29a3 eebf
00000660: 2c65 e1ea 8885 a2bf e56a 06e7 aee7 a43f
00000670: 6f4d 3d24 5ec2 de3f 87f5 bc36 2222 f23f
00000680: 780c 2e01 e9fe c9bf cc87 572f 5ab6 c3bf
00000690: 0fa9 b2c7 c4f1 debf f60a 353b 159a c7bf
000006a0: a52c cdaa 994d b2bf 8f00 b2eb 885d d8bf
000006b0: 95b3 c264 df53 d0bf 4487 28fd 0477 d9bf
000006c0: b64a 0a83 c3d8 debf 9802 f2c0 ead3 af3f
000006d0: 28ce 67a3 8777 c7bf a811 3b5c 682d bbbf
000006e0: 355a 65b4 b8ce dabf 149d 4a96 e294 d9bf
000006f0: 6193 1dc3 a9c5 c1bf 4cd1 dcbe a415 a53f
00000700: f56b d317 0f46 d23f 0fe3 7efd 5be9 cf3f
00000710: 9d39 58d2 7872 f43f 1001 6f8b 31ab c0bf
00000720: 5b37 9d35 97e5 cdbf b950 7843 e870 ccbf
00000730: 0df1 107d 9762 a8bf 729c 1692 76d6 f13f
00000740: fed8 a1aa f4c4 d0bf 6880 4e58 58fa b9bf
00000750: b375 e9f9 cd69 d5bf b083 3734 8426 923f
00000760: 7aa7 c467 4d70 dbbf add6 f642 fc2d 95bf
00000770: efb8 5cdb 6452 a53f 5750 573c 15b9 dcbf
00000780: 4596 079e c141 c5bf f501 375b 66db d2bf
00000790: 54b3 e79d 0a22 d9bf 4aee 5fa4 99bf d6bf
000007a0: 9c51 3ef4 2b6f b3bf 7ad7 d73d f584 b23f
000007b0: 9cda 5651 0ae6 b93f bf70 3dc9 047c c7bf
000007c0: d77b dd71 e9bc b5bf a2dd 8fe8 f6b4 d0bf
000007d0: 6d83 a259 1656 c7bf b17f 2de4 c301 b03f
000007e0: bc4a f972 9c71 9f3f 3fd1 46b8 782b d2bf
000007f0: 7298 98f3 4e7d cabf 55ea 20bf 94df e5bf

fc3.bias f8 [16]
-0.3853487004070534 -0.26158962175830835 -0.130956116587678 -0.021690134879260498 -0.010314886491940067 -0.23034609322379154 -0.13169778016208902 -0.2524729972379724
-0.25044428573762134 -0.412054617799819 -0.1734706225771452 -0.2490734650379903 0.03502420018730851 -0.08273605909307079 -0.14781741233269724 -0.25273172683703266
00000000: 3a7b 7398 8da9 d8bf 4a32 9b65 e2bd d0bf
00000010: 4f45 fa86 2bc3 c0bf 581b cf4f f035 96bf
00000020: 209f 28a1 f81f 85bf a92a 9414 fb7b cdbf
00000030: 8d40 600d 79db c0bf f3a6 9080 8428 d0bf
00000040: 76a4 2d78 4707 d0bf 946c e754 1a5f dabf
00000050: 798e 640d 4934 c6bf 5bdd 51a9 a3e1 cfbf
00000060: 0800 bf24 b1ee a13f 8f31 01bc 302e b5bf
00000070: b2c7 df53 aeeb c2bf 694e 5bb1 c12c d0bf
