LP4-MachineLearning/HW_B_2/dqn_target_5000.pth (torch, 54615 bytes, 6 tensors)

lin1.weight f8 [64, 20]
0	0x3faab7c567303061	0.052183312269421085
1	0x3fc6f98791d53179	0.17949003811589728
2	0x3f9fcddefc3471eb	0.03105877317749332
3	0x3fa65c4b5be39732	0.04367290016834459
4	0x3fb3e48509f145e9	0.07770568363891751
5	0xbf8e320725d96908	-0.014743858187263217
6	0xbfbac590327ad9d8	-0.10457707626742463
7	0xbf75e62800317e32	-0.0053464472321987245
8	0x3f99a8d4b954a628	0.02505810147446233
9	0xbfc94be2dce34331	-0.1976283625176847
10	0xbfd67b76a5e9a229	-0.3512856121292623
11	0x3fc6739b44240d6f	0.17540303065480198
12	0xbfc94a43ed996e10	-0.19757889844446241
13	0x3fa28baf34925a52	0.036221957366411886
14	0x3fc31f47c4e44efb	0.1493921004663362
15	0xbfcfa53e50aef1b2	-0.24723032893770164
16	0xbfdbd9832720b67d	-0.43515089818070135
17	0xbfe0fd14641e3855	-0.5308935122900588
18	0xbfbb5621de4b32f4	-0.1067830245694486
19	0xbfd6b9ff26e4ad19	-0.35510233686609777
20	0x3fccd20f4f41cb5e	0.22516051645251428
21	0xbf691b9fade69cfc	-0.0030649298416453013
22	0x3fc67193159efe1f	0.17534102016178196
23	0x3fd10212b8ba1335	0.26575153388721456
24	0x3fcfe199f745859a	0.2490723092442238
25	0xbfd3e4b9a715c3b2	-0.3108352786721823
26	0x3f81990c2e22a0bd	0.008592696340500411
27	0xbfd61197e38f45a2	-0.3448238107931393
28	0x3fa99c9e8bf7eedf	0.050023035608288906
29	0xbfe318f6449f24a2	-0.5967971172587065
30	0x3fd8bcd0ca44c334	0.38652438881676976
31	0xbfda069bcc50b37b	-0.40665335610065484
32	0x3fddc892ae8d68e4	0.4653670029271224
33	0xbfc17eddcd648bb9	-0.13668415574019635
34	0xbfd611705e9868c3	-0.3448143886358929
35	0x3fd111d9c918d117	0.2667145217740354
36	0x3fa728b936bb824b	0.045232570582588304
37	0xbf953e388f204a39	-0.020745166526532997
38	0xbfcb8723239dd082	-0.2150615619572172
39	0xbfe594ca4e3f98a5	-0.6744128731050024
40	0x3fdd49edf3eb1130	0.45763729877605197
41	0xbfc989b94b82652b	-0.1995154970834759
42	0xbfcbad0933d537ab	-0.2162181380357969
43	0x3fc7642b95294056	0.1827444532705182
44	0xbfc75cdf7c07e197	-0.1825217586154053
45	0x3fd5edcd9d24a506	0.3426393541909224
46	0x3fbfce56f562254a	0.12424224367909634
47	0xbfc68b62d55c967d	-0.17612872522402148
48	0xbfe18046b30a661f	-0.546908712090218
49	0x3fd638255d34eb2d	0.34717687704294314
50	0x3fafe0d44874c453	0.0622621859023488
51	0x3fbf87d7cc4a9302	0.1231665490873404
52	0x3fc2ac152d7e60fe	0.14587654801722033
53	0x3f920fe956c61b67	0.017638822480445706
54	0xbfcb40dbeb91eb32	-0.21291684153023877
55	0xbf76210cb53e9124	-0.005402612343378164
56	0xbfd0d4ef677312eb	-0.26299653151026686
57	0x3fceb1392963aa68	0.23978342553103293
58	0x3f872b7ee03f00a2	0.011313430040786724
59	0xbfc1f609869d77d7	-0.1403209597874013
60	0xbf703433a794a4ff	-0.003956033492877652
61	0xbf97aa35adae0ffd	-0.023110235906202082
62	0x3fcda11f37de55dc	0.2314795515818976
63	0x3fae180e1136ebfa	0.058777274705299434
64	0x3fe8a0ebac69baa4	0.7696436278764236
65	0xbfdcda3219f840b0	-0.45081760917765745
66	0x3fcbfca9d2dccd5d	0.21864817424794128
67	0xbfe22a14b206fe17	-0.567636821469878
68	0x3fd20254a2a8a77a	0.28139224896096204
69	0xbfd28878df5c583b	-0.2895795995003742
70	0x3fdd54d35e2bd817	0.45830234714901635
71	0xbfcabc05634e962f	-0.2088629469773635
72	0xbfbdaf6177afe6ea	-0.11595734760330925
73	0x3fc0d0487f491ab5	0.13135629859080714
74	0x3fc4a3965a5c39a0	0.16124228870507995
75	0xbfc7a9d124388ea2	-0.18486990231132433
76	0x3fe18bba28f24a10	0.5483065414176185
77	0x3fdcee1b00b6ef05	0.45203280515464456
78	0xbfe48d9e698f71e4	-0.6422874509549357
79	0xbfda12c5104e95e9	-0.4073956164596369
80	0xbfc90bdefb7abd28	-0.19567477492589913
81	0xbfc663216ca3355c	-0.17490022472922362
82	0xbfbf3da0d5db2883	-0.12203412266822693
83	0x3fa3538e57bd6be0	0.037746856890144675
84	0xbfb0944dbacb2fa5	-0.06476293383019412
85	0xbfc4aea41df0c436	-0.16157962285936528
86	0x3f88bdd7f9e91266	0.012080848039780889
87	0xbfc436c689a999c7	-0.15792161676217928
88	0x3fcd7194f15eaea1	0.23002874169957457
89	0x3fbf1f2b2b2b6f72	0.12156934551188472
90	0xbfd27993592b585d	-0.2886703844827759
91	0xbfc4cf450ae502f1	-0.16257536918603635
92	0x3fcc7a462ee02d63	0.2224815110097139
93	0xbfc1805c6d8394aa	-0.13672976825106292
94	0x3fc624bd240bb8b5	0.17299618015335275
95	0xbfd0836314bfb36d	-0.2580192282319363
96	0xbfdcaffe55d240d0	-0.44824179059015723
97	0xbfdf242496c1f6b7	-0.4865809890978698
98	0xbfd3588986605514	-0.3022788822430169
99	0xbfb98785e97e530d	-0.09972416830562399
100	0xbf726ac4bf5a6c94	-0.0044963536689933865
101	0xbfae454c41cda80f	-0.05912245085967537
102	0xbf9e0b3e7ca520b4	-0.02933976779721155
103	0xbfab3a457a6984ef	-0.05317895049371112
104	0x3fbe01843d77aa7c	0.11721064091367767
105	0xbfa932b658d621e5	-0.04921502909116152
106	0x3fb47121ae39db21	0.07985125068249178
107	0xbfbe6b62d47f3d45	-0.11882608116069544
108	0x3fe4c9b18b48c377	0.6496207924266021
109	0xbfe48ef280ca7859	-0.6424496188590282
110	0xbfd825592c2f15e0	-0.3772795611842792
111	0x3fddec9df4982a80	0.4675669563882039
112	0xbfbff1895cb9e6b2	-0.12477930558989206
113	0x3fc569e54e48db06	0.16729418108453603
114	0x3fae289c7189f490	0.058903588161208664
115	0xbf8d5ebd20805e3e	-0.014340856127133535
116	0xbfb43dbef16ab468	-0.07906716722455231
117	0xbfb39ef658c49381	-0.07664432208237139
118	0xbfbebbf18836848c	-0.12005528998862952
119	0xbfe511739872bc4b	-0.6583803155425668
120	0xbfbf63b3e6240bdf	-0.12261509293243432
121	0x3fa924b28788afe4	0.04910810379473654
122	0x3fd178713887e4e3	0.27297621269788247
123	0xbfc68b87fdc85d33	-0.17613315479023015
124	0xbfd2053c7f7ef333	-0.28156959963580447
125	0x3faf3c3b696f0641	0.06100640928299273
126	0x3f9293afe773fa47	0.018141506673595733
127	0x3fc4b6a086bde5ab	0.1618233354491115
128	0x3fa65fa453b02718	0.04369843980391702
129	0xbfd497c8efb76522	-0.32176421556285295
130	0x3fc277cd09335ed9	0.1442810339856269
131	0x3f96641f6a8b732a	0.021866312864278793
132	0x3fc67440c2e2bad0	0.17542275920773998
133	0xbfd574393209f61a	-0.33521871458637664
134	0xbfc3a311fb2b8734	-0.1534140087524577
135	0x3fa77ef718d78e78	0.04589054277655874
136	0x3fbe70929e4d8f59	0.11890522351091927
137	0xbfb7385244f67788	-0.09070314582501571
138	0xbfcb0bfee00dfebb	-0.2113035768525061
139	0xbfd0d739005a4d4f	-0.2631361487812755
140	0x3fc45822aa2f0026	0.15893967923875713
141	0xbfd9f97735a22603	-0.4058511756671523
142	0x3fc133acf6438d99	0.13438951515773281
143	0x3fbba34cb413931b	0.10796050449750931
144	0xbfb80af07f581719	-0.09391692265498043
145	0xbfbb45f7e775911e	-0.10653638268337715
146	0xbfc06eacc0686321	-0.12837752718839915
147	0xbfadf7c5b7819081	-0.05853097786965212
148	0x3fc34a9ddb108f26	0.15071461864965235
149	0xbfdd873f6ebd53f3	-0.4613798695984876
150	0x3fd326173541c44d	0.299199869164174
151	0x3fc1698ef8fd8175	0.13603388936736463
152	0x3fb7987566c24089	0.09217008360633562
153	0x3f99620d6330bb1e	0.02478810232076533
154	0x3fa500a515daad25	0.04102054492735822
155	0xbfdc9d1231e5679b	-0.44708685753504945
156	0xbf805572b8bca4fd	-0.00797547937652831
157	0xbfd47a4a7f7eef64	-0.31996405077710777
158	0xbfdf9ed8c392422e	-0.49407023524057336
159	0x3f83172ed60c6732	0.009321561724891934
160	0xbfb687c84d153ae7	-0.08800937539966079
161	0xbfa0c1e903139910	-0.03272941744380564
162	0xbf4d274a9d09be57	-0.0008896936725033094
163	0xbfc923d9d69d7a1b	-0.19640658358817195
164	0xbf8db489bc6f4f0c	-0.014504505217622497
165	0x3fbd35cf0291df65	0.11410230458011268
166	0x3fdf47dd7d51c073	0.4887613033124644
167	0xbfb45c3c96933a60	-0.07953241993093618
168	0x3fafe2b4c0af7a34	0.06227650501363194
169	0xbfc73644e261168c	-0.18134366086649256
170	0xbfe93d8d870269f4	-0.7887637745764651
171	0xbfd663695d3378be	-0.34981760121980787
172	0x3fbde82e21751b98	0.11682403866607982
173	0xbfc71d5e43ba77b9	-0.18058374697733173
174	0xbfbd354765ef6517	-0.11409422148371494
175	0x3fa892807498ac6e	0.04799271987243335
176	0x3fd89403165b8d8c	0.3840339392029015
177	0xbfd062a378736e01	-0.2560204197195333
178	0xbfb011348762371f	-0.06276253037705402
179	0x3fbf9be5ff11ec99	0.12347257115645717
180	0xbfad90c853e90c14	-0.05774522804542684
181	0xbfcfa86e86dbd49f	-0.24732762894533253
182	0xbfc7f26d2a12f263	-0.18708576731104917
183	0x3fcb2da5aae062e1	0.21233054011897592
184	0x3fd1f0f688e681be	0.280332215968908
185	0x3fa156405fc7d0e2	0.03386117142864166
186	0x3fca107938c94e6c	0.20362773201724182
187	0xbfc79c5e5b5a0be8	-0.18445949039968856
188	0x3fc5182c937f47d0	0.16480023576747138
189	0x3fc2623cf562e7c4	0.1436229894805462
190	0x3fe4d68ab53d0c01	0.6511891879857786
191	0xbfd8f2ce51ab01da	-0.38981969809904415
192	0x3f98122c252cac05	0.02350682236571446
193	0x3fb6925b1f600336	0.08817071453087241
194	0x3fc38322c69df1af	0.15243944833845322
195	0xbfdb7d69a24c5c74	-0.429529579634113
196	0x3f9ced3f70b95dbc	0.028248778586513743
197	0xbfa6bee76749ffa2	-0.04442523132183786
198	0xbfa5fd979f70da39	-0.04295038052844231
199	0xbfd1461f9994e617	-0.2699049949474967
200	0xbfc1b00343150cf3	-0.1381839826154657
201	0xbfa849bcb9106276	-0.047437570181675534
202	0x3fdab1dc99e1619a	0.4171058180559385
203	0x3fbd150db3e47645	0.11360250131516476
204	0xbfc725a8c15fc515	-0.18083676759810233
205	0x3fb7f3a01327c944	0.09356117694531912
206	0x3fe9f5e7e0f87f37	0.8112677949866115
207	0xbfe1c2a055bf9a74	-0.5550080942892479
208	0x3f82543c4d45aa57	0.008949729068907048
209	0x3fb4f780e36ae4ed	0.0819016032427446
210	0x3fb45c9e23bcd98f	0.07953823444845497
211	0xbfdd6278b66f8d94	-0.45913522544852836
212	0xbfc244cca182a702	-0.1427245892166909
213	0xbfc566f00287898d	-0.1672039043761057
214	0x3fa61eece80ddb89	0.04320469219867735
215	0xbfbd0d80e2d12cd5	-0.11348729646231288
216	0x3fc58b1a581f0517	0.16830758383552144
217	0x3f98fc03f2c0dd0a	0.02439886254452709
218	0x3fc0af48360cbeb4	0.13034918440961507
219	0xbfef9e71c0d6e3f5	-0.9880913511652795
220	0xbfd20f722619c0b6	-0.28219274254571347
221	0x3fd48101e2b86ddf	0.3203739847246804
222	0x3fd7a4b833cb379a	0.36942868288030584
223	0x3fd5855c42d94701	0.3362646725482677
224	0x3fb2921dec82eee9	0.07254206680493848
225	0xbfc983273b00d9a5	-0.1993149793722299
226	0xbfc1573303a38d3d	-0.13547361066512478
227	0x3fc7e4979464c54f	0.1866635775163936
228	0xbfbb051e58b3c1c8	-0.1055468527372404
229	0xbfa5b8e6a2ed5de1	-0.04242630709512319
230	0xbf5654710646704f	-0.0013629058604243299
231	0x3fce436dbc4e726a	0.23643275923395218
232	0x3fca03b043f2fbc9	0.20323756521062666
233	0xbfc9ed7ecef9e95a	-0.20256028276692
234	0xbfd8672a58142e6b	-0.38129671670387805
235	0x3fdae782528e18a5	0.42038019239442753
236	0xbfda41b3eddedf85	-0.41026018361616706
237	0xbfa646fa1ac87494	-0.043510261315739346
238	0x3fb7a66555efc830	0.09238274906218247
239	0x3fe0959344b13c31	0.5182586995741812
240	0x3fc413bd0a9f1fcf	0.1568523694861583
241	0xbf9b9efad5fbac5d	-0.02697364741372287
242	0x3fd46ee4ce851a6f	0.31926841896021235
243	0xbfbd09cded2e937b	-0.11343085327696471
244	0x3fb0cc2c07c51695	0.0656154173821853
245	0x3fc0b1d5eac70e43	0.13042711223362077
246	0xbfcacb90773eb313	-0.20933729002481324
247	0x3fce4f64ee4cd271	0.23679792056795493
248	0x3fc72793924c08bb	0.18089527743729214
249	0x3fcb477118da241a	0.21311773026926134
250	0xbfe0771ff9030ed6	-0.514541612960296
251	0x3fbb6262c501c828	0.10696999845257038
252	0x3fd7861adac1a83f	0.36756011355339874
253	0x3fb2370f1975bb46	0.07115263339595143
254	0x3fcced4778b8bc55	0.2259911860905698
255	0xbfd12fd57ff861d4	-0.2685445546826746

lin1.bias f8 [64]
0	0x3fe460f954abedaf	0.6368376401655292
1	0x3fc8a4cad21cc8c8	0.19252906093021793
2	0x3fe0d9f9d7c43121	0.5266083921610837
3	0xbfcde0bec34ab0d2	-0.23342117820482727
4	0x3fe6072733f91ca1	0.6883731856440997
5	0x3fdf3702a008ec81	0.4877325594749849
6	0x3fd1cea30413fd0a	0.27823710821390135
7	0x3fca6458c9ff32b6	0.20618734229210184
8	0x3fbdde4624ae476e	0.1166728820374183
9	0x3fe31ef7c336f5a3	0.5975302517687634
10	0x3fca9edd199ed6ed	0.20797313452720037
11	0x3fc427b1169ccc4d	0.1574612961208878
12	0x3fe7949bffc6062b	0.7368907924248495
13	0xbfdfd179360484fd	-0.4971602466121821
14	0x3fe0ef87a3e1b47e	0.5292394829572371
15	0x3fc153e9c70e4364	0.1353733274413812
16	0xbf924cfaf3d98558	-0.017871781476406084
17	0x3fdb7999d80d0d53	0.42929693316201173
18	0x3fc3e7caa31bf083	0.15551121677697574
19	0xbfa3eff409346d98	-0.038940073131210784
20	0xbfa3aed9be337b6d	-0.03844337889471814
21	0x3fc2b2bd5d21b788	0.14607970282980554
22	0x3fce23efb150a955	0.23547168882334782
23	0x3fdc8f715b678031	0.4462550537700763
24	0x3fd61bf4e4f467fa	0.3454563365827422
25	0x3fd7a2bb4832e063	0.36930734682710503
26	0x3fcb8f1d448d6d83	0.21530500266349514
27	0x3f9a24e49bc83b85	0.025531360634029738
28	0x3fd586f18d3a8212	0.3363613013443977
29	0x3fc40f0d6d041b80	0.15670936415719083
30	0x3fdf194b68329b6c	0.485918857341338
31	0x3fd496e8abd1c3ee	0.3217107465671337
32	0x3fdab122465bf74d	0.4170613944150901
33	0x3facaff80bf68b51	0.05603003641160476
34	0x3fbfc5624d522312	0.12410559070316321
35	0x3fd53af72b8ef59c	0.3317239690184921
36	0x3fbea2aa4f44b734	0.11966957507385417
37	0x3fd60a8d8a88a73a	0.34439409760181017
38	0x3fd4b0b275724e8c	0.3232847353876671
39	0x3fc9714c5f5b735d	0.1987700906383009
40	0x3fd8b2f37b6d0e79	0.3859223084766437
41	0x3fdc4925ae7486d7	0.44196455036772647
42	0xbfd99b1e9c536dca	-0.4000927473659571
43	0x3fe7970f952797a8	0.737190047567073
44	0x3fc3ac0fb6d56932	0.15368839671538975
45	0x3fcb661cdf9040b1	0.21405373493371863
46	0x3fb58eaaf6d4f5e0	0.08420818830651156
47	0x3fd5935db8068e56	0.33711951228381076
48	0x3fe32c4ba90e51d5	0.5991571714280847
49	0x3fbf94a7586dbf5c	0.1233620253458389
50	0x3fe2ed9b77104d58	0.5915047955954078
51	0x3fe61c54ad3b741c	0.6909583457414814
52	0x3fe6495d352bf458	0.6964555777082166
53	0x3fc608f23c50e469	0.17214801735989063
54	0x3fe12b4ef70cdf71	0.5365366769028538
55	0x3f7c713ff99a626c	0.006943941023245342
56	0x3fbce935b191392f	0.11293349824083941
57	0x3fb0254e305181a4	0.06306923560760552
58	0x3fd708d4b837205e	0.35991399755267206
59	0x3fdd9a25e42612ac	0.4625334480299823
60	0x3fd4941f3daddf36	0.32154065154417155
61	0x3fbca6160f83ba51	0.11190927389882545
62	0x3fd85a29dc816fda	0.38050314458609835
63	0xbfc5acaa0a1b4fa2	-0.16933179372301504

lin2.weight f8 [64, 64]
0	0x3fe05d0c5f6df418	0.5113584388597046
1	0x3fd948242b8752d8	0.3950281548580228
2	0x3fda0c78fbf875a6	0.40701126677034904
3	0xbf6bd6f491b13e47	-0.003398397134823292
4	0x3fd69ee24c00dd36	0.3534475080700362
5	0x3fe7808f39b0263d	0.7344432951660519
6	0x3fc4cab20e6ea887	0.16243577675533435
7	0x3fd1ff5ccb8d69b9	0.2812110889259674
8	0x3fcc99a2390c4ad5	0.2234385279230852
9	0x3fd53ac38be75969	0.3317116609809064
10	0x3fb940071da49d77	0.09863323663431865
11	0x3fc74acd7248ee29	0.18197029190365413
12	0x3fe29b3143ff88c0	0.5814443901147328
13	0xbfed6f4c1aa00586	-0.9198360939046075
14	0x3fd053cd4eee1806	0.255114867286807
15	0x3fc4799e7c2d2699	0.15996151984500243
16	0x3fd6e127ccc81452	0.3574923991985247
17	0x3fc25a24db6ddc48	0.14337597574533079
18	0x3fbd61916f39d08b	0.11477002110933847
19	0x3fb70799cdb9a310	0.08995972893320592
20	0xbf6c44af2413684e	-0.0034507199021449947
21	0x3fb76a759350a745	0.09146818968352217
22	0x3fcb6693b37f5da4	0.2140679003193614
23	0xbfc5071a327f122c	-0.16427924600260846
24	0x3fbf2d4c7b4d634f	0.1217849541693685
25	0xbf97019019f037b0	-0.022466899474288204
26	0x3fd378cef5251d5f	0.3042485612863483
27	0xbfbe64943644493e	-0.11872221302863736
28	0x3fc083606ba722ca	0.12900929695594804
29	0xbf9fd9f5756ff75f	-0.031104884426887632
30	0x3fc0233f1fadb950	0.1260756401711185
31	0x3fd183136a9a951a	0.27362523470431344
32	0x3fcc34fd9570deb6	0.22036714360159743
33	0x3fc2a90177428d05	0.14578264544716305
34	0x3fd6091a81f47134	0.3443056363191943
35	0x3fbcf8e17a6082fa	0.1131726192256898
36	0x3fce672393b3c678	0.23752255165122782
37	0x3f9ec0bc17a02b51	0.030032099668498905
38	0x3fc460f8bd2c54bb	0.15920933949442947
39	0x3fbfa583dc3245fa	0.12361930967224302
40	0x3fbdbc1318e0d999	0.11615104062443606
41	0x3fdd581de2b50a2b	0.45850321902631447
42	0xbfc1c2f4d5cff822	-0.13876209678704848
43	0x3fe3d89935ebd6e5	0.6201902440213557
44	0xbfb363982e1e6266	-0.07573844076103739
45	0x3fd4d60d78235437	0.3255647347662633
46	0x3fb24e71ebea691a	0.07150947580013103
47	0x3fcbe68666851b3d	0.21797256475312024
48	0x3fc4e29d1cea5bf2	0.16316570197952235
49	0x3fd9bf545c479e5f	0.4023028279466185
50	0xbfa7e3b82894c92c	-0.04665923591018592
51	0x3fd109ffda4ee914	0.26623531645931675
52	0x3fab5f0813c417e0	0.05345940820011186
53	0xbfa4dd74e6bf697d	-0.04075208012337137
54	0x3fdb62c07f2215ce	0.4279023400816556
55	0x3fcc0ea0db910d07	0.21919642182374607
56	0xbf9078957bcdcac1	-0.01608499115122686
57	0x3fd4ede7d7fc2e41	0.32702060787480397
58	0x3f9b6927c5e4e90b	0.026768323377134567
59	0x3fde88158d5cdb74	0.4770559196944568
60	0x3fb9286b393716d6	0.098272992580941
61	0x3fb32a73d45ef434	0.07486652312123071
62	0x3fdc3ef2a30269c7	0.4413420287980014
63	0x3fa56128a9d6d324	0.04175688813430714
64	0x3fd62d6bd0ce1c68	0.3465222872841367
65	0xbfd139437786400e	-0.2691200892668356
66	0x3fdd37a27f1e2a44	0.4565206757912714
67	0xbfc4e7233cf21f65	-0.16330376125210502
68	0x3fcb15527a919736	0.2115882013778731
69	0x3fd75f06655a2fdb	0.3651748647469028
70	0xbf7dd1c8a17e0673	-0.007280143465210653
71	0x3fc1cbe969e5c468	0.13903539343621962
72	0xbfd10aabbcf537e2	-0.26627629712026935
73	0x3fac483ead060f91	0.05523868429284485
74	0xbfb2ca76d7ebd8f7	-0.07340185901179895
75	0x3f9a79ff2cdaf57c	0.02585600577616763
76	0x3fe03e15444aa3e4	0.5075785001582713
77	0xbfeced70f80c8dfb	-0.9039845318515626
78	0x3fc28df485e847d4	0.1449571279377425
79	0xbfd129a7f3575544	-0.26816748393806145
80	0x3fd174cf1ac4b20b	0.27275445570083495
81	0x3fc4e4808ab30e80	0.16322333118852228
82	0x3fd00a8b76a5216c	0.2506436022418004
83	0xbfd30e6ce37a0045	-0.29775545324810465
84	0x3fd716497264b8de	0.3607352845309729
85	0x3faa2f9982397969	0.05114440645842217
86	0xbfb75ce3c1b37787	-0.09126113394765244
87	0x3f8094be96e3dee9	0.008096207599450138
88	0x3fd5a1670c97b1f7	0.3379762289976322
89	0xbfb944a53bd60e6e	-0.09870369635432905
90	0x3fe0955fc4a71ec9	0.5182341423869384
91	0xbfbc6b0f522634cc	-0.11100860362622028
92	0x3fc51fd57c57f968	0.16503399440257316
93	0xbfc1c88fc4421721	-0.13893315394323572
94	0x3fc6a9040f3067cf	0.1770329546132516
95	0x3fd1cac256a216c0	0.278000435450263
96	0x3f9daff16ccd324f	0.028991482034415757
97	0x3fc5823fca885b20	0.16803738965310178
98	0x3fd24f9564fef43a	0.2861073957718109
99	0xbfb4f27d9e5ffb0a	-0.08182511440825749
100	0x3fc18908af5f4db8	0.1369944435415229
101	0xbf960a913815d5f5	-0.02152468590562325
102	0x3fd1dc66a8dc2412	0.2790772103331288
103	0x3fd23703e5b920bf	0.2846078627958483
104	0xbfbaf1e04f97a129	-0.10525323813601929
105	0x3fe09bb579f8f8ef	0.5190074331547104
106	0xbfce2087a26a4831	-0.23536773138454373
107	0x3fbf286e194a3323	0.12171066396167567
108	0x3fcb336fd63dab55	0.21250722847920636
109	0x3fcdf783842d88f3	0.23411601976392368
110	0x3fb04421133b76e4	0.06353956908739239
111	0x3fc0635c99acca4f	0.1280322790494943
112	0xbfa8fee403ed878c	-0.04881966159770376
113	0x3f89c8f76ece5bdf	0.012590344494851578
114	0x3fbe0a5da1f1ab0e	0.11734566882811867
115	0x3fa8f9e9c4b8995e	0.04878168608074661
116	0xbfb004eeca0a8690	-0.06257526810306957
117	0x3fd1eedba28449f2	0.28020373221184436
118	0x3fe1e36e5fadfa30	0.5590125912420429
119	0x3fb1a938c45f2d13	0.06898836893303821
120	0xbfaba3a9d244bc7a	-0.053983027379552476
121	0x3fda5f8e5d2d3536	0.4120822820594471
122	0xbfb4b391b99fe12d	-0.08086500913475865
123	0x3feb08e8c1c1a4fe	0.8448375496201661
124	0x3fa1d2ec6dae8eb8	0.034812343968295634
125	0x3fd4c87d9486682c	0.32473697189709827
126	0x3fd95d6c769c556a	0.3963271292025953
127	0x3fcb7f33946b3d64	0.21481938120858068
128	0x3fdc58865b9b3970	0.44290312715465685
129	0x3fcb1838aeed6690	0.21167667905210807
130	0x3fd8e6a0b1b78382	0.3890763984218709
131	0x3fe111fa88732ca7	0.5334446587597953
132	0x3fc29aff66ed0baf	0.14535515332872026
133	0x3fd2ec60aaece931	0.2956773442453083
134	0x3fc6f48a6ca1703d	0.17933779052953183
135	0x3fd25989c52b7572	0.2867149758802362
136	0x3fd41702685616a1	0.3139043826016437
137	0x3f83bd88779a1d85	0.00963884940143945
138	0x3fd371e1dd4138df	0.30382582289611365
139	0x3fdc08b810c29b40	0.43803216587769
140	0x3fe33551a5e12504	0.6002586593469066
141	0xbfe461d445e65363	-0.6369420399883946
142	0x3fb59bbd877bf109	0.08440765912741112
143	0x3fa59ad5d9d91e56	0.04219692501333998
144	0x3fc166fe17fe2b96	0.1359555833008385
145	0x3fcfe39b4259ddbd	0.24913349857136594
146	0x3fd0f8fd1be65485	0.26519706463415843
147	0x3fb665b13e34aebe	0.08748920220085218
148	0x3fd846f88cc99cf1	0.37933171986374165
149	0x3fba7492f17d3591	0.10334127803544947
150	0x3fc9ee4ae81f66ca	0.20258461317171444
151	0x3fa42e905ec3a98c	0.03941775471487849
152	0x3fa4d1ccc9982230	0.040663146599460354
153	0xbfa0ec22aef97c00	-0.03305157075805454
154	0x3fcef2d7c48904f8	0.24178597542235258
155	0x3fc62ac62f24e9d3	0.1731803636738066
156	0x3fbff06aa9e497d0	0.12476221702362911
157	0x3fc8fdf75d8f8788	0.19525043552772225
158	0x3fd29ce97b646c44	0.29082715082194377
159	0x3fb6853766cefa4d	0.08797022113774595
160	0x3fb5db5c14950f41	0.08537841322418861
161	0x3fe22291ce86753f	0.5667199166961508
162	0x3fd19dde489c0530	0.27526051607863433
163	0x3fdce59dd2541e87	0.45151467838193365
164	0x3fd6e3e4101d2dd5	0.35765935491209905
165	0x3fb019096b6837a1	0.06288203117602943
166	0x3fd30c3b5e2e2ecc	0.29762157628350105
167	0x3fca37d4215be013	0.20482875470020243
168	0x3fb8520d9c344b5f	0.09500203193264899
169	0x3fcb6a8ea62f0639	0.21418936838567662
170	0x3f8664018410ad48	0.010932933657463409
171	0x3fd83ef20fc0c5e2	0.3788418916547852
172	0x3fd40f0c36154247	0.31341843873545766
173	0x3fd6d6cc67d567c8	0.3568602575302262
174	0xbfcaacfee3753883	-0.20840440851538142
175	0x3fc3bd7458870390	0.15421919176699506
176	0x3fd3c7b1fc290d64	0.3090634310248872
177	0x3fd0fc03b2643ff4	0.2653817407708623
178	0x3fc54835cb7626c5	0.16626617846150374
179	0x3fcdc03db89ce7ec	0.2324292327337497
180	0x3fd39dc66e9db412	0.30650482942911694
181	0x3fcd967103600659	0.23115360894012119
182	0x3fc7b472885ca370	0.18519431741995218
183	0x3fc3d42a1ce9fb93	0.15491224681678925
184	0x3fd0e5445725a2ec	0.2639933444066134
185	0x3fc9a4231d1c3efc	0.20032156869319084
186	0x3f686797a8e4623d	0.0029790842155643913
187	0x3fd1c5c721df722b	0.27769640262502787
188	0x3fe14f434735b9f4	0.5409256354158161
189	0x3fcd493cb57d293e	0.22879752027285777
190	0x3fb554030c0ee1de	0.08331316990268742
191	0x3fcbd95e53142fbc	0.21757105881294858
192	0x3fb0137111b85eea	0.06279665644285229
193	0x3fb111770dd25dd3	0.06667274558491636
194	0xbfc239237297067b	-0.14236872763835948
195	0xbf8ff8d38be33b06	-0.015611317354709008
196	0xbfb01408966f5dad	-0.06280568764429147
197	0xbfa841b3e5e5d8af	-0.0473762720238694
198	0xbfbd6f3d7cea549c	-0.11497864055339097
199	0x3fa00de680d89b92	0.03135605166271839
200	0xbfb7e053c5ed2c60	-0.09326671201886105
201	0x3fa7a29e09e26dac	0.04616254683170537
202	0xbfb71057159ebd4b	-0.09009308126291164
203	0xbf7bbfcc0de68ef7	-0.006774708830935109
204	0xbfb58cd3b00555fd	-0.08418009803184386
205	0xbfa7783936864dc4	-0.04583910742362776
206	0xbfa1a17ee5994dd0	-0.034435239340975365
207	0xbfb092ddbcf92530	-0.06474099982837767
208	0xbf834b1a3379315d	-0.00942059011062984
209	0xbfa4ccffd62d0f0b	-0.040626521009953086
210	0xbfa5a9d12b67cf63	-0.04231122641422649
211	0xbfad4bb3e703a91f	-0.05721819109915515
212	0xbfbfcb79f98e475a	-0.12419855444593733
213	0xbfb1f8a2d65e6f79	-0.07020013555159989
214	0x3fa2a0ec16941427	0.03638398910155898
215	0xbfb10795bb4bc5a3	-0.06652198622375365
216	0xbfc104bc6583a9cd	-0.13295702893021968
217	0xbfb3f4925b0d0347	-0.07795061800881085
218	0xbfb4a092f75c0486	-0.08057516612099577
219	0xbfbcb3512b692747	-0.11211116132576847
220	0xbfb435f62d307116	-0.07894838908436372
221	0x3f604f22cb54887c	0.001990859944855093
222	0x3f8f243a0bf8d35a	0.015205815782886201
223	0xbfb4aff24643fae2	-0.08080972876994566
224	0xbfc1095eeb4ae4f3	-0.1330984734429773
225	0xbfc13d93c6ec118a	-0.13469168866152997
226	0x3f96d60b21f0476b	0.022300886103102806
227	0xbfc2bdc29879e6d3	-0.14641601987005134
228	0xbfc33a78d925d147	-0.15022192576328505
229	0xbfa20444443e6334	-0.0351888020806598
230	0xbfb1c2897ec2d1f3	-0.06937465042830819
231	0xbfb3f2c18e5dd6eb	-0.0779229137968646
232	0xbfb30636e4ff38cb	-0.07431357470270254
233	0xbfc0e8d829e8402d	-0.1321058468461173
234	0xbfb11ad82be556f6	-0.0668158633391974
235	0xbfbb43b31e282e17	-0.10650176512006514
236	0xbfc01783a05218f2	-0.1257175953689465
237	0x3f841de87030450a	0.009822669910166688
238	0xbfbcc4fb75f33d48	-0.11238071088449886
239	0xbf69192d6f00087d	-0.003063763368119031
240	0x3f762505602ebc54	0.005406399725799
241	0xbfc22baa50f4949e	-0.14195755913639102
242	0xbfc68a6a9ff2914b	-0.17609913644731487
243	0xbfbf2c3ab17d5ae6	-0.12176863511318067
244	0x3faf53bf4c0f89a4	0.06118581584429997
245	0x3fb28e018a309874	0.07247933982634597
246	0xbfaeae675b628207	-0.059924344926233934
247	0x3fa6f6ac1da6fed0	0.044850710506123215
248	0xbfc24fe090080d47	-0.143062658622606
249	0xbfbe5328f6a00488	-0.1184564210998521
250	0x3fa776c9e5de00b7	0.04582816058155131
251	0x3f7fddaa73354622	0.007779756374775045
252	0x3fa3988ca5ec9093	0.03827323460998957
253	0xbfb643e7b800e5a1	-0.08697365038178485
254	0x3f96607fedea2a00	0.02185249223343
255	0xbfc08647dec9334d	-0.12909792307109527

lin2.bias f8 [64]
0	0x3fd9466133caa14e	0.39492063577428815
1	0x3fc621219343b783	0.17288608256006563
2	0x3fcbf90987b7c443	0.21853751303527433
3	0x3fa0eceb9ab6d13d	0.03305755866623137
4	0x3fd1f300c60d7f32	0.28045672741972105
5	0x3fd30ce6e67c2f28	0.297662472804165
6	0x3fb73816d254bec5	0.09069960246119553
7	0x3fc66cba540077b9	0.17519311048175526
8	0x3fcc3575d9a3209e	0.22038148047272882
9	0x3fd2e7a0decc42b1	0.29538747556311323
10	0x3fd2a26e4877d4ec	0.2911639888473718
11	0x3fd4f582a394f3f5	0.32748476004400057
12	0x3fd8178b0a4b155d	0.37643695836262286
13	0x3fc52df417d76a3c	0.16546488918432256
14	0xbf9c7834f552a30d	-0.027802302811923463
15	0x3fd6a3d599be6d44	0.3537496568112213
16	0x3fd293194321684e	0.2902281909533756
17	0x3fdc0831a93f2601	0.4380001213836238
18	0x3fdb2e2b5ecff262	0.42469295748722946
19	0x3fd8385c32cbcdb8	0.3784399505668392
20	0x3fd8444306d64aca	0.37916637103732553
21	0x3fcc4d52ac2d8330	0.22110970885389625
22	0xbfc19d998dfd1606	-0.13762206490552858
23	0x3fca6c8bc28785aa	0.2064375591135506
24	0x3fdea46a52cb16ea	0.4787851151016712
25	0x3fd706b958fa1c9e	0.35978540124092173
26	0x3fd61f32c141f124	0.3456541907578574
27	0x3fd2e17023daa41c	0.295009646428811
28	0x3fd97ecfb3b8fff6	0.3983649497131404
29	0x3fd2cc19f7ecb730	0.2937073632373197
30	0xbfb39b9a06af44ac	-0.07659304297637232
31	0x3fd044f0b06b2729	0.25420777538657774
32	0x3fbd521e188fd512	0.11453426456121843
33	0x3fd50a1251ddb903	0.32873971934067486
34	0xbfaa7470866fab75	-0.05166961327616707
35	0x3fd9d60a95b744ca	0.4036890470570823
36	0x3fd11c7d9adcd18b	0.2673639309243973
37	0x3fd1569c598537ea	0.27091130010819475
38	0x3fc8a24da5ed4608	0.1924531040372559
39	0x3fca99d517bd9e7d	0.20781959208692405
40	0x3fdad6aaea4286fd	0.4193522727674546
41	0x3fc33c7acbd5b7bf	0.15028319313881686
42	0xbfb84515445c1594	-0.09480412405908673
43	0x3fd474319838b131	0.3195919024026522
44	0x3fcd1d23e305a225	0.22745178780611855
45	0x3fd5e8c259f55dbb	0.34233149323469164
46	0x3fd9c0a4e875a8fe	0.402383067141855
47	0x3fd436354aef2adc	0.3158086044101489
48	0x3fd711ea8ee25459	0.3604685206749472
49	0x3fd5fb8e65c3d748	0.34347877443302766
50	0x3fc23de1855401d1	0.14251345644153315
51	0x3fd318e31dda0bf0	0.29839399256905974
52	0x3fd03595a14050f5	0.25327053782645176
53	0x3fd35b6e86bea9f2	0.3024555507533072
54	0x3fd14fa4b6f93409	0.2704860483980274
55	0x3fd232ee8ffe1f30	0.28435863553794416
56	0x3fd282f179b34ab1	0.28924214253235464
57	0x3fde2bf2eb90675b	0.47143242840103533
58	0x3fd75e01c9696b0d	0.36511273068542566
59	0x3fd3f34e9e6b22fe	0.3117252871566477
60	0x3fd6bfb64687f9ef	0.3554511727124056
61	0x3fcd0ca2aa7a8487	0.22694810222768444
62	0x3fb7231238c123db	0.09037889371496936
63	0x3fb9e92122c92587	0.10121352290402373

lin3.weight f8 [16, 64]
0	0xbfc8379465791900	-0.1891961570237939
1	0xbf84330bffb6ef7a	-0.009862989178934124
2	0xbfbb157712a1d402	-0.10579628186117421
3	0x3faedbb2ec5ce17d	0.060269919731982015
4	0xbfe9e1271323c0af	-0.8087344526120627
5	0x3f77efa87a473cf2	0.0058437901647743085
6	0xbfb14af4cc1638fe	-0.06754999144161286
7	0xbfed7c1e0f261fe6	-0.9214010520818163
8	0xbfe17ab267d2bec9	-0.5462276485249841
9	0xbfc625121bcbeea8	-0.17300630910164227
10	0xbfb33f7e0eaf7fa5	-0.07518756731542327
11	0xbfb145c73401c912	-0.06747097987844011
12	0xbfdd2869d1cd3dc4	-0.45559163559388716
13	0xbfd3fedc8d86473c	-0.3124305135798868
14	0x3fa12a9a232b5481	0.033528153222200714
15	0xbfbf2ce74fcb36ed	-0.12177892397013652
16	0xbfb191490d0ff402	-0.06862312859443878
17	0xbfc44abeb79793de	-0.15853103603799829
18	0xbfd250b8849568a9	-0.2861768049966807
19	0xbfcfbbb95348b476	-0.24791637961007823
20	0xbfbd4f351ba41f14	-0.11448985981780552
21	0xbf92903ac4e25261	-0.0181283171337604
22	0x3fb4edc78bf95b03	0.08175322692236979
23	0xbfa1e1f4cb47d1c7	-0.03492703420116388
24	0xbfe156be513bbc87	-0.5418387972439555
25	0xbfb2944ddad5828a	-0.07257544129016416
26	0xbfcc03b70aa67b62	-0.2188633729938046
27	0xbfc097c6e4facb6b	-0.12963186436317228
28	0xbf9665ccaf86d235	-0.021872709477707104
29	0xbfe2ae14a249b21d	-0.5837500734028854
30	0xbfb14858d52b954c	-0.06751017765380601
31	0xbf90875a4be51a08	-0.016141329653033082
32	0x3fb0d95fdfa29b6e	0.06581687173694004
33	0x3fb7ab25b1fa2213	0.09245524974006285
34	0x3fbd1e7d341b963b	0.11374647638475548
35	0xbfcc72459751ce71	-0.22223729981088838
36	0x3faa9bc8bfc2dbc4	0.051969788940759126
37	0xbfe9becb384e726b	-0.8045402621970202
38	0xbf9fdf51bd2a20b9	-0.031125332995117747
39	0xbfcf3f9ce7c2a3b6	-0.24412881199284947
40	0xbfa303e1f53d7832	-0.03713899725583793
41	0xbfbacd820a4ee6cb	-0.10469830276170027
42	0x3fbaef5d431d75cc	0.10521490944434858
43	0xbfbd371a9e7fb818	-0.11412207002260322
44	0x3fb2ad8a3db88dfa	0.0729605103193122
45	0xbfd5ba94c2861d0b	-0.3395130061766884
46	0xbfb3f924517cdbe6	-0.07802035321661513
47	0xbf8f8887d9849be3	-0.015397130323050184
48	0xbfcf07f98f9d2415	-0.24243087303537494
49	0xbfd948329b1d4411	-0.3950315966404228
50	0x3fbd1c32f89460f1	0.11371153420293802
51	0xbfe375b7f602b029	-0.6081199459927166
52	0xbfbe6fbb5eca5917	-0.11889239372462544
53	0x3f9762850889eb6a	0.022836760183490602
54	0xbf97883429f287bb	-0.02298051363016616
55	0xbfdcc3e6ba5bbed6	-0.44945686530171025
56	0x3f811f15f79ea375	0.008360072726490956
57	0xbfe1bb12b6bf0182	-0.5540860718975156
58	0x3f8f4e782013b172	0.015286386946592432
59	0x3fb8a0b7ef9d3c91	0.09620236968952357
60	0xbfc3f77d6ca5072c	-0.1559902935496721
61	0xbfdc77d2f4eff6a5	-0.4448134796110515
62	0x3ff07902d643ef45	1.029543721174336
63	0xbfe236e985d64091	-0.5692031492235562
64	0x3fb1a6c9097ac70c	0.06895119172511616
65	0xbf90698512463270	-0.016027526131028258
66	0xbfc654da3f04fd0c	-0.17446449353335713
67	0xbfc2fff65f6766b8	-0.14843635233301256
68	0xbfca69e314fb72fd	-0.20635641598246215
69	0xbfc83d5a250dbf0f	-0.18937231835615662
70	0x3fbfb30937c0a85b	0.12382562266489698
71	0x3fd43526f11691df	0.31574414771810483
72	0xbfcffd3387ebf0ec	-0.24991459023284024
73	0xbfe9d2bd2ef4f5b0	-0.8069749753118938
74	0xbfab349d194ce56e	-0.05313578542559126
75	0xbfad941b9e2f5b53	-0.057770598468485666
76	0xbfce6c19bb8accf6	-0.23767396600087637
77	0x3f74804f3d08e332	0.005005177998605602
78	0xbf88428886ae928a	-0.011845652208486674
79	0xbfd2d144b077e9c8	-0.29402272446864375
80	0xbfc43ccb3d4d7e39	-0.15810528271957638
81	0xbfceed1c6680c90d	-0.24161105160744292
82	0xbfbc3f81ef91233a	-0.11034404848863924
83	0xbfb8f3cd895c2542	-0.09747013667597051
84	0xbfc97b8191b105a4	-0.19908160795061491
85	0xbfa1ed8436a98ae5	-0.03501523177398783
86	0x3fa9581a8a8d4861	0.04950030270869444
87	0xbfc823b0e2922e70	-0.18858920157468928
88	0xbfc06067f70d75c3	-0.1279420810996453
89	0xbfd0164780952698	-0.25135982090851305
90	0xbfc97ed95a3c3b3e	-0.19918362527865868
91	0xbfccc07729055638	-0.2246235800072769
92	0xbfc80cd4ca50e628	-0.1878915775176193
93	0xbfd2711bc1fe65da	-0.28815359062863666
94	0xbfa9987f60e7900f	-0.04999158914486667
95	0xbfb707e3325ea07f	-0.0899641035053964
96	0xbfc9a9a8c70e7347	-0.20049009055665065
97	0xbfd76f93ea745b6f	-0.3661851682276653
98	0xbf8103113af0e5b0	-0.008306631671177594
99	0xbfc6692f3bde8895	-0.17508497641853596
100	0xbfbcde643a024090	-0.11276842514257823
101	0xbfda0208b2097292	-0.40637414347092105
102	0xbfb9bf944fe6d00d	-0.10057951880190803
103	0x3fa97f8e07ea0102	0.049801290956567726
104	0xbfce528b75ae1c41	-0.23689406629657309
105	0xbfcc58ac64ff203c	-0.2214560979030028
106	0x3fab324becfe0e45	0.0531181074902887
107	0xbfbe56c97972672f	-0.11851176466953171
108	0xbfca01dddc16662f	-0.20318196531734276
109	0xbfbb854d51c62055	-0.10750277754243716
110	0xbfc95e9576a0f569	-0.19819896976870702
111	0xbfc3cd590bea3c56	-0.1547042186907414
112	0x3fbd1675d203c1a6	0.11362396600066535
113	0xbfd2b017adc6dcc7	-0.291997832969582
114	0xbfd5ca87f9f93d24	-0.3404865208767254
115	0xbfe2abb2d47d1756	-0.5834592962425897
116	0x3f9362fd028cc240	0.01893229797423346
117	0xbfd19e37e9f764f6	-0.275281885607526
118	0xbfbf5d18beaf4e2c	-0.1225142922915487
119	0xbfd6693236f2d0f7	-0.35017066350998455
120	0xbfd396df05b0cd59	-0.30608344608045496
121	0xbfe19dd154a96694	-0.5505148557233093
122	0xbfd155de266e9be1	-0.2708659529984612
123	0xbfc6ade400eaf7ed	-0.17718172116104772
124	0xbfc77651680edd63	-0.1832982786270164
125	0x3fcfc16b5cb353ba	0.24809019113913938
126	0xbfce0e3fcd2f1355	-0.23480985182518546
127	0x3fc824a74eea0c1e	0.188618577511165
128	0xbfd0f637a5cbd964	-0.2650279158691744
129	0xbf910fbb1848dcea	-0.016661570889678602
130	0xbfd2602716e30c2f	-0.28711869463967593
131	0xbfa5fb520be6998a	-0.04293304820321271
132	0xbf9016bbeaedf32b	-0.01571172353168319
133	0xbfcfdde360f0566d	-0.24895899041500816
134	0x3f79b583317c1b77	0.006276619409397158
135	0x3fd29edba6783769	0.2909459233932155
136	0xbfa6ebced92f9e05	-0.044767822277034276
137	0x3fcac9bc2b10aa25	0.20928146460330868
138	0xbfc766f9357c155d	-0.18283000098760285
139	0xbfcc3584f2176b91	-0.2203832799994783
140	0xbfc9b26000747e3f	-0.20075607320994668
141	0xbfc7cb62768b0126	-0.18589430607063057
142	0xbfa6191d77800a19	-0.04316036304227939
143	0xbfbcecced2066d7f	-0.11298840167585487
144	0xbfc3c167e6f97dd6	-0.1543397786908673
145	0xbfba010477be5217	-0.10157802508758383
146	0xbfc3d68d391439f0	-0.1549850968080615
147	0xbfcda264aea8fe60	-0.23151834991766673
148	0xbfcbbce045785db4	-0.21670153991793273
149	0xbfd1ffa07e078ddd	-0.2812272291905325
150	0xbfc025ca7c29f7c3	-0.1261532884854529
151	0xbfc6bd8f23ff0417	-0.17765988595604718
152	0xbfb939e006040470	-0.0985393538176298
153	0xbfd01a46beea5c23	-0.25160378116692267
154	0xbfce9059c9ab0b6e	-0.23878023478581717
155	0xbfccf72ee1d81035	-0.22629343059100085
156	0xbfd0528d09b9e2c2	-0.255038508890305
157	0x3fb7975c45229f38	0.09215332687255973
158	0x3f91175d0db1adc7	0.01669068714219948
159	0xbfd1901bb2753df7	-0.2744206660035781
160	0xbfc1eada202e4661	-0.13997961589170685
161	0xbfbd66b056030522	-0.11484815692803754
162	0x3fae04be0c66be26	0.058629931463084525
163	0xbfbe164398120d65	-0.11752722227725128
164	0xbfaa6fd7b00fb04a	-0.05163454078851311
165	0x3fc827eb26b1ab4b	0.18871821774822659
166	0xbfd77b5b67251b4c	-0.36690411637066656
167	0xbfbf62b136f86c50	-0.12259967414904449
168	0xbfc6e27941551819	-0.17878642740305464
169	0xbfd3bc81b575a9f5	-0.30838053436914886
170	0xbfbaa16bbcf71bdb	-0.10402558673295863
171	0xbfc7b25522eaa25c	-0.18512977795514274
172	0xbfc021c16bf2e2d0	-0.12603013773857308
173	0xbfc05f3a59e8706a	-0.1279061259273278
174	0xbfbd5947c25cc6a3	-0.11464355940986563
175	0xbfc4693fd9cbfea3	-0.1594619573079302
176	0xbfc5e2e48e22689f	-0.1709867185607594
177	0x3fd7a19f938b1037	0.3692397061206551
178	0xbfd9a9ebb6c55e6c	-0.4009961399910711
179	0x3fc9b08370b18d3a	0.20069926264395993
180	0xbfd14c3feec935ac	-0.2702789146322526
181	0xbfd53932f3c6c0d5	-0.3316161518696508
182	0xbfd4fe0a5109f6ba	-0.32800538934666756
183	0x3f80c5caaa6fec73	0.008189757658320062
184	0xbfcaf3693e9626a5	-0.21055331760390064
185	0xbfb5349bc7270036	-0.08283399211995932
186	0xbfd5705f3f6d6dd7	-0.33498364633643746
187	0xbfd226d119ff80c0	-0.28361918963311084
188	0xbfbaa750b4e030c5	-0.10411552825843547
189	0xbfd045ad654a7729	-0.2542527665299184
190	0x3fd019b76b5a1b1e	0.2515696094855445
191	0xbfbc5054800a7e9d	-0.11060073972702829
192	0xbfcd7bbad44b1430	-0.230338433893992
193	0xbfdb69d4bd50b31c	-0.42833441245856974
194	0xbfd0c4490140862e	-0.26198029634733444
195	0x3fc0533604f1a059	0.12753939858817168
196	0xbfafefc000036140	-0.06237602234040418
197	0xbfc0904ef00f3921	-0.12940394136098468
198	0xbfaa40a8f96170f4	-0.051274567071887406
199	0xbfd3a7a777670ede	-0.30710779819876943
200	0xbfc0b793b0a5f04a	-0.13060232282066614
201	0xbfd32338957eb858	-0.2990247211372483
202	0xbfca1b73acaa7166	-0.2039627640814487
203	0xbfc25c8758b3140e	-0.14344875174552424
204	0xbfc45ff13f081eca	-0.15917792871208852
205	0xbfc9936fb7f4ed58	-0.19981190187705056
206	0xbfb171b90959e2ce	-0.06814152220057254
207	0xbfc28219eba03dde	-0.14459537511036918
208	0xbfbf50f10e15a45a	-0.12232882112370316
209	0xbfb2ce0fb5e404ac	-0.07345674696627452
210	0xbfc927470b6c8414	-0.1965111547260966
211	0xbfcf1c064cca3387	-0.24304274320129712
212	0xbfd4a956fe30b98d	-0.3228356821372465
213	0xbfc6cc814964461c	-0.17811599811152312
214	0xbfa925576579f5db	-0.04911301721311264
215	0xbfc3a147596e68b9	-0.1533593355823706
216	0xbfc4a0cea86d0e84	-0.1611574480431167
217	0xbfcb5b729f38c407	-0.21372826361178474
218	0xbfc95c1008520110	-0.1981220284105878
219	0xbfd578598c013d61	-0.3354705683932107
220	0xbfc6301108f77372	-0.17334187448332333
221	0x3fd896d40a8175e6	0.38420582796047
222	0x3fb597a4f500c4da	0.08434515935438772
223	0x3f899bac7efc1a8e	0.012503955483692122
224	0xbfcd322246776b04	-0.22809246483560497
225	0xbfd3e3833b00cd93	-0.3107612682535656
226	0x3fa180f7f4276856	0.03418707709688877
227	0xbfd1db5c4fc6aeae	-0.2790137080253129
228	0xbfb1ae1ce7900911	-0.06906300214180684
229	0x3fdda8f8eb83a04b	0.46343825339727535
230	0xbfc956d4b4fb22a4	-0.19796236836397896
231	0xbfd440aa57052f3c	-0.3164468622023724
232	0xbf95a29d3ec25be2	-0.021128136592405762
233	0xbfccc5dfa648d0fb	-0.22478862399442065
234	0x3fbc6fb9b317fe35	0.11107979414372766
235	0xbfccc98fd17747b1	-0.22490117767170895
236	0xbfc8a03ccd020ad1	-0.19239006052165178
237	0xbfd5fe5d45a71793	-0.34365016748449156
238	0xbfd58a578f57f6a2	-0.336568727478019
239	0xbfd073ccfa4be7e3	-0.2570679134656741
240	0xbfa9d5af2cdec80a	-0.05045840666515751
241	0x3fbc391bf38315c1	0.11024641699903893
242	0x3ff3928756c8b9cb	1.2232736005786247
243	0x3fa009fc8d7068eb	0.0313261912017014
244	0xbfc5d3f29cb7b6f0	-0.17053063060978202
245	0xbfc13e917b9b6605	-0.13472193274974145
246	0xbfbcc7b12fd9075c	-0.11242206018598949
247	0xbfb2962418eb9f0b	-0.07260346992881865
248	0xbfc6df98d5023096	-0.17869863892372412
249	0xbfb751eb2bdad857	-0.09109372921634083
250	0xbfb979d4e05e3b50	-0.09951525190102228
251	0x3fb58f5cdf70efe8	0.0842187924872061
252	0xbfbe2f0338f912ca	-0.1179048551649188
253	0x3f9bf84ba159c447	0.027314359400808532
254	0x3ff119fe7125ef46	1.068846170411193
255	0xbf62a63993a86bc4	-0.0022765278383878058

lin3.bias f8 [16]
0	0xbfd06b57b767ab6f	-0.256551674944311
1	0xbfd18f5699301b99	-0.2743736740089218
2	0xbfac01eb47564958	-0.054702141245018765
3	0xbfb760a8f8888715	-0.09131866519649308
4	0xbfbb89a29aca3b73	-0.10756889609386437
5	0xbfd268348940a04d	-0.28761018184241466
6	0xbfb4fedf0c3af963	-0.08201402710526433
7	0xbfbfa831781d4721	-0.12366017515639928
8	0xbfbd49e3a6542bea	-0.11440871058236693
9	0xbfced067d071abce	-0.24073503187113804
10	0xbfc4fca8162bc05d	-0.16396046717227622
11	0xbfb89232ba031e79	-0.09598080674470023
12	0xbfbca75209fb62dc	-0.11192810767841926
13	0xbfd4cfb8c08af3d8	-0.3251783256817453
14	0xbfcd7cf23d3a64f7	-0.2303755568471286
15	0x3f85a94b37a47fb4	0.01057680858190211
