LP4-MachineLearning/HW_B_2/dqn_action_5000.pth (torch, 54615 bytes, 6 tensors)

lin1.weight f8 [64, 20]
0	0x3fa5768b7eea5174	0.04192005085238551
1	0x3fc70aae559e3723	0.18001345806663335
2	0x3f92f13b8ab7d898	0.018498354283985025
3	0x3fa6c63c18068e90	0.04448116105348021
4	0x3fb35f15b8519c9d	0.07566962957354169
5	0xbf958d9faaae8d9c	-0.021048064034074096
6	0xbfbdc1da8d013f26	-0.11623922293187813
7	0x3f5c6ddd3c66bcdb	0.0017351780421497795
8	0x3fa222f145290698	0.035422839825071495
9	0xbfc904c95df439dd	-0.19545857513044398
10	0xbfd6ac45dfd6e35d	-0.35426470622365064
11	0x3fc7378d4acf7283	0.18138281014298138
12	0xbfca4060bbaa6d54	-0.20508965648046262
13	0x3f91f00d44afd1b2	0.017517287556943102
14	0x3fc47cc0345dbb5a	0.16005709225597792
15	0xbfcfa73b19798d6b	-0.24729098075759323
16	0xbfdb8a619f987bc2	-0.4303211267996937
17	0xbfe08cb7fda34dfb	-0.5171775773873714
18	0xbfb8711189da4ee9	-0.09547528853937205
19	0xbfd66f9b0dbcd4d8	-0.3505618700176689
20	0x3fd066506dfd7c6a	0.2562447618601654
21	0x3f801cb9edb7dbda	0.007867291037639324
22	0x3fc90764d6ab982a	0.19553814393947394
23	0x3fceb898f01dea6c	0.24000846600013703
24	0x3fcd900c402b24e0	0.23095849164227555
25	0xbfd492bf9d7723d6	-0.32145681741218135
26	0xbf9cb7273f2604f3	-0.028042424420623168
27	0xbfd4fd9bd62f58ca	-0.3279790488862885
28	0x3fa4662031d5b626	0.03984165771803942
29	0xbfe39b8c6ca4b747	-0.6127378580037907
30	0x3fd85159d88a844a	0.37996526857938717
31	0xbfdc1ba4055162be	-0.439187054818415
32	0x3fdf5ef921284f4d	0.49017170179398734
33	0xbfc208870c34876a	-0.14088523956257443
34	0xbfd70aa099451711	-0.3600236412788585
35	0x3fd08bc2ae3e2840	0.25853030219935036
36	0x3fae337b446b0b4f	0.058986522771667375
37	0xbf986bdbc24cd260	-0.023848947271476795
38	0xbfca50dbd334b068	-0.20559261143478413
39	0xbfe63280a25bfed0	-0.6936648531991185
40	0x3fe018209426e5ad	0.5029452222435588
41	0xbfc9dcb9c2543cf9	-0.20204851139758498
42	0xbfca9515730c5b3a	-0.20767467610922968
43	0x3fc44d027defaf64	0.1586001505778497
44	0xbfc51678fa90b097	-0.16474830851200714
45	0x3fd71bbf6aaf6477	0.3610685865256253
46	0x3fb96ed4333bbd98	0.09934736491026397
47	0xbfc76ae68ac7750a	-0.18294984604191483
48	0xbfe1187e2f37a983	-0.5342398569312511
49	0x3fd72899dabeae64	0.361853088014618
50	0x3fa518a39a2d4b1f	0.04120360619585583
51	0x3fb99ac92a73f3db	0.10001809393357013
52	0x3fc209714baf5047	0.14091316409633434
53	0xbf85a69d19dfbe8a	-0.010571696617233135
54	0xbfc952e12d5a906e	-0.19784178461589214
55	0xbf78820a3da6e4c7	-0.005983390811189432
56	0xbfcd1af2060e5de8	-0.2273848084994221
57	0x3fd017957e1461d8	0.25143945038283055
58	0x3fa2d68136c4517e	0.03679279130497813
59	0xbfc82859fb724421	-0.188731429840602
60	0x3fa2e0eb228221db	0.036872241938059346
61	0xbf8f607d54e0677c	-0.015320758011558182
62	0x3fd205fb939a230b	0.2816151563097697
63	0x3fb23cb00e68c3a8	0.07123852111614204
64	0x3fea9ba8a3305f07	0.8315013110431843
65	0xbfdb1119abc5cc12	-0.42291871809646964
66	0x3fda18dd51ba8798	0.40776761037170095
67	0xbfe2fb5d8497fe52	-0.5931842412682704
68	0x3fd1d729f8bbc476	0.2787575654065856
69	0xbfd3c192d6f24688	-0.308689794453223
70	0x3fdf9e64122e42ea	0.49404241347751443
71	0xbfd0b20d0854273d	-0.26086736501075675
72	0xbfb83836e6e5418a	-0.09460776459787304
73	0x3fbe0c403a634895	0.1173744337604908
74	0x3fc9d9f6d7445adb	0.2019642401798681
75	0xbfc1cc07dd0e98cd	-0.13903902334022292
76	0x3fe31607ddb64cea	0.5964392977060957
77	0x3fdb822b80d1b4d0	0.429819942283598
78	0xbfe5183c434e01d6	-0.6592084230942941
79	0xbfd95a2964110fca	-0.39612803241857064
80	0xbfc4882ffa32f343	-0.16040610996960866
81	0xbfc819351a29ba30	-0.18826926972856617
82	0xbfc73b6e708f1395	-0.1815012025455444
83	0x3fae8ff566a7b69e	0.05969206693758376
84	0xbfb2d8717390bd78	-0.073615160669524
85	0xbfc7bb5e87f12980	-0.18540555608553788
86	0x3fa4bbece09cbbf1	0.04049625627373377
87	0xbfc01eec0abf4d62	-0.12594366574067367
88	0x3fd01a427e7ce85a	0.2516027674897764
89	0x3fc4128497a08565	0.15681512263931122
90	0xbfd2be515c1e7587	-0.2928660773848936
91	0xbfc2ea2b9a370180	-0.147771311092594
92	0x3fce887cc3b80475	0.23854026371558104
93	0xbfc183b29ae254e8	-0.13683159411144818
94	0x3fc7da3e49eb97e5	0.1863477574290179
95	0xbfd1c916da70667f	-0.2778985150522217
96	0xbfda6e25aed96ec0	-0.41297285151607
97	0xbfe0fb4d24b82ae5	-0.5306764332939023
98	0xbfd2080c331b0ad6	-0.28174118986877994
99	0xbfab774af773332b	-0.05364450712804677
100	0xbf9e699dd9a70684	-0.029699770364237668
101	0xbfb77680e99aa096	-0.09165197089407892
102	0xbfa26b1e7964b97c	-0.03597350341657354
103	0xbfb4ef49605ba3c2	-0.0817762241600937
104	0x3fc5ccc1210fe792	0.17031110872613603
105	0xbf9d241d53888565	-0.028458078597514275
106	0x3fbddb5a540b1932	0.1166283087905853
107	0xbfbcc7ec0b6efa9b	-0.11242556838167632
108	0x3fe61af4fe8b9f1e	0.69079065051935
109	0xbfe553762e8b68c1	-0.6664381894181802
110	0xbfd9e4b7b1cb854f	-0.4045848118094754
111	0x3fdd83d0ba4dd621	0.4611703700423693
112	0xbfc3dcfcbcdd9640	-0.15518149587585306
113	0x3fc6e6dd4604a066	0.1789204208264465
114	0x3fb1359da91ccc41	0.06722436312411252
115	0xbf930c8926075206	-0.01860250753982664
116	0xbfae9918accd5d85	-0.05976178273584324
117	0xbfa81774f56ccfbb	-0.04705396171485129
118	0xbfc1e28527a82574	-0.1397253459584068
119	0xbfe57da2364298dd	-0.6715861377495248
120	0xbfc18c0be912850d	-0.1370863807724522
121	0x3fb3ddae37cd8d4f	0.07760132658363726
122	0x3fcf2f3442b6c138	0.24362805612100558
123	0xbfc988420990f181	-0.1994707628927124
124	0xbfd11cc664024b96	-0.26738128439426967
125	0x3fbca87c6e818155	0.11194589326760725
126	0x3fa5118dadc6e615	0.041149547064787274
127	0x3fc8f3e4c0ce798f	0.19494304098493528
128	0x3fb51733bb53414d	0.08238528560037146
129	0xbfd3c713d7e17b43	-0.30902572710140336
130	0x3fbee024fa199dba	0.12060767274817055
131	0xbf3ebcf1d1ac3980	-0.0004690256479741514
132	0x3fc6eef9149bb8f1	0.17916787630333134
133	0xbfd7680c293b82e4	-0.3657255556736756
134	0xbfc5689b02f5dc6c	-0.16725480694342154
135	0x3fb41c73e38c454a	0.0785591536080307
136	0x3fc46d1ce78392d7	0.15957986168282076
137	0xbfbc8fe4352e64bc	-0.11157060907716504
138	0xbfce0b5ff593599a	-0.23472213259692581
139	0xbfd0e15d3fa7d28a	-0.26375514236796305
140	0x3fcb65f0b5ab50b4	0.2140484702164308
141	0xbfdc2f1403d74d7f	-0.4403734242925665
142	0x3fbf621442b1f25c	0.12259031894968458
143	0x3fc1621e39e6e294	0.1358068258976074
144	0xbfc6160358846f43	-0.1725467855657091
145	0xbfc2bb5773bf8097	-0.14634221221695462
146	0xbfc46c2973f1beb2	-0.15955084000915104
147	0xbfa595ecc55c4df7	-0.042159461109033396
148	0x3fc633ecbc5727ae	0.17345961757956502
149	0xbfdb629c0a0d6871	-0.4278936479728435
150	0x3fd03934317ad0c1	0.2534914477539694
151	0x3fba8e05345dc8f9	0.10372955826258935
152	0x3fb50aac790e8d1a	0.08219411807526847
153	0x3f9aa125a06e410c	0.02600535194102442
154	0x3f7773171d1b215f	0.005724993026611307
155	0xbfe02d829ce4b5ff	-0.5055554451298007
156	0x3f82b6813d652732	0.009137162862902313
157	0xbfd4cb6d4dbfd509	-0.3249161967535917
158	0xbfde919ffc2e7af2	-0.47763824107271013
159	0x3f9d08ca1326d0d6	0.028353841227457398
160	0xbfa6e6ec40d0f78d	-0.04473055163587878
161	0xbf9e27f2ca29bf7e	-0.02944926604180819
162	0x3fb3a3e24b65af3c	0.07671942082168653
163	0xbfb8e7827abffe72	-0.09728255745721429
164	0xbf8df4e3913cdeac	-0.014627244825177264
165	0x3fbeb83c6e4d0661	0.11999871914761108
166	0x3fe026f8768a9476	0.5047571482906636
167	0xbfb7098a314294c8	-0.08998931601179827
168	0x3fa49c04d72b2961	0.04025282980508638
169	0xbfc2d15714fc8a9c	-0.14701355480891187
170	0xbfeaa743e329171d	-0.8329181133965197
171	0xbfd7e2bc9cd9f98b	-0.37321391408468035
172	0x3fc1c4346ddd67f0	0.13880019535537214
173	0xbfc318aef0a8d448	-0.14919077635718936
174	0xbfa182a0b5e0eeae	-0.03419973583410517
175	0x3fb1e34b8ff757c8	0.06987449898528475
176	0x3fd89878945e76a2	0.3843060921588891
177	0xbfc969b917f4cd9b	-0.19853891057719583
178	0xbfa53c23c3fce095	-0.041474454569141596
179	0x3fa6a72a60f92b6c	0.04424412187343915
180	0xbfb7ae821f82255b	-0.09250653523681278
181	0xbfcda447557f7ad2	-0.23157588648515187
182	0xbfc7ae3ac53352e9	-0.18500456456117512
183	0x3fca46bd83da8da1	0.20528382242364976
184	0x3fd0d0cc1f654114	0.2627439791294972
185	0x3fab7b55de68d84d	0.0536753496166261
186	0x3fcc0d1963ea39cf	0.2191497552743855
187	0xbfc95bc1ac3997ff	-0.1981126872007621
188	0x3fc4ae39139ee553	0.16156686265984863
189	0x3fc15356c1528a84	0.13535580100604616
190	0x3fe55d0cbf987da0	0.667608617983138
191	0xbfd7fb4abeb1bb27	-0.37471264479147454
192	0x3f8be4deced6a7e8	0.01362012928696639
193	0x3fb7f71947d1d079	0.09361417773635762
194	0x3fc650e3481fc5c1	0.1743435003441345
195	0xbfdf1e9dc643c8ca	-0.4862436710528867
196	0x3fa80d5033b90b5e	0.04697657233602713
197	0xbfa4d2b49ae6ffcf	-0.040670055302598145
198	0xbfa6f4a5c3af3e88	-0.04483526242949859
199	0xbfd28bc5b08fe346	-0.28978101961506686
200	0xbfc2369ca75aea33	-0.14229162379872803
201	0xbfa92963ea3699e4	-0.04914390787171266
202	0x3fd9bd0edfd0220e	0.4021641908334751
203	0x3fc2d8ce0388d3d8	0.14724135563451912
204	0xbfb86b614707432a	-0.09538848861781149
205	0x3fb3f4b6ca39b13b	0.07795278966085999
206	0x3fec47b736f9d01c	0.8837543557879175
207	0xbfe3e63c25a0e5b5	-0.6218548521930446
208	0x3fa9147d46dbe978	0.04898444643000038
209	0x3fbd180fedd0e055	0.11364841037800606
210	0x3fb83ac8b04174b1	0.09464697173230509
211	0xbfdd5b3b94d68191	-0.45869340453102675
212	0xbfc22959f9119c55	-0.14188694631158918
213	0xbfc40f3b6b30f7dd	-0.1567148469347889
214	0x3f9d44e9d597d75c	0.028583196317377144
215	0xbfbb4d8365539758	-0.10665150855819883
216	0x3fce3231394530e6	0.23590674682998908
217	0x3fa3058cb0188f49	0.03715171479805563
218	0x3fc1e78a83291e25	0.1398785725052544
219	0xbff0dabe1024b2e7	-1.0534039145088003
220	0xbfcf16c7a32bf8c0	-0.24288268535014446
221	0x3fd7fccd87cd1af1	0.3748048616584319
222	0x3fd50ad805abfe6c	0.32878685525790874
223	0x3fd27a0b48e56963	0.28869897955669027
224	0x3fb8763761e591db	0.09555383815820255
225	0xbfcae7e0f62e02f8	-0.21020137806410566
226	0xbfc21bb99db335a4	-0.14147110176274424
227	0x3fccfddc5d0139ec	0.22649721661805644
228	0xbfc0a6a7e4ea0bb0	-0.13008593251660505
229	0xbfabcbf5ee18e8fe	-0.054290471377003144
230	0x3fb1b442c2d1d685	0.06915681129779656
231	0x3fca2c9f36eafeae	0.20448675328770122
232	0x3fcb4e6c4769aa55	0.21333077895117705
233	0xbfcb7e767f93c4ee	-0.2147968409476912
234	0xbfd98e87a71d7e45	-0.39932433433384446
235	0x3fdafe3a564b04d2	0.4217668383317462
236	0xbfdb5d5fba4d9626	-0.42757409280452163
237	0xbf95dafe5e0134fe	-0.021343206870644053
238	0x3fb1280a0cbc1fdf	0.06701720057401371
239	0x3fe14204c35f0f17	0.5393089118810818
240	0x3fc404d5b588d680	0.156397546424774
241	0xbf9b2882e02a6558	-0.02652172558973595
242	0x3fd3617da619fab5	0.3028253671726973
243	0xbfb855e10b31696a	-0.09506041072146379
244	0x3faa2a1b4272193c	0.05110249696831423
245	0x3fbf9d920e1250f5	0.12349808543723724
246	0xbfc89b8310dd845c	-0.19224584887982388
247	0x3fd0a1553e6fc1ed	0.25984698388404476
248	0x3fc735073bb725e5	0.18130579391281212
249	0x3fcdd3fbb901acab	0.23303171666643627
250	0xbfe07eb2c10a3b03	-0.5154660959541107
251	0x3fbd3aa53fc9413e	0.11417610938338371
252	0x3fd70307820525db	0.35955989548946626
253	0x3fb1919cbd608634	0.06862811683142739
254	0x3fcf4c5d963430c7	0.24451799234555535
255	0xbfd1b231fd0a6e69	-0.27650117598543617

lin1.bias f8 [64]
0	0x3fe3e2ee2104d993	0.6214514393712299
1	0x3fc8a2c2569c2512	0.1924670145893193
2	0x3fe07e770b0464c4	0.5154376235178906
3	0xbfcf194892814fa6	-0.24295909074373617
4	0x3fe533086bd0f35c	0.6624796014581125
5	0x3fdecb676ff1dd00	0.48116479808909673
6	0x3fd1e7ca2263b967	0.2797723136744907
7	0x3fc7bbc071c0f8b2	0.18541722826370727
8	0x3fbe30cfec06fe78	0.11793231499086143
9	0x3fe323706592d69d	0.5980760558947683
10	0x3fc94bf9f465e722	0.19763111527918747
11	0x3fc4230af5e11378	0.15731942182369685
12	0x3fe75d7dfcc624f9	0.7301626145355434
13	0xbfe00f2ccb5271c5	-0.5018524142392883
14	0x3fe0a1fcfb787af6	0.5197739516769093
15	0x3fc20a19aa539f65	0.1409332353280163
16	0x3f911818bf610404	0.0166934840019657
17	0x3fdca630ab528c93	0.4476434395857691
18	0x3fc674ef5a992626	0.17544357227079493
19	0xbfab0f12f4ac1951	-0.05284938084337177
20	0xbf9c1843e3a3037b	-0.027436314362379016
21	0x3fc32c0ada0ac448	0.1497815670641407
22	0x3fce00c5a6bdbdc1	0.23439856187495248
23	0x3fdea971e6a6d50c	0.4790920975168127
24	0x3fd59105e08e8671	0.33697649888390574
25	0x3fd81cc9f923e625	0.3767571385393203
26	0x3fc83663bafdae81	0.1891598380128592
27	0x3f960de9e7dff761	0.02153745153190501
28	0x3fd40682de89bea9	0.3128974126075073
29	0x3fc3ae286585fcba	0.15375237424084337
30	0x3fddefd889a0a68f	0.4677640289324722
31	0x3fd59e55b4a30325	0.3377889884978223
32	0x3fd92b3eb205d4f4	0.3932644594672887
33	0x3fb39ac46b496e66	0.07658031100566517
34	0x3fc0a1e7220f13fc	0.12994088328392184
35	0x3fd61526af6ebc4d	0.34504096157156
36	0x3fb5feb0a3a8d649	0.08591751094430679
37	0x3fd56bf36753804f	0.3347137936634725
38	0x3fd3dc69829f9a5d	0.31032788997837263
39	0x3fc94c781f1d50e0	0.19764615554107134
40	0x3fd78bc2c4225734	0.36790532258725084
41	0x3fdbc30c3b3f2c91	0.4337797716695571
42	0xbfdae704b10494b6	-0.42035023962882734
43	0x3fe75d2f1d81ef69	0.7301250053710479
44	0x3fc19c574e714776	0.1375836499233249
45	0x3fc5e5282785fe32	0.171055812166729
46	0x3fb0f2335a4e872d	0.0661956878161873
47	0x3fd5151f81175b82	0.3294142494827882
48	0x3fe2b53ad27b72b5	0.5846227751713601
49	0x3fb7a9164aef22a6	0.09242381410070752
50	0x3fe25fd7e44d8b1c	0.5741996249238102
51	0x3fe5e832638f491d	0.6845943398023199
52	0x3fe5ba6fe1ac4e8f	0.6790084273984166
53	0x3fc3c917bfca483d	0.1545743643260397
54	0x3fe0d8ef56e5cd05	0.5264813134403147
55	0x3f7652d9329a4d58	0.0054501041683069
56	0x3fbe6369c616b113	0.11870442472599434
57	0x3fa952a88c8634d1	0.049458758500898654
58	0x3fd6ebfd7a0b471c	0.3581536952816451
59	0x3fdd5c07ac9b3dd4	0.4587420640573019
60	0x3fd516cdcbacb088	0.3295168389329395
61	0x3fb7be0cf6c689d2	0.09274369263452023
62	0x3fd7a3dde1f78284	0.36937663142274624
63	0xbfc8cac05d3af7a0	-0.19368748237860434

lin2.weight f8 [64, 64]
0	0x3fdf595a0350da3e	0.4898285896664766
1	0x3fd8f85bd4a681c8	0.39015861288683285
2	0x3fd89f2cb70b5829	0.3847152507345322
3	0xbf8a7f34e3a2211a	-0.012937939831559709
4	0x3fd697b878803e03	0.35301028983755617
5	0x3fe7afc596bbb1e3	0.7402065223700983
6	0x3fc76ccafcf7d4dd	0.18300759651143653
7	0x3fd0f3fb6334332b	0.2648914784229414
8	0x3fcd9ca13bbcebb6	0.23134246270077846
9	0x3fd4052050da3b5b	0.3128128804755101
10	0x3fc18cad9f713c50	0.13710565839071132
11	0x3fc826e2c41b2220	0.18868670058715598
12	0x3fe260518717f360	0.5742576254411738
13	0xbfee56a99f8d0bb2	-0.9480789295415575
14	0x3fd167464ffa3b9c	0.2719283848791123
15	0x3fc662b96c5ed99b	0.1748878268387671
16	0x3fdd3afbad095363	0.4567250432785867
17	0x3fc0514c346ef0fa	0.12748100815031888
18	0x3fc04eb1b5930107	0.12740155569009223
19	0x3fb3523a087ff3cc	0.07547342975153909
20	0x3fa0214ae08caeb0	0.031504001532394965
21	0x3fbcdee91621f734	0.1127763442072734
22	0x3fcd2e3876468fc9	0.22797303939034766
23	0xbfca6b6810d7ca78	-0.20640278646859023
24	0x3fc133439e0ba75b	0.1343769571024563
25	0xbfa55dce336c5e24	-0.04173130395627947
26	0x3fd2cd34ebdf7128	0.29377482447104564
27	0xbfc056c2287bcf77	-0.12764765717258417
28	0x3fbdbef9374ebae4	0.11619527435571403
29	0xbfad82a49569e9bc	-0.0576373512639807
30	0x3fb45ada4453dc0c	0.07951130073693963
31	0x3fd1a1cae841e6f7	0.27550003701581666
32	0x3fc93a7596d4e100	0.197096537254545
33	0x3fc5808e3a0a328d	0.16798570474601995
34	0x3fd6ef78495e4ee9	0.3583660809028815
35	0x3fb4e6c5876241e9	0.08164629512089729
36	0x3fcdfa042e8f46c4	0.23419239304944572
37	0x3f9db1a8bf2384d3	0.028998028436835476
38	0x3fc0c3375ab92e76	0.13095752649165932
39	0x3fbca6e1c44907e3	0.11192141573067675
40	0x3fc0308dd379bdd9	0.12648175073580495
41	0x3fdeb2047d41faf0	0.4796153281421729
42	0xbfbbba64c1844268	-0.10831289028670599
43	0x3fe3711bf7aa1819	0.607557281226721
44	0xbfb31bf51320ece8	-0.07464534489638519
45	0x3fd6c51ee50212a6	0.3557812916190336
46	0x3fa9d823c6c9289d	0.05047714044174365
47	0x3fc9c1adb2dbd405	0.2012230990727916
48	0x3fc4665f414ea221	0.15937414826227417
49	0x3fda4a08968c28a6	0.4107686491194137
50	0xbfb0289f22febeb2	-0.06311983684895031
51	0x3fd0d524e8215bd7	0.2630092875382934
52	0x3fa8050dbc8fa9f2	0.04691355635425855
53	0xbfad7ea2f31afec4	-0.057606784988363496
54	0x3fdbeee0c60eaecc	0.43645495740450424
55	0x3fcad081bd59cc44	0.2094881224216768
56	0x3f324f213609b9f4	0.0002793747026207654
57	0x3fd6d294c224d969	0.35660284957284333
58	0x3faf0b9ef866d586	0.06063553602454434
59	0x3fdd276fb5c8b177	0.45553200485553397
60	0x3fbadb73daa3b6ca	0.10491108024481402
61	0x3fb3fc1661885197	0.07806529885448864
62	0x3fe028d9c046cf71	0.5049866443064116
63	0x3fa7284b0cd00c7f	0.045229287447022586
64	0x3fd642ee394ef0fa	0.34783511730689975
65	0xbfd4d00e6eafd667	-0.32519875344528376
66	0x3fdbee3c7c609600	0.43641578813762294
67	0xbfc1f6a96f71e7a6	-0.14034002248427874
68	0x3fc92594e1560b6e	0.19645939829578246
69	0x3fd81d0a184836ef	0.37677242633149793
70	0xbf860261c899d80b	-0.010746730741839646
71	0x3faad1bccde7cdad	0.0523814202641931
72	0xbfd1922005b2ceda	-0.2745437675141439
73	0x3f97615fb11f301c	0.022832389054926336
74	0xbfb7f3da54f6d452	-0.09356464933701261
75	0xbfa20a2861be294a	-0.035233747416969566
76	0x3fdd635d7783e584	0.45918976470382966
77	0xbff03cc90831db99	-1.0148401565654466
78	0x3fc2a0cce04237b5	0.14553223562364584
79	0xbfd2f876b376d1c4	-0.2964150192813373
80	0x3fd6c44eb7cfae13	0.35573165846173643
81	0x3fc3ca7fa89e1214	0.154617268879648
82	0x3fd0dfde2271c51a	0.26366380084717067
83	0xbfd46b079f0191a8	-0.31903257873480095
84	0x3fdaaf7f5b9f006b	0.41696151683209476
85	0x3fa7e78858cea1a1	0.04668832859107686
86	0xbfb7f8097b4c4f08	-0.09362849483687452
87	0xbfb0363730cb7635	-0.06332726422575592
88	0x3fdb0f4f13a96905	0.4228093807229388
89	0xbfb322abee15e16f	-0.07474779665597507
90	0x3fe007593e2421d0	0.5008970464414748
91	0xbfb37c1304dc0d77	-0.07611197346345998
92	0x3fc5266e77d5149d	0.16523533679188498
93	0xbfcac0e2d2e2ec7b	-0.2090114145010807
94	0x3fc553e1c42f85ba	0.16662237243057892
95	0x3fcf7a4c35a1f009	0.24591972941186693
96	0xbf9a90b36e8c5b6d	-0.025942615148859916
97	0x3fc0e45ee28351d0	0.13196931896403763
98	0x3fd114c954d3e3fa	0.26689370426134895
99	0xbfbfe3473ce72343	-0.12456174122702372
100	0x3fc79a534192e587	0.18439713193746973
101	0xbf855aa095b441bf	-0.010426764076812199
102	0x3fd2f9c94d1304e2	0.29649574782167865
103	0x3fd0c821ccd7563c	0.2622150898363065
104	0xbfbb17373460c6fc	-0.10582299259911204
105	0x3fe23a485a857a54	0.5696145790096332
106	0xbfcbeb6f6f4a67c2	-0.2181224149142605
107	0x3fb515a31270235d	0.08236140442035152
108	0x3fd1033aef3f3f3f	0.26582215656252467
109	0x3fcf35f1aad74cf0	0.24383374063345498
110	0x3fb6b99012a68ec9	0.08876896338784514
111	0x3fb3aed9882e1a59	0.07688674521168916
112	0xbfb316f106000ee7	-0.07456880947580267
113	0xbfa4f34b70d3a9a6	-0.04091869118004192
114	0x3fc0b40de79ba8ef	0.13049482163416523
115	0x3fa7d361a1bd9542	0.046534586900444555
116	0xbfb6077738b8cf2c	-0.08605141768276486
117	0x3fd37170f117ad3a	0.30379890007198507
118	0x3fe2265e8361e8d3	0.5671837392867708
119	0x3f6fc64e0a1fa264	0.003878738804804537
120	0xbfadce1d47a86857	-0.05821315288285749
121	0x3fdf1bf47e9188a9	0.48608124122814417
122	0xbfaefcb3cca239f4	-0.060521715860080066
123	0x3fed33a46ab01ffa	0.9125539859533085
124	0x3fa69838d2ca4748	0.04413011143800688
125	0x3fd736058d1954bd	0.3626722219390322
126	0x3fd52e6a21bfed90	0.33095792098875965
127	0x3fd34c21b93f839b	0.30152171221384955
128	0x3fdb95becdc4400a	0.431014729446361
129	0x3fc5ef38e72ecd49	0.17136298454497936
130	0x3fd78f2a3f733345	0.3681131000164906
131	0x3fe0cca5355ecb32	0.5249811212910116
132	0x3fbf2166c7a88e3e	0.12160341619942813
133	0x3fd47ae6bc3e5311	0.3200013006510725
134	0x3fc8cd110f3b0774	0.19375813716584
135	0x3fcbc994ba7b5d67	0.21708926301537732
136	0x3fd928958d92ae08	0.3931020624683872
137	0xbf9c649052db33d4	-0.027727370316643477
138	0x3fd6433078da9877	0.34785091211450186
139	0x3fd809a163d93bcc	0.3755877947887114
140	0x3fe37b0d6ab82e47	0.6087710461010339
141	0xbfe7b17dc7d9f5e5	-0.7404164222095316
142	0x3faedd738cd1fe89	0.06028328985212023
143	0x3fa6525d1bdd10da	0.043597135211287344
144	0x3fca93e5273a5874	0.20763840117860222
145	0x3fc9108d719628c2	0.19581764265269014
146	0x3fd373a16b7a730d	0.3039325284569692
147	0x3fb81c9fb3dbeed0	0.09418676510898227
148	0x3fd6f5c64da7b88d	0.35875089248191544
149	0x3fb1107e1507e9fc	0.06665790570688296
150	0x3fd0264afc2bb4a1	0.2523372137646423
151	0x3fa93e239da1af9d	0.04930220889295287
152	0x3f9b0526119cb61d	0.02638682825561577
153	0xbfab2b3494b451dd	-0.05306400599707548
154	0x3fccb8e2093aacf5	0.22439217997212038
155	0x3fc81642cd430c18	0.18817935011438247
156	0x3fbd5c3442d478db	0.11468817359534304
157	0x3fce58e39cee404d	0.2370876804602652
158	0x3fd1abfd8ff5b8b0	0.27612246569232024
159	0x3faf39c3ee38b4ca	0.06098758967378044
160	0x3faa492bd6d11f2b	0.051339502308620354
161	0x3fe4aa45814367cf	0.6457850956605798
162	0x3fd0b2f72df8ebfb	0.26092319001662617
163	0x3fdd3655ac7866a8	0.45644132464222276
164	0x3fd6ad28cfd15a32	0.35431881231980633
165	0x3fa89cbbb9942cf8	0.048070780185378525
166	0x3fd450a40a4c1f1b	0.3174219227371268
167	0x3fc450126b7daf19	0.15869360207158748
168	0x3fb01d95d49e221c	0.06295143547880183
169	0x3fd0c0537b9ce7b9	0.2617386538655598
170	0x3fa14a65a14d25af	0.03377072900782296
171	0x3fd68c9235d6da3a	0.35232978112927393
172	0x3fd4bee4cb0a9221	0.3241512282204742
173	0x3fd8e6f649a09d9b	0.38909680547882325
174	0xbfced1fc2478cbc2	-0.24078323155262465
175	0x3fc42b4ab02fe9fd	0.1575711593903434
176	0x3fd4022f83a1e2bb	0.31263339857791167
177	0x3fd37d46d128a031	0.3045212786260008
178	0x3fc4ce399fc84476	0.1625434904276834
179	0x3fc6654990c056c6	0.1749660450738501
180	0x3fd2b5840e1e75fa	0.29232884768302336
181	0x3fccd286e963661e	0.22517477413093528
182	0x3fc7f784cbc1e4a1	0.1872411723050265
183	0x3fb923e0235111da	0.09820366728042221
184	0x3fd587624c153538	0.33638818197217146
185	0x3fd04e548a0c69b2	0.2547808979158176
186	0xbf8c08f1b36b81e7	-0.01368893460079419
187	0x3fd33c73f25806b8	0.30056475321189735
188	0x3fe1abf0cd75727d	0.5522388470522653
189	0x3fcce86320b13c76	0.22584189506821745
190	0x3fb6a7cf449ea4e9	0.08849807191167582
191	0x3fc41e71d69e7591	0.1571790979332204
192	0x3fb0137111b85eea	0.06279665644285229
193	0x3fb111770dd25dd3	0.06667274558491636
194	0xbfc239237297067b	-0.14236872763835948
195	0xbf8ff8d38be33b06	-0.015611317354709008
196	0xbfb01408966f5dad	-0.06280568764429147
197	0xbfa841b3e5e5d8af	-0.0473762720238694
198	0xbfbd6f3d7cea549c	-0.11497864055339097
199	0x3fa00de680d89b92	0.03135605166271839
200	0xbfb7e053c5ed2c60	-0.09326671201886105
201	0x3fa7a29e09e26dac	0.04616254683170537
202	0xbfb71057159ebd4b	-0.09009308126291164
203	0xbf7bbfcc0de68ef7	-0.006774708830935109
204	0xbfb58cd3b00555fd	-0.08418009803184386
205	0xbfa7783936864dc4	-0.04583910742362776
206	0xbfa1a17ee5994dd0	-0.034435239340975365
207	0xbfb092ddbcf92530	-0.06474099982837767
208	0xbf834b1a3379315d	-0.00942059011062984
209	0xbfa4ccffd62d0f0b	-0.040626521009953086
210	0xbfa5a9d12b67cf63	-0.04231122641422649
211	0xbfad4bb3e703a91f	-0.05721819109915515
212	0xbfbfcb79f98e475a	-0.12419855444593733
213	0xbfb1f8a2d65e6f79	-0.07020013555159989
214	0x3fa2a0ec16941427	0.03638398910155898
215	0xbfb10795bb4bc5a3	-0.06652198622375365
216	0xbfc104bc6583a9cd	-0.13295702893021968
217	0xbfb3f4925b0d0347	-0.07795061800881085
218	0xbfb4a092f75c0486	-0.08057516612099577
219	0xbfbcb3512b692747	-0.11211116132576847
220	0xbfb435f62d307116	-0.07894838908436372
221	0x3f604f22cb54887c	0.001990859944855093
222	0x3f8f243a0bf8d35a	0.015205815782886201
223	0xbfb4aff24643fae2	-0.08080972876994566
224	0xbfc1095eeb4ae4f3	-0.1330984734429773
225	0xbfc13d93c6ec118a	-0.13469168866152997
226	0x3f96d60b21f0476b	0.022300886103102806
227	0xbfc2bdc29879e6d3	-0.14641601987005134
228	0xbfc33a78d925d147	-0.15022192576328505
229	0xbfa20444443e6334	-0.0351888020806598
230	0xbfb1c2897ec2d1f3	-0.06937465042830819
231	0xbfb3f2c18e5dd6eb	-0.0779229137968646
232	0xbfb30636e4ff38cb	-0.07431357470270254
233	0xbfc0e8d829e8402d	-0.1321058468461173
234	0xbfb11ad82be556f6	-0.0668158633391974
235	0xbfbb43b31e282e17	-0.10650176512006514
236	0xbfc01783a05218f2	-0.1257175953689465
237	0x3f841de87030450a	0.009822669910166688
238	0xbfbcc4fb75f33d48	-0.11238071088449886
239	0xbf69192d6f00087d	-0.003063763368119031
240	0x3f762505602ebc54	0.005406399725799
241	0xbfc22baa50f4949e	-0.14195755913639102
242	0xbfc68a6a9ff2914b	-0.17609913644731487
243	0xbfbf2c3ab17d5ae6	-0.12176863511318067
244	0x3faf53bf4c0f89a4	0.06118581584429997
245	0x3fb28e018a309874	0.07247933982634597
246	0xbfaeae675b628207	-0.059924344926233934
247	0x3fa6f6ac1da6fed0	0.044850710506123215
248	0xbfc24fe090080d47	-0.143062658622606
249	0xbfbe5328f6a00488	-0.1184564210998521
250	0x3fa776c9e5de00b7	0.04582816058155131
251	0x3f7fddaa73354622	0.007779756374775045
252	0x3fa3988ca5ec9093	0.03827323460998957
253	0xbfb643e7b800e5a1	-0.08697365038178485
254	0x3f96607fedea2a00	0.02185249223343
255	0xbfc08647dec9334d	-0.12909792307109527

lin2.bias f8 [64]
0	0x3fd8f7c2f64fb84d	0.39012216619346846
1	0x3fc5f94b7cd5ccf8	0.17167037578074207
2	0x3fca938c4dd62417	0.2076278095303514
3	0x3fa0eceb9ab6d13d	0.03305755866623137
4	0x3fd1637b55bdf9c2	0.2716968858075256
5	0x3fd2b43b68e7ee83	0.2922504925224773
6	0x3fb73816d254bec5	0.09069960246119553
7	0x3fc83857a2ed1bb8	0.1892194314516169
8	0x3fcad8095aa34c8d	0.209717911965161
9	0x3fd31dd3bd1e8b18	0.29869550198252304
10	0x3fd1effa0fd4f3bd	0.28027202173307925
11	0x3fd4310de67af643	0.3154940367493035
12	0x3fd7d7b163bdf5b3	0.37253985157425545
13	0x3fc3c03f0e0781fe	0.1543043917181563
14	0xbf9c7834f552a30d	-0.027802302811923463
15	0x3fd6382485d62814	0.3471766764638471
16	0x3fd202f723b6b605	0.281430992962527
17	0x3fdb59269b0a77f9	0.4273163332053396
18	0x3fda8c2ade242cf7	0.41480514234054006
19	0x3fd7f278bf7c3b47	0.3741742963765557
20	0x3fd822800d7f41e6	0.37710572546077825
21	0x3fcc0d5ba17e0d58	0.21915765176172886
22	0xbfc19d998dfd1606	-0.13762206490552858
23	0x3fc9144519d9348e	0.1959310890401053
24	0x3fde09a5362bae27	0.46933870592212873
25	0x3fd667eced52d53e	0.35009310890321277
26	0x3fd590dfe6acb0b7	0.33696744467557543
27	0x3fd28980734986b1	0.2896424413539576
28	0x3fd8c504718d0ebe	0.38702498520818185
29	0x3fd2a3c53fc03f29	0.2912457583015447
30	0xbfb39b9a06af44ac	-0.07659304297637232
31	0x3fcf4487141ccc48	0.2442787979321983
32	0x3fbcfa0deb71662c	0.11319052694434423
33	0x3fd4bb32fc7356a7	0.32392573026059285
34	0xbfaa7470866fab75	-0.05166961327616707
35	0x3fd9b4e1d475a86a	0.4016651701737205
36	0x3fd0f02e2496b207	0.2646594388304781
37	0x3fd2bb268adc1d13	0.29267276344803966
38	0x3fc6adf2da857195	0.17718349142058956
39	0x3fc9441d7a0c60a0	0.19739120921508846
40	0x3fda6e25bcf07428	0.4129728646383364
41	0x3fc17bce4078d91e	0.1365907492451663
42	0xbfb84515445c1594	-0.09480412405908673
43	0x3fd40343c222c480	0.312699260316613
44	0x3fcc445bd5969f3a	0.2208361428176831
45	0x3fd561f23946b954	0.3341031607950715
46	0x3fd96e7462a50adb	0.39736661561270886
47	0x3fd3f78f62fcebaa	0.3119848696402935
48	0x3fd6a21693633156	0.3536430777865197
49	0x3fd607673938619f	0.3442018564978983
50	0x3fc27b81903d814a	0.14439410727482943
51	0x3fd253c87f20ce7c	0.28636372008188693
52	0x3fced12e7b8a13cf	0.24075871498294396
53	0x3fd2808c2d402529	0.2890959207439488
54	0x3fd0cb97ffbbbeb3	0.2624263760944629
55	0x3fd1ae92a0f12109	0.2762800761888831
56	0x3fd1dbb1c5d0ea1a	0.27903408353782455
57	0x3fddbaabe2db5d7f	0.46451851991647425
58	0x3fd6a390f7bc5481	0.35373329346595744
59	0x3fd348cdc167446c	0.30131858717965687
60	0x3fd6edd17799053b	0.3582652728983537
61	0x3fcb288fc6d4be3e	0.21217534264131815
62	0x3fbb2dcf92ad978e	0.106167767820436
63	0x3fb827e6a41aa827	0.09435884005020566

lin3.weight f8 [16, 64]
0	0xbfc915747b101ce7	-0.19596725472386042
1	0xbf8471137e1d8e38	-0.009981300626981868
2	0xbfbb3795ea251567	-0.10631691900660699
3	0x3faedbb2ec5ce17d	0.060269919731982015
4	0xbfeaef52a16f17bc	-0.8417142060286475
5	0x3f837467a827de05	0.009499368495183633
6	0xbfb14af4cc1638fe	-0.06754999144161286
7	0xbff28761b3dd6e2b	-1.1580521608328904
8	0xbfe200fed7083dd3	-0.5626215171668555
9	0xbfc5a4563c07802b	-0.16907766276472222
10	0xbfb3c8c7eb635b39	-0.07728242394237562
11	0xbfb18dd0900c7eb5	-0.06857017056290256
12	0xbfde4858126704d1	-0.47316552922354754
13	0xbfd4df191f135696	-0.3261168292495794
14	0x3fa12a9a232b5481	0.033528153222200714
15	0xbfbe52071273981c	-0.1184391422317223
16	0xbfb16b973d60d596	-0.06804795502178815
17	0xbfc4ce812391924c	-0.16255201565504007
18	0xbfd2f406867bd918	-0.2961441338842561
19	0xbfd042fc990cc77b	-0.25408854433327804
20	0xbfbe02fc738eab99	-0.1172330648538903
21	0xbf815852a4a4f70d	-0.008469243669078997
22	0x3fb4edc78bf95b03	0.08175322692236979
23	0xbfa04a0f099312de	-0.03181502334476759
24	0xbfe1e09d4b9badb1	-0.5586687542649341
25	0xbfb2850e7c069e08	-0.07234278228735758
26	0xbfccb10d1d50d527	-0.22415317470010018
27	0xbfc0e94c3402d462	-0.13211967982866485
28	0xbf9711ece0c6176c	-0.022529317111114208
29	0xbfe3e8c088584032	-0.6221621191962241
30	0xbfb14858d52b954c	-0.06751017765380601
31	0xbf903e1468bc78e0	-0.01586181535014297
32	0x3fb37445d0fc5261	0.07599293090999872
33	0x3fba6a5f292ce892	0.10318560366877907
34	0x3fbd1e7d341b963b	0.11374647638475548
35	0xbfcd26f16666b677	-0.22775094509181645
36	0x3fade618461c2953	0.058396109159803665
37	0xbfea7266fe7a5795	-0.8264651270171607
38	0xbf9af537e2ba73ba	-0.026326058591269443
39	0xbfd05aeeab0be365	-0.25555006698373567
40	0xbfa148e1eeef17fa	-0.033759174744361034
41	0xbfbaf0c84241bd27	-0.10523654573056672
42	0x3fbaef5d431d75cc	0.10521490944434858
43	0xbfbec985c059a718	-0.12026248880433987
44	0x3fb4150318caab7c	0.07844561915650944
45	0xbfd699a2658dff0a	-0.3531270972962238
46	0xbfb4557c37b4f029	-0.07942940101651232
47	0xbf8da4be5034865c	-0.014474379370372485
48	0xbfd03ada4795c606	-0.25359208098151986
49	0xbfda650d0e733236	-0.41241766368037547
50	0xbfa32c6347b9690d	-0.0374480271390941
51	0xbfe4359f0864b4c4	-0.6315455593045489
52	0xbfbf5300a1eefb55	-0.12236026719527378
53	0x3f9bdf243514878e	0.027218404521711252
54	0xbf959a3a221f95a2	-0.02109614213249745
55	0xbfdd7623ed851bd5	-0.46033571429546544
56	0x3f8c65a414d8ee1d	0.013865739713870668
57	0xbfe21d7f3ec1b95b	-0.566100714275119
58	0x3f951bd4d746eb1e	0.02061398090311705
59	0x3fba88fa1ac61598	0.10365260270744725
60	0xbfc449ddae911fd1	-0.15850420974515925
61	0xbfde11525448e12e	-0.46980722647596707
62	0x3ff0dfaaa24ae5dc	1.0546060885957251
63	0xbfe385a3eb292a9c	-0.6100635140404225
64	0x3fb1b2ea807fc1b9	0.0691362918585189
65	0xbfa5a3d2d4d69172	-0.04226549957391769
66	0xbfc704c86620b8e6	-0.1798334597273829
67	0xbfc2fff65f6766b8	-0.14843635233301256
68	0xbfc85c1411ba3f07	-0.19031000962831277
69	0xbfc9713a1cbbb390	-0.19876791384686188
70	0x3fbfb30937c0a85b	0.12382562266489698
71	0x3fd6003510137785	0.34376265115667365
72	0xbfcd05bc645ec040	-0.2267375459755403
73	0xbfeaf914516db238	-0.8429051962280658
74	0xbfb07e262c3827ab	-0.06442488269399742
75	0xbfae3a73bd79291e	-0.05903970420748038
76	0xbfce6cce9884c8f5	-0.23769552657319762
77	0x3f882687ec3bec69	0.011792241951743958
78	0xbf88428886ae928a	-0.011845652208486674
79	0xbfd4602112871388	-0.3183672600683214
80	0xbfc4e87d60f781e6	-0.1633450244398908
81	0xbfcfdbdf5476e6b6	-0.248897472612773
82	0xbfbbb960f9d625d0	-0.10829740619205741
83	0xbfb937cfb992e414	-0.0985078647671716
84	0xbfcadbbfacd3eb33	-0.20983119906289857
85	0xbfa81cd451185257	-0.04709495057992246
86	0x3fa9581a8a8d4861	0.04950030270869444
87	0xbfca56a2785db556	-0.2057688796734662
88	0xbfc0375091e18f18	-0.12668807147121508
89	0xbfd05377070ca792	-0.25509429634495817
90	0xbfc9cdbfc671837d	-0.20159146489734417
91	0xbfcef60e62edebfa	-0.24188403921638707
92	0xbfc99eaab5861f77	-0.2001546274516348
93	0xbfcfd087dba6b512	-0.2485513517871501
94	0xbfa9987f60e7900f	-0.04999158914486667
95	0xbfb9b08c2880e48a	-0.10035015095572156
96	0xbfcf353cd6de8bb9	-0.24381218425432197
97	0xbfd920608613630d	-0.39260113805134794
98	0xbf8103113af0e5b0	-0.008306631671177594
99	0xbfc73e769bd4384d	-0.18159372910344232
100	0xbfc353dc315ef05b	-0.15099670801817208
101	0xbfce8da33c940b25	-0.23869743783878863
102	0xbfb83b3ff2c91e59	-0.09465408017524037
103	0x3fa860960e552991	0.04761189389190002
104	0xbfcf1b3665d11166	-0.24301795932309317
105	0xbfcc59d73a9054e1	-0.22149172172127066
106	0x3fab324becfe0e45	0.0531181074902887
107	0xbfc096f2e0f3f138	-0.12960659011867803
108	0xbfcc7ce3bf804c88	-0.22256132937090833
109	0xbfbc18afe78de633	-0.10975169566327096
110	0xbfca873223c03780	-0.2072508501591379
111	0xbfc552549f779d47	-0.1665750292442942
112	0x3fbdcd601a46c635	0.11641502992167647
113	0xbfd346fe7e952474	-0.30120813714581307
114	0xbfdad183c5b867c8	-0.4190377646315224
115	0xbfe26609ad0486d1	-0.5749557856799702
116	0x3f90d8782233c3a0	0.01645076473954854
117	0xbfd388d6ad47fa17	-0.30522696420658363
118	0xbfc180d374db7cd4	-0.13674395757605018
119	0xbfd5d524b418d3c1	-0.3411342390784818
120	0xbfd520b28783f788	-0.3301206897157205
121	0xbfe16aa73a7863fa	-0.544269193839795
122	0xbfd2484240bae12c	-0.2856603271607294
123	0xbfc8a127624e9db7	-0.19241802501822544
124	0xbfc8cdd0cd545d3f	-0.19378099466187312
125	0x3fd105d8de1b6d38	0.265981881047725
126	0xbfcfa94c63b9feb8	-0.24735407704792123
127	0x3fcc8aeeab573bd3	0.22298987737892037
128	0xbfd140184c941db9	-0.26953704336525736
129	0xbf69c5cd90bbbb20	-0.003146077627995139
130	0xbfd31a6949f19f24	-0.29848701687886803
131	0xbfa5fb520be6998a	-0.04293304820321271
132	0xbfa0bccd14ce0737	-0.032690438069961684
133	0xbfcf8252505ccc9d	-0.24616459773969704
134	0x3f79b583317c1b77	0.006276619409397158
135	0x3fc8c8474f14167d	0.19361201630833938
136	0xbfa718c4b839aadb	-0.045110843170581304
137	0x3fcddd498ef5bea6	0.23331565361467205
138	0xbfc8bcdf61d29afe	-0.19326393391130375
139	0xbfccf2c7c9c1c4e8	-0.2261590705052534
140	0xbfc8afc4de786979	-0.1928640447884609
141	0xbfcaff52636f521b	-0.21091680388657683
142	0xbfa6191d77800a19	-0.04316036304227939
143	0xbfb9c11a5e741195	-0.10060276800147101
144	0xbfc3f0db18edbeb0	-0.15578783719273792
145	0xbfb9453febe1c5fa	-0.09871291645847427
146	0xbfc4f7c123217469	-0.16381086554875715
147	0xbfce97761668051f	-0.2389972314268016
148	0xbfcb141f3363d8d5	-0.21155157098082236
149	0xbfd209e82c7da727	-0.2818546709519176
150	0xbfc025ca7c29f7c3	-0.1261532884854529
151	0xbfc834dc6adec3b2	-0.18911318987150377
152	0xbfb9978391734bb8	-0.0999681692222073
153	0xbfd0134b75878603	-0.2511776588199554
154	0xbfce73fed76955bc	-0.23791490095270074
155	0xbfcd32c1be8fc92d	-0.2281114750363228
156	0xbfd05e07a1174a7b	-0.25573912364522017
157	0x3fba563cd0ec65d0	0.10287838078183786
158	0x3f91175d0db1adc7	0.01669068714219948
159	0xbfd103efe3bcd9c5	-0.2658652996064144
160	0xbfc231e09c8324e7	-0.142147137090695
161	0xbfbaffc64d4b9786	-0.10546531092731301
162	0x3fae04be0c66be26	0.058629931463084525
163	0xbfbf241f9bbdefee	-0.1216449504117347
164	0xbfa267e019aa1573	-0.03594875634466179
165	0x3fc7f6bc4eadaaaf	0.1872172722026639
166	0xbfd8c36888e1300a	-0.3869267784800746
167	0xbfc13d20e41e3b01	-0.13467799318865306
168	0xbfc6a22682f16269	-0.17682343858429597
169	0xbfd4b9f551d124dc	-0.3238499926561198
170	0xbfbaa16bbcf71bdb	-0.10402558673295863
171	0xbfc89c39d425e8a6	-0.19226763590615298
172	0xbfbe6b4eb46b0d6b	-0.11882488159885944
173	0xbfc224d1433f9a57	-0.14174857886901535
174	0xbfc01ce96b7921b5	-0.1258823179980603
175	0xbfc3ede873e21d8f	-0.15569787653315045
176	0xbfc7478b933a7e97	-0.18187088669673265
177	0x3fd82eb89158415e	0.37785162156889907
178	0xbfdc786ee11f9e66	-0.4448506544563088
179	0x3fc94e7ad1c84305	0.19770751231455833
180	0xbfd0f802526f0929	-0.26513727235955514
181	0xbfd58439a75e3910	-0.33619538635765966
182	0xbfd5849e8ce28cde	-0.33621944196984355
183	0x3f932dd13f315e83	0.01872946689795053
184	0xbfcc0c20c47b5ea8	-0.2191201171287862
185	0xbfb1d11ab63146de	-0.06959692905482082
186	0xbfd5be6414f985b0	-0.3397455410796182
187	0xbfd2a3d05a0e450a	-0.29124840540414765
188	0xbfba6a37ca55eaa8	-0.10318325700601838
189	0xbfd1098efa1b94ab	-0.2662084047754642
190	0x3fd728376daac51f	0.3618296214072689
191	0xbfc116a30cfb1a69	-0.13350332387763622
192	0xbfce7a75dfc93bc2	-0.23811219622663599
193	0xbfde459f0a1492a5	-0.4729993437233964
194	0xbfd0c2d76ec822ff	-0.26189218348058313
195	0x3fc0533604f1a059	0.12753939858817168
196	0xbfb3f336936bd7ac	-0.07792988871719214
197	0xbfc13842655a2828	-0.13452939938389474
198	0xbfaa40a8f96170f4	-0.051274567071887406
199	0xbfd8224f5a0acd73	-0.37709411423858014
200	0xbfc34117ce912086	-0.1504239805819944
201	0xbfd5da04eb75d3f0	-0.3414318370262768
202	0xbfc986f08464eecd	-0.19943052734912783
203	0xbfc0770e3a48ddee	-0.12863328786782752
204	0xbfc643cd77726e1e	-0.17394417126057332
205	0xbfc8d91ade25c83e	-0.19412551734018452
206	0xbfb171b90959e2ce	-0.06814152220057254
207	0xbfc2d7571ddc441f	-0.14719666440990495
208	0xbfbeefbb0145a7cd	-0.12084549695069242
209	0xbfaecd0701b3321d	-0.06015798469306708
210	0xbfca7efc6da7eb55	-0.20700030664724048
211	0xbfcef38bc37598dc	-0.24180743259348148
212	0xbfd6091f2a868202	-0.34430674698708696
213	0xbfc80f762dec65fd	-0.1879718517528061
214	0xbfa925576579f5db	-0.04911301721311264
215	0xbfc31ea66780df50	-0.1493728642833454
216	0xbfc4216093ecb12c	-0.1572685930526715
217	0xbfcbf6cb70645c06	-0.2184690760411458
218	0xbfc980e5b99ec517	-0.19924613536344601
219	0xbfd59c55c7d503a4	-0.3376669360623572
220	0xbfc49d73b54f1b01	-0.16105505326250838
221	0x3fd8f317ee34a527	0.38983724844236395
222	0x3fb597a4f500c4da	0.08434515935438772
223	0x3fa2c75e63a52184	0.0366773125302329
224	0xbfcdfcc845c2b6c3	-0.23427680403022152
225	0xbfd4a16fa97cfb54	-0.32235328246672634
226	0x3fa180f7f4276856	0.03418707709688877
227	0xbfd2cd7e9a293162	-0.2937923913457522
228	0xbfad208adf3c328e	-0.056888904333480914
229	0x3fe0b3b2c27dfcb8	0.5219358252214965
230	0xbfc94ad7b173957d	-0.19759651341079723
231	0xbfd47d8cb1465dd3	-0.32016293823241176
232	0xbf7ab8e026f1ebcc	-0.0065239673559700055
233	0xbfcbf3b43cdd2ef1	-0.21837475749850158
234	0x3fbc6fb9b317fe35	0.11107979414372766
235	0xbfcd1a5c35f9a80a	-0.22736694942005925
236	0xbfc7fb2253424f36	-0.1873515039957227
237	0xbfd653f605e29f95	-0.34887457442027286
238	0xbfd6c8dd18c8e5c6	-0.3560097448385843
239	0xbfd21548f56490db	-0.2825491329588325
240	0xbfa54ce547854df7	-0.04160229204230952
241	0x3faa3d54ee0dcc2d	0.051249174174607816
242	0x3ff60733b77657ea	1.3767583052153847
243	0x3f8526aba850c5c2	0.010327664445955235
244	0xbfc5ba9cd04740ba	-0.16975746316757584
245	0xbfba87dc83e65aa0	-0.10363558025560815
246	0xbfb3fcc63772da65	-0.07807577947355922
247	0xbfb53fd33152b61a	-0.08300514177491217
248	0xbfc6b4262154369c	-0.17737270953550854
249	0xbfbb4e37e487f3da	-0.10666226701137252
250	0xbfb4e9117c036979	-0.08168134000462669
251	0x3fba7bfae083887d	0.10345428448957424
252	0xbfc05959d31045d1	-0.12772677236402655
253	0x3faa0f3c70d84b48	0.05089749219418721
254	0x3ff1e3e9cb108631	1.1181428844651118
255	0xbf96707b7e530dcc	-0.021913461289626388

lin3.bias f8 [16]
0	0xbfd007fc919a686e	-0.2504874631791897
1	0xbfd2547529bc046d	-0.28640488696698335
2	0xbfac4a5d861b4df0	-0.055254862423364304
3	0xbfb8be9b74d85f52	-0.09665843584695935
4	0xbfbbaedf084203aa	-0.10813707305534473
5	0xbfd39ac5388aeeeb	-0.3063214351820835
6	0xbfb8322b787a5b55	-0.09451553050381041
7	0xbfbeddb1314c21d8	-0.12057025388288112
8	0xbfc16a50aa485335	-0.13605697931839136
9	0xbfd0a078743c4e54	-0.2597943434823027
10	0xbfc58b761e63d03a	-0.1683185242069401
11	0xbfb80941bcd5252a	-0.09389124736948831
12	0xbfba3819834e5e73	-0.10241851287570984
13	0xbfd56ca47e07300c	-0.3347560148947657
14	0xbfce163ce732a336	-0.23505364693598957
15	0x3f965f3cba473045	0.02184767615271734
