LP4-MachineLearning/HW_B_2/dqn_target_5000.pth (torch, 54615 bytes, 6 tensors)

lin1.weight f8 [64, 20]
0	0x3faaccd4e5109bc8	0.05234399124338257
1	0x3fc2f861f79fae4e	0.14820503798488222
2	0x3fb7d9b45ac11053	0.09316565719297047
3	0x3fbae2e8840d495f	0.10502484535144195
4	0xbfad4b5c7a93684d	-0.05721558567320582
5	0xbf697182bf6e113e	-0.0031058839480825598
6	0xbfa140013e65f46b	-0.033691443316436
7	0x3faabdd501aa53ae	0.052229553654945846
8	0xbfaadd67eed09a51	-0.05247044363232035
9	0xbfc0ce719268b31a	-0.13130015992046468
10	0xbfd64ef3b864f331	-0.34856884963282925
11	0x3fc6d277c70b373c	0.17829796999870406
12	0xbfc983d6e0e08223	-0.19933591823884553
13	0x3fa5a36fbc693ad7	0.04226254630031228
14	0x3fc3a58d2c161e34	0.15348972942978067
15	0xbfcbda66b1a27de6	-0.21760257409640288
16	0xbfd8dc063da8bab9	-0.3884292223109856
17	0xbfde5227c2c687b3	-0.47376436253591264
18	0xbfb22de09789dbf8	-0.07101253223105164
19	0xbfe02586a08b24c6	-0.5045807967773264
20	0x3fc1e0c142126428	0.13967147565998173
21	0x3fb0093ec45443fe	0.06264107030098384
22	0x3fc25e6c022ecb51	0.14350652796346222
23	0x3f8ad5b6c1e246d8	0.013102939407221667
24	0x3fa6f3b42db1fab7	0.04482806260874866
25	0x3fc9a912d65d6def	0.20047221629179954
26	0x3fb6cbb48707cb14	0.0890457944549719
27	0x3f80f3e0636959a5	0.008277657541083292
28	0x3fdf268ba48ab8ad	0.48672762936156283
29	0xbfe58750e4958e9b	-0.672768064931421
30	0x3fe1bc50dbf31e07	0.5542377754108551
31	0xbfd78eb7bc385886	-0.3680857980811044
32	0x3fd0e3da1121c50a	0.2639069716743313
33	0x3f67aab69987a176	0.002889019622888063
34	0xbfd477fa05d7b758	-0.3198227936799092
35	0x3fc4c0fd9d4f119f	0.16213960820290382
36	0x3fb3d7118a5ec97a	0.0775004351442358
37	0x3fbbe41b36af4139	0.10894937596390698
38	0xbfd4475e3596d6a4	-0.31685595734902905
39	0xbfe06e026f951915	-0.5134288958877585
40	0x3fdb3b3fb545698e	0.42549126341113996
41	0x3f811f89de3a3e47	0.00836093625483082
42	0xbfd26600a684c0ee	-0.2874757410200023
43	0x3fbc904dbe343bad	0.11157689946797573
44	0xbfdacff38a587cbc	-0.4189423419029017
45	0x3fc6ef059b545980	0.17916936954925333
46	0x3fcf24ff789062e9	0.2433165873233272
47	0xbfbdcdc7b0db4873	-0.11642120425975282
48	0xbfdb6466cbb27048	-0.42800302402770685
49	0x3fdd70634540e14f	0.4599846054366212
50	0xbfb7ac36c25ad807	-0.09247152562133475
51	0x3f98e7efad14760d	0.024322266520462366
52	0x3fbe6ea44f10d329	0.11887576036754112
53	0x3fb84fb6b0766942	0.09496633346717423
54	0xbfcfb3df4b4fead3	-0.24767676522591006
55	0x3fcdcc4a610aa268	0.2327969526134155
56	0xbf8f3951f6d90697	-0.015246048303313926
57	0x3fb1b65ea33607c1	0.06918899044651906
58	0x3f96a4d913d9f040	0.022113220059040595
59	0xbfb5e92c299708d8	-0.08558918013935413
60	0x3f9bafbedb400dc1	0.027037603504153077
61	0xbfd06bd2f6964e40	-0.2565810592725235
62	0xbfd8083ff95f9e74	-0.3755035338676642
63	0xbfcddafacd061960	-0.23324522982529583
64	0x3fd4396ab99c9c54	0.3160044491400573
65	0xbfe2beaf201bc074	-0.585776865684251
66	0x3fca8af3d2108365	0.20736549145751862
67	0x3fd96b2f2d4b3a2d	0.39716700957515877
68	0x3fbc5a00476f80dc	0.11074830764801241
69	0x3fc58f5d367443c3	0.16843762549299698
70	0xbf1c2e9f3b2a9cc8	-0.00010750624532339652
71	0x3f9bd7bb3bb53b79	0.027190137404712076
72	0xbfd9f9fd6bc0af19	-0.4058831741592584
73	0x3fc2d8729a6b2dbc	0.14723045864080386
74	0xbfa2318fe820a2f1	-0.03553437908732871
75	0x3fa196ad6a2789f1	0.034352702339464865
76	0x3fdc488f39907ed3	0.4419286787178695
77	0xbfc84bc9162d2c39	-0.18981278975329177
78	0xbfd41bb07c988be1	-0.3141900269276317
79	0xbfe3b7529c55bbf6	-0.6161282590309145
80	0xbfd127986b43da3d	-0.26804171061613485
81	0xbfcd5034ab951615	-0.2290101850323231
82	0x3f862f7f757a08d2	0.010832782528499871
83	0xbfb93de31e03f043	-0.09860057337567789
84	0x3f9b35dc76c26f77	0.026572651623254253
85	0xbfa38b039fbeedee	-0.03816996884367173
86	0xbfb507f9c733bded	-0.08215294946034364
87	0xbfb4066020d2f18d	-0.07822228242270608
88	0x3fd0a5d3cb98bfb8	0.26012129671562034
89	0x3fd189da2bde7f7d	0.27403883251280786
90	0xbfda227ecb7792ba	-0.40835542554695403
91	0x3fb4cc7cfe0a0d6a	0.08124524309282824
92	0x3fca5035fdcc9bd5	0.20557284252683297
93	0xbfbc7c1d1f52b710	-0.11126882567142737
94	0x3fd43463400453fe	0.31569749118472135
95	0xbfdd0da48c62361c	-0.45395768842067397
96	0xbfe004fd3d41d491	-0.5006090351513582
97	0xbfd6b03ab746ee59	-0.3545061864676647
98	0xbfcaa4cc50176353	-0.20815423880301384
99	0xbfcd01560973c394	-0.2266032739785514
100	0x3fac276b14a22cd6	0.054988237637269385
101	0xbfb64f05ea7501f3	-0.0871432969479498
102	0xbfd4ebe0bf3002a2	-0.3268968455377409
103	0x3fcf4b295d351b4c	0.2444812493433467
104	0x3fc270f444eeb852	0.14407208791584708
105	0xbfc277d6d40317eb	-0.1442822013106587
106	0x3fa5e09f232c3cfa	0.04272935203891311
107	0xbfcfbe9c33cf2fa1	-0.2480044606185148
108	0x3fe12d1fd1b8dfc3	0.5367583366523764
109	0xbfdddad743a7df12	-0.4664819870663318
110	0xbfd3d7ce5f5ae175	-0.31004676162731154
111	0x3fdc9b3326cdc82e	0.4469726447051724
112	0xbfbd5db2cba0d7b1	-0.11471097442048862
113	0x3fcac993442037a3	0.20927658869225949
114	0xbfae1398764f425a	-0.05874325222214756
115	0x3fc5093eba559c83	0.16434463594780277
116	0xbfc1f700a6c4c410	-0.14035041945456372
117	0x3f83fecfcd6e3836	0.009763358551733697
118	0xbfc6557c295bd6ed	-0.17448379535169725
119	0xbfdc250b9bf4caa5	-0.43976106863116576
120	0xbfc381277df4c8d0	-0.15237897539333867
121	0x3fa1e7ab7526315b	0.03497062497180777
122	0x3fbb4a716d3225f6	0.10660466113963438
123	0xbfd2d209c05e9abb	-0.2940697077378151
124	0xbfcec403dd70f91f	-0.24035690605701007
125	0xbfcf7168c68d0d18	-0.2456484765517437
126	0xbfb4b1382d29eab3	-0.08082915403967199
127	0xbfd0a99e8a0f9abd	-0.260352740121032
128	0xbf5a25dc70e35679	-0.0015959408515774638
129	0xbfbf911b88a63fa7	-0.12330791555564123
130	0xbfac4259737c359d	-0.05519370589000092
131	0x3fb6257d1a4a5d88	0.08650953189714106
132	0x3fd3d2a14e8c0db0	0.3097308413564077
133	0xbfdc52edba5e23a8	-0.44256156158422266
134	0xbfa13fab7fdf597c	-0.03368888793891053
135	0x3fbdebbe3b695025	0.11687840414498447
136	0xbf962a9e8eb131f7	-0.021646954974402246
137	0xbfc58c03dfe17785	-0.16833542281795758
138	0xbfd92275b23ccfb9	-0.3927282562829038
139	0xbfc00e229a2fa1e4	-0.12543137100807578
140	0x3f94dad9f3285205	0.020366101709514712
141	0xbf96ee2a9b425dd8	-0.022392907835266346
142	0xbfba2bec57365473	-0.10223271493153323
143	0xbfb9a96403695340	-0.10024094661032468
144	0xbf92b0e5c3ca652d	-0.018252935481176614
145	0x3f89447526105980	0.012337603782765383
146	0x3f9d85e33ae765aa	0.028831053228577076
147	0xbfbfe3c215fca516	-0.12456906353749661
148	0xbfb118eeeedebb16	-0.06678670245922222
149	0xbfd9b25109319ceb	-0.4015085782798013
150	0x3fcefd947415d9d8	0.2421136442969345
151	0x3fd8888a9459cb2c	0.3833338211763244
152	0x3fba06022ef053e1	0.10165418287245089
153	0x3f978bb39c4d45e4	0.022993856825740525
154	0x3fcecc836503a094	0.24061624939281911
155	0xbfd7de13bf1ab5be	-0.37292951262028484
156	0x3fa2bf44ab735e43	0.036615510872874533
157	0xbfd96f6040251567	-0.3974228502668979
158	0xbfe31fb95d37da92	-0.5976225681941563
159	0xbf78ef9fade331b4	-0.006087898013174376
160	0xbfb381bc36fab332	-0.07619835226314534
161	0x3f9e017058d0f4ac	0.029302363797104533
162	0x3fafaed3be4e8fb8	0.06188070009309804
163	0xbfd1bec2a55264f2	-0.2772680868598193
164	0x3fd1d6172b32cb49	0.27869204729647784
165	0x3fc4a5f44d514dd9	0.1613145234610858
166	0x3fe201fb751f842e	0.5627419745980029
167	0xbfd92931db10b655	-0.3931393279370686
168	0x3fe14aee0cd2936f	0.5403967142525355
169	0xbfc16ee2ad7bbeab	-0.13619645567768165
170	0xbfd32ebb499c0431	-0.2997272700159242
171	0xbfbfb0d277ca9448	-0.12379184174149416
172	0x3fdd753b299a767a	0.46028021872357494
173	0xbfb10b127a4e44a5	-0.06657519803981644
174	0xbfc05b5b716612db	-0.12778800046012048
175	0xbfa5d21b22faf24b	-0.042618606586505146
176	0xbfd08636982b9211	-0.25819172726031164
177	0xbfe41de15e45b734	-0.6286475030189878
178	0xbfcbc25e53a0e36e	-0.2168691547720089
179	0xbfd9f9ec338cf4d9	-0.4058790687011658
180	0x3fc886a4de366d91	0.19160900926804605
181	0xbfd6cd410796e26c	-0.3562777113070641
182	0xbfd2c0d33d7f176f	-0.2930191135932238
183	0x3fe2df671f3e89b5	0.5897708521118178
184	0x3fd1fde9bc1841f0	0.2811226212370732
185	0x3fc895d80b6e8d67	0.1920728736705357
186	0xbfc2317ec8cc7342	-0.14213547520275865
187	0xbfb68bd04bc38bd3	-0.08807088708594728
188	0x3fbe6378bbb71bee	0.11870531638042767
189	0x3f94a65741f8d0a8	0.02016578998718957
190	0x3fc0317739a3c799	0.12650957407418842
191	0xbfb668d830b1a2d8	-0.08753730000320148
192	0xbf93a3aafd08d658	-0.019179031080247405
193	0xbf79353a294fcef5	-0.00615427703177195
194	0x3fc9586ecca6d27a	0.19801125519520096
195	0xbfd2f8f56ce4b856	-0.2964452327167967
196	0xbfb061ffa78b8f1f	-0.06399534073312595
197	0x3fa136929b3e61e7	0.03361948151649923
198	0x3fb099d249a6df71	0.06484712885037226
199	0xbfd841a8c08265eb	-0.379007518765859
200	0xbfc4a09686b0d4f9	-0.1611507566137005
201	0x3fac3ad21289652d	0.05513626552846982
202	0x3fded12d4552f56d	0.4815171410553692
203	0x3fae60554567c8d7	0.0593287131522559
204	0xbfd899f7e3993b44	-0.3843974802629655
205	0x3fca51fc7b494662	0.20562702197871646
206	0x3fcb28ea0ab89e0a	0.21218610309118474
207	0x3fa0741e991f90aa	0.03213592166119501
208	0x3fcd3b3885951aba	0.22836977503376038
209	0xbfeaa048fa07ea44	-0.8320660479942679
210	0x3fdeff36821e7791	0.4843269606297947
211	0xbfcbb0ff7d384aeb	-0.2163390504288921
212	0x3fcd44e1b0f73fd4	0.2286645998087794
213	0xbfceefd78ab8e955	-0.24169439576673804
214	0x3fdabd9d8fda47c5	0.4178232102213964
215	0xbfcf0035c4d477be	-0.24219390974843508
216	0xbf882f455dc55c12	-0.011808912204896802
217	0x3fd6b7f250c5cf0d	0.35497720611532274
218	0x3f9ad1f162baefb5	0.026191493655218518
219	0xbfed7c4cd9d50b43	-0.9214233641181199
220	0x3fa2e8069d3875a7	0.0369264666480647
221	0x3f928e48128f6797	0.018120885975669045
222	0xbfb328bb8c273ae8	-0.07484028026304268
223	0xbfaa4b1ed83f1749	-0.05135437383391534
224	0xbfb6c32fbcfcb1a9	-0.08891580928747679
225	0xbfc2127d8aa4eb3d	-0.14118928212868723
226	0xbfca81eb30ee0547	-0.2070898045458682
227	0x3fb47874a4affcc4	0.07996300717057908
228	0xbfc6107aeac9f832	-0.17237793411544683
229	0xbfdc2aefe1d2668f	-0.44012066891591756
230	0x3fb43bb0523c175d	0.07903577811893343
231	0xbfc5489e4a462797	-0.16627863527929485
232	0x3fae51f528f40346	0.05921903729359328
233	0xbf9334d5adafa3a5	-0.018756235815007866
234	0xbfe2e17fcab211d5	-0.5900267561815392
235	0x3fb2e25d4ac87aa7	0.07376654697189143
236	0xbfe66952b947faeb	-0.7003568285725498
237	0xbfb3e83961deeb5f	-0.07776220931456866
238	0x3fc27525609a311d	0.1442000123682953
239	0x3fd25edc500d2d84	0.28703983132864885
240	0x3fcac9cba2de6ee1	0.20928330853063584
241	0xbf7eeaed10685b1b	-0.007548261672602387
242	0x3fd884421fe9b213	0.38307240597240017
243	0xbfd1878ebb947ad0	-0.27389877622947
244	0xbfbca8e61deff4b9	-0.11195219260112567
245	0x3fc159646ef9dc58	0.13554053705931568
246	0xbfbcf10f8ad1acd5	-0.11305329455506137
247	0x3fa15bc694a4c2d5	0.0339033180665688
248	0x3f9e26554df7005f	0.029443104632946745
249	0x3fa2874023ad672d	0.036188129763742395
250	0xbfd4147ec66a4d85	-0.31375092865456394
251	0xbfb6cbf583d44f73	-0.08904966801156693
252	0x3fd0231e3b90e141	0.25214343850122495
253	0xbf895a5d0f44827c	-0.012379385975294747
254	0x3fd38b5477251157	0.30537902484163254
255	0xbfd01d974e9a243d	-0.25180609394061887

lin1.bias f8 [64]
0	0x3fe470fb2d76aae7	0.638791645809161
1	0x3fb5a350e953349f	0.08452325531398451
2	0x3fdc6e9a8e844d04	0.4442507163777949
3	0x3fb3e07a4c41df87	0.0776440082717028
4	0x3fe4f1cfaa279738	0.6545179675419837
5	0x3fd9bf6d909db48b	0.40230883715305116
6	0x3fd9324cbf440823	0.39369505575462166
7	0x3fd122e9f78f0721	0.26775597739843887
8	0x3fedb798eabfa1e6	0.9286617836888211
9	0x3fe3082a177c3ed5	0.5947466334054875
10	0x3fc2bb6a83aaf4db	0.14634448460666402
11	0x3fd9888fc48c935a	0.3989600581574472
12	0x3fe895d97f5c966f	0.7682921874554277
13	0xbfd6e482ff16febe	-0.35769724761119537
14	0x3fe2a9a9edc7a558	0.5832109111917516
15	0x3fc08e251ef20ac8	0.12933792124757404
16	0x3fa582e8dc705643	0.04201438609031218
17	0x3fd9bc46d7471aa8	0.40211649916856596
18	0x3fb8284e61115b22	0.0943650233251501
19	0xbfaa74a7beec1b94	-0.051671258979744256
20	0xbf7d7a47acef846f	-0.007196693403757156
21	0x3fbd16738cf1b008	0.1136238307096279
22	0x3fd37ef99e97f080	0.3046249436154156
23	0x3fe009cd32fa305e	0.5011964793825532
24	0x3fd8cf33a86a56ee	0.3876465935403378
25	0x3fddadac05c0d97f	0.4637250953850511
26	0x3fd42f270abbd782	0.3153779606649253
27	0xbfb3e0f29f8b88ca	-0.07765118022101372
28	0x3fd2dbe1dc71e8ca	0.294670548704414
29	0x3fbcee078b3021c9	0.11300704143662367
30	0x3fdd4da6b8853a4e	0.45786445636341433
31	0x3fcc3c4d97a44107	0.2205903044164261
32	0x3fdba8b4e83af595	0.4321720378755683
33	0x3fbef8d911245bbd	0.12098461788660493
34	0x3fcdf515815880f5	0.234041870266999
35	0x3fd917b537087dac	0.3920720136101987
36	0x3fa61a2650322c49	0.04316825608210501
37	0x3fce04e89e6ff1e5	0.23452480064578576
38	0x3fd537725f5e7a98	0.33150920213112434
39	0x3fcdec54b5e78247	0.2337747467236275
40	0x3fd25c4ce82a4df9	0.2868835704077522
41	0x3fd94a5bcd0d2d3a	0.39516348862226247
42	0xbfdbce0065a28914	-0.4344483368423806
43	0x3fe6ed74822cd08a	0.7164862196427901
44	0x3f8ffb2cc710869c	0.015615796875923231
45	0x3fc14e27c13f7333	0.1351976102440858
46	0x3fbeb1fed5da7dd6	0.11990349503547945
47	0x3fda55dc89258fb8	0.41149056809649265
48	0x3fe0aff1f71c5f82	0.5214776827224201
49	0x3fc82c4a7be590d2	0.18885165261884268
50	0x3fdf17fb33ae0b3c	0.48583869978772376
51	0x3fe5c83845e1013f	0.6806908955405006
52	0x3fe1a34ae459485c	0.5511831722199179
53	0x3fb964cd91907dd9	0.09919438175028662
54	0x3fe00ad08d50b6af	0.5013201484741411
55	0x3fb861cf097a40c4	0.09524244290719525
56	0x3fc52ac7039bcd8c	0.16536796261025832
57	0x3fc25a89bf54d202	0.14338800279951164
58	0x3fd4dd20e5f1db05	0.3259966130785162
59	0x3fd5cf2012cb7b54	0.3407669242423499
60	0x3fda1d8f18d65277	0.4080541365195027
61	0x3fb040dcd464d090	0.06348972497363747
62	0x3fd58718bf146441	0.33637064609644446
63	0xbfa41e38ca75f1fc	-0.03929307433552151

lin2.weight f8 [64, 64]
0	0x3fdee2b69ac49792	0.48258748163277077
1	0x3fd574fc3179efd1	0.3352652056853432
2	0x3fd5170a63605465	0.3295312853309212
3	0x3fd3e457316d8bec	0.3108118040747161
4	0x3fdcca50dc72baa3	0.4498483803571764
5	0x3fe02d9d0b45c94b	0.5055680484931967
6	0x3fce72893fb68699	0.237870365247592
7	0x3fd9e4729d3311ee	0.4045683417464535
8	0x3fdd7023b803f6e8	0.45996945352804497
9	0x3fe02bd8cfed7544	0.5053524075589526
10	0x3fc274f42a836017	0.14419414592589483
11	0x3fc16e2400f7c81e	0.13617372557888613
12	0x3fd8b7e31e9183d2	0.3862235830802635
13	0xbfe18e8ba8ff221e	-0.5486505795207142
14	0x3fc89d9c486cee97	0.19230989014055375
15	0x3fcc6846dab98f7e	0.2219322746269618
16	0x3fc743a148c74b27	0.18175140432011824
17	0x3fc56510098e5ed8	0.1671466871891798
18	0x3fcd8e78cbb207a5	0.23091039606157185
19	0x3fdaf333a3e0cbc0	0.42109385493966656
20	0x3fc9113496d71440	0.19583756795160134
21	0x3fbfa80093985045	0.12365726092713299
22	0x3fc44ad675cf61df	0.1585338664288107
23	0x3fc2fc8e383d783b	0.14833238359546094
24	0x3fbf46c5b55dfc4c	0.1221736495772216
25	0x3fb46df70a31218f	0.07980293272806292
26	0x3fd4f4646a3a7e75	0.3274165189159029
27	0x3fc2f6739a9c1c8e	0.14814610528285183
28	0x3fc6cce0858baf2c	0.17812735100539479
29	0x3fcfb28c5685a9e0	0.24763635849679044
30	0x3fc5666077e0aae7	0.16718679288290803
31	0x3fd3aa38d45cc488	0.30726452578080243
32	0x3fcb43f5b2708718	0.2130114671027108
33	0x3fbcfa2ee795bfb7	0.11319249299935917
34	0x3fd393c4dedb5589	0.30589410556179836
35	0x3fd6b85af2ebc9b3	0.35500215265997354
36	0x3fd55cdd82ddeef9	0.33379304676030547
37	0x3fa05b14c1c12258	0.03194489350477586
38	0x3fc52532c77af50e	0.16519770374535664
39	0x3f96b2c4050bd9b6	0.022166312034608025
40	0x3f9e65892567756c	0.029684203060118916
41	0x3fd753eea6d7fdd0	0.3644978169758959
42	0xbfd44b8f66ed2039	-0.317111826433123
43	0x3fda90bcb73bb885	0.4150840558421652
44	0x3f9c781236dfc9e7	0.027801785086873834
45	0x3fd28b82b3954b59	0.28976504838390366
46	0x3fc6f8bcc2ac4fca	0.1794658613731584
47	0x3fcc9b2d2b77b8bd	0.22348560926861252
48	0x3fb2977acba4ce57	0.07262389632961096
49	0x3fd8644a1543e5de	0.38112117840463877
50	0xbfaec1bc97523b89	-0.06007184359724877
51	0x3fd5ca330f692c36	0.34046627526248885
52	0xbfa79ffad78d3dd0	-0.046142424404589044
53	0xbf884582f53bbba7	-0.011851332768370982
54	0x3fc9624e1a58575a	0.19831253324872017
55	0x3fd33ed427b63531	0.300709761410718
56	0x3fc174cd4ee16169	0.13637701369840308
57	0x3fce9467a725e9bf	0.23890395795372218
58	0x3fae40362c35e975	0.05908364572219941
59	0x3fd6f68160a5dd9c	0.358795494444587
60	0x3fb458a8c5c680fc	0.07947783306599726
61	0x3fbeb406b0de0197	0.11993448083922541
62	0x3fc6606999674b3c	0.17481727590947027
63	0x3fdd67a2ef90485c	0.459450468014557
64	0x3fd106051fd30750	0.26599243266911277
65	0xbfb58756bd4ac930	-0.0840963565958972
66	0x3fd97aafb1fb207e	0.3981131780715329
67	0x3fa8cf7270feb93f	0.04845769528707188
68	0x3fc97cdef7fa26ec	0.19912325962314215
69	0x3fcfbeb440655120	0.24800732750248589
70	0xbfb400529626f00c	-0.07812992254088175
71	0x3fbf2fc56112cec9	0.12182267780263624
72	0xbfae5178c8b55776	-0.05921533060124677
73	0x3fd16697afff5b6b	0.2718867510533786
74	0xbfcc5c68ddd909df	-0.22157011825954862
75	0x3fc0a076490b4bc8	0.1298969132099883
76	0x3fd35c33fb6dc546	0.3025026278838435
77	0xbfcc462e4c11a9f9	-0.22089174951845772
78	0x3fc3d80ebbbef666	0.1550310532310732
79	0xbfba0d829afc6c88	-0.10176864894713067
80	0x3fe0fb72cc3889ab	0.530694388264512
81	0x3faf020b201a08ac	0.0605624653517379
82	0x3fc75c92d1f82b37	0.1825126195183999
83	0x3fb43fe588ef3e71	0.07909998505714967
84	0x3fe336962261c42a	0.6004133864900087
85	0x3fb55551501cd7e4	0.08333309369922365
86	0x3fc7cb354e4ad0cc	0.1858889229093904
87	0x3fd74b6dfc98b9d6	0.36397885959277454
88	0x3fd459b485c9ae9b	0.31797516885010574
89	0x3fbef23ccf82989d	0.12088375154653126
90	0x3fc4357365082750	0.1578811877555446
91	0x3fda6f4f16a20cdb	0.4130437584901309
92	0x3fba50a8f7a6f39c	0.10279327436633284
93	0x3f827879172c272e	0.009018846530597448
94	0x3fc7ec9bfe7522e6	0.18690824436841708
95	0x3fd137bef04519ca	0.2690274568925842
96	0xbf861cd5354b4a93	-0.01079718178644854
97	0xbfa4c0d3d1392f8e	-0.04053365639683114
98	0x3fcbd63b0810d6a6	0.2174752988227528
99	0xbfceef1f4886bb7c	-0.2416724304325405
100	0xbfcdf8a5d333929f	-0.23415062725611777
101	0xbfb9cf8fc23e9514	-0.10082338802620355
102	0x3fb62a3a810bde9c	0.08658185625597031
103	0x3fb139eeba57abbc	0.06729023026825492
104	0xbfc3b573c12ac78f	-0.1539749806593673
105	0x3fd5673f235c592a	0.33442667439648466
106	0xbfd2ed6df1810fe2	-0.2957415445746375
107	0x3fb7d0163fc559fb	0.09301890427500574
108	0xbfd159481c10062d	-0.2710743211792728
109	0x3fc07f103bd40810	0.1288776676302068
110	0x3f9ce6579bac82fb	0.028222435833529663
111	0x3f8b6c2014407de2	0.013389826410331322
112	0xbf89249b973183f8	-0.012276855041081433
113	0xbfb3fa5103ec557c	-0.07803827615528819
114	0x3fb5968c7e7c0b0c	0.08432844245912124
115	0x3fc619de8e5f9c16	0.17266447021322112
116	0xbf9320303093169f	-0.01867747589564905
117	0x3fd575687396e779	0.3352910164645589
118	0x3fdb84d0499fd385	0.4299813002574456
119	0xbfa4bae7f49f0283	-0.040488480196931874
120	0x3fc54609cf636001	0.16619989992500453
121	0x3f986e683d5e75fe	0.02385866999212815
122	0x3fb0616c7edbfacf	0.06398656937742973
123	0x3fe123d826cda88e	0.5356255300405495
124	0xbfac1c09fca5b480	-0.054901420679791535
125	0x3fc98344c8e144d7	0.19931850250808367
126	0x3fd62b80a0a10d6e	0.3464051788943924
127	0x3fb442135a0c5d76	0.07913323353237964
128	0x3fdd924b241ec850	0.4620540478455313
129	0x3fd72a06b71d7bf8	0.36194007761326885
130	0x3fdeb9e563a88156	0.48009619457481756
131	0x3fda44003784afda	0.4104004423304538
132	0x3fc938141449ae5e	0.19702387800804194
133	0x3fd2e173d49e395f	0.29501052630884844
134	0x3fccf8bce91fa66d	0.2263408792780867
135	0x3fd5a3a569482078	0.338113167585568
136	0x3fdb560cdb1f063d	0.42712708853295905
137	0x3fc271a4bfe79608	0.1440931260141698
138	0x3fd71e36b06a2954	0.3612190935897577
139	0x3fcc460dcd02e394	0.22088787565533308
140	0x3fe34063ccd12a08	0.6016100883801423
141	0xbfde99fe21bedb50	-0.47814896865331935
142	0x3fd272359b33c03f	0.28822078854046035
143	0x3fbe1008e386eb59	0.11743217043742273
144	0x3fd097339a088824	0.2592286113959992
145	0x3fd35a4523f9f85c	0.30238464845013424
146	0x3fdb6fe8c78c4f17	0.4287054012977349
147	0x3fcc9e74736a57d5	0.2235856593658229
148	0x3fe7b311b9b36500	0.7406090380638091
149	0x3fa8bbcca6231d5f	0.048307795792022594
150	0x3fc9c6086d85dde1	0.20135598514364886
151	0x3fd1e0f4056bd7f1	0.2793550541822461
152	0x3fbef3910de80170	0.12090403165348618
153	0xbf8f388b239ba71c	-0.01524456694047021
154	0x3fcdbd2a1dc5c97a	0.23233534291973595
155	0xbf9e460d412dd0ca	-0.029564101317604487
156	0x3fce205155113448	0.23536125806495733
157	0x3fd4c72e83772246	0.3246570857850525
158	0x3fd371e748e0419b	0.3038271152190874
159	0x3fbaf385d5246621	0.10527836278597437
160	0xbf9620b5eb7afd8c	-0.021609156129441184
161	0x3fd4653910dafcce	0.31867815633809193
162	0x3fde820b5a2add79	0.47668727689184426
163	0x3fd1d6a930ef3141	0.2787268617510286
164	0x3fda0e6e7173b6fa	0.4071308238916199
165	0x3fba4e656b9c67a2	0.10275873067112554
166	0x3fd61a3aa2822857	0.3453508936878555
167	0x3fbfee64ff89563d	0.12473136175807382
168	0x3f8546e793b87f19	0.010389146037652662
169	0x3fd24802e70e6dc0	0.2856452232751643
170	0x3f9e0ed16b8cada2	0.029353401364614513
171	0x3fd866a22cbc8364	0.3812642514113149
172	0x3fc41e9b82d711eb	0.15718406571080776
173	0x3fdab6532d384fde	0.4173782292939431
174	0xbfd108afc9a6f705	-0.2661551923045951
175	0x3fc641f0f81a8c76	0.1738873683399082
176	0x3fc67f896e77c03a	0.17576711553511065
177	0x3fcd954da8494196	0.23111887662026892
178	0x3fc62b7b276b7812	0.17320193695826497
179	0x3fd070ed4849f2b8	0.25689251002749414
180	0x3fd1e561164dd016	0.27962519815560094
181	0x3fb0e96ad86cfd87	0.06606166633445386
182	0x3fa3190726fc8687	0.037300323018155494
183	0x3fba4292c3cbe6c3	0.10257832794368497
184	0x3fbdac07e5f1e662	0.11590623248948753
185	0x3fd700f56c54de77	0.3594335134434696
186	0x3fc257e7758092b7	0.14330762135900496
187	0x3fda16daa2d601d1	0.4076449003405545
188	0x3fe176b821407deb	0.5457420968486394
189	0x3fc54a8dc2902640	0.16633769989157265
190	0x3fd2615306acab22	0.2871902051144152
191	0x3fd64be3fce68c74	0.34838199326822594
192	0x3fd411bf93d719c4	0.31358327329180846
193	0xbf6d7d23d922ef68	-0.0035997104797313335
194	0x3fc6528ca0449b41	0.1743942053373875
195	0x3f7ef6566db79411	0.007559144603395588
196	0x3fd41ae9b4c0a9ad	0.31414263393039726
197	0xbf8d5ae924e891c9	-0.014333554686410193
198	0xbfbe2201c76bfa97	-0.11770640486427407
199	0x3fd2d6960d144971	0.29434729840536195
200	0x3fd731e4353d408c	0.3624201316752156
201	0x3fc4b9bf35fc1b50	0.16191854606605682
202	0xbfd66651d5323d31	-0.34999509639688414
203	0x3fd80bca023877e6	0.37571954933980434
204	0x3fd96ba606c86cf5	0.39719534551996044
205	0xbfd2ae90e62fd6fb	-0.29190466384112285
206	0x3fc5c4a0268ae775	0.17006303674662218
207	0xbfd565577d713991	-0.33431041002486334
208	0x3fb0d7c59ac330f2	0.06579241779690273
209	0x3fc3ed28d1a0b2b7	0.15567503200272423
210	0x3fa41cec0947d161	0.039283157475355386
211	0xbfc20a05426e3162	-0.14093080276178244
212	0x3fd77dac69e60867	0.36704550115258033
213	0x3fc16fa7289cc0d9	0.13621987803481408
214	0x3fddd19ce60ea7af	0.46591875521209664
215	0xbf9625c203fc70dc	-0.02162840985612112
216	0x3faa3a21bd2449f2	0.05122476037844938
217	0x3fc00961c9dcd865	0.12528631550384542
218	0x3fa782062099b98b	0.04591387889819306
219	0x3f8823893902e84b	0.011786529590939085
220	0x3fce3a296c3dca6b	0.23614995751593723
221	0x3f8f0da330713a11	0.015162730136720122
222	0x3fc03dfcf14733d3	0.12689172536047852
223	0x3fb6ec3367a7f79d	0.08954163818995516
224	0xbfb28cccf11c672d	-0.0724609459543017
225	0x3fb801aeadf17662	0.09377567049656357
226	0x3fdf3e6bfe2db39d	0.4881849271976593
227	0xbfcb496383aab77c	-0.2131771462349511
228	0xbfdb85cf4de1490c	-0.43004210095854556
229	0x3fdaf1c81d14c2e8	0.42100718345595434
230	0x3fa15f9f9ffad982	0.03393267467383777
231	0x3fce4ca22eb87bae	0.2367136695983993
232	0xbfc51c80203d6c0a	-0.1649322659894497
233	0xbfa9943aa96a193c	-0.04995902364776092
234	0xbfa6a6c2bfde7b18	-0.04424103347922975
235	0x3fd010f54ce938fb	0.25103504668085436
236	0x3fdb1b94a0ec1a70	0.42355838503900767
237	0x3fdf91ba0ab6b083	0.49326945348980916
238	0x3fc6e3441180ec23	0.17881060461681483
239	0x3f8a6ac1530607d7	0.012898931833436862
240	0x3fd47d0bf419f5e5	0.32013224447277217
241	0xbfa1eb350f5fb553	-0.03499761402768322
242	0x3fd447eb273dd502	0.316889561006363
243	0xbfc50f5783158868	-0.16453069592086256
244	0x3fdbddfec3f54787	0.4354245103505651
245	0x3fdc5c3c4a0a68cf	0.4431296084454858
246	0x3fd89fea4133b8ec	0.38476044051539193
247	0x3fb038b4f21da165	0.06336527739552407
248	0xbfa3e9d44595e8f4	-0.03889335011895581
249	0x3fb00af4941f44dd	0.06266716591132444
250	0x3fe71acd16211bb2	0.7220216209615187
251	0x3fd5344baaec0dac	0.3313168687020276
252	0x3fe12a7afc1ce12a	0.5364355968550047
253	0x3fbf628cb18ec42e	0.1225974973192627
254	0x3fd1d42bca10679d	0.27857489331074153
255	0x3fa835a829341ff9	0.047284369497049235

lin2.bias f8 [64]
0	0x3fd8fea02bae990b	0.39054111734221014
1	0x3fbc8d80bcece3db	0.11153416263995501
2	0x3fd005a129a3204e	0.25034359995016053
3	0x3fd50f0b4d0b1396	0.32904322170025446
4	0x3fd3d4527fe3fa1e	0.3098341225558289
5	0x3fd216b3387a2901	0.2826355029616395
6	0x3fdf2f5b93589201	0.4872654856610837
7	0x3fcbffe623b0ad79	0.21874691717799147
8	0x3fd1bb98ef78474c	0.2770750368664394
9	0x3fa5639274cd57fa	0.04177529979521917
10	0x3fd2a47b3cda95d8	0.29128914778479276
11	0x3fd36dc95621a8e1	0.30357583438184405
12	0x3fdac6b966f6239e	0.41837916426498534
13	0x3fcfd6b63e30d1b4	0.24873998676924958
14	0xbfaaae5c7a1e5b2c	-0.052111520678570805
15	0x3fd2feea5b36fd97	0.29680880458541864
16	0x3fd135fbc6f8fff3	0.26891989165233027
17	0x3fdd58ecd9a1abc5	0.45855256321982224
18	0x3fdcd5e343f3e6e0	0.45055467258462834
19	0x3fda06aec7928249	0.4066578816364524
20	0x3fd5ff3265778632	0.3437009802711116
21	0x3fd370bf41920c25	0.30375653651589324
22	0x3f6cd4e65bb1e869	0.003519487303091974
23	0x3fd020dea7cb4992	0.2520062101949857
24	0x3fb5342b6b849d77	0.08282729506446694
25	0x3fd597501a3bf211	0.3373604065125458
26	0x3fd7ebba7fd1af95	0.3737627266152626
27	0x3fd15620a17986ea	0.27088180321707844
28	0x3fd6b3951491f2ed	0.35471083649444674
29	0x3fd1ca80ac4f04da	0.2779847796155771
30	0xbfb51d3e2d9f0514	-0.08247746099279524
31	0x3fce9988bd85370e	0.23906049016880399
32	0x3fb836fe0db8a58f	0.09458911738388152
33	0x3fc7b058aecb14f3	0.18506916556194816
34	0x3f91df37d0da6d78	0.017453071710958196
35	0x3fd951a04d5ef5d9	0.3956070666862082
36	0x3fcf17057f444b46	0.24289005960653237
37	0x3fd3cde38cde3ec4	0.30944145924238975
38	0x3fca05c9718866e3	0.20330160182566379
39	0x3fca5d95c18feb4b	0.20598098708418386
40	0x3fd948468eff3aa2	0.3950363537268605
41	0x3fc57b3f63243e42	0.16782371846101013
42	0xbfb91272822654f5	-0.0979377334354757
43	0x3fd647a358ffdebe	0.3481224412093801
44	0x3fc93d5f4e51ff00	0.19718543361886276
45	0x3fd96a33546aa605	0.3971069645291155
46	0x3fd8bdb7b4d60e59	0.3865794435480204
47	0x3fd2924e7d63d618	0.2901798462401941
48	0x3fdad801cad3c5c1	0.41943402106616295
49	0x3fd7e6c28b803e74	0.3734594690622324
50	0x3fbcb0b02286dda6	0.1120710453313821
51	0x3fd9a7f1e9f17549	0.400875547847893
52	0x3fcd4f68fb0f63b9	0.2289859033469648
53	0x3fd0cde162f6dc2b	0.2625659433792317
54	0x3fb1d343f02f42ee	0.06962990392572596
55	0x3f9b984eb6a02df7	0.02694819440516302
56	0x3fce2a628361dfef	0.23566848197128773
57	0x3fdf88db175740a5	0.49272801665666527
58	0x3fd428a34ac291de	0.31498033810410486
59	0x3fd2932deb5b0f4d	0.2902331159968881
60	0x3fd7946ec67e1775	0.3684346140292896
61	0x3fceff04fbfa3432	0.24215757659513454
62	0x3fa09281ebe33265	0.03236776356206831
63	0x3fcf709604841d58	0.24562335224639287

lin3.weight f8 [16, 64]
0	0xbfcb82c3cb3c30a3	-0.21492812560643867
1	0xbfab5d519dda71a0	-0.05344634105606194
2	0xbfc83698888e6e47	-0.18916613261977686
3	0xbfd0353baca0c170	-0.25324909074972535
4	0xbfe1b223dadae9a8	-0.5529956125749793
5	0xbfa4f54df5c5b003	-0.04093402505063184
6	0xbfe6b6fb19bb0473	-0.7098365309285682
7	0x3f896c39538c76be	0.012413452017024592
8	0xbfdacc23ebacbe05	-0.4187097360145063
9	0x3ff86788c2a6ea25	1.5252769092172767
10	0xbfb8877b3b9d7e42	-0.09581728177499207
11	0xbfbc50fbaa847bdc	-0.11061070359254138
12	0xbfd98cb1ef6d28d5	-0.39921234494671626
13	0xbfd31e43a40abb6c	-0.29872218150824525
14	0x3f6d67b7c2f2c08a	0.003589495572292438
15	0xbfc1876295d939da	-0.13694412533591455
16	0xbfa80e10e91a6e28	-0.0469823154973848
17	0xbfc76b4c6e7a071f	-0.18296199221008977
18	0xbfd3706d642a5d1b	-0.30373701841149775
19	0xbfd00d187057fa80	-0.25079928370534077
20	0xbfb2e27ef52db85e	-0.07376855359845666
21	0xbfe09196e729e1cd	-0.5177721514619918
22	0x3fa8e419a5743549	0.04861526627255814
23	0x3f773832d2599d64	0.005668829462229883
24	0x3f86611991935367	0.010927390818702155
25	0xbfb64e5fe1f5d665	-0.08713340059861137
26	0xbfcf4d9b43e34e09	-0.2445558625682767
27	0xbfc1305ff438a363	-0.13428878235688577
28	0xbfa6851386d0dc99	-0.04398404141141405
29	0xbfe3cc6fe452dd26	-0.6187056979605685
30	0xbfad9f7d7c1975e3	-0.05785743846784521
31	0xbf96f7a86ae4bed9	-0.022429114841712703
32	0x3f73b7a8b869a8d6	0.0048138228072309355
33	0x3fb30340aafab5e2	0.0742683808736824
34	0x3ff1a1be36261fed	1.1019880404655809
35	0xbfcc10746683eb4f	-0.21925215726499878
36	0xbf9cf4a3fb6440eb	-0.028276979655005013
37	0xbfe5b52810d44fbf	-0.67836383139592
38	0xbfb68350fba87a0a	-0.08794122833248977
39	0xbfcefd0f14f1d045	-0.2420977451580503
40	0xbfa7002d099d2b25	-0.04492321722371732
41	0xbfb51a57cf5b9f9c	-0.08243321239899476
42	0x3fb71e5487c78f4c	0.09030655207567156
43	0xbfc42c16f7f86f22	-0.1575955115121071
44	0xbf6edc06492644eb	-0.003767025257908165
45	0xbfd37963aca3c39d	-0.30428401812883427
46	0xbfb8cb32e80e64cb	-0.09685056844172661
47	0xbfa3f32bcb647713	-0.038964623048953005
48	0xbfd157147088f938	-0.2709399317717671
49	0xbfde94370d17cc45	-0.4777963283406204
50	0xbfbe9c1c5532e225	-0.11956955986068658
51	0xbfdcd9c17bdf5a2e	-0.4507907590572441
52	0xbfc4e34508690a20	-0.16318571959171013
53	0xbf90b9c4699b01e3	-0.01633364576878361
54	0x3fe219f2a9a0ab4e	0.5656674683608374
55	0x3ff6779e9e64e707	1.4042040049811833
56	0xbf968254fe696b95	-0.021981552150787193
57	0xbfdd420657b57a51	-0.457154832509251
58	0xbf9369c98476ce87	-0.018958233556715356
59	0x3f9862a135312978	0.02381374251516763
60	0xbfc7d99048627cce	-0.18632701429758075
61	0xbfd1b5fdcb810bf8	-0.2767328727097147
62	0x3fe9d0a11d24a483	0.8067174500657902
63	0xbfda2ec2722a8f02	-0.4091039767174466
64	0x3f9f1e3aa5952138	0.030388752323490226
65	0x3f9245fc2be43205	0.017845096758764018
66	0xbfc7eb9637522604	-0.18687703801360567
67	0xbfe913fc0e6a1099	-0.7836895257501225
68	0xbfd0bd68fc377482	-0.2615606749585099
69	0xbfc7dfdd18b69a1a	-0.18651927668288765
70	0xbfbe85d3e151d78f	-0.11922954798668982
71	0xbfc7c9d65ffaf4ff	-0.18584708868539931
72	0xbfc0e3ae9c1eb875	-0.13194830534979798
73	0x3f58bbbe5c7cde5e	0.0015096053120497092
74	0xbf8f958775bca364	-0.015421922951263496
75	0xbfa3c24668916cb4	-0.03859157587495457
76	0xbf91ea55dc5f60d0	-0.017495481086229614
77	0xbf93965a78b17597	-0.019128240219620087
78	0xbf77ebd5dbdb6f60	-0.005840144525531915
79	0xbfd10f0af83ab568	-0.26654314271112023
80	0xbfc38a09ac383de6	-0.1526500788609006
81	0xbfce3f2074330ead	-0.2363014762287227
82	0xbfba62167db78d26	-0.1030592019010795
83	0xbfbbc4044009a30b	-0.10845972598475499
84	0xbfcbdffb1a4d09bf	-0.21777285370087715
85	0xbfdbf327f1521ff7	-0.43671606604084395
86	0xbfb932280fe24ce9	-0.09842157733719471
87	0xbfd293fcccfceb30	-0.2902824403606017
88	0x3fb1138134c31081	0.0667038682759671
89	0xbfcd624b0e8e50b0	-0.22956217013109415
90	0xbfc5f5c0f7cfc878	-0.17156231022051194
91	0xbfc8bad6bf2198b5	-0.19320186932163144
92	0xbfc2e4afc749f6c3	-0.14760396223930713
93	0xbfdc9d7070274c29	-0.4471093268632012
94	0xbfa7316c279c471c	-0.045298938594113575
95	0xbfbc37731345ea26	-0.1102210924199559
96	0xbfca7eabdcb6aea2	-0.2069907024100433
97	0xbfd2e03dbbbc196c	-0.29493659337494793
98	0xbfdc068343698fa5	-0.4378975065540039
99	0xbfc69a2168879c74	-0.1765786896132543
100	0xbfb64fca5c2ffcc6	-0.08715500593824563
101	0xbfe757777f42f1b4	-0.7294270978523429
102	0xbfc0cd6087459d75	-0.13126761059832473
103	0x3fae18debcf4a792	0.05878349358165659
104	0xbfcd92731eacf295	-0.23103178975897679
105	0xbfc8fa32532fa9b3	-0.19513539373231267
106	0x3fac13a7f7474c3a	0.054837464270939454
107	0xbfb7c2181ef8d75e	-0.09280539280083874
108	0xbfc47a678177ad4c	-0.15998548337607088
109	0xbfc5883dd626aaa2	-0.1682202621135121
110	0xbfc99b9d59c0052c	-0.20006148226097176
111	0xbfc4178862ccca5f	-0.15696816276757183
112	0x3faf2e38a3adaa93	0.06089951513316296
113	0xbfce8701c413438c	-0.2384950835608176
114	0xbfd00094953801e7	-0.2500354249205245
115	0xbfe7753d8e3f38a7	-0.7330615785847571
116	0x3f7c5ec23f6d6502	0.006926306515049109
117	0xbfc80499a7ed66ac	-0.18764038753106627
118	0x3fd6419de5777b4e	0.3477549305807103
119	0xbfd1c00c8a07a8ab	-0.2773467395733273
120	0xbfcda6baa3e13afa	-0.23165066720908795
121	0xbfe2be4934b63cfc	-0.5857282666710542
122	0xbfd049e50a4e1126	-0.25451017385809604
123	0xbfc2a4de8381998d	-0.1456564085121496
124	0xbfcccc491489db74	-0.2249842977796238
125	0x3fa84e36b6a3c9b9	0.04747172336091716
126	0xbfec8beeebe6dcb2	-0.8920817000825052
127	0x3fb648a85d6feb41	0.08704616814786183
128	0xbfd0af92add65048	-0.26071612335477257
129	0x3fa426e9f890dac0	0.03935938987017584
130	0xbfd3a121a6d0e3a1	-0.30670968332884213
131	0xbf815ceaad9a32e7	-0.008478005812571477
132	0x3f9ad4eea9288cd7	0.026202897142991368
133	0xbfcd89e5e744f473	-0.2307708148236177
134	0x3fc1cbbe037079b7	0.13903021972596516
135	0xbfd3c3ad38af92cf	-0.3088181546757313
136	0xbfc8050fa5dfb81a	-0.18765445327102342
137	0x3fb4b0887807b5d7	0.08081868105337918
138	0xbfc35717f1e83008	-0.15109538375725173
139	0xbfcc79f6d1553a18	-0.22247204991659042
140	0xbfd331910f0c8b72	-0.29990030736569573
141	0xbfc7d562dd946c11	-0.18619952983212376
142	0xbfa59c5cd1736d13	-0.04220857674382663
143	0xbfba086151196176	-0.10169037084540897
144	0xbfbeaa1bd9a60e3b	-0.11978315414131029
145	0xbfab72390d6c07c8	-0.05360582627146432
146	0xbfc77e04433fc47e	-0.18353322299620695
147	0xbfcd904b3e5cf970	-0.2309660009868355
148	0xbfced17d481aa51c	-0.24076810856539843
149	0xbf933f8bb6909e13	-0.018797095315816813
150	0xbfd2d3b865ccdb00	-0.2941723817961446
151	0xbfc2ee3bf4314bf3	-0.14789533065285773
152	0x3f8acc27aaaa9668	0.013084707160781764
153	0xbfcfc9c64a4e5a4a	-0.24834517124391403
154	0xbfd0070e42b72c7a	-0.2504306460875295
155	0xbfc7da81d6e35684	-0.18635581009464286
156	0xbfcaba1462c44d84	-0.20880369970891988
157	0x3fc65bfdc05e2ecb	0.174682349137916
158	0x3f911a190a0d4bd2	0.016701117743035905
159	0xbfd072212669fa7e	-0.25696591140141567
160	0xbfbd75a1dbd328cf	-0.11507617585008066
161	0xbf9ee70b305db4c9	-0.030178236796406552
162	0xbfc44f2284fd1c1f	-0.15866500371541378
163	0xbfbe7166b3d9bb43	-0.11891786471254044
164	0xbfb6474bc4719416	-0.08702539010990082
165	0x3fe1562e5d05af02	0.54177015465163
166	0xbfd5ee7db09d1d34	-0.3426813339942385
167	0xbfbd447861213533	-0.11432602282839781
168	0xbfc651e48ccf3462	-0.1743741691156258
169	0xbfd2a18f68561801	-0.2911108511838166
170	0xbfbb2fb2369e02fa	-0.10619653542927301
171	0xbfc7ca69add33474	-0.185864648700235
172	0xbfb19ab2088d9f57	-0.06876671513384501
173	0xbfb8df3c7d0315c3	-0.09715631534626028
174	0xbfbefcfa4501fdd0	-0.12104763207206948
175	0xbfc2775a51adb4dc	-0.1442673586674691
176	0xbfcb89aa570735e8	-0.21513871430799658
177	0x3fd75c77c14b1565	0.36501878620432243
178	0xbfc32aa0ce84e6c0	-0.1497384079355495
179	0x3fbee31e62b6c67b	0.12065305624016702
180	0xbfcffc57dc02dcfb	-0.24988840334638227
181	0xbfcfcf24062f7c55	-0.2485089330866425
182	0xbfea31668ebd7089	-0.8185303485766023
183	0x3fd8ff6424ecebc4	0.39058784109118627
184	0xbfca46cd420071b5	-0.2052856991075608
185	0xbfd10b1c83f5dbb5	-0.26630318533664915
186	0xbfd385bb2469622e	-0.30503729396653767
187	0xbfd013c2ce75303c	-0.25120611345187505
188	0xbfbe0ea95d516c43	-0.1174112179591456
189	0xbfcb0856675ac9ea	-0.2111919407521577
190	0x3fd2bb3a44323808	0.29267746600896816
191	0xbfd16edb3f7d4b7d	-0.27239113998546555
192	0xbfcb27016eb27996	-0.2121278563035502
193	0xbfd5fbd75b42c01a	-0.34349616920644765
194	0xbfd230082e353267	-0.2841816378830004
195	0x3fa6ca73cc9d0794	0.04451333878252153
196	0x3fa955f1a6e3ef53	0.04948382532344788
197	0xbfbc80626dc93ee5	-0.11133399181676003
198	0xbfc3c6022a2b4720	-0.1544802385238251
199	0xbfbbe402c9a02d87	-0.10894792006017982
200	0xbf90b0c81669bc6e	-0.016299368255598905
201	0xbfc7840577ad3725	-0.18371647208771794
202	0xbfc91db1f5ee75aa	-0.1962187243306464
203	0xbfc60a76001a9b33	-0.17219424252581347
204	0xbfcb3df863d1a875	-0.21282868265126678
205	0xbfc7735cabae3c84	-0.18320806868402795
206	0xbfb2d16facb49a5b	-0.0735082432407607
207	0xbfc976da885cdc51	-0.1989396253427196
208	0xbfc31fbe92f5d406	-0.14940626312059652
209	0xbfbe01d0f12aae08	-0.11721521270617796
210	0xbfc1ccf4d45aa449	-0.13906727188921966
211	0xbfceca08779f2bb9	-0.24054056015878958
212	0xbfd34ab5b88eba52	-0.3014349272079119
213	0xbfa86580af858af7	-0.047649403978331444
214	0xbfab2d1390bb71c0	-0.053078280847077774
215	0xbfc4c226c13f29bf	-0.16217503009677434
216	0xbfa320dbd69f909f	-0.037360067319043504
217	0xbfcc1cf3a840058a	-0.2196335383924118
218	0xbfce9ddd6d637637	-0.23919265595661596
219	0xbfd504ef850e1af9	-0.3284262465826227
220	0xbfc7536b804ee1c4	-0.18223327412648704
221	0x3fdbe749eb1e5edf	0.435991744621317
222	0x3fb497fe7ce1f0fe	0.08044424580470275
223	0x3f9c3b44b0b1aa13	0.027569840702577574
224	0xbfcb474065ed53ed	-0.21311192490489309
225	0xbfd4e8d2ebee2312	-0.3267104438787537
226	0x3fe318eddeb1fd6c	0.5967931127087645
227	0xbfd35ab99631182e	-0.30241241137662456
228	0xbfb1facd357ef7f7	-0.07023317867330535
229	0x3fdb66282f272c30	0.4281101665953342
230	0xbfd2c983b77d63b2	-0.29354947012830757
231	0xbfd2e234503be80c	-0.2950564178023576
232	0xbfa5f8e4896b1adb	-0.042914525770859156
233	0xbfcf8302a0720f42	-0.24618561586623328
234	0x3fbc24b127484424	0.10993487557449605
235	0xbfc419466e78cd97	-0.1570213355458747
236	0xbfcfc1aa49c03971	-0.24809769250027672
237	0xbfd4feb405a93e1f	-0.32804585030405237
238	0xbfd40b6eaa35ccd7	-0.3131977712830127
239	0xbfd131bf88b6f392	-0.26866138793030203
240	0xbfa8348b54b3774f	-0.047275880898935634
241	0x3fcd64838612907b	0.22962993666181206
242	0x3ff5e5160d1f77d6	1.368429232846656
243	0xbfa4aae396d7bdc4	-0.04036627975790055
244	0xbfc4dcddba3558df	-0.16299029915052807
245	0xbfc9a93c1592fe9b	-0.20047713330676661
246	0x3fc0b84254e01889	0.13062314171128644
247	0xbfcd9707359a9fc1	-0.23117151372320957
248	0xbfcffa24659dc6a8	-0.24982123338445672
249	0xbfb4bf5185a2034d	-0.08104428780098978
250	0xbfc5e3fdb6f71f58	-0.17102023538449873
251	0x3fa2540354993e91	0.03579721839616668
252	0xbfc0ed69d526801d	-0.13224528224691393
253	0x3f9c6a556d5fff84	0.02774938087532021
254	0x3fd6269c0d79f658	0.3461065417867295
255	0xbfb61cb4afc04004	-0.08637551585002262

lin3.bias f8 [16]
0	0xbfd5f97e6d4d1995	-0.34335289644186534
1	0xbfcad20f9354d9a7	-0.20953554815214412
2	0xbfa74abd8a2ef84c	-0.04549209892091763
3	0xbf9123a2502d45dd	-0.016737495559317018
4	0xbfa77705ae6aecbb	-0.04582994226572042
5	0xbfd3feb20746f8ee	-0.3124203749720341
6	0xbfc012d3a594b047	-0.12557454667092058
7	0xbfba716e7ff4ac29	-0.10329332946700788
8	0xbfbe5d6f652b6cf3	-0.11861320705377291
9	0xbfd389c95590950a	-0.3052848182290552
10	0xbfbd965e9aafc3cf	-0.11557570721176023
11	0xbfc1a7fe2e84b773	-0.1379392363682502
12	0xbfb911aec0444ae0	-0.09792606538784865
13	0xbfca8055a592b1a6	-0.20704145989055894
14	0xbfd15d27a6c87608	-0.27131072318465543
15	0x3f90a0e642641bf9	0.016238782694042418
