LP4-MachineLearning/HW_B_2/dqn_target_2000.pth (torch, 54615 bytes, 6 tensors)

lin1.weight f8 [64, 20]
0	0x3fc43fe586c75062	0.15819996911034467
1	0x3fc906175242b562	0.19549838558797733
2	0x3fb2f93e4a17fd90	0.07411565121582542
3	0x3fc927de195fad80	0.19652916182472424
4	0x3fb6febff786cafc	0.08982467454078952
5	0x3fb41929f2633708	0.07850896995224954
6	0xbfb3f35003e1e932	-0.07793140501772625
7	0x3fb7a9e5fd5b0fb0	0.09243619380418866
8	0x3fbddb756487c28c	0.11662992195466354
9	0x3f74572a88f504a0	0.004965940620708015
10	0xbfb49dc75de40c14	-0.08053251306778036
11	0x3fbd54d7a8f24044	0.11457584261575088
12	0xbfc25c91b8bc840e	-0.14344998855907004
13	0x3fcc83183c43e794	0.2227506918205192
14	0x3fbc125ed296e908	0.10965531007142115
15	0xbfb3738f96a36bb4	-0.0759820692796172
16	0xbf5c89c37e9a7100	-0.0017418297888190382
17	0xbfc03dcbfbd03dc6	-0.12688588901117565
18	0x3fa6810045a77498	0.043952950003338376
19	0xbfc6767d19f36a84	-0.1754909874642473
20	0x3fc091fcbffbd9fc	0.12945517896851289
21	0xbfb1bec85eab6c60	-0.0693173628928192
22	0x3fb0582d6af440f8	0.06384548054871064
23	0x3fc1068544aaf842	0.13301149228021997
24	0xbfa8b163754fe138	-0.048228366918865395
25	0xbfa628206311d194	-0.04327489098878626
26	0x3fbbb10d7cbabf24	0.10817035956528948
27	0xbfbe11b93cfe990c	-0.11745794047473995
28	0x3fa7ee0121372320	0.04673770456753901
29	0xbfcac44b85b64537	-0.2091154482737154
30	0x3fcbe525ae0439ce	0.21793051716708906
31	0xbfc3900860113f3c	-0.15283302965917211
32	0x3fc28875b804c0e2	0.14478942380220078
33	0x3f90e297e1c95068	0.01648938479986875
34	0xbfc6fb92395e8c56	-0.17955234338032494
35	0x3fbefa61abe12310	0.12100801893496915
36	0xbfb04df152848034	-0.06368931068982492
37	0xbfa4d35accc62674	-0.04067500829394258
38	0xbfc46a827e4a44a2	-0.15950041929730668
39	0xbf73e1b7075d7200	-0.004853930431491182
40	0x3fcb863e404f1ee0	0.21503427639094408
41	0xbf940f46cfdf6448	-0.01958952564004715
42	0xbfba924dfef1935e	-0.10379493211946797
43	0x3f93f106b5475f70	0.01947412949979771
44	0xbfa4ad604faabef0	-0.040385255551312116
45	0x3fc46a4a0e5e8c50	0.15949369145991676
46	0x3fb4ac92e9fb2e38	0.08075826847487455
47	0x3fc0f669b85f607a	0.1325199270493192
48	0xbfc844f3b364f5f7	-0.1896042467068779
49	0x3fb177280df5dcc8	0.06822443333463746
50	0xbfa4c02b8bf7e580	-0.040528641544322674
51	0x3f9086935be433a0	0.01613836525307344
52	0x3f8c4ce730f48840	0.013818556004995597
53	0x3fc6833e62a8fda4	0.17588023965252575
54	0xbfbd6bf17e81293a	-0.11492833460321075
55	0x3fa15b6302c07d90	0.03390035065262531
56	0x3fbd3fe010390d00	0.11425590892854487
57	0x3fc1506479125208	0.13526588355729552
58	0x3fc8f0dba432b3a4	0.19485040204508863
59	0x3fc873592bace5fc	0.1910201514490807
60	0xbfc5a0b9e6ad318a	-0.16896747363570014
61	0xbfc4dbc349b04f00	-0.16295662973481484
62	0xbfc88b717aa63dcc	-0.19175547112216262
63	0x3fb15373193ce22c	0.06767958990247597
64	0x3fb995fd53501ec4	0.09994490894325297
65	0xbfc163f8a4e11664	-0.13586338091606642
66	0x3fa5a666ba7b3128	0.04228516603834215
67	0x3fa78e78b1833378	0.04600884596729932
68	0xbfc29ab13eacc5cb	-0.14534583626077188
69	0x3f93dbc09e46a5f0	0.019392976436995057
70	0xbf768d3654676c20	-0.005505764222529158
71	0x3fa90e4841553070	0.0489370898963849
72	0xbfc649ba341b9f9a	-0.17412498039561514
73	0x3fbbe954fa8d0220	0.10902911297763085
74	0xbfc9f0d222d0e259	-0.20266176891324753
75	0xbfc690a6d80d8ebd	-0.17628942059956457
76	0x3fb7c5ce2fa1af48	0.09286202109222785
77	0x3fb1d734f245a850	0.06969004549833469
78	0xbfc625aa81f6aa8a	-0.17302447648883784
79	0xbfc63853fd1cdd48	-0.1735939966108424
80	0xbfc5aa6fad90f307	-0.16926380133545413
81	0xbfc9359549176b7c	-0.19694772786064252
82	0xbfc69ed55c310601	-0.1767222118524359
83	0xbfb3fabeaf46af04	-0.07804481295778137
84	0x3f7aba28270084c0	0.006525189252017671
85	0xbfbeae503ea871b1	-0.11984731225715596
86	0xbfcb269274e10375	-0.21211462695103092
87	0xbfc6c211ca10e8e5	-0.17779753080851105
88	0x3fc9714f62cf63b8	0.19877044987404502
89	0x3fc620dcf8ab4b92	0.17287790433928457
90	0xbfadb88d6d747080	-0.05804864846342728
91	0xbfc10953b91ae30d	-0.13309713877040288
92	0x3fbadc62cdfc3b40	0.1049253228086231
93	0xbfa54d89fbb430b8	-0.04160720059926021
94	0x3fc1050b5e0edd0c	0.13296644299200755
95	0xbfc3256ce094061d	-0.1495796295712787
96	0xbfbda78ee597e626	-0.11583798508936435
97	0xbfa0b06ad62c0850	-0.032595957416575616
98	0xbfb5bdbe86763cd2	-0.08492651732216253
99	0xbf81714e0da63040	-0.00851689318803761
100	0x3fcbf1826845bbbc	0.21830778209138468
101	0xbfc4ae598f961d23	-0.16157073508313954
102	0xbfc723d653f82e1a	-0.18078116512366266
103	0x3fa3722343cb8a60	0.03798017695023215
104	0x3fbcc805d000da7c	0.11242710426527397
105	0xbfa3fcc81c51d0f0	-0.03903794618318723
106	0x3fbf07db33dd01f4	0.1212136270160114
107	0xbfadd76997f01b94	-0.05828409175597141
108	0x3fc0fc4d51269dcc	0.1326996465916025
109	0xbfc3bee38cbaf060	-0.15426296588509825
110	0xbfaece2420b3d364	-0.060166481964109036
111	0x3fc9be660562ddbc	0.2011230016994271
112	0x3f88c1142004aad0	0.012087018229597929
113	0x3fc22c7e2825540a	0.14198281250233463
114	0xbfcb1886326ed564	-0.21168591940446924
115	0xbfaa296a94eaa154	-0.05109723155811943
116	0x3fbd7fa751cdbb48	0.1152290892330089
117	0xbfc9f731ed022baf	-0.20285629341773645
118	0xbf8f406121fe3c80	-0.01525951275814763
119	0x3fa20635c0952358	0.03520362830983598
120	0xbf960a39bf7cde10	-0.0215233824848991
121	0x3f83f16246016780	0.009737746964834093
122	0x3fc039ac71e1f3fe	0.12676005898165948
123	0xbfbbd23f88a5bca2	-0.10867688261145017
124	0xbfcb96d7a190c195	-0.21554084195078063
125	0xbfb8680760dcb90a	-0.09533735384750144
126	0x3fb2cad3bc6b3d8c	0.0734073958403682
127	0x3fa0bb108de826d8	0.032677190134632716
128	0xbf91c415d16c9e58	-0.017349568278545696
129	0xbfcc1bb44ee3cd1c	-0.21959546901744253
130	0x3fada998805d7508	0.057934537572444766
131	0x3fc9979bd3380a66	0.19993923009322428
132	0x3fc5c4236c9ea604	0.17004816821763324
133	0xbfb6048155d2c4c4	-0.08600624413772368
134	0x3fb19ba62125532c	0.06878126439307825
135	0x3fa4cff76784a568	0.04064915789269713
136	0x3fc82e5b261801b6	0.18891467437789594
137	0x3fa29343383d2290	0.03627977429875273
138	0x3fb0e6b1dcc8f750	0.06602012291201942
139	0xbfb3b3f3ca58ee04	-0.07696460428353907
140	0x3fa39c7a5abdb030	0.038303206993845484
141	0xbfc042195716d2cc	-0.12701718094253633
142	0xbf85e11bcec02a30	-0.010683266875294611
143	0x3f9eb13402007750	0.029972851392918998
144	0xbfc5dadd9bfdd344	-0.1707417499234457
145	0xbf9c5edf23177800	-0.027705656544519286
146	0xbfc61a333fb702c8	-0.172674566374573
147	0xbf97df708a343c70	-0.023313291964822402
148	0x3fc01d270961e9f2	0.12588966329697332
149	0xbfc74f134380c9df	-0.18210068508194774
150	0x3faefcd6db180548	0.060522760624744765
151	0x3fb301a79dfa6e9c	0.07424399954691768
152	0x3fc9dd4742e1a69e	0.20206537976928457
153	0x3fcb1c32ed19cba0	0.2117980630606242
154	0x3fc01838d1199c2a	0.12573919496500824
155	0xbfc7af0e0f554113	-0.1850297522419245
156	0x3fc367701829b0b4	0.1515941732390097
157	0xbfb74558f350b174	-0.09090190830528916
158	0xbfcbc5745f64a62d	-0.21696333558911488
159	0x3fbd89acc47651fc	0.11538200184288167
160	0xbfc9653f4f2355b3	-0.19840232242738196
161	0xbf92538f3066d4d0	-0.01789687855644645
162	0xbfc29f116179e3f8	-0.14547936687065977
163	0xbfc92fd4627462b8	-0.19677214438777013
164	0x3fc149c74ab0085a	0.13506404063088234
165	0x3fbba2836ecb1fe4	0.1079485078327021
166	0x3fcc7288ababb086	0.2222452963100105
167	0xbf8bc5bc28817380	-0.013560743318686397
168	0x3faf146cf89be0d8	0.060702710483327926
169	0xbfc168d4bc7cc3ec	-0.13601168826565357
170	0xbfc5d5537a5a486e	-0.17057269548655846
171	0x3fa20fe83970ab80	0.03527761174367239
172	0x3fc57e3364c4598e	0.16791384144080407
173	0x3fa0b40212256b18	0.03262335273276146
174	0xbfc8e395c8789f7c	-0.19444534577018746
175	0xbfc143a29979530e	-0.13487656110614704
176	0x3fcb4c485e5f8b7e	0.2132654629523038
177	0x3fa25e5f2dd4e450	0.035876249642065816
178	0xbfa4ae97fa6f6d30	-0.04039454395361941
179	0xbfc00c52972caca0	-0.12537605649535966
180	0x3fc586fe1cf305c8	0.16818214810886745
181	0xbfc0496aeac025da	-0.12724052870207353
182	0xbfa52c9a7b5f8c8c	-0.04135592227955795
183	0x3fc30f676c6fdc3e	0.1489075927235905
184	0x3fc081705c262f22	0.12895016192884962
185	0x3f996f0e7690ebe8	0.024837709414196413
186	0xbfa7a42589226ef8	-0.046174214353610965
187	0x3fc1b9080f9f2356	0.1384592129018311
188	0x3fc4105384cc0464	0.15674823745942768
189	0x3fc4ebbf69e2abc6	0.1634444491404265
190	0x3fc36be126c23a9a	0.15172972099795318
191	0x3f85a9c65703a200	0.010577725916349756
192	0xbfb4cf75c43bc3f4	-0.08129058876853873
193	0x3f949fab76b36b80	0.020140341873097878
194	0x3fb7a71347f78dc8	0.09239311701781283
195	0xbfc83db8d23404f4	-0.18938360465839532
196	0x3fc8cbd9000ce22a	0.19372093679864238
197	0x3fb351854c97e5e0	0.07546265716509692
198	0x3fc40dca26196a16	0.1566708265334717
199	0x3fc3bbd70d568c22	0.15416992331765395
200	0x3f91f9ed91d87d38	0.01755496218367833
201	0xbfb16b6829bf8b9c	-0.06804514903301001
202	0x3fb59687ee9b931c	0.08432817054160718
203	0xbfc0f07b8b4785c6	-0.13233894634963245
204	0xbfc825278328fda9	-0.18863386062910806
205	0xbfc994f5f7821cb2	-0.19985842309345042
206	0x3fcabe87b6685400	0.2089395180379654
207	0xbfc3e7266a8895b2	-0.1554916401084206
208	0xbfa3245d6fb20264	-0.037386817822157054
209	0xbfc8ce014470875f	-0.19378677217269577
210	0x3fb43dc13869c404	0.07906730296396353
211	0xbfc3a9f2e4d707da	-0.1536239259131083
212	0xbfb79d28685d8c5e	-0.09224178836807215
213	0xbfc4d26de06f5dd9	-0.16267178972951404
214	0x3fb39e0ef2097a00	0.0766305294905365
215	0xbfc0b047ec3ad8f8	-0.13037966761266495
216	0xbfa441e2148e2838	-0.03956514836234287
217	0x3fc71b754ca0edec	0.18052545777923912
218	0x3fb52b86d57c5990	0.08269541465811003
219	0xbfcb6946129393a6	-0.21415019900373727
220	0xbfb229811cdaf326	-0.07094580606913023
221	0xbfa3f16242f40bac	-0.03895098750401557
222	0x3fa27fffebb26bd8	0.03613281013641484
223	0x3fbf4b7b7f6e4fe8	0.12224552022081492
224	0xbfc7db87bd508d61	-0.18638703101997137
225	0xbfc0a9d8294db318	-0.13018323914311547
226	0xbfbb356f4d6c1e56	-0.10628409996217533
227	0xbfa147938fd036a8	-0.0337492096951853
228	0x3fa43cdebdda3768	0.03952690188917424
229	0xbfb71d9c9e69edaa	-0.09029559009098045
230	0xbfa3cf6bf4a076a0	-0.038691876994773056
231	0xbfc67b92ac7b7c0b	-0.1756461469840079
232	0x3fb8383b57532eb0	0.09460802919346167
233	0x3fb6ef565eb90fbc	0.0895894986397811
234	0xbfc864c7eb6c0563	-0.19057559008801225
235	0x3fc6fb60e5bd644a	0.17954646318210826
236	0xbfc95d0645f6bd36	-0.19815138260080695
237	0x3fb3476aa4315520	0.07530848034487692
238	0x3fc224a074d1ed0e	0.1417427606973906
239	0x3fcaa2cb5b7b9cd8	0.2080930897420561
240	0x3fc5ec4e3c2d5ef4	0.1712739747842914
241	0x3f8d7fc6a828b8d0	0.014403869635398442
242	0x3fc0585b17bd0e5c	0.12769640597444976
243	0x3fa5b7a76998c040	0.04241679348012939
244	0x3fa1493fd2e38758	0.033761972897777326
245	0x3fc62a31eef587f4	0.17316269081044278
246	0xbf9f7e0484c25a70	-0.030754156687715584
247	0x3fc1ebe550af68de	0.14001146735865339
248	0x3fa15c920fa96458	0.03390938225920398
249	0x3fc2056a96691b26	0.14079029411569727
250	0xbfc0d53518f00abf	-0.1315065738454759
251	0xbfa1d6907a6fe188	-0.03484012121765817
252	0x3fc8dfa606670300	0.19432521164528538
253	0x3fbbcd3e21647e94	0.10860050502059898
254	0x3fc87c1b1ba9ff88	0.1912874112203975
255	0xbf928ccb2a80de88	-0.018115210026933087

lin1.bias f8 [64]
0	0x3fc0ce96790529bf	0.13130455884158995
1	0xbf894d9c46c01680	-0.01235506144440568
2	0x3fc5fda05e9aaf91	0.17180256480548597
3	0xbfbe9ae66359007b	-0.1195510857151038
4	0x3fcc21e0d0a8c21b	0.21978388012350156
5	0x3fbe81e037703752	0.11916924813723753
6	0x3f96d5c233a11e28	0.022299799348074384
7	0xbfc0662d059a75f3	-0.12811815999604867
8	0x3fc60c996cf9c2cf	0.17225950070453286
9	0x3fc875a42d7f58df	0.19109012815051238
10	0xbfabad1b198504a4	-0.054055067887483405
11	0x3fc450b654da680b	0.15871314185352534
12	0x3fc0fc8b52487107	0.13270703809474346
13	0x3fbb113674303842	0.10573139511709065
14	0x3fc1a2b4f698a3cb	0.13777792015869603
15	0xbfae04624c88ad4c	-0.05862719711543693
16	0xbfc5e703a082d904	-0.17111249291856023
17	0xbfac038c4ed8c918	-0.05471456968770577
18	0xbfc326c2372e31c4	-0.14962032026632077
19	0xbfcbb9565eb6548f	-0.21659354805584427
20	0xbfa7e2ee8dbc5564	-0.046653227616995335
21	0xbfc017e95ea8ab2c	-0.1257297241403078
22	0xbfa9648e0b75af38	-0.049595297716989284
23	0x3fba1cadaf96012e	0.10200009857908718
24	0x3f9e782bff37f858	0.029755294277485994
25	0x3fcaaee080a514c9	0.2084618213795351
26	0xbfaf4b0594674544	-0.061119245877885336
27	0xbfc40f44a0515ce3	-0.15671594455736856
28	0xbf80123ea1224f50	-0.007847298901004912
29	0xbfc13d26052268d0	-0.13467860460952474
30	0x3fc9c5066f96f797	0.20132523010937284
31	0x3fad78a51552e584	0.05756107220936271
32	0xbf91e6f277fd1270	-0.017482555936356226
33	0xbfc76dde3afbc6f2	-0.18304040794423987
34	0xbfb95adddfae55a5	-0.09904276572191024
35	0x3fa53333c7053e9c	0.04140626720856952
36	0xbfbee1f40ab0428c	-0.12063527356100162
37	0x3faf5b2c2b8864cc	0.06124246627241234
38	0x3fb4893dddcd090a	0.08021914162694457
39	0xbfa8e17d09180aa4	-0.048595340118500446
40	0x3fc0bcaaa5e1a2b9	0.13075764751126487
41	0x3fc55246f7e0d309	0.16657340148380964
42	0xbfa8fde8082be2c8	-0.04881215190647975
43	0x3fba5f4df15c85fe	0.10301673071491987
44	0xbf88bf8e11256440	-0.012084112070328001
45	0xbfac182ebbd860ec	-0.05487199824364261
46	0xbfbc8997f3197cac	-0.11147451100395028
47	0x3fc35d73b3972ea1	0.1512894274622925
48	0x3fa78c167de5193c	0.045990660541564726
49	0xbfc8d17647c63038	-0.1938922739467459
50	0x3fcadeb165a5d1a9	0.20992104972141348
51	0x3fca26c916131681	0.20430863931521873
52	0x3fc192943e7f4349	0.13728573848359307
53	0xbfc1bd218c1f77dd	-0.13858432142200075
54	0x3fc8bf0a22b872db	0.19333006568276442
55	0xbfc8a2c42a93020e	-0.19246723250218206
56	0x3f9e91e15ccc42e8	0.0298533642663327
57	0xbfca9b85156e04be	-0.20787108942389482
58	0x3faef04665c1dd8c	0.06042690269617443
59	0x3fa498f7003aa3ac	0.04022952916904585
60	0x3fc148dc337bfbeb	0.1350360156429525
61	0xbfae9af4bb2c0040	-0.05977597031414961
62	0x3fc38f8cb4274aa7	0.15281828686291485
63	0xbfc11d5cba83c5f1	-0.13370856387295718

lin2.weight f8 [64, 64]
0	0x3fb89ee5ae319e93	0.09617457869318917
1	0x3fac1e4f0b757142	0.054918737553381294
2	0x3fb90b5f1a34d745	0.09782976522259641
3	0x3f8777d34a5d3528	0.011459017474090574
4	0x3fb185971f28cdc7	0.0684446765015344
5	0x3fa3357e5992107e	0.03751749843016315
6	0x3fb7ca3cb7051519	0.09292964428194174
7	0x3fae2f7de789b192	0.05895608378782237
8	0x3faf49db62eac912	0.06111035902485375
9	0x3fa31cdfad0599a2	0.037329664107164776
10	0xbfb496f3bc18db02	-0.08042834608282237
11	0x3fb8edcc910fbf2b	0.0973785261301116
12	0xbfbaaff0f4a26c71	-0.10424715015908405
13	0xbfaa085601c012ec	-0.05084484835973577
14	0xbfba76f48dc14d65	-0.10337761364762839
15	0xbf9dbf366f43ffc8	-0.02904973081695042
16	0xbfb8a6b84272456b	-0.09629394170976517
17	0x3fa65d0962690af6	0.04367856336877722
18	0x3f94dbd871e79ef4	0.020369893982119927
19	0x3fb966d66167c46b	0.09922542455730514
20	0xbfb337a89e12e8f4	-0.07506803378319998
21	0x3fb5783fc880291b	0.08386610646281094
22	0x3fbc831220f91607	0.11137498192791649
23	0xbfb268a1167b60f2	-0.07190901564479527
24	0xbfb98c64fe1127df	-0.09979850008781409
25	0x3fb141accc792d35	0.06740837089562464
26	0x3fb806799d02da85	0.0938488014533992
27	0xbfa224b1610873c8	-0.03543619451031749
28	0x3fae9079b7129326	0.059696010205959646
29	0x3f976e02c2a48d8c	0.022880595331242357
30	0x3fbcddfdc32684bd	0.11276231779494857
31	0xbfb9da715387dbe1	-0.100989420788991
32	0x3fb2b24b95858b7d	0.07303306961470742
33	0xbfaeed0740285c64	-0.060402132589097574
34	0x3f9f7c39f09a0144	0.03074732333198084
35	0x3fbecd0be4c13711	0.1203162606700199
36	0x3fb305187d80ea0b	0.07429650367786438
37	0xbfb289a81bf4204c	-0.0724129741903436
38	0xbf84f8e6184e1560	-0.01024036180184379
39	0xbfab1e038b4b3674	-0.052963362458837177
40	0xbfac86a1241f5574	-0.05571464124629247
41	0xbf96464a6ba93390	-0.02175251276121376
42	0x3fbd180f20944661	0.11364836259260748
43	0x3fbc8a0083e0fa03	0.11148074359605435
44	0xbf988bf6b4f7db48	-0.023971419139310585
45	0x3fbd86563ab26af5	0.11533106740027306
46	0x3fbb37b581815f0d	0.10631880199195738
47	0x3fa6b6ccdaa4062e	0.04436340493158429
48	0x3f95330e395f753c	0.020702574016344885
49	0x3fba43e0d647a28f	0.10259824019852658
50	0xbfbd9a057acc662b	-0.1156314301300873
51	0x3f9a849ee94cf67c	0.025896533002415442
52	0xbfb9200d25078cd7	-0.09814531473198272
53	0x3f9e2acc630fdcfc	0.029460137888205104
54	0x3f7e78de2d4b4270	0.007439487341529202
55	0x3fa0979ab49e4036	0.03240664915858853
56	0x3fb2175ee2093e6f	0.07066910761317911
57	0x3f93299688d442ac	0.018713333226574022
58	0x3fa9dd9f93c7daee	0.05051897696460182
59	0x3fbb2a5b9f85cf2b	0.1061150803050707
60	0xbfa605395cea6fc0	-0.043008606521851345
61	0xbfa22ba8e4a661d0	-0.03548934737336007
62	0x3fb7896373ed8fd5	0.09194013195298052
63	0x3fb3c47cb7319de7	0.07721690628533616
64	0xbfa6589d8afcacc4	-0.043644831863582506
65	0xbfbb003f3fe5a26d	-0.10547251996980274
66	0x3fb12a1edb37979d	0.06704895832044007
67	0x3f942dd36e0846a4	0.019706061926689458
68	0x3fbc5811712197b3	0.11071881305687618
69	0x3f9d465051a3442c	0.02858853815343225
70	0xbfa04fbeb3686f0c	-0.031858405495056
71	0x3fbb814882708c53	0.10744145569383194
72	0xbfa831c38dc439dc	-0.04725466828869049
73	0x3fba6da8980e6e49	0.10323575699151734
74	0xbfbc53098778a28b	-0.1106420474758442
75	0xbf9c8f947b45c4e0	-0.027891464256247
76	0x3fae3b38c62c2796	0.059045576277710385
77	0xbfbc97bb1197332d	-0.11169022731264695
78	0x3fbb64ee2e1ba1f7	0.10700882554704792
79	0xbfbf30f288eab05d	-0.12184062807745151
80	0x3f8513b8de4e4538	0.010291523250801946
81	0xbfb1d1185cc2a5c8	-0.06959678902298727
82	0x3fb1d54c6e9a44d5	0.06966092777499296
83	0x3fb56328c48488df	0.08354430005832424
84	0x3fbb29ff49733447	0.10610957663739483
85	0x3fb081e3a2a1b8b1	0.06448195190907559
86	0x3fae331fe02ae24a	0.05898379908962122
87	0x3fbf4bb8696ae633	0.12224915097876803
88	0x3f98a4470f3ac9bc	0.024064169220489026
89	0xbfb02c77b619197e	-0.06317852206948335
90	0x3fa1b63367967062	0.034593206782319155
91	0x3fa92669cfa0266a	0.04912119540683764
92	0x3fb4e0ac4352ae29	0.0815532364237518
93	0xbf87af2e28367930	-0.011564598657795772
94	0x3fa90d5f024618d2	0.04893013861424013
95	0x3fb85a0ddee2b5e9	0.09512411777060205
96	0xbfa6fe50cbe405f0	-0.04490902413273179
97	0xbfb56cd1299cb036	-0.08369166627807165
98	0x3fbece94b1a6548d	0.12033967339660219
99	0xbf5e0fc1ca655500	-0.001834811447755158
100	0x3fb1084ba8ee2fd7	0.06653282999303599
101	0xbfa667e18c3bd5e4	-0.04376129948461108
102	0xbfb47961eaa791b0	-0.07997714976187953
103	0x3f9f992e3c19e194	0.030857775133399892
104	0xbfb951fa3a7463db	-0.09890712668528982
105	0x3fb25d50474f4457	0.0717363523574631
106	0xbfb29e4c6f7050e0	-0.07272794457123011
107	0x3faea19d807c49c2	0.059826776441827004
108	0xbfb0b72d33b31290	-0.06529505264468072
109	0x3fbc111f5852e8c7	0.10963626772255274
110	0xbfbf318dd19fede7	-0.12184988372603521
111	0x3fa04dbcab784d4a	0.031843086177242144
112	0x3fa04f77d8bd38ba	0.031856293876090416
113	0x3f912b62a4dbd6d4	0.016767064392260903
114	0xbfa50276433e11c4	-0.041034408291156704
115	0xbf7c688c0b9f8660	-0.006935641338687043
116	0xbf9da1dd4f901778	-0.02893777654755733
117	0x3fae92773d8a4a9a	0.05971119524214892
118	0x3fb3b2bf47c7ea4f	0.07694621565307468
119	0x3f7bf72e96c246d0	0.006827527988336704
120	0x3fbbdc21e879edd1	0.10882770467463067
121	0xbfabba6baeb6df54	-0.05415665157073471
122	0xbf8104ff2954ce80	-0.008310311745481913
123	0xbf5e1ac3a39a5400	-0.0018374357736423708
124	0xbfb8702dcf55ea93	-0.09546171485809855
125	0x3fb81a831595f01d	0.09415454174990186
126	0x3f92f351d613385c	0.01850631589041317
127	0xbfbda4f745b64a29	-0.11579842998461544
128	0x3fbe143573f417c1	0.11749586182494821
129	0xbf60e6a589021fc0	-0.0020631058797029034
130	0x3fa8e2d1178216aa	0.048605474586151345
131	0x3fb62945fdfdac39	0.08656728220891886
132	0xbfbd6ec2fd3ddac7	-0.1149713390603707
133	0x3fa1a864c9144eda	0.03448786692220347
134	0x3fb471b4543149c7	0.07985999160272349
135	0x3fb04037fbc9cd6b	0.06347989937949243
136	0x3fbbc76d5b600c91	0.10851176720466273
137	0xbfbeb0f194e1065f	-0.11988744625798507
138	0x3fa83638a7dfebce	0.04728867577792749
139	0x3fb19fa09fefce71	0.06884197144227656
140	0x3fb47635ed6ac715	0.07992875143352436
141	0xbfb4447272d6d5f4	-0.07916941932383975
142	0xbf8f399aeabeeef0	-0.015246591843485174
143	0x3fb113c4340499c3	0.0667078616139412
144	0x3f86d9dcee598658	0.011157728217941074
145	0x3fa01dc6353fc38e	0.03147715950024753
146	0xbfb61f1a8c5aba88	-0.08641210486050899
147	0x3fb1a46e3b9176d5	0.06891526178648218
148	0x3faf5782ddbcb546	0.06121453243972978
149	0x3f5199c1f148fa40	0.0010742563218994056
150	0x3f8236b9f93d3928	0.00889344493739637
151	0x3fb43efec6852855	0.07908623072322148
152	0xbfbfe147a1e44d2b	-0.12453124716221413
153	0xbf90e936f6f8c670	-0.016514643501244597
154	0xbfb21c116f7a3a00	-0.07074078532807704
155	0xbfad448455872da8	-0.057163367691454525
156	0xbfb3514190e4366c	-0.07545861995114372
157	0xbfa34faef4559438	-0.03771731121631955
158	0x3fbb966c691e7a01	0.10776403013594661
159	0xbfa8d9a88e93bf60	-0.04853560200160589
160	0xbfa99656240af9fc	-0.04997510137535596
161	0xbf8c6fa5c5032d70	-0.013884825777856519
162	0x3fbab3026f0bc73b	0.10429396830639075
163	0x3fb31e041739177b	0.07467675749748352
164	0x3fa31d4132b0c952	0.03733257049352069
165	0x3fbc92ae8c20bf17	0.11161318703738875
166	0x3f9e9ccb82bbad4c	0.029895000318828566
167	0xbfa006ae5d098a74	-0.03130097280224656
168	0xbf92d9888b846638	-0.01840794898553197
169	0xbfbb42bc818c3585	-0.1064870659140152
170	0xbf800f82a7345fc0	-0.007842083671263711
171	0x3fa42a5fc9d5c7f6	0.039385789287635406
172	0x3fa77544c14b80b6	0.045816563220570414
173	0xbf944e6b6b3ce138	-0.019830397053028664
174	0xbfb5d8d27da6cf10	-0.08533969466844504
175	0xbfbb080abf287621	-0.10559146086640016
176	0x3fb816ccd14aae41	0.09409790143643539
177	0xbfb52dae94eb9a26	-0.08272830138921758
178	0xbfa26eaee986a9c0	-0.036000696188540626
179	0xbf910f36ef2f1fa8	-0.01665960154403448
180	0x3fb391f9c357a407	0.07644616145229587
181	0xbf7fd902f0948120	-0.0077753176531419055
182	0xbfa49c53fc22d658	-0.04025518849213644
183	0xbf9967c93e124fb8	-0.024809975064797846
184	0xbfac9da84140f688	-0.05589032932810506
185	0xbf85ab81deebe630	-0.010581030478976933
186	0xbfbdc9ee22097c99	-0.11636246043188904
187	0x3f90dcc81dd97f0c	0.016467215368151364
188	0x3fbeab3bdb96ef57	0.11980032073091472
189	0x3f9928dd9fc7808c	0.02456995284762846
190	0xbfb83defd8a62825	-0.09469508208545159
191	0x3fa5a4388ceae026	0.042268531038132814
192	0x3fba7719b93ad5cf	0.10337982914173625
193	0x3fb561b187ecfbcb	0.08352193420885994
194	0xbfb73f22a2b4738e	-0.09080711815154371
195	0xbf19bbc4b13ee800	-9.816539778642608e-05
196	0xbf9be749271db3a0	-0.027249472629978677
197	0xbf88826045b075b0	-0.011967422606228378
198	0xbfb23659635929ca	-0.07114180255408722
199	0x3fb37c355513f4ad	0.07611401869867747
200	0xbfb1c9907a813cdc	-0.06948187819328971
201	0x3fb982531588db97	0.0996448447775563
202	0xbfb3b7892e4130b0	-0.07701928500427146
203	0x3fa5209bae01b6b2	0.04126440524201537
204	0xbf94818a45da2a30	-0.02002540637344391
205	0x3f83aed01866abc8	0.00961077284303781
206	0x3fa00f92113dac1a	0.03136879406414313
207	0xbf71ac551f339d00	-0.004314739711140492
208	0x3f618acbf94dfce0	0.0021413787712273175
209	0xbf4b164a8c112300	-0.0008266319274606582
210	0xbf2b38cb9f8b7000	-0.00020768628726031135
211	0xbf8602ca2aa24710	-0.010747508455355909
212	0xbfb41df913246084	-0.0785823508962285
213	0xbf96e2a5267cfaa8	-0.022348957513936313
214	0x3fb51c8ea853ee91	0.08246699914519186
215	0xbfaca33bf3566274	-0.05593287797382099
216	0xbfb7fd0e39681590	-0.0937050714638501
217	0xbfab41ec0023da1c	-0.05323731900891834
218	0xbfa20f364c71614c	-0.03527230914250143
219	0xbfb8ed247dd21d81	-0.09736850806995358
220	0xbf8e9ac26abc83b0	-0.014943617708526563
221	0x3fa44998921c3016	0.03962399276323951
222	0x3fb18156c7d77e39	0.06837980631780106
223	0xbfa2bbadf7eaf8a4	-0.03658813144055387
224	0xbfbdf288741721d7	-0.11698201021420772
225	0xbfbee1058b0bca93	-0.12062105793646997
226	0x3fb24dd6b3bfe34b	0.07150022400300064
227	0xbfb9604f28229d65	-0.099125811861645
228	0xbfba0007efd66e95	-0.101562973074062
229	0x3f807c1abce15f88	0.008049210442706359
230	0xbfa9bac4192b2058	-0.050253036567995124
231	0xbf95039e5946e698	-0.02052161617186829
232	0xbf9e8934ec702ac8	-0.02982027714828453
233	0xbfb9532b96dd7745	-0.09892532761793145
234	0xbfa6e067870c5898	-0.04468081973588872
235	0xbfaa80f2117b146c	-0.051765026697048494
236	0xbfb40f83695e6db4	-0.0783617145775029
237	0x3fb425e903823d7b	0.07870346389448983
238	0xbfbb517b4aebd821	-0.1067120607293366
239	0x3f8acce72d778678	0.01308613402847246
240	0x3f9c79cbd5b96f14	0.027808365745257538
241	0xbfbc1f2bc16e9351	-0.10985063049754486
242	0xbfbee70b2572304d	-0.12071294464311784
243	0xbfb3afca71696024	-0.07690110462988337
244	0x3fbdb69de8a18509	0.11606776170221535
245	0x3fbc2d97335ae1c9	0.11007065776619308
246	0xbfa9b9fb8de06b90	-0.050247059887815415
247	0x3fb03122649c36f9	0.0632497306471257
248	0xbfb7ae9b04a5086e	-0.09250801909823433
249	0xbfb31ee284cf31dc	-0.07469001524368174
250	0x3fb786008d64fad9	0.09188846065533642
251	0x3f9954d1730a5164	0.024737618109229045
252	0x3fb834acab2e1735	0.09455374888611064
253	0xbfa1960cb7d4c478	-0.034347913208315484
254	0x3fb1982b88b372f5	0.06872818076540084
255	0xbfb5fbf508f00638	-0.08587581127360344

lin2.bias f8 [64]
0	0x3fbfe426c7a63ab8	0.12457506536723428
1	0xbfb8ed9a457f97ce	-0.09737552830446747
2	0xbfb1fa3e69c0ed60	-0.07022466737628497
3	0x3fb880c7ac3832be	0.09571502642229299
4	0xbfa2430c0c807f60	-0.03566777851688019
5	0xbf74517ac51630c0	-0.0049605174730339985
6	0x3fbcf24aa8a3a846	0.11307207696123198
7	0x3fb8dc917c847c16	0.09711560525873639
8	0x3f8f3909598ffd90	0.015245507283906418
9	0xbfb780b9f81be786	-0.09180795962666197
10	0x3f951ec7be6dd2a0	0.020625229833472702
11	0x3fa63d0b6adbadc0	0.04343448333187494
12	0x3faaf254e31e7edc	0.05263009331178889
13	0xbfbbe2e235b46a58	-0.10893071948195521
14	0xbf90fe2ee9698988	-0.016594632145265048
15	0x3fb77659dcbd0436	0.09164964331741107
16	0xbf894b86da0dfa10	-0.012351087121484944
17	0x3fbd321817d7f09a	0.11404562551610056
18	0x3fb357d62db02df4	0.07555903068003272
19	0x3fa793f987611e5c	0.046050832534601155
20	0x3fb2d15ae93b176e	0.07350700563537568
21	0xbf419504ace29f00	-0.0005365631893896328
22	0xbfbacc8817a28446	-0.10468340470335233
23	0x3f7ab97851276e00	0.006524534214317423
24	0x3fbc811b1f09249c	0.1113450003405369
25	0x3fa9202ffe3bda1c	0.0490736959308615
26	0x3fa6822198a54ae4	0.04396157253599656
27	0xbfa41a0b313b080c	-0.03926119781455392
28	0x3fbf6407581c3dde	0.12262006665354572
29	0x3fba5eaa40b075c0	0.10300697402313741
30	0xbfaac4cd7f5229f4	-0.052282735626324156
31	0xbf89ef0488541c90	-0.012662921343247896
32	0xbfbdf2f0feeed5e6	-0.11698824142407424
33	0x3fadb37b3a9a1ebc	0.05800995912892179
34	0xbfa0b6e0f07db240	-0.03264525352173964
35	0x3fb888be1c3c1fea	0.09583652676894841
36	0xbf6dafe6e2d24040	-0.003623915623911983
37	0x3fa04f0f1e8f62a0	0.031853172760468285
38	0x3f912fcd13fb4960	0.016783909172610634
39	0xbfb6c2eb56473eae	-0.08891173225787938
40	0x3fbd9aa5859a2bba	0.11564096938870608
41	0xbfb5417aad3e5342	-0.08303038339211091
42	0xbfb1b8688dd8f9d8	-0.06922009909701587
43	0x3f9b046d9be96d10	0.026384079590895004
44	0xbfa16b72b5e94ae0	-0.034022888856858335
45	0x3fa034611862c144	0.03164962217977288
46	0x3fb7268a084928d4	0.09043181135453732
47	0x3fa8a490eda19bfc	0.04813053990147151
48	0x3fb8458c5e72f2d0	0.0948112230862066
49	0x3fb9cc095440eb76	0.10076959902737123
50	0x3fad49dcddd2c438	0.057204153135338165
51	0x3fbfd157af37cea6	0.12428806331427697
52	0xbf7b2262d5ab1c00	-0.006624589989491447
53	0x3fb508b0af6d460c	0.08216385157472689
54	0x3f7d2df89702e4e0	0.007123919538736007
55	0xbfb94af6693d1af8	-0.09880008763603232
56	0x3fb637b22997d704	0.0867873527093615
57	0x3fae904bf76c544c	0.059694646790526024
58	0x3fbef4f597e6dad0	0.12092528303660832
59	0x3fb99cf9b26836da	0.10005150418893596
60	0x3f9a08d1be519458	0.02542426799881911
61	0xbfb0fdee831d0560	-0.0663746900654778
62	0xbfbf54af84e990b0	-0.12238595004015695
63	0xbf88330ae5c83d50	-0.011816105973621177

lin3.weight f8 [16, 64]
0	0xbfa998ad277ad980	-0.04999295336658616
1	0x3fb4595080ac04a3	0.07948783055691648
2	0xbfa783513e7d9a44	-0.045923746946574556
3	0x3fba852ddbbd449f	0.10359465231637664
4	0xbf8e943028951bc0	-0.014931083906629783
5	0x3fadeb59858554d6	0.058436200665406154
6	0xbfb14af4cc1638fe	-0.06754999144161286
7	0x3fb9cf51dadd74a3	0.10081969827065733
8	0x3fbe412729390dcf	0.11818165546815539
9	0x3fbc067269f09dfb	0.10947337232993697
10	0x3fa5e4e1f7be2732	0.042761861316718344
11	0x3fa149b308141856	0.0337654063569494
12	0xbfb6639ed11a3914	-0.08745758633651618
13	0xbfbd104c372136d5	-0.11352993341389646
14	0x3f9c2eeb9737cf8c	0.027522736649145993
15	0xbfb397c5209f7ac4	-0.07653457685908466
16	0x3fa506f965ee632a	0.04106883401181556
17	0xbfaf51719f49f460	-0.061168242163127884
18	0xbfbf808cf367c707	-0.1230552763225
19	0xbfbd444940dcb20d	-0.1143232138972012
20	0x3fa2f17b53bbdb6a	0.03699860951558416
21	0x3f87ef2731d8de48	0.01168661709662823
22	0x3fbb9dd97ddc259b	0.10787734339478165
23	0x3fb64f9135563c91	0.08715159942788576
24	0x3fa89eeccc624e76	0.048087501477451264
25	0x3fa95e8bd198b03e	0.04954945500898632
26	0xbfb97b9f52649b89	-0.09954257737682161
27	0xbf94bff08795aa08	-0.020263441348484817
28	0x3fb3a0f1ff069a91	0.0766745803472111
29	0xbfb7c5cb34b55590	-0.0928618434603179
30	0xbfb1447963eb0192	-0.06745108308223838
31	0x3fb175f7b63a6f99	0.06820629309589633
32	0x3fb58fc612e2c917	0.08422506295281483
33	0x3fbe41eb423b758d	0.11819334380148501
34	0x3fbd1e7d341b963b	0.11374647638475548
35	0xbfb64b9e02981dc8	-0.0870913273175723
36	0x3fb7f8f546c18889	0.09364254929963257
37	0xbfbf3fec4928f191	-0.12206913744097948
38	0xbf88248bc29b8ef0	-0.011788455845312268
39	0xbfb8bf464a0dc1b9	-0.09666861827805108
40	0x3fb15ead0820bed9	0.06785088966784815
41	0x3fac82043e0fc496	0.05567944772327242
42	0x3fbab5cd6e731f5f	0.1043365854885656
43	0xbf80eea4334c4e50	-0.008267672362797601
44	0x3fb893bd72f4f3ab	0.09600433403552582
45	0xbfbdef18c9f96df5	-0.11692957812322631
46	0x3f97b3b4ebf0d384	0.023146464253119628
47	0x3fabc863870f46ce	0.05426322005918181
48	0xbfb8c88be5b31d8b	-0.09681009633924569
49	0xbfb38d44d6c893f4	-0.07637434238183954
50	0xbfac31bf142c7734	-0.05506703492413437
51	0xbf3b47a0c9bb6200	-0.0004162566708436899
52	0x3f63fe26ad66a6e0	0.002440524617857473
53	0x3fb642d25ca6907d	0.0869571186254365
54	0x3fb73fee1d28dcc9	0.09081924640564688
55	0x3f8ae46ab3c57788	0.013130982981859565
56	0x3f9edf8170cb1384	0.030149481305460593
57	0xbfa218e38b65a2ac	-0.035346136823880187
58	0x3fb67db83e79c89d	0.08785583043371266
59	0x3fb8749c7ac6efb1	0.09552934644210499
60	0xbfa956677604cbec	-0.049487336308082636
61	0xbfb91209cc3cc435	-0.09793149219764603
62	0xbfb7f4ae6f77c2ba	-0.09357729169256404
63	0xbfbfe9536afd8fcf	-0.12465401994774016
64	0x3fbb06014119d4f5	0.10556037749650556
65	0x3fb0e7ae05d10909	0.06603515283589813
66	0xbfb31c94e90912c2	-0.07465487183896882
67	0xbfbd1e6e45f53ee3	-0.11374558647116433
68	0x3fa3c5befc4f77be	0.03861805753670876
69	0xbfa7ca27a697a338	-0.04646419437978583
70	0x3fbfb30937c0a85b	0.12382562266489698
71	0xbfadcf964a942700	-0.058224388698432605
72	0x3fa960467d6c4512	0.049562647638717774
73	0xbfb86ab030e64add	-0.09537793344342611
74	0x3fa4f571cb864386	0.04093509301595248
75	0x3facbb6bad980606	0.05611740583482221
76	0xbfb2653c41385cbc	-0.07185722915925202
77	0x3fa92cbb9b36bf2e	0.04916940946293234
78	0xbf77ebd5dbdb6f60	-0.005840144525531915
79	0xbfb92f34c4ebcca9	-0.09837655837673033
80	0x3f5466c2c240b240	0.001245203203335113
81	0xbfb94fa59541b163	-0.0988715638538387
82	0xbf88d984eaafe1b0	-0.012133634960250855
83	0x3f9016b1d623501c	0.015711573309843727
84	0xbfb6afff6388d140	-0.08862301044502363
85	0x3f7cfe1db91b2e50	0.007078281503435216
86	0x3fafd7c73b6198fe	0.06219313239926015
87	0xbfbe99ef60fadd07	-0.11953636281656453
88	0x3fb5f8f733449147	0.08583016397148412
89	0xbfba2e705bf3f2d1	-0.10227110142654829
90	0xbfb18b85c84b5ac0	-0.06853519573210587
91	0xbfad40d75c890000	-0.05713532452182335
92	0xbf9feb739fe4a878	-0.03117161429796808
93	0x3f9a84431230ed64	0.025895164475725166
94	0xbfa5f36c85cb6d64	-0.04287280209765745
95	0x3faaca470dc37b06	0.05232450526249548
96	0xbfaf725d08014554	-0.06141939852444503
97	0xbfbd94abafcf9dfd	-0.11554978410969592
98	0xbf8103113af0e5b0	-0.008306631671177594
99	0xbfb504fbba79d2d0	-0.08210728933938616
100	0x3fa57a8734cf4f4a	0.04195044059420512
101	0xbfa576a617b75d00	-0.041920843501140226
102	0xbfa06efc030ec438	-0.03209674393964018
103	0x3fb460d3cd6d04b7	0.07960246815948123
104	0xbfaf755b303bded0	-0.061442231786654866
105	0xbfb053da07c5ca2e	-0.06377947511445178
106	0x3fb04d6dcdd05087	0.06368147158383596
107	0x3f814c2edf40d8f8	0.008446088970327711
108	0xbfa00a8e1346f4b0	-0.031330528119249634
109	0xbfaf16b68f4011bc	-0.060720162378888415
110	0xbfb44b0999fe34ea	-0.0792699814757786
111	0xbf9d21e017dcfcd0	-0.028449536758896
112	0x3fbe3eca3b184ef9	0.11814559881923604
113	0x3fba1c3e8d18a3ef	0.10199347443325711
114	0xbfa3b990a34b4090	-0.03852512353262327
115	0xbfb4b893c4d3da10	-0.08094142489776623
116	0x3fb32857bb2c881b	0.07483433074642713
117	0xbfb24c915e4fd534	-0.07148083260093047
118	0xbf90539346363728	-0.0159438144306058
119	0xbfb5d9cf54a5b48a	-0.0853547650965131
120	0xbfb379ac8b88a92e	-0.07607534796321566
121	0xbfb5c8340b93d3be	-0.08508610994961338
122	0xbfaeabef90e1b9c4	-0.05990551608634889
123	0x3f8455dcdf132dd8	0.009929395253854986
124	0xbfb6124fe70ca864	-0.08621692076545312
125	0x3f9a787a5972125c	0.025850211819959376
126	0x3fbe182b2bd4434f	0.11755628414199502
127	0x3fb5f93001c3b505	0.08583354991033694
128	0xbfb51874043400b2	-0.08240437605491271
129	0x3fb60dbd79cd189b	0.08614715789471676
130	0xbfb5194d91cbe07c	-0.08241734323007849
131	0xbfb2b541e70547a8	-0.07307826891090363
132	0xbfb98b1f66b4b42d	-0.09977909333675035
133	0xbfa5c965383a4f14	-0.04255214988111625
134	0x3f874e61d9907158	0.011379970981629725
135	0xbfb37b922668caa8	-0.0761042922756966
136	0x3f8b532b20f364d8	0.013342225020482365
137	0xbf527879a97b6500	-0.0011273563485956761
138	0x3f9bcf72294049e4	0.027158530967492114
139	0x3f81f12ccfe59eb8	0.008760786146651753
140	0xbfba74c20633082b	-0.10334408427573354
141	0xbf63c51220d61d80	-0.0024133066241948664
142	0xbfa2c3bf4a63ff4c	-0.0366496828373771
143	0x3fada5970d33bbd2	0.05790397678526173
144	0x3fae5ffb00be0082	0.05932602294979096
145	0x3fbbe4768cabe8a1	0.10895482000697367
146	0x3f93c0bd93cbe6dc	0.019289934297353692
147	0xbfa68c84fe6850b8	-0.04404082875785903
148	0xbfb575d7df8465a2	-0.08382939536058712
149	0xbfaba0a312cfa424	-0.05395993809344926
150	0xbfb99fa59765efc3	-0.1000922674774634
151	0x3f944d31269b78c4	0.01982571409359292
152	0xbf86ce944bc4b790	-0.011136206209439142
153	0xbfb053f0aff1efea	-0.0637808255723368
154	0xbfa8fd3ab63a0244	-0.04880698656507268
155	0xbfa3ec02f9df1348	-0.03891000080287782
156	0xbfb08cdb3af8e58a	-0.06464929761650332
157	0x3fa9b60061c7775a	0.05021668618768045
158	0x3f9f98f5a629dba4	0.030856931940856605
159	0xbf8acee09b9ef5e0	-0.013089899777578518
160	0x3fa3ce5132eab39e	0.03868345018904694
161	0x3fb9bd445323df5f	0.10054423360622654
162	0x3fae04be0c66be26	0.058629931463084525
163	0x3fa8d0aa115893da	0.04846698247664678
164	0x3fbcef687aa8fa6f	0.1130280780280175
165	0x3fb973e465f38481	0.09942462433856926
166	0xbfbdd9bf4ad85cbd	-0.11660380913996256
167	0x3fb3a7498a35a2df	0.07677135109191678
168	0x3fa3cc09b59b6c42	0.038666060847127884
169	0xbfb45298ed2a4b5a	-0.07938533582845989
170	0xbfb88ea833287539	-0.09592677353835634
171	0xbf853947c8f1c4a0	-0.010363159961544632
172	0x3fad4899b46c2a42	0.057194522165521025
173	0x3fa4901d64a1057a	0.04016200879460548
174	0x3faf7eff24b9abe2	0.06151578257853153
175	0xbf93278b6ac045c0	-0.018705538168495073
176	0x3f81606703da5458	0.008484654240684161
177	0x3fad21d32a122ace	0.05689868820726006
178	0xbfa0e99658f8d318	-0.033032129631840046
179	0x3fa5eb526eee79b6	0.042810989419411014
180	0xbfb13b59140ec5a6	-0.0673118280381205
181	0xbfb40b6c4bb7aab6	-0.07829930161066553
182	0xbfb826d62d1c7075	-0.09434259988160128
183	0x3fbd6e582dd41767	0.11496497267589022
184	0x3fa5abf6517a27aa	0.042327592321341825
185	0xbfbf7a9fa8791b5d	-0.1229648386298385
186	0xbfac7e78870f0eec	-0.05565239571254019
187	0xbf838b57e96b7fb0	-0.009543120203886563
188	0x3fa84eee10aed216	0.04747718766831015
189	0xbf8f50d326f4fa00	-0.015290879846927119
190	0x3fbb9f0d905f4451	0.10789570593557697
191	0xbfa51a04fdd6ef54	-0.04121413801791954
192	0xbfa43f23388e86cc	-0.03954420152082391
193	0xbfbffa1dfc4bf00d	-0.12491023454271062
194	0xbfb7f57717614d02	-0.09358925171664015
195	0x3fbbc255660d8e33	0.10843404523398519
196	0x3f9da106a800d01c	0.02893457794580466
197	0x3fa349967c75613e	0.03767080563801749
198	0xbfaa40a8f96170f4	-0.051274567071887406
199	0x3f8ef22dcbf645a8	0.015110357081342965
200	0x3fac98334b882a1e	0.055848696680261364
201	0xbf8e06bd71fadfd0	-0.014661293068783637
202	0xbfa0989f840a4fb0	-0.03241442190952115
203	0xbf9dacb633cdb548	-0.0289791554563881
204	0xbfbb7f6f9dfb0487	-0.10741326910921788
205	0xbfa1c8ee77c5840c	-0.03473611080222136
206	0xbfb171b90959e2ce	-0.06814152220057254
207	0x3f93dfad894216a4	0.019407950880597227
208	0x3fa49292729caac2	0.040180756083221705
209	0x3fa7cf997da9a282	0.04650573405235027
210	0xbf82a0924f49ddb0	-0.009095328373617345
211	0xbfb6c5d5a4b41d24	-0.08895621558268779
212	0xbfb3844fbe7881ac	-0.0762376632706096
213	0xbf93a10a87667d00	-0.019169010652714924
214	0xbfab4fb9cfea74e8	-0.05334263480220064
215	0x3f70cf660b4ea8b0	0.004104040727648847
216	0xbfa0b873e2906ca4	-0.03265726223636392
217	0xbf9ce6dbc13112a0	-0.02822440497063161
218	0xbfa13a395b076c40	-0.03364733921235841
219	0xbfbefc2c88cf1043	-0.12103536930141083
220	0x3f5d24bcefb4a0c0	0.0017787785607854961
221	0xbf5884446bdc1300	-0.0014963787247676552
222	0x3fb9277e2ec1b84f	0.09825886384507608
223	0x3fba4e57cde07417	0.10275791908539166
224	0xbfac8ac0fbe3ba28	-0.055746107815015045
225	0xbfbaecb9ce9f1109	-0.10517464918581622
226	0x3fa180f7f4276856	0.03418707709688877
227	0xbfbe3635e343aec1	-0.1180146865696612
228	0x3fb487fd62731355	0.08020003942062932
229	0xbf8acc2afc1dbb30	-0.013084731883024142
230	0xbfbfc25cd364e4ef	-0.12405948792447295
231	0xbfbe3e7e5b14616d	-0.11814107631324129
232	0x3fb6e20ddfcf4c91	0.08938681329827804
233	0xbfadaeffd3a476d8	-0.05797576387906894
234	0x3fbefd3401bbf2f3	0.1210510734781101
235	0xbf6c4a66d3fe0680	-0.0034534462319591452
236	0xbfafc4e6a59b6958	-0.06204911014147524
237	0xbfb7965fd8ab25be	-0.09213828124770537
238	0xbfbc69e634670fc7	-0.11099089412078832
239	0xbfb8d204810e7fff	-0.09695461417004479
240	0x3fb5ff17712c80d5	0.08592363846810554
241	0xbfb0e16015006fb6	-0.06593895447480133
242	0x3fbe01e0d6b1d27b	0.11721616021697827
243	0x3fa06b8f57e227ba	0.03207061717792166
244	0xbfa0eeae355857a0	-0.033070987712718436
245	0xbfa01fa20b847ab4	-0.03149134054750871
246	0xbf748e3e936aeea0	-0.0050184673661381185
247	0x3f7bdcc422c8c570	0.006802335887685515
248	0xbfac9aa7c237ea24	-0.0558674263556507
249	0x3f9f7d32a3bf442c	0.030751029247600467
250	0x3f689efefcd515a0	0.003005502722461542
251	0x3fba6bac40606acf	0.10320545741744101
252	0x3fad3bf157f120da	0.05709795187482465
253	0x3fb9fc46640c5e2d	0.10150566046319716
254	0xbfb857be0752675b	-0.09508884123570509
255	0xbf8f12569d69c890	-0.015171696356649528

lin3.bias f8 [16]
0	0xbf7a44cfd9e96a40	-0.00641328040964112
1	0xbf7a91224e4c29a0	-0.006486066825127784
2	0x3fb676cf6458c3ec	0.08775039863463946
3	0x3f9f5b2f3e797ee8	0.030621278942247893
4	0xbf6ad29c53ca2e00	-0.0032742551105167106
5	0xbfbcfb5ff75a69f2	-0.11321067608734106
6	0x3fbeb00648e674ec	0.11987342147627417
7	0xbf92408e1d29cb00	-0.017824383287414314
8	0xbf6265cf09c8c900	-0.0022458118167146823
9	0xbfa959002fd11934	-0.04950714667988834
10	0xbfa96dda269eee64	-0.049666230406242545
11	0x3fa5a06e145b4bbc	0.04223960875028562
12	0x3f9c9ffd41f92c88	0.027954060699169975
13	0xbfbc7daf60b86a50	-0.11129280196511471
14	0xbfb0f724c3904f1c	-0.06627111219887322
15	0x3fba6f3dd1831f98	0.10325991025012937
