LP4-MachineLearning/HW_B_2/dqn_action_10000.pth (torch, 54623 bytes, 6 tensors)

lin1.weight f8 [64, 20]
000000 87 5f 48 62 30 b6 eb bf d2 84 84 b6 8f 20 d5 3f
       -0.8659898681244024 0.3301123888396208
000010 f5 a4 33 e4 f6 08 cf bf 40 ae 35 95 f6 c3 f0 3f
       -0.24246107237494355 1.0478425816062469
000020 f9 78 87 0f a4 3c d7 bf b1 94 04 d4 6b 83 e9 3f
       -0.36307622448465754 0.7972926274275293
000030 6d 5b bd 53 3a 6b f6 bf 65 4e 96 dc de 50 d8 bf
       -1.4011786719399553 -0.37993594686233784
000040 da f5 4b 7f 46 d2 e3 3f 7a b6 d7 bd b8 c4 e4 3f
       0.6194183813346925 0.6490138728965598
000050 8d 66 d1 ab 66 4e c3 bf 64 73 1d f5 b3 54 d8 3f
       -0.15083011045026176 0.38016985833183115
000060 24 a4 a7 14 49 69 d4 bf c5 2f e8 e0 47 bc ad 3f
       -0.31892611519885095 0.05807709331938286
000070 f2 1b e2 61 68 ca ea 3f b3 0e a6 72 fb 2e e8 3f
       0.8372079765111933 0.7557351340514827
000080 10 cb 7e 5f 8c 7b e7 bf c2 d5 88 b3 11 42 b9 bf
       -0.7338315835134797 -0.0986643851582221
000090 80 52 97 57 55 0b ed 3f 1d ff 5f 90 df 00 e3 bf
       0.9076334677470896 -0.5938566036056475
0000a0 75 eb fe 98 31 e3 cd 3f 7c df d2 75 7e 81 cd 3f
       0.233495902733775 0.23051434281455474
0000b0 db b5 10 7e 75 0d e0 3f 50 db 75 73 00 52 d2 3f
       0.5016429388248825 0.2862549903433562
0000c0 b1 26 eb d5 62 3e ed 3f 74 82 0b ba 47 f7 bb bf
       0.9138654878708704 -0.10924194614518418
0000d0 27 21 f1 5e 1c 7c da 3f ce 2d ad 53 0c 15 c2 bf
       0.4138251235167609 -0.14126733861699708
0000e0 e9 4f 11 d8 a6 43 dc 3f 86 ae 03 0b 22 4d ef bf
       0.4416291341815382 -0.9781656470417637
0000f0 fb 5c f1 a8 cd 20 d1 3f 8a 10 5f d6 8e 84 e5 bf
       0.2676271581489826 -0.6724313914242128
000100 6a b3 69 ff 26 46 e9 3f ce 5d 13 ce 4e 51 d0 3f
       0.7898135174305996 0.25496263622832493
000110 d5 84 78 18 04 93 c0 bf 52 7b 0a ab 6a 78 f4 3f
       -0.12948657221662666 1.2793986016547092
000120 36 ae 21 9e 30 8d f1 3f 05 c7 2a e4 28 65 ee 3f
       1.0969701935781706 0.9498486000431688
000130 24 97 6e 4c 69 6a eb bf 11 71 58 05 6e 6c f5 bf
       -0.8567396633922937 -1.3389721115882518
000140 42 c5 af 7a 43 ec c3 3f 18 27 ec 39 b2 b6 9f 3f
       0.1556476925903017 0.030970368180567837
000150 97 24 30 c3 19 dd dc bf 5c 0b ce c5 18 12 e7 bf
       -0.45099491177877254 -0.7209590781570614
000160 55 02 61 ae a1 16 f0 bf d5 a8 1a 64 71 97 c7 3f
       -1.0055252849271217 0.18430917156121632
000170 09 85 24 65 00 1d e9 3f 76 10 79 63 c5 86 e1 bf
       0.7847902274553756 -0.5477015440778945
000180 63 c3 cb 45 39 52 e9 bf 56 98 3b 90 6a e9 f4 3f
       -0.7912870753481055 1.3069863924115643
000190 8e 1d 1b 7a 06 c6 ca bf 71 c8 df 71 8e 2e ba bf
       -0.20916825258448707 -0.10227289466982527
0001a0 82 6d 18 cf 96 a1 e5 3f 83 77 d4 7d a4 fa bc bf
       0.6759752316315117 -0.11319950172443609
0001b0 9b 5a a1 2b fc d9 d6 bf 02 9d a9 bd 2d 3e d7 3f
       -0.35705475102205647 0.3631700851605758
0001c0 ac 2e fd 32 92 6b 94 bf 39 86 e3 31 4c 2d f5 3f
       -0.019941601144906215 1.323558993223186
0001d0 9b 3d a0 b1 68 e5 b1 bf 94 d9 24 cd 7d f1 dc bf
       -0.06990675293513109 -0.4522394660338247
0001e0 05 89 20 25 a7 39 d6 3f 33 58 f4 2c 7d 41 b5 3f
       0.3472688543862577 0.0830305323364378
0001f0 9f a8 66 73 2a b5 f2 bf e8 7a 6a fc d8 79 f1 bf
       -1.1692299373485537 -1.0922479495999884
000200 5e 6d c5 18 45 bf e7 bf 9e c5 35 9d c5 0f f6 bf
       -0.7420983775913716 -1.3788505688683936
000210 14 ba 8a 0a 96 64 ca 3f 8e a4 7a f8 09 47 ec 3f
       0.2061946441148882 0.8836717465502646
000220 f9 55 bb a7 a8 18 f8 3f c9 d6 ae 15 2b 1b df bf
       1.5060202171347312 -0.486033221411486
000230 65 a8 a3 d8 94 2a cf bf 52 9d 2b ec 49 d1 c5 3f
       -0.24348698213663336 0.17044948608166038
000240 05 47 b9 96 c7 d7 df bf 63 ab da a1 ab fd e1 3f
       -0.49754514426341273 0.5622156296934516
000250 79 f6 51 82 8a cb b7 3f 39 7f 46 2c 09 f7 ba bf
       0.0929495399631949 -0.10533196764890541
000260 82 44 4b 0b 46 37 e2 3f 0f 67 7f e8 6b 95 ce bf
       0.5692472668253148 -0.23893498279976952
000270 0f 61 5c e7 b2 e8 cd bf 35 2e 1a 23 53 03 d8 bf
       -0.23366390511433408 -0.37520292690234963
000280 d0 b7 95 68 86 3d cc bf af 53 c0 79 e0 57 c5 bf
       -0.22062759501153417 -0.1667442888725907
000290 96 3a 2f 8a a8 75 c2 3f a5 a8 f6 36 a2 65 dc 3f
       0.14421564814843596 0.44370322577982285
0002a0 c5 1f 11 de 37 09 b4 bf a1 40 f6 f6 c1 6a e0 bf
       -0.07826565906100232 -0.5130319426989624
0002b0 31 61 a1 3d 90 4a a6 3f 57 af 07 4b 0c 93 bb 3f
       0.04353762390445793 0.10771252471721247
0002c0 08 28 c3 8c d7 d1 c6 bf da 6d 17 98 8f de f5 3f
       -0.17827886937294601 1.3668361607623098
0002d0 2e 07 b0 46 64 40 e4 bf a1 35 06 86 00 88 e6 3f
       -0.6328603153817534 0.70410181213963
0002e0 ff a0 1c 4c 45 f6 e9 3f f3 54 37 ce 77 b9 c8 3f
       0.81131234040825 0.19316003388545475
0002f0 9b b1 94 86 00 6d f2 3f 71 6e 06 46 d9 7f ec bf
       1.1516118294776791 -0.8906065337827852
000300 93 26 bc da d2 fa d8 bf 57 6b da 61 ba 9a 92 bf
       -0.3903090606769208 -0.018168365690694212
000310 e2 bb a5 e8 71 d6 e2 bf db 6e 37 dd b1 a1 e5 3f
       -0.5886773628134245 0.6759881325374083
000320 a6 5d 9c ff fc de df 3f f1 95 22 cc ae 14 de bf
       0.49798512422554564 -0.47001237807339097
000330 16 f7 de 7e 2a d3 ce bf 10 1f 79 24 53 4d d4 bf
       -0.24081927485342963 -0.317219529741565
000340 aa 74 d0 7c 02 1f cc 3f d7 85 46 12 0a a6 d7 bf
       0.21969634146163247 -0.36950923714365785
000350 80 42 a1 82 d8 3b da bf 94 1a 4b 4f 78 18 d3 bf
       -0.40990269429043025 -0.2983685278272017
000360 7a d8 54 c9 df 89 fa 3f 1e 44 43 97 f9 80 be bf
       1.6586606850155747 -0.11915550177515441
000370 ea 7a 48 40 fb e0 d6 3f 8c bb 3c 19 92 0c f5 3f
       0.35748177793168046 1.3155690179662285
000380 fd ca 4a f8 33 98 e1 3f 11 c4 5b 6e 9e e9 ec 3f
       0.5498294686752555 0.9035179286421472
000390 af 80 2c af 7e 0c d3 bf 07 10 5d 5f 01 b4 e8 3f
       -0.2976376257593171 0.771973310715567
0003a0 64 f5 f2 4e 00 e6 d6 3f 5c 70 b5 aa 11 c6 cd 3f
       0.3577881594645389 0.23260708651912665
0003b0 f1 f0 4f ec d7 11 e0 bf 60 11 28 2c 1f 86 f5 bf
       -0.5021781554674175 -1.345244572149646
0003c0 14 ad f3 9f b6 18 bd 3f 07 a2 72 73 04 99 ec 3f
       0.11365834622454357 0.8936788801993892
0003d0 63 5e 54 9b ac 11 a0 bf 58 54 af 3f 89 89 d5 bf
       -0.03138484378922326 -0.336519539062754
0003e0 00 cc d2 bd e1 a0 e9 3f 6c 61 96 f3 c1 d1 d9 bf
       0.800888891934278 -0.4034275893004835
0003f0 bd 82 73 98 6a f1 b7 bf b5 0d b6 55 30 00 82 3f
       -0.0935274717517229 0.008789422622391333
000400 75 4d 45 cb 82 57 d5 bf c9 7d cf 2a aa dd bd 3f
       -0.3334662423196371 0.11666358514002363
000410 1e 35 df b1 92 69 de 3f 42 5a 4d fa 8f aa ec bf
       0.47519366617491865 -0.8958206070627244
000420 e5 d4 88 67 66 da eb 3f 59 44 24 24 d5 0d cb bf
       0.8704101583631682 -0.21135963692407492
000430 73 5b 36 a5 47 e6 7a 3f 5f 9e 09 ac 0e 30 bd bf
       0.006567268242540491 -0.11401454639564566
000440 db 90 30 3d be 8f 8e 3f f9 21 b3 7a 68 72 ce 3f
       0.014922605745660558 0.23786645880888083
000450 72 08 7f 4f b4 82 d5 bf 0b 4d 97 80 10 f2 e9 bf
       -0.336102559693365 -0.8107988845389696
000460 95 d3 4a c5 72 5f f2 bf a7 9c 19 82 0b f4 eb bf
       -1.1483028132181279 -0.8735406437889609
000470 5e 7c bf 48 17 40 db bf 61 1e d7 0b 7e 07 a9 bf
       -0.425786801379166 -0.048885287232732784
000480 e7 29 7c e5 ff 56 e0 3f 81 b6 28 a0 7c d3 d7 bf
       0.5106200677994907 -0.3722831310322832
000490 af ec 52 30 16 28 b3 bf fe cb cf d8 33 6e b3 bf
       -0.07483042411597539 -0.0759003071141677
0004a0 b5 aa e0 b5 92 57 e6 3f eb c4 0e b3 e7 74 e1 bf
       0.698190074186036 -0.5455206391544868
0004b0 5b 66 62 54 41 24 f1 3f 58 6e 8e 54 66 a3 e5 3f
       1.0713513656868574 0.6761962558261514
0004c0 cd 02 37 57 e3 79 d0 3f 7c 56 62 9b a1 6c 7b bf
       0.2574394561488987 -0.006695395734046646
0004d0 08 12 c9 5f dc b9 f5 3f c9 8a 26 06 70 40 ed bf
       1.3578761808031476 -0.9141159172180205
0004e0 dc 5f 6b bc c6 79 e2 3f ec d2 ba db 98 59 e7 bf
       0.5773652725283642 -0.7296871463391574
0004f0 44 73 f3 42 57 6d e8 bf c2 ff 16 23 3f 96 d5 3f
       -0.7633472736011773 0.3372953264879436
000500 29 79 b8 77 52 9c ce bf ea 30 c8 5b c1 c3 c5 3f
       -0.2391455730984913 0.17003647786658088
000510 ca 3b d7 64 4a 4a e0 bf fe fe 05 3d 85 28 be 3f
       -0.5090686769052521 0.11780579318837778
000520 95 cc a3 36 24 aa e6 3f 03 d3 48 c5 62 b9 e0 3f
       0.708269221037329 0.5226301053249646
000530 ba 11 c4 c5 a7 30 f5 3f 60 70 50 c2 c7 27 e9 bf
       1.3243787503462117 -0.7861059947204119
000540 f6 98 e0 92 ab 0c e7 3f 1c 1d 14 9b df ed cf 3f
       0.7202966564844064 0.24944682190128098
000550 8a 0f 9d a5 20 56 e1 bf d9 fa 9d b1 8a a6 de 3f
       -0.5417636141432791 0.47891490312023915
000560 06 df 22 e7 80 20 e9 3f 87 8d 93 59 45 6b db bf
       0.7852177156810007 -0.42842229602521126
000570 c6 9d 91 0f d7 a1 d0 3f 86 2c 21 8d 02 91 d4 bf
       0.2598779346503445 -0.32135070593057724
000580 b7 05 6c 32 cc a4 dd bf d1 67 2e 8c 68 a9 db bf
       -0.4631834499742484 -0.43221486749245935
000590 9f f0 9e ac 08 1e c4 bf e1 21 72 c8 0b 6d 8e 3f
       -0.15716656140091786 0.014856426291104565
0005a0 99 3b f1 88 38 8d e8 bf 30 c2 68 3e 0e b7 dd bf
       -0.7672388720182993 -0.4642978295769664
0005b0 05 7a 1b 47 ba 92 f3 bf 0f 3c 5f 5d 3a e3 ee 3f
       -1.2233221795683005 0.9652377914115976
0005c0 84 21 e6 5f d3 ce d0 3f 28 a9 24 b8 a9 18 e7 3f
       0.26262363782054643 0.721760615973186
0005d0 5f 18 f2 48 9f 28 dc bf b9 9d 61 3a 29 44 e1 bf
       -0.4399793827400397 -0.5395704403171556
0005e0 cb ec fa ad 84 f3 f1 3f da 2c 4d ef 88 34 ec 3f
       1.1219527050114262 0.8814129518372298
0005f0 95 58 33 2c c1 58 b0 bf 0a 21 11 bf 54 d7 d9 3f
       -0.06385428742518891 0.40376776369932144
000600 a6 59 4b 6d bd 55 d8 3f 6d 48 0c e6 be b3 d8 bf
       0.3802331511809832 -0.38597080674765644
000610 34 30 8e a5 1f fa e1 3f de 74 18 d1 fe 2c c8 3f
       0.5617826684479099 0.18887314996474108
000620 1a 47 68 41 71 a3 cc 3f e4 83 14 55 99 e3 cb bf
       0.22373786634175802 -0.21788326887420262
000630 81 12 e5 13 4a ff db 3f 78 8e 3d 23 42 39 f0 bf
       0.43745662634709254 -1.0139790894108085
000640 2b a5 17 c3 0d eb b7 3f 6f e1 49 bb 1f fc d2 3f
       0.09343038571355027 0.29663842477704966
000650 9c c7 c8 b7 f2 38 d7 bf a5 cf 38 98 8d be d8 3f
       -0.3628508372086061 0.3866304384748623
000660 c4 fd 52 69 48 b4 df 3f 45 8b 9a ee 76 27 e7 3f
       0.49537859235348614 0.7235674534061692
000670 e5 c4 56 00 17 7a ce 3f c6 a6 db 37 51 58 e4 3f
       0.23810088650274178 0.6357809153534724
000680 00 32 b7 a5 b6 d1 ec 3f 5c 78 c9 d1 5c 60 01 c0
       0.9005997883446639 -2.1720520391091167
000690 a5 38 c7 f2 93 cc f3 3f 4e 46 8c a8 58 fb bd 3f
       1.237445782043815 0.1171164905065549
0006a0 ef e9 d9 b2 3d 91 e0 3f d1 a0 65 c7 7c e0 b5 3f
       0.5177296155155185 0.08545665615168054
0006b0 0a 84 e6 74 6d 99 ea 3f 58 4f 84 ec e2 73 f8 bf
       0.8312289508068045 -1.5282925833643812
0006c0 ba 29 9b ad 8c 24 a9 3f a1 44 61 4e 0f a6 c3 3f
       0.049106975738669914 0.15350524260660328
0006d0 42 3e e8 41 bb 25 ee 3f e9 6a 0f d1 f2 94 f7 bf
       0.9421058928728103 -1.4738643804945986
0006e0 cb 73 ee ab 23 bf b3 3f 09 60 ec e1 a9 2f 9a 3f
       0.07713530490441582 0.025572447218195325
0006f0 1b 46 1a 5b 76 e2 ac 3f 57 fd 88 c0 b4 55 db 3f
       0.0564152704438465 0.4271060829377879
000700 ee ac 57 25 a8 b8 e3 bf f9 82 49 b7 d7 67 cd bf
       -0.6162911156983719 -0.22973152589386084
000710 6a c3 c8 64 95 fa e2 3f 61 71 81 f4 6b 53 b7 bf
       0.5930888145868327 -0.09111666411758314
000720 9b 7a 28 0a e3 b6 d4 bf c4 e8 96 8c 81 67 d3 3f
       -0.3236625289154433 0.30319250802461917
000730 fd cb b5 dd a3 b8 eb 3f a1 a4 f4 0d d4 8c d7 bf
       0.8662890749241111 -0.36797047961096935
000740 c5 6d 29 94 07 10 e6 3f 05 38 71 b8 2b 3b b5 3f
       0.6894567388330236 0.0829341244982232
000750 3c b6 4f d7 66 ca f2 bf ad 7a f6 86 bb ea d8 3f
       -1.1744144831276477 0.3893269365307031
000760 50 08 b2 25 1a d0 e4 bf c6 9b 8d cb 8d 59 c1 3f
       -0.6504030929793405 0.13554546774977733
000770 c8 02 09 45 e1 59 d8 bf 0a 7b fe 4e a4 46 f4 3f
       -0.38048583738058683 1.2672465406137143
000780 73 58 ec f3 5d 11 d1 3f b2 92 ee bb 08 29 d5 3f
       0.266684997755312 0.3306295237801279
000790 1b 90 4c f1 99 42 f3 3f 20 c5 c6 e0 18 7b c7 bf
       1.203760092329509 -0.18344412780201313
0007a0 83 6e 10 2f 09 3a d5 bf f7 4e 15 84 c7 02 d0 bf
       -0.33166722866165105 -0.2501696386218408
0007b0 a1 db fc 59 fc bb f1 bf a7 31 6e 29 a0 5a d8 bf
       -1.108394958033138 -0.3805313496202651
0007c0 cd 4b c3 ca 2c e7 e6 bf c8 77 2a ac 09 17 df 3f
       -0.7157196006977472 0.48578111470294205
0007d0 c6 89 54 8f 08 f1 b5 bf a0 69 29 7b 1e b4 d3 bf
       -0.08570912837288977 -0.3078685953857079
0007e0 86 10 9a d6 46 f0 d6 3f 3c 7b ec 9d 19 43 e4 3f
       0.3584153266640516 0.633190926022372
0007f0 1e 33 94 43 f1 e0 f1 3f 1d 05 85 d6 65 e0 e4 bf
       1.117417587261293 -0.6523923101268881

lin1.bias f8 [64]
000000 b3 e8 91 47 1f c3 c9 3f e8 31 c5 13 30 8c c2 bf
       0.20126715654970936 -0.14490319218965841
000010 c6 76 85 dd 48 fc b1 3f fb 7c 7b c7 84 0b be bf
       0.07025580795513084 -0.1173632609384078
000020 3c 89 c3 c4 c7 28 c8 3f 0e af fb 51 5a 42 e5 3f
       0.18874451739891096 0.6643497086747361
000030 e1 35 2f 82 29 69 df 3f 24 56 75 c6 99 7b b5 3f
       0.49079358781167853 0.08391724677252249
000040 4a 6c da 3b 91 a4 e6 3f 1e ae 2c c5 e3 e9 e6 3f
       0.7075887841232398 0.7160509921135974
000050 f2 54 87 4c bc f0 a6 3f cb f9 8b c1 8a 4e a4 3f
       0.04480541643321513 0.03966172802573772
000060 7d 81 c1 6b 88 e6 dc 3f 30 54 b4 09 e4 0a ce bf
       0.45157061121974335 -0.23470736001823544
000070 e9 8a 2b 97 87 ae cf 3f e7 21 ce bd ad 6a aa 3f
       0.2475137222418973 0.051595143718319574
000080 7e 8b 09 81 87 70 a2 bf 53 bb f2 a2 fd 22 d0 3f
       -0.03601478052293937 0.2521356669703227
000090 ad 20 dc ec b3 46 88 bf bb f1 6c a0 3b 4a d5 bf
       -0.011853604951753327 -0.33265581766661584
0000a0 c4 11 e3 3d 3c cf da bf fd c4 fe ae 79 9b ab bf
       -0.4188986400952468 -0.05392055760547441
0000b0 1a ca 98 5c 65 1e a3 3f f4 13 40 f6 9e 0b e9 3f
       0.03734127765018887 0.7826685723854312
0000c0 b4 fd ce f8 f4 41 c5 3f 42 f8 8a 7d 94 d4 e6 3f
       0.16607534550528913 0.7134497119911958
0000d0 5a 3b c5 39 06 2b d3 bf 97 63 6c 63 c6 6b cf bf
       -0.2995009960331366 -0.24547653059633198
0000e0 9d 64 63 e9 0b a3 d5 3f 88 4b 5f 2b d3 ff c6 bf
       0.3380765704328697 -0.17968215577874624
0000f0 15 6c ac ad 5e 6a dc 3f d8 3d ee 0b ac af de bf
       0.44399229965500925 -0.4794721714506216
000100 42 c7 69 2b 91 ac c3 bf a3 f5 10 07 5e 71 b4 3f
       -0.15370382900032992 0.07985484764591048
000110 97 24 d1 60 a2 cb d1 3f 38 f3 79 aa db ce e3 3f
       0.27805385069638916 0.6190012292496254
000120 bb 6d dc ba 17 af e7 bf 60 54 be c0 22 6e e0 3f
       -0.7401236199979658 0.5134443058510776
000130 ac fe c3 c8 d7 cf d1 3f 56 1a 38 ea ca e6 7a 3f
       0.27831072431579673 0.0065677572597509695
000140 3d 1c 9e 00 df 76 e4 3f 51 df d2 5a b7 e0 c2 3f
       0.6395106327116832 0.14748279509307818
000150 86 e2 b2 23 db 8e cc bf 2c 2b 64 e2 36 39 e2 3f
       -0.22310961955169634 0.5694841787056695
000160 f3 5d 86 c9 99 c0 da bf 3d cc ba 7e 09 a2 e0 bf
       -0.4180054157272643 -0.5197799182118455
000170 16 ce 03 ec c3 86 9d 3f f5 18 8f 63 40 f0 d2 bf
       0.028834401397899688 -0.295913789010583
000180 78 4a 26 64 2a 42 d4 3f 76 9b 4c 46 44 54 42 bf
       0.3165384271643812 -0.0005593617794133882
000190 50 4a 61 8b e4 3e b3 3f 98 9b 3e 2e 61 bd e8 3f
       0.07517841723282825 0.7731176284040542
0001a0 fb c4 35 3d e1 51 8f bf 25 7c 5c 92 ca 19 c9 bf
       -0.015292892151338658 -0.19609958788439133
0001b0 48 fb af 52 f4 bd c1 3f 7c da 7e e5 62 58 ba bf
       0.13860944783660956 -0.10291116812627793
0001c0 e4 68 a0 70 a1 a8 b0 bf 59 ea 99 3e 1b 84 9b 3f
       -0.06507309913323273 0.026871133514286025
0001d0 1a 17 d2 ab a1 74 c6 bf cc 5a b6 ea 68 f9 b7 3f
       -0.17543431176834973 0.09364944200784037
0001e0 f7 ce ee 90 47 13 e0 3f 37 61 85 b4 d3 a1 be 3f
       0.5023534613341941 0.11965678364993414
0001f0 26 85 ff 43 1f 4e d7 3f 97 16 6c 0f b3 7b de bf
       0.3641431964916414 -0.47630001550747053

lin2.weight f8 [64, 64]
000000 d1 9a 1c 61 ed c6 b6 bf db 97 c2 0c 5f 4d f0 3f
       -0.08897288914577507 1.0188894747202457
000010 2a 96 4c db a8 0c ac 3f 02 43 a9 8f eb 50 e1 3f
       0.05478408505431916 0.5411279493219754
000020 f9 ad e3 e9 e2 56 e3 3f 71 e2 2d 4d 21 e8 fd 3f
       0.6043562477256607 1.8691723837675023
000030 2d 35 8a 1d e0 59 b6 3f b3 07 13 8b f4 fe d2 bf
       0.08730889054478004 -0.29681123334386966
000040 88 8e 42 49 4d 94 ee 3f d9 07 90 16 82 fd b5 bf
       0.9556032591685417 -0.08589947748990258
000050 d3 08 75 9e 62 2d b4 3f 63 6c f3 25 98 ae b9 bf
       0.07881752365668442 -0.10032034803900695
000060 28 0f 91 40 c2 96 d1 3f fe c5 24 c0 50 0e f4 bf
       0.2748265867742128 -1.2534949784861733
000070 81 a7 11 67 a7 7c d0 3f 25 d4 21 f1 64 67 da 3f
       0.25760827126816116 0.4125606875234687
000080 49 16 4e 8d 9b b6 d9 bf 47 e4 98 42 74 cc b3 3f
       -0.4017704849178228 0.07733847261342063
000090 b1 b4 a1 c3 79 49 ac 3f 9d 2c 5e 06 55 20 f0 3f
       0.05524807465631321 1.0078935860390523
0000a0 17 92 40 d6 2a ce b8 3f 23 81 e0 23 fb 03 ef 3f
       0.09689586382643998 0.969235963890274
0000b0 3d 44 b6 17 ad e8 f3 bf 07 e7 04 ed c6 bd bf bf
       -1.2443056989907426 -0.12398951803779933
0000c0 d7 6a f6 47 d1 9c d2 bf 42 98 5e fa 47 ee e7 bf
       -0.2908213808783961 -0.7478370561627872
0000d0 63 7b ee 64 bd 65 cb bf 29 f8 8f f3 57 b2 ee 3f
       -0.21404235294627502 0.95927045412805
0000e0 4d 3b 00 7c 71 b3 da 3f e7 76 34 ea b0 00 e1 3f
       0.41720234975303044 0.5313343595805379
0000f0 d7 9d 59 87 39 7f d3 3f f5 6a 20 ae 77 fa e9 3f
       0.3046401807573295 0.8118246460829527
000100 10 c2 f8 10 b0 05 af bf 0b bd 47 bb 08 1f db bf
       -0.0605902691571637 -0.4237691716106872
000110 61 bf de 64 90 82 d9 3f 98 5e 0c aa b1 fe d5 bf
       0.39859399653049904 -0.34367028814583866
000120 25 d7 64 f5 cc 2a d8 3f 1c e4 f4 84 4c 8d dc bf
       0.37761234249352277 -0.44612420066875
000130 b9 3c 6f 28 39 7e b4 3f 98 a4 af 2e 9b 5f d7 bf
       0.08005101430102259 -0.3652103382033345
000140 83 9a a9 86 b7 0d ff bf d5 3f 38 99 24 26 d0 bf
       -1.940848852181859 -0.2523280617033355
000150 fb 4a 74 0c 8c 44 f0 bf c7 1f d0 4c 70 bb bd 3f
       -1.0167351233000648 0.11614133715931906
000160 aa 00 42 63 79 09 e4 bf 47 c1 1f 18 8b d8 d5 3f
       -0.6261565149907444 0.3413417563997609
000170 83 11 bc 03 c3 99 e5 3f ee 42 14 1c ab ad e4 bf
       0.6750197480146628 -0.6461997555180383
000180 05 7b 89 cd 86 cb e0 3f f3 18 c3 86 dc be f1 3f
       0.5248445524592574 1.109097029127551
000190 92 3e f5 db 25 91 d5 bf fd 6d b0 99 8c 59 ce 3f
       -0.3369841239955146 0.23710782532076272
0001a0 66 4f 6c 48 35 b9 d3 3f 3a e3 3a b7 2c 0a cf bf
       0.3081792075401978 -0.24249800631312174
0001b0 48 9d ed 04 68 65 a7 3f cf d2 03 1e 86 4c e8 3f
       0.04569554386290037 0.7593412958363731
0001c0 5f 7d 76 37 1f d1 e2 bf 0b 2a da 6f 1a 91 e9 3f
       -0.5880275805720138 0.7989628014195785
0001d0 ac 56 c4 01 c1 fc d2 bf e2 f5 57 37 e8 1a d9 3f
       -0.2966768758063647 0.3922672787155915
0001e0 d6 9e 67 0b 4d 24 d0 bf ae cf 22 30 fa 73 e7 bf
       -0.25221563447710815 -0.7329073848873031
0001f0 19 2b ff 6d a8 76 d3 bf 9c 02 bc 4b 6f c0 f2 3f
       -0.30411730520124675 1.1719811399818019
000200 58 cc bb 37 48 47 f2 3f c7 2e cb d1 e3 82 9c bf
       1.1424028565495714 -0.027843055419721787
000210 4e 48 7a aa fc b8 e5 3f 55 d9 6a 48 bb c9 f1 3f
       0.6788314180032644 1.1117508724979264
000220 0f 99 c2 81 bc e2 9a 3f 98 f7 b7 da 00 1c c1 bf
       0.026255555553370388 -0.13366709403629495
000230 76 8d c3 ae 9e 82 d5 bf ce 7d f7 0a 8d 7d d7 3f
       -0.3360974032095422 0.3670380217644976
000240 c8 e6 7c e3 c3 38 d7 3f b3 f5 8e c6 f8 0d d9 3f
       0.3628396722375382 0.39147776976082155
000250 7a e1 6d 80 65 f4 e9 bf f9 c2 0e 51 d6 69 e4 bf
       -0.8110835560210454 -0.6379195769460174
000260 b8 39 a0 ad 5b c9 f7 bf 51 52 b9 71 34 11 eb bf
       -1.486659696794602 -0.8458502026720202
000270 3b 7c 86 c4 7a 2c a5 3f 48 2b 12 9e 2c de e8 bf
       0.0413549771212662 -0.7771208846400919
000280 90 53 cf 0a 16 b8 b1 3f 88 7c 66 43 40 9f c7 bf
       0.06921518100655377 -0.18454745570213427
000290 31 04 e3 8b b6 72 ef 3f b0 a8 d3 69 dc 4c ca bf
       0.9827530605472302 -0.2054706112606417
0002a0 cf a0 e4 dc 81 09 f7 3f 7e 57 78 95 49 11 ee 3f
       1.4398211125026597 0.9396102828347777
0002b0 38 9a b5 66 8f 5f ee bf 8b ab e9 6b ce 09 f9 3f
       -0.9491650587122598 1.564894124540589
0002c0 e1 7f 86 fe 48 d9 e4 3f 00 60 66 2f c5 a7 fc 3f
       0.6515240641783714 1.7909595347937284
0002d0 a5 32 a3 91 b9 0d c3 3f 9c 53 a6 c2 7b 8e e2 3f
       0.14885635005193368 0.5798929979088032
0002e0 1a 65 6b bb a7 c0 c3 bf 66 78 66 9b 2f 64 e1 bf
       -0.15431687022536594 -0.5434797320520033
0002f0 02 37 9a 80 9e 27 a3 bf bb 7d 23 af ab 40 c0 3f
       -0.037411645124946005 0.12697359134379646
000300 7b 2c 32 19 d6 87 a1 bf 2f ea 26 e4 5f 62 cb 3f
       -0.03423947389190914 0.2139396537803164
000310 9b 61 c5 93 91 b7 ca bf 1d df a2 e1 7f ae ec bf
       -0.20872707095510354 -0.8963012129742968
000320 6f 00 cc 85 17 63 ce bf 91 08 77 e7 e8 34 bf bf
       -0.2373990443520628 -0.12190108920097688
000330 bc 62 4a 58 6c b6 db 3f a8 3b 4e a1 ba 7b d3 3f
       0.43300922987104307 0.3044268203020075
000340 06 1b 13 8f 59 19 e0 3f bd 01 7a 8a 0f 37 f2 3f
       0.5030944628168477 1.1384425553552397
000350 4e 2e bd 03 66 16 d8 bf 2f cc a8 6a a8 67 c6 3f
       -0.3763670956147721 0.17503838737465702
000360 88 79 4c 95 e5 20 eb bf 8f 78 e0 a8 77 ab ad bf
       -0.8477657237997827 -0.057948817601059514
000370 63 43 13 56 9c d9 ea 3f fd 82 05 61 18 58 df 3f
       0.839063804736821 0.4897519061542395
000380 bd 7f 1d f9 ea 92 c6 bf 64 4c 2c 88 44 9b e4 3f
       -0.17635857738332375 0.6439535770063114
000390 cd f1 a6 5f 03 61 c8 3f 5e 36 b6 2f 0d c8 db bf
       0.19046060724748629 -0.4340851751265741
0003a0 c1 9f 8e eb 12 59 e1 3f dd 43 3c e4 33 39 e7 bf
       0.5421232796406842 -0.7257327516291486
0003b0 1a ee 54 79 03 0e e8 3f d2 e4 89 0e a8 8b dd 3f
       0.7517106408844854 0.46164895458020994
0003c0 28 cd 58 70 2f e8 f4 3f 02 59 b9 47 25 06 d1 3f
       1.3066858662176148 0.2660000992231205
0003d0 3e 30 6b 34 f7 9d b1 bf ce cd 4b 19 85 b3 f4 3f
       -0.06881661443475282 1.2938281047944318
0003e0 d4 72 6e 6b c6 9d e6 bf f4 62 2f d6 be 6f d9 3f
       -0.7067596529264741 0.3974454013492015
0003f0 de 49 60 d4 c0 60 de 3f 49 2a f2 85 2a 10 eb bf
       0.474655349157869 -0.8457234016544329
000400 dc 03 55 e0 32 e1 d7 3f eb 7b 9d 1c 1e 26 e5 3f
       0.37312004001074484 0.6609030302896576
000410 ec d2 76 4b 5b 05 d9 3f 08 39 1f 02 27 d0 d5 3f
       0.3909519421534202 0.3408296128008179
000420 19 b1 14 0b 9c bf eb 3f 74 e8 6c 38 b4 6d c2 bf
       0.8671398369238289 -0.14397289996287876
000430 bc bd 42 ec 5d 90 a5 3f d1 eb 66 de 54 49 ab bf
       0.04211705693284837 -0.053293850086866386
000440 a9 93 c5 3d 33 cc b4 3f f4 67 30 23 1f 52 d1 3f
       0.08124084718799786 0.2706373065608425
000450 25 03 e0 5c cf b5 de 3f 2c 55 60 da 7f 9e da 3f
       0.4798468024237528 0.4159240372258235
000460 e4 47 87 c9 1d 15 e8 3f 21 c4 80 e2 cd 71 e9 bf
       0.7525776802160604 -0.7951421188246323
000470 b3 1d 01 5d 64 f7 c1 3f 17 5a ac c5 56 6e c4 bf
       0.1403623060343598 -0.15961727764143127
000480 eb d8 ec b1 30 b6 f3 3f 2a 5a a5 98 cf 71 da 3f
       1.2319800329401527 0.4131964674647032
000490 d8 96 0e e5 90 22 01 40 84 9d 0e a6 c3 87 b3 3f
       2.1418779273106843 0.07629034809234808
0004a0 b7 a4 db a8 a0 df df 3f 82 d4 bf eb cf ce 98 bf
       0.4980241440776569 -0.024226425899503308
0004b0 68 7b bf f0 1e 00 da 3f 06 0d 65 26 7b 7c d4 bf
       0.4062573767713986 -0.32009772061810826
0004c0 cc 5b 28 9a c9 fb d0 bf e2 ce c5 e8 93 ad e3 bf
       -0.26536788992364957 -0.6149386926976741
0004d0 95 3f bc fe f3 85 ef 3f d7 6e 39 47 98 c3 d5 bf
       0.9851016974734984 -0.34006316142561616
0004e0 7a 87 f6 fc b7 f7 d2 bf e2 7e 50 26 17 71 d8 bf
       -0.2963695497838824 -0.3819024919666686
0004f0 0b a8 f8 49 f4 f6 e5 3f 63 8a 75 38 99 15 f2 3f
       0.686395782923911 1.1302730756221073
000500 05 a5 2f b1 7f 99 e7 bf 5a cb 8c 46 7e ee b3 3f
       -0.7374876461664434 0.07785786840831346
000510 36 61 4c 43 30 e8 e9 3f 2e 03 50 2d 0d a5 da bf
       0.8095933260365544 -0.41632394242337767
000520 65 1f b7 bd db 2d f4 3f 3a b1 7c 82 8c 39 c1 bf
       1.2611958895449444 -0.13456875201644342
000530 bf 5f 0c 5f bd 68 c4 3f 0f 58 5b 28 0b 84 82 3f
       0.15944640294105558 0.009040915650455643
000540 75 16 b0 29 9f 54 f5 bf a8 72 02 48 8e b5 e2 bf
       -1.3331596020156244 -0.5846625715672262
000550 eb 98 aa aa 63 2a f0 bf b7 ab ca 72 b4 7b ae 3f
       -1.010348955789193 0.059537543308884215
000560 2a f3 0f 09 b6 78 d7 bf c8 a7 f1 a5 b5 a1 c4 bf
       -0.3667426193713249 -0.1611849842332147
000570 2e d4 5d 1d c8 94 dd bf d3 b3 9d 69 0e 2c b1 3f
       -0.46220591419052226 0.06707849577442397
000580 1e 70 5d ce 5a 88 e3 3f ce 07 e7 0c 15 9f c6 3f
       0.6103948622289896 0.17672980432513302
000590 2a a8 d9 ed 6a c8 d7 3f 5d 41 fb cf dd ad e5 bf
       0.3716075251346661 -0.6774739324701319
0005a0 48 d1 fc 1a c5 6f 98 bf fc b0 74 a2 a8 4e bc bf
       -0.023863868496122792 -0.1105752369518917
0005b0 56 00 e6 5a 22 16 45 bf f6 1d 88 14 22 7f da bf
       -0.0006435077428221896 -0.41400959019708183
0005c0 bf 72 16 55 18 21 c5 3f f2 29 68 8b c7 8d 93 bf
       0.16507248072311673 -0.019095533260079685
0005d0 a4 b4 63 dd a9 28 e1 bf 67 16 34 18 a5 03 a9 3f
       -0.5362138103497682 0.0488559333844421
0005e0 21 b6 9f f4 88 9b c9 3f ab 28 79 b9 88 02 ba 3f
       0.20005905098462143 0.10160116699367687
0005f0 b2 86 aa d1 a4 13 e2 3f c3 ba 71 22 82 6b f5 3f
       0.5648979277650226 1.3387471528509856
000600 41 63 d4 86 29 65 f5 3f 56 d5 e6 67 5f 9e d8 bf
       1.3371978060515206 -0.38466630121850665
000610 d2 fd 28 20 06 da e9 3f 55 19 49 1c 76 f7 e1 bf
       0.8078642490508463 -0.561457686658097
000620 95 ca a7 32 bb 32 c8 3f c6 1a 6e 81 05 f8 d1 bf
       0.18904819463167102 -0.2807630313840658
000630 7a 21 c8 13 48 e1 c7 bf 94 6d 02 23 91 61 c3 bf
       -0.18656254735857286 -0.1514150067276715
000640 48 7d 94 5a 52 dd d7 3f d9 6e 72 06 f5 32 c5 bf
       0.37288340421396926 -0.16561758818431008
000650 1c 16 67 42 26 78 d9 3f 9a 83 02 48 6e 7b d6 bf
       0.3979583404983218 -0.3512836173268227
000660 7b dc ab 62 b4 e2 d1 bf 8a dd 82 b9 4b 65 f2 bf
       -0.2794619525515782 -1.1497304197817777
000670 29 a9 a5 46 c8 2e dc 3f 77 e9 d6 7d 16 bf fa bf
       0.44035536669857095 -1.671652308998629
000680 50 3f 03 f3 96 10 b4 3f 73 c4 30 ad 4d 52 be 3f
       0.07837813790251613 0.11844335058482773
000690 94 c5 e1 3c 3c 96 d1 bf c8 ca d7 dc 1b a0 d9 bf
       -0.27479463525295356 -0.4003972679776493
0006a0 c0 82 34 d5 9e 9f b5 bf de 24 79 25 5b 67 d5 bf
       -0.08446686463549735 -0.33443335208410285
0006b0 80 66 66 6d fe 23 02 40 41 73 34 0a 35 a0 e9 bf
       2.267575125396263 -0.8008065413774618
0006c0 7b 04 4b a7 31 67 f3 bf d6 21 2b 1a 20 0d f3 bf
       -1.212693837631632 -1.1907044431883285
0006d0 90 b0 8d bc d2 92 db 3f 1d d9 59 92 dc cd d4 3f
       0.43083637631821947 0.3250647954186137
0006e0 58 86 51 5e 90 79 35 3f d7 b5 bc 62 22 b3 f0 bf
       0.0003276803457251446 -1.0437339646263035
0006f0 2b 92 db 1d 42 5e ea 3f 09 46 b2 75 31 04 e8 3f
       0.8240061362417398 0.7505118654973454
000700 42 fb c4 bc a6 01 f4 bf 86 dc 96 2a a5 26 c4 bf
       -1.2504031537825573 -0.15742935733371527
000710 10 42 f7 84 7c 58 f3 3f 9e f1 5a ba a5 c9 da bf
       1.209103125951632 -0.4185575790286523
000720 fd 80 cb 5b fd 12 d9 bf b9 2b 97 03 4f 4b 96 3f
       -0.3917840382037097 0.02177165469565143
000730 77 b0 fe a6 34 22 ce bf 26 48 f5 9b 51 3c 93 bf
       -0.2354188743023575 -0.018784785407952274
000740 66 31 46 69 b2 74 e3 bf 9d 4f 64 5a 2b 08 ea bf
       -0.6079952293526218 -0.8134972348657247
000750 2d 12 59 67 0e 58 bc 3f bd 6a 6d e9 22 49 d6 bf
       0.11071863196509275 -0.34821389003415587
000760 0a 19 14 f7 7a 00 cb 3f 11 77 8b e5 b1 e4 e5 bf
       0.21095215858822086 -0.6841668589874833
000770 3c 45 71 fc 4e 88 b2 bf 9a 4d 0b 22 03 b2 d2 bf
       -0.07239240325113355 -0.2921150047743254
000780 d8 a5 a1 30 51 46 f9 3f a0 ba 8e 17 18 f0 c7 3f
       1.5796672725358487 0.18701459074278137
000790 4c b1 b5 56 7d 80 fb bf 5f 67 d1 4e 4b f3 d4 bf
       -1.7188695323084913 -0.32734949776715
0007a0 83 4b 5d 78 60 8c cd 3f 52 08 99 30 2e 4c f0 3f
       0.2308464610783539 1.018598737559405
0007b0 a3 0d 23 2b 5c 99 dd 3f 93 36 1d 15 09 53 e0 3f
       0.4624853535899211 0.5101361668000258
0007c0 3d ca 5c 27 e6 4c e9 3f ae ce 58 26 11 84 af bf
       0.7906370896146836 -0.061554466181772724
0007d0 a8 62 de a6 90 6e f2 3f 10 60 88 d5 fe 2a d1 3f
       1.1519934194858852 0.26824923374943044
0007e0 cb d3 eb 0e 2f b2 ea 3f 6f fe 43 13 6c 5e d9 3f
       0.8342509547643372 0.3963880718365322
0007f0 5c d5 f7 e9 53 8e f4 3f f0 11 90 2e d5 1f c7 bf
       1.2847479953173524 -0.18065895818303046

lin2.bias f8 [64]
000000 c2 92 6d 33 c2 98 cf bf e8 6d 6a 0a da c6 b0 3f
       -0.24684932242521113 0.06553423647203938
000010 30 aa b5 27 e5 f4 e0 bf 6a af ea 7d 9d 5f c6 bf
       -0.5298944259241747 -0.1747929444148853
000020 3a 4e ae 39 96 73 c6 bf bc f2 ad 57 df ee df bf
       -0.17540242973756098 -0.49895461618852344
000030 1f 94 a1 55 84 e0 94 bf da 7d b9 fe 8a 40 d5 bf
       -0.020387714125167485 -0.3320643889946645
000040 1c 02 73 74 b1 ca e2 bf b7 d1 17 02 9b f1 cc 3f
       -0.5872428202056343 0.22612321474265482
000050 93 b0 f1 4d 3f fd bf bf 9c e7 46 2b 43 90 ca bf
       -0.12495799687320845 -0.2075275384248102
000060 28 64 14 c9 9c fb c0 3f d3 ae 7f 88 5a 8a bd bf
       0.1326786023935551 -0.11539235908974925
000070 82 d5 bf e6 f9 78 b5 bf f5 ce f8 21 80 e6 d1 bf
       -0.08387719996956913 -0.27969363515442974
000080 a4 de 81 b0 16 d2 d5 bf c7 b4 41 f1 27 3b bd bf
       -0.34094779240647655 -0.11418389930777827
000090 38 c1 6d 6f 1d d5 d6 bf 04 3f 6f 36 9b 6c c9 bf
       -0.3567575061961352 -0.19862690122544546
0000a0 d2 35 18 6b c9 8f c5 bf db 38 12 65 1b 65 cc bf
       -0.1684505246088706 -0.22183554110637868
0000b0 a3 bc be b5 4b ef d1 bf 49 3c 35 82 f1 7c d2 bf
       -0.2802304530004653 -0.28887593951816776
0000c0 b4 6a c3 a4 58 00 a3 bf 3f 39 d7 28 5e 84 d5 bf
       -0.03711201678534817 -0.3362040900073175
0000d0 cc 53 53 bc 0e 87 d0 bf 11 47 c1 72 ec 38 d4 bf
       -0.2582432593456445 -0.3159743424085813
0000e0 b3 68 53 de 2c 75 d8 bf 35 ad 29 76 ef 74 c2 bf
       -0.38215181075578214 -0.14419358510654381
0000f0 ee dc ae f3 43 38 c2 bf 9f 2a a2 86 cf 4d da bf
       -0.14234208487116667 -0.41099918506430727
000100 aa 53 35 08 15 91 d8 bf 49 8b 4c 7d c9 c8 be bf
       -0.38385511209099354 -0.12025126751954675
000110 dd c0 35 b6 f6 fd d9 3f 61 e2 dc d5 c5 53 b9 bf
       0.4061257151979712 -0.09893452140102844
000120 a3 ec 03 a6 17 e9 83 bf 81 fa 8b 0b 0a 16 e8 3f
       -0.009721932176481046 0.7526903367541565
000130 99 b5 86 1a 65 86 e0 bf 4d 61 92 34 f8 11 c3 bf
       -0.516405631836892 -0.14898588721258435
000140 4a 18 22 1b e7 60 cb bf c1 71 d8 84 0c d4 dd bf
       -0.2138947374807592 -0.46606743786994903
000150 bf 0f 40 dd 0c 76 bd bf 35 a4 55 77 df e0 da bf
       -0.11508255387894815 -0.41997515348208775
000160 0f 01 4d c3 54 5c c1 bf ed de 72 1e b9 84 c2 bf
       -0.135630221711843 -0.1446753882098543
000170 ae a9 06 0c 4d 52 af 3f ad 67 3b c5 be a1 d2 bf
       0.06117478153040011 -0.29112214337294057
000180 27 35 4a 8f 36 89 af bf b4 76 bc 03 76 55 d4 3f
       -0.06159372805732693 0.3177161251531786
000190 1a 0d 8b 04 b4 7a c0 3f ae 4d 1c e0 ee f4 7e bf
       0.1287446043189469 -0.007557805163532034
0001a0 0a ae d7 c5 a2 76 e0 bf 58 01 f9 67 b5 f5 cb bf
       -0.5144819130050007 -0.2184359319380842
0001b0 d1 95 cb 55 56 e8 d9 3f c5 e5 3e 14 8d 6b bb 3f
       0.4048057401508603 0.10710984939841868
0001c0 7a 19 2a e4 9d 37 ba 3f e2 9e 87 2e 13 9c 95 3f
       0.10241114445134328 0.021103191103889148
0001d0 f0 2d 73 ad 12 5b 92 3f 5d c3 1e d4 76 35 b5 bf
       0.017925540768187476 -0.08284704855647136
0001e0 7f 96 94 e1 ce ca d4 bf 26 f7 47 e9 19 32 d6 bf
       -0.32487842587793375 -0.3468079355369461
0001f0 ef 61 f4 3e 13 db cf bf e4 5c d9 43 98 e8 de bf
       -0.24887314390140555 -0.4829464590633974

lin3.weight f8 [16, 64]
000000 ac 89 7a e8 1d f1 e1 bf 9e 32 9f 08 30 5d 5d bf
       -0.5606832066153422 -0.001792237193956193
000010 50 a1 27 03 21 a0 d2 bf e3 c8 34 c6 44 88 c2 bf
       -0.29102349575125164 -0.14478358915363918
000020 c1 52 ae 72 c3 ea 0e c0 fc e2 ef b7 e2 12 a7 bf
       -3.864630599923061 -0.045065960839513836
000030 4a 8e 3d 2d 38 bb 0a c0 73 ec 2b 75 61 e5 b1 3f
       -3.3414157423410744 0.06990632162698933
000040 e5 a0 59 5f 13 82 e9 bf 0d 0d dc 3e 8b 37 04 40
       -0.7971283781344282 2.5271210585502843
000050 78 36 32 7a d4 ef 99 bf 8e 45 3f e8 eb bc ad bf
       -0.025328941305409164 -0.05808198175476341
000060 20 f9 43 cd c4 b5 f7 bf 3c 54 87 d0 63 25 db bf
       -1.4818771379646662 -0.42415709842800076
000070 8a c0 f2 c2 b7 67 6d 3f 20 d0 ec 52 e6 1a df bf
       0.003589495572292438 -0.4860168275656651
000080 30 ab 6a d1 99 6b d6 3f dc 57 0b 99 a2 14 f9 bf
       0.3503174347958291 -1.5675378778737388
000090 56 ad 6d b0 50 02 ed bf 24 bc f9 5d 24 8a d7 bf
       -0.9065326162212084 -0.36780652215287746
0000a0 21 96 0a b0 74 ba ca bf fd 72 24 58 bf 4f 01 c0
       -0.20881517978448108 -2.1639391790507703
0000b0 ff a7 24 41 14 97 c1 bf 6c a2 e8 79 5d 77 d1 3f
       -0.137423068817327 0.2729104700579572
0000c0 98 35 fa 91 c0 ba e4 bf fb b9 36 a8 b2 19 c7 bf
       -0.6477969027634343 -0.1804717370373082
0000d0 5a 71 13 bb 21 71 d4 bf a2 45 24 b0 46 64 c2 3f
       -0.3194050146974142 0.1436851844851335
0000e0 c8 3c 41 21 19 e1 c7 bf e1 db 5c fd a7 20 0a c0
       -0.18655695079585244 -3.2659454149211204
0000f0 e0 62 f9 c2 4a 8d f9 bf 3c 1a 18 40 4d e6 b2 3f
       -1.5969951263597792 0.07382662596510497
000100 40 04 e3 b7 12 f6 cc 3f 3a 23 77 13 1f c9 d6 3f
       0.22625955561491828 0.35602547551075114
000110 67 b4 b3 0d 2c 52 ff 3f 81 70 43 d2 15 bc d6 bf
       1.9575615439637433 -0.35522981198824516
000120 80 81 74 bd 80 e2 bc 3f d6 4c 2c 7d b1 0d e6 bf
       0.11283115983360936 -0.6891715473924716
000130 a5 ca 39 71 91 d7 e1 3f 79 33 da ba 57 9e b1 3f
       0.5575644694748304 0.06882236778092289
000140 7e ac 81 80 d8 05 82 3f d5 f0 de a3 0c ef c9 bf
       0.0088002123086055 -0.2026077079916663
000150 9c 7c 2f 5f 12 f9 ad 3f dc 8e 3f 3e d0 13 d6 bf
       0.05854089176113428 -0.34495931700642557
000160 3d 22 c8 53 38 9d 86 bf 8f 37 15 55 fd 6d dd bf
       -0.01104206090623549 -0.4598382311713686
000170 c1 02 ef 28 63 25 c6 bf f1 31 1f ab 71 31 b4 bf
       -0.17301597117150005 -0.07887945583133395
000180 05 91 f9 79 73 6b d8 bf 6c 07 61 ef 96 0e eb bf
       -0.3815582934532958 -0.8455309558269
000190 5b 0f 33 37 32 f9 d0 3f 5f df 84 3a 22 a8 e6 bf
       0.2652097262437018 -0.7080241339635726
0001a0 a7 e2 38 80 69 41 e1 bf 8d 60 d7 34 1d b2 d8 3f
       -0.5392348770465859 0.38587122116360534
0001b0 91 e8 f0 f6 ff 4d e7 3f 80 9e 88 4c 26 d3 04 40
       0.7282714675013883 2.6031003932183125
0001c0 44 d9 86 8c 0a be a5 3f c1 6a 26 63 21 ee f2 bf
       0.04246552434362852 -1.183137309365222
0001d0 33 00 ff 57 15 31 af bf b1 e7 24 0e 81 0a c1 3f
       -0.06092135142489532 0.13313306036598996
0001e0 cc 0b 4f 9a 4e 5b d0 bf 35 68 12 fc 3e ca fa bf
       -0.2555729395791644 -1.6743764730986304
0001f0 39 1a f9 d6 fc d1 e7 3f 18 42 d4 69 8d 78 02 c0
       0.7443832586948879 -2.3088634746457153
000200 fb a7 d4 2a 0a df e0 3f 8f d4 83 5b ab 29 ea 3f
       0.5272265278374556 0.817586592426453
000210 89 a6 26 de 38 a1 db bf 8e 40 d9 0b e6 1d fe bf
       -0.43171521849090105 -1.8822994673574018
000220 8b dc b1 ca 09 10 aa bf 65 80 9b e9 61 6b e8 bf
       -0.05090361213017854 -0.7631082117695881
000230 01 54 9b 4f a0 56 bf 3f 82 a4 dd 00 66 12 e1 bf
       0.12241556113743003 -0.533495904627799
000240 e9 e5 1c f2 6f c9 ab bf dc db 66 7f 05 af dc 3f
       -0.054271219544215495 0.4481824630888107
000250 42 5c eb ca 53 bb e0 3f 88 9b eb 48 f7 6e 70 3f
       0.5228671038884232 0.004012075382639042
000260 fe fa 4c e3 77 14 ba 3f 25 76 74 2e ad 92 d9 3f
       0.10187482165654768 0.3995774224912075
000270 60 6f db db d5 eb 77 bf 2b fc 92 b2 30 73 de bf
       -0.005840144525531915 -0.4757806533706936
000280 1d fa 7d 04 8d 54 ec bf 47 a1 03 b4 ef c7 de 3f
       -0.8853211486564906 0.48095314578542453
000290 e9 86 00 4d 4a ed b8 3f 51 d5 12 af 64 9a e2 bf
       0.09737076167996474 -0.5813468379407515
0002a0 e1 ee 81 f2 d2 f7 01 c0 1b 8e 65 39 76 64 d0 bf
       -2.2460078187849466 -0.25613170247217604
0002b0 53 f3 ec 7d b8 79 f4 bf 39 c4 a6 ff c9 61 00 c0
       -1.2797169608085894 -2.0477485630767913
0002c0 7e 99 16 90 53 57 df bf 98 74 c8 c7 12 56 01 c0
       -0.48970498152848296 -2.1670280082749507
0002d0 99 8a ed ef cf 1b ec 3f 33 4a 4c 91 92 6c 06 c0
       0.8783950506297798 -2.8030139304549038
0002e0 90 1a 60 73 0b 05 f9 bf 06 6a a3 d3 03 6e e2 3f
       -1.5637316233493586 0.5759295590935956
0002f0 80 25 be 4c bd b1 d5 bf 97 9d 42 24 98 f9 f4 3f
       -0.33897335523996475 1.3109361092009288
000300 7e 91 5b da 67 5f a7 3f 17 54 5a 88 af 81 05 c0
       0.045649762539855296 -2.688323083168608
000310 79 15 13 df a4 2b e2 bf 2e 04 8e c7 a6 f6 ac bf
       -0.5678276402401671 -0.05656930147143445
000320 d4 5d 13 dd 61 a6 dc 3f b9 06 89 97 ef 40 d6 bf
       0.4476551684324168 -0.34771337316861267
000330 3a a9 56 b5 5d 7d d2 3f ac 0b 1b 1c 27 cc ea 3f
       0.2889017363437635 0.8374209927500167
000340 c0 d2 23 3a 04 2a e0 bf 15 91 20 88 f7 8a d1 bf
       -0.5051289687676999 -0.2741068677298853
000350 3a 4c 47 f7 a7 13 ac 3f eb 22 6f 24 57 1f c0 3f
       0.054837464270939454 0.1259564330960282
000360 2f 3d 5a 7d da 3c f1 bf aa e9 93 04 42 c1 bf 3f
       -1.0773568054754141 0.12404263126146611
000370 21 73 3b 69 91 67 e2 bf 13 50 ea 97 21 77 cd 3f
       -0.5751425795857338 0.23019809644449704
000380 c6 d9 40 68 0e a9 e0 3f d6 c5 f4 d7 64 f1 ef bf
       0.5206367527196611 -0.9982170312779839
000390 04 c2 6e 20 2f e5 b8 3f 92 05 b6 44 55 78 0d c0
       0.09724707166493124 -3.6837563865708
0003a0 c1 62 97 97 18 37 ee bf 67 40 30 fe 1e 43 f9 bf
       -0.9442255936401908 -1.5788869790303808
0003b0 0f 21 71 18 7f aa dc 3f 3d 4e 3f 17 dd a6 e6 bf
       0.4479062784853491 -0.7078690961884103
0003c0 1e 57 11 ab 13 dc 08 c0 b4 52 a2 5d f2 61 00 c0
       -3.1074593891779747 -2.047825557247359
0003d0 7d 16 0f 14 9a 25 00 c0 12 59 a7 62 0f 9a de 3f
       -2.018360287390179 0.47815308221960706
0003e0 95 16 b4 af 11 01 e4 bf 6d 61 30 0d bf 4c e9 3f
       -0.6251305038174048 0.7906184442136187
0003f0 28 22 9b 63 25 de 0b c0 c4 ae df fe b5 00 eb 3f
       -3.48346975152187 0.8438367822650084
000400 34 49 c4 cd 01 e0 f9 bf fe 34 57 55 4a 97 db 3f
       -1.617189220215164 0.4311090310482796
000410 b9 3d 27 11 b5 99 f9 bf 2a 3e fa c0 db e3 e4 bf
       -1.6000261945772378 -0.6528147477237713
000420 c6 8a 74 6e ec 86 c7 bf 55 52 1c c8 d7 0d ef bf
       -0.1838050402958144 -0.9704398067866103
000430 ba 66 96 27 ba d5 e0 3f a1 1f 11 13 5a 87 de bf
       0.5260897420113999 -0.47701122152329317
000440 91 fe b7 c5 46 43 99 3f c9 16 88 b2 bb 1a f0 3f
       0.024670701806825127 1.0065266584291968
000450 3d 45 71 38 85 d8 e7 bf 0b 50 a3 69 f5 b8 e6 bf
       -0.7451807119743205 -0.7100779593697565
000460 2a fc 86 9b d4 14 e9 3f 42 5e 04 78 f3 83 da bf
       0.7837927854196824 -0.41430365295807203
000470 13 6d 73 d1 5c 9c a5 bf 42 fd 69 cb 08 ac d9 3f
       -0.04220857674382663 0.40112514366770224
000480 1b 1f e7 a5 cb e8 c5 bf ed e5 52 f4 83 8d cc bf
       -0.17116685486529878 -0.2230687087047011
000490 d1 8c b9 da 6a e3 bb 3f d3 8e 17 74 29 ed ee bf
       0.10893886413537081 -0.96645043062423
0004a0 92 0a 89 2c e4 54 f7 bf e3 d6 ee 1b de 3e d1 3f
       -1.458225416151127 0.26946213462666274
0004b0 12 ce 99 f1 67 26 00 c0 e4 e4 99 f3 43 2d ef bf
       -2.018752944475417 -0.9742755658945979
0004c0 6c 0c e8 6c a7 25 f0 3f ff a0 5d ad 8a 3b c0 bf
       1.0091928724439425 -0.12681706872104567
0004d0 21 04 3b 2f b5 f3 cf bf ec 1f 6a de 62 9a f7 bf
       -0.2496248703592139 -1.4751919448917716
0004e0 aa d2 f1 25 e8 71 f8 bf 4f bb 0e 31 7d ab ec bf
       -1.5278092844211337 -0.8959337194590747
0004f0 59 4b 9b 18 30 22 dc 3f 9e 0d 89 2d ad 40 f1 bf
       0.43958666232099614 -1.0782901552891881
000500 ed f1 0c e6 84 d0 f7 bf 5c b5 5a e8 a8 bb ef bf
       -1.4884079920149091 -0.9916576898737435
000510 00 17 5a 47 81 3e c7 bf d2 91 41 4f 58 38 e2 bf
       -0.18159500106792592 -0.5693780467959704
000520 a3 a3 6b 0d 8f 6f eb 3f d4 68 c3 ca 16 51 f4 3f
       0.8573680173986883 1.2697971268121835
000530 a0 a5 24 66 ec 8d f0 bf f5 75 1f 3e bd 32 ec 3f
       -1.034649275776566 0.8811937535608069
000540 b0 4e 50 2d f7 09 da bf 2b b5 c8 de 9c 49 f2 bf
       -0.40685824799696046 -1.1429718687534869
000550 fa 02 9e 36 b2 2f bb bf f2 8f ec 03 82 90 df bf
       -0.10619653542927301 -0.4931950605698595
000560 80 cd 2a 64 d5 44 e2 3f d7 08 ff 0b 48 09 d1 bf
       0.5709025341406431 -0.26619149371630385
000570 e2 de 70 be 79 2b f5 bf c7 cc f4 2f cb 4d d1 bf
       -1.3231141509149258 -0.2703731506655455
000580 bc f3 d4 c7 4b 78 ec bf 80 c3 cd 1d e0 d9 f0 3f
       -0.8896845725026803 1.0531922496995492
000590 a4 cf a6 15 de 8c f4 bf b6 e8 cf 71 1a a6 cc 3f
       -1.2843914838567594 0.2238190704081881
0005a0 59 50 ed 7a cb 57 ed 3f 2f 0c e2 f5 40 b7 fc bf
       0.916967144100009 -1.7947396855167985
0005b0 58 4b 47 72 ff b9 ff bf e6 1d 45 07 e6 07 e7 3f
       -1.9829096282962464 0.7197141782752936
0005c0 91 95 75 4e e6 c9 fb bf 2d 37 3d d2 00 e9 d5 bf
       -1.7367919030014927 -0.34234638720669147
0005d0 52 7d 9f fe b6 a0 f7 bf 79 73 3a 71 8f ca b1 bf
       -1.4767370172702 -0.06949707521785155
0005e0 b6 d0 98 95 cf 73 f9 bf fa b7 3d 40 26 ea ea 3f
       -1.5907741397505055 0.8410826925953636
0005f0 91 5a c0 42 d8 21 f2 3f 87 c4 5d 45 8c 60 d5 3f
       1.1332628829456193 0.3340178182034567
000600 d9 77 ae 08 af 49 d1 bf ae de 4b cb 74 b0 fc bf
       -0.2701222977428848 -1.7930801335586852
000610 b3 08 21 63 55 a5 d7 bf 37 4b 20 bc 7f 54 e1 bf
       -0.36946615868158544 -0.5415648149813482
000620 6e 7d cf 6a 1a 59 ea 3f 4e 17 1c f9 32 14 eb 3f
       0.8233768545286873 0.8462157121109415
000630 86 0b 74 29 f2 03 a5 3f 3e 28 46 b3 8b c1 e0 3f
       0.04104573017141093 0.5236261846014327
000640 27 69 a1 0d aa 93 8b 3f 74 27 7a 98 f1 7d e6 bf
       0.013465240994424988 -0.7028739908284778
000650 f0 38 4d 34 85 72 ee bf 50 47 3f 10 3f fb c3 bf
       -0.9514795323864558 -0.15610492986030033
000660 95 a1 e5 4c 60 05 bd bf 7e 21 e5 3d b6 9b be bf
       -0.1133632838951882 -0.11956347476109916
000670 5b 9a b4 ac 6f d1 b2 bf 69 ab 97 2e 25 94 ee bf
       -0.0735082432407607 -0.9555841360100717
000680 aa 27 f2 fe be 65 ef 3f 2b 2b 9e db b7 2d d0 bf
       0.9811701754963356 -0.25279041716628353
000690 2c 90 18 84 19 cf cb bf 73 f0 91 63 d5 38 e2 bf
       -0.21725768041608384 -0.5694376892784149
0006a0 11 77 c3 7e 0e 67 03 c0 fa c7 9a fd 8f 9a cb 3f
       -2.425320616092798 0.21565437205350674
0006b0 eb 0b c7 0d 6e e2 b7 3f 6e 3a eb df 4f 12 e2 bf
       0.09329879604688045 -0.564735352841877
0006c0 a3 fd 02 aa 00 81 ef 3f ec a0 1d 1e 60 0e d4 bf
       0.9844973869839361 -0.3133774084185592
0006d0 b9 20 85 c2 60 48 d4 3f 5c b1 d9 c9 45 e7 fb bf
       0.3169176005944894 -1.7439630398540293
0006e0 65 48 e5 fa 47 b9 e1 bf cc 35 ac 74 f0 12 e4 bf
       -0.5538673305802716 -0.6273119238627998
0006f0 9b 3a 0b 36 f1 83 fb bf eb 3c 8c 60 a5 01 b8 3f
       -1.7197124587143324 0.09377511603473791
000700 14 c3 4d 76 4e 1b ff bf 86 2f 99 86 f1 6f d5 3f
       -1.9441666241875213 0.3349574865758246
000710 be 32 65 54 49 11 e2 3f 2f e3 e6 27 71 1e f2 bf
       0.5646101616235553 -1.13243213259393
000720 18 fe 72 64 b6 3a da bf 58 66 ff 9c 16 ff f7 3f
       -0.4098335247944944 1.4997774250718034
000730 79 22 05 63 3d 7a ea bf 67 54 74 ed 8c 08 e1 3f
       -0.8274218496308797 0.5322937619954587
000740 27 93 8f e8 59 b6 b6 3f 29 ae 6d e6 8a 83 d2 bf
       0.08871995857004987 -0.28927872183587283
000750 24 44 48 27 b1 24 bc 3f c2 67 43 49 d2 21 d0 bf
       0.10993487557449605 -0.25206429628962834
000760 a3 fd c3 81 ad 93 0b c0 8c 3b 4d d5 e6 6d b4 bf
       -3.4471082818924557 -0.07980196673928058
000770 d4 2b 3b b2 c3 76 fc bf ec 8d 74 7b 50 83 e7 3f
       -1.7789952242044267 0.7347795878635544
000780 44 40 5c be 58 a4 c6 3f fd 2d 4d 19 d2 31 c0 3f
       0.17689046187342872 0.1265204070608518
000790 2f 24 62 91 61 ee 01 40 af 7b 4a fc 0d 29 d0 bf
       2.2413970335078583 -0.2525057758120352
0007a0 13 47 fd 3a 65 ba d4 bf cc 6d b2 cf e6 f3 02 c0
       -0.32387667427711725 -2.3690925813986947
0007b0 f4 2a 38 9b 6c a7 d4 3f 96 53 f7 b3 ca d6 b1 bf
       0.32271876485962925 -0.06968371289924699
0007c0 e6 72 5f 9a 85 f9 f5 bf 8a cc 4f 52 2b b6 b8 bf
       -1.3734184293927512 -0.09652968177378987
0007d0 96 9e 81 90 a9 e8 df 3f f2 ec 15 fb c2 8d e9 bf
       0.4985755835718718 -0.7985548881546534
0007e0 11 3c df 7f cb 1c f6 bf 0f 56 8a 53 5f e6 e2 3f
       -1.3820300097465898 0.5906216270111048
0007f0 b0 08 00 dc 0b a7 fe 3f c0 27 53 08 a6 7b ba 3f
       1.91578279435684 0.10344922736399464

lin3.bias f8 [16]
000000 29 cc 2c 5c 35 73 79 bf f0 30 bd 41 38 db ba bf
       -0.006213386953095181 -0.10490752797085512
000010 a9 3d a1 8a 47 1a ea 3f ad 96 bb 65 5c 42 b8 bf
       0.8157079417814447 -0.09476258739195016
000020 d9 f7 fa a5 e7 b1 f4 3f 49 87 7b aa 9c e9 e4 3f
       1.2934338077170564 0.6535170869576429
000030 a4 30 38 ec 04 aa d4 3f 37 c6 eb 98 46 f7 e9 3f
       0.32287715023336205 0.8114350306261205
000040 41 3a f3 9c 86 18 df bf e2 ee c2 cc a1 4e d8 bf
       -0.48587193801077794 -0.3797993182777032
000050 74 a2 08 55 92 6c eb 3f c4 ce 20 20 91 df e2 3f
       0.8570033703627602 0.5897908809187915
000060 f1 64 d2 94 8d 46 e5 3f 69 55 30 f5 3b 28 b4 bf
       0.6648624331166088 -0.07873892532400863
000070 9d 8b ef ad e0 bc a2 bf 3e 1c 32 94 66 5a d3 3f
       -0.03659727214087314 0.3023926207756097
