LP4-MachineLearning/HW_B_tetris/Strategy/dqn_action_5000.pth (torch, 54615 bytes, 6 tensors)

lin1.weight f8 [64, 20]
000000 90 44 fc 37 8f 0a ae 3f 6e 89 e3 b3 dd a4 c8 3f
       0.058674312194974765 0.19253131183274824
000010 be 15 63 ff 4c eb 8d bf 4c cd 04 87 fe 85 c3 3f
       -0.014608956855577723 0.15252667992317936
000020 86 17 55 10 39 fa 9a 3f 61 aa 44 66 71 d7 80 bf
       0.02634514963326453 -0.008223424848059215
000030 91 c9 ac eb 36 f3 bb bf 59 67 fc cd 5b fd ad 3f
       -0.10917990926535583 0.05857359780766442
000040 53 65 00 11 79 80 b0 bf 1e a3 6b f8 6a 1c bb bf
       -0.06446034112049874 -0.10590237202599126
000050 78 66 5f d8 59 fa d9 bf 38 e2 0e a7 19 25 c0 3f
       -0.4059052098287803 0.12613220841537198
000060 4d 14 69 2f 01 af c8 bf 1a f5 03 17 cc c8 b4 3f
       -0.1928407174583832 0.08118892251873824
000070 70 f0 27 06 85 c6 b9 3f eb 82 06 e3 b9 9f cf bf
       0.10068541908543849 -0.24706195435739828
000080 bc 1f 3b c2 60 51 d2 bf 1d e3 36 da e3 f6 da bf
       -0.28621691673151495 -0.42131897268295565
000090 db 1d 5a 04 22 72 c0 bf 1a a1 eb 9f 66 07 e4 bf
       -0.12848305904866106 -0.6259034274526443
0000a0 61 fd 33 42 41 c2 bc 3f 5e a5 84 9c f8 a8 a2 3f
       0.1123390947941423 0.036445397478312755
0000b0 6f f8 64 de 3d 3a a2 bf 33 96 15 ba fe d6 c1 3f
       -0.03560059871459564 0.13937362753056134
0000c0 3e cf ff 3b 5d e3 d5 3f 31 61 81 01 ee f1 d8 bf
       0.34200220927526803 -0.3897662176800792
0000d0 78 1a 09 7b fe 4d a5 bf 50 31 9a 7c 12 b0 d1 bf
       -0.04161067249201705 -0.2763715950793726
0000e0 d1 75 dd 6b 14 90 dc 3f e6 93 f3 16 08 ea e1 bf
       0.4462939313287651 -0.5598183105727201
0000f0 a1 9f 4d 77 46 20 d5 3f 20 71 0f ec 89 49 cc bf
       0.3300949254103163 -0.2209942247999459
000100 14 8c 58 bd f6 8c d6 3f cb 05 a1 ee cc a5 c7 bf
       0.35235374918755835 -0.1847473302059782
000110 f0 f9 7c db 9f 1b da bf be 6f 24 5a 27 0d d7 3f
       -0.4079360621871322 0.36017783930742187
000120 a9 47 a6 03 73 87 d1 bf bf f1 f0 e7 f8 81 bb 3f
       -0.27389216762923724 0.10745196974398306
000130 86 01 5a 95 53 16 c6 bf ed 76 65 9a 13 bd e4 bf
       -0.1725563506370344 -0.6480806365541106
000140 ee be 15 bd 0e 2e d4 3f 2b 33 0e 10 c9 9c d1 bf
       0.31531113114668485 -0.27519442146221945
000150 96 71 9f 64 48 5b d3 bf ff 55 35 cf cd c8 bd 3f
       -0.30244645906875556 0.11634527500913093
000160 06 06 a6 39 2f f3 d3 bf a3 72 ba aa 4e 11 d9 3f
       -0.3117178023313446 0.39168135330855075
000170 68 9d 81 60 b2 fa d6 3f e1 da 15 17 81 64 c7 bf
       0.3590513174480834 -0.18275464656081566
000180 29 75 9c 78 63 c3 d3 bf a0 5e 9a 43 a9 b9 d8 3f
       -0.30880057123597965 0.3863318596063241
000190 94 15 2c 9d 01 6d b2 3f 83 fb b7 78 f4 cb 70 3f
       0.07197580420696276 0.004100756613751313
0001a0 52 76 6d 62 6f c6 b0 3f 88 e5 fe 01 88 4e bc 3f
       0.06552787926690343 0.11057329224322221
0001b0 72 65 be 70 19 4a bd bf d4 dc 98 4a b8 2d a7 3f
       -0.11441191675694087 0.04527069006547327
0001c0 c6 66 ac dd b9 3c d0 bf 36 52 15 d7 7d d4 c1 3f
       -0.25370642326161563 0.13929722787965354
0001d0 af a1 62 40 aa 06 b8 3f a9 36 b7 15 09 09 d0 bf
       0.0938517005148529 -0.25055148239776287
0001e0 cf 9e a4 59 b8 3a b2 bf 45 95 3c e7 a9 15 a3 bf
       -0.07120849789191229 -0.03727465579712911
0001f0 3f 74 d0 01 63 a1 ba 3f d4 4f 5a 5a bc cd bf 3f
       0.1040250663213138 0.12423302846792633
000200 85 17 42 7a 21 b2 cd 3f f4 17 ff 66 c0 f4 ce bf
       0.23199861974370264 -0.24184422520755755
000210 b9 0f 6b 88 90 ed 80 3f db 87 71 41 2f 20 98 bf
       0.008265618479874936 -0.02356027447638796
000220 77 96 ab 94 4f 54 87 3f 8a 0f db 61 b0 be b0 3f
       0.011391278957897584 0.06540968312316245
000230 5f c5 12 5b 27 21 cb 3f be e6 6f 58 19 de c6 3f
       0.21194927164973884 0.1786529237577294
000240 a0 8f 8a 5b ac f6 d9 bf b8 5c 97 e4 f9 cf a7 3f
       -0.40568074168754187 0.046508607057768214
000250 47 ed cf 46 bb 23 b6 bf 68 b5 7e a9 b4 f8 d8 bf
       -0.08648272017301394 -0.39017979194871666
000260 54 e3 0c 73 1b 75 d0 3f 6f a2 50 9b 3f b3 b1 bf
       0.2571476577318681 -0.06914136449689477
000270 d8 5e bc 24 c9 da e7 bf 51 71 69 2b 66 cf d2 bf
       -0.7454572408195999 -0.29390863646928717
000280 92 94 dd 78 59 ce d0 bf 34 f3 0c 22 d8 89 c8 bf
       -0.2625945740058536 -0.19170667326570767
000290 cf c1 f6 df ed 7a b5 bf d0 f0 07 6d c2 ef b0 bf
       -0.08390700071209455 -0.06615843927278608
0002a0 81 69 3f 5d 74 94 9d bf 5a e9 a9 5e 72 9d c7 bf
       -0.0288866216577417 -0.18449239370586207
0002b0 2b 4f 75 e9 19 50 b3 bf b4 9b 09 b3 6e 76 bf bf
       -0.0754409975973515 -0.12290088530572413
0002c0 7b 6c 3f ad 18 cc ce 3f ef 5d a7 90 76 f1 c9 3f
       0.24060352763521906 0.20268137038395603
0002d0 15 a0 3a 1a e7 31 d8 bf 00 f2 25 99 59 03 b0 bf
       -0.3780458217756871 -0.06255111683817205
0002e0 2b 05 cd 15 d3 b2 cc 3f 1b e2 25 e6 88 9c bc bf
       0.2242072922181618 -0.11176353091094209
0002f0 c0 0f 95 93 2e ce cf 3f 06 1f 84 ec 62 b4 ce bf
       0.2484796734444199 -0.23987995670926682
000300 d6 b5 f6 73 2f a0 d7 bf 62 a1 07 ae 51 80 d7 bf
       -0.3691519386728407 -0.36720697398279445
000310 0f 13 c3 9e ed b0 d3 bf e5 8b e7 3e 72 03 d9 bf
       -0.30767384056189057 -0.39083534377112833
000320 62 0c ab 81 d0 d2 b0 3f f1 47 0c b8 45 5e c4 bf
       0.0657167736599589 -0.15912696348874492
000330 93 60 fc 3b 3e 43 bb bf 7e bc b9 71 d6 74 b5 bf
       -0.10649479832170732 -0.08381405140402085
000340 8f b7 ec 7a 9a ba 92 3f 3a 68 f9 3f 01 ff c2 bf
       0.018289960625387954 -0.1484071314214946
000350 43 a6 eb 2f c0 60 bc 3f b4 2e 9e 12 38 70 c6 bf
       0.11085129899915906 -0.1752996531398502
000360 f7 47 3f 97 b0 05 d7 3f c4 4e 89 dd 5b d0 e1 bf
       0.359722278311096 -0.5566844298250193
000370 68 93 cc ea 0c 77 d1 bf df 88 cc 33 09 a7 dd 3f
       -0.2728912632904241 0.46332006510250595
000380 cd 49 e5 6e 8c f5 52 3f 4e 93 be e7 e7 46 b4 3f
       0.0011571761529763803 0.07920693786452412
000390 47 84 e2 c2 f0 d5 d6 bf fe 09 4b 7e db 7e c1 3f
       -0.35680789024087683 0.13668388048797903
0003a0 5f a8 22 b3 91 4f a0 3f ee d9 03 0c 87 a0 d2 bf
       0.03185706435881807 -0.2910478226980605
0003b0 55 71 9f 9a d3 a5 cb bf 92 14 76 f3 13 a7 db bf
       -0.21599812555258305 -0.4320726277877124
0003c0 ad b4 0e af c2 b7 a0 3f d4 8c df 0a 1a 1f b3 bf
       0.03265198122913069 -0.07469332471332574
0003d0 57 32 8c 56 28 2e db 3f 13 dd 2d d6 72 33 cb bf
       0.4246922345344379 -0.21250758607832462
0003e0 4f 35 0c ad d4 27 c8 bf 67 fa bb c9 9d 19 cc 3f
       -0.18871553849786912 0.21953174925143346
0003f0 ff 5f c7 7d f2 4e bf bf aa ef e6 91 b4 39 c8 bf
       -0.1222983891560716 -0.18926102756620128
000400 a4 7b 89 cb e8 39 cf 3f fe f7 4d 16 de 92 d6 bf
       0.24395475328762217 -0.35271408250980574
000410 6c 3b 40 19 ed 9f c0 3f 4a 33 b5 cd 6a 86 c1 3f
       0.12988055928186826 0.1369145874436078
000420 e6 bb a1 e9 b2 dc d3 3f 2b 81 5a bf 4d 22 de bf
       0.31034539046862475 -0.47084373175495625
000430 18 46 4d 79 3f 0f a0 bf e9 f7 6c 35 04 be cb 3f
       -0.03136633258567317 0.2167363415591688
000440 98 59 51 34 1c 7e c9 3f ac ad 1c b3 93 54 b0 bf
       0.1991610770662191 -0.06379054186680005
000450 0f 4f 37 47 4d dd c5 bf 49 d0 e4 48 c3 2a d1 bf
       -0.17081609704347797 -0.26823503607306926
000460 5c 6c 32 64 53 ad 98 3f 48 65 e3 79 14 f1 b6 bf
       0.024098685255563232 -0.08961608863628101
000470 12 c4 cc cc bd e8 bd 3f bf 3d ec fb 9f 88 a9 3f
       0.11683260202404736 0.04987049055318548
000480 e1 50 29 bc 1b b9 b8 bf 9a 82 99 ce 66 ec a4 bf
       -0.09657452911170906 -0.04086610099762318
000490 6c 1f dd 9a 79 87 d1 bf 6f 60 d6 3b d3 10 c1 bf
       -0.27389373896993763 -0.1333259622740601
0004a0 dd 15 64 cc ac f0 c1 3f f8 68 f5 95 03 10 d5 bf
       0.14015731792475963 -0.3291024174155974
0004b0 54 56 a9 42 23 ed a9 3f 94 d1 0f 8b e8 35 c0 3f
       0.05063734234560671 0.1266451529514937
0004c0 38 70 c2 a3 7a 1c bc 3f e0 0b a1 3a ee 09 90 bf
       0.10980955598864817 -0.015662882164416803
0004d0 31 cd 6d 18 8d e4 d7 3f 56 c2 11 19 66 28 db bf
       0.37332465539585075 -0.42434074829274004
0004e0 3c 41 88 85 33 a2 a3 bf de 7e b5 2d f1 9a d1 bf
       -0.038346872377703595 -0.2750819155098564
0004f0 0d 4e d4 ad e0 25 e3 bf 52 f0 f6 c0 c5 f8 8b 3f
       -0.5983737368682697 0.013658089591324227
000500 fe ef b4 a2 67 b0 da bf f7 1a d6 0b 67 ba d4 bf
       -0.41701689614615123 -0.32387710719960644
000510 f7 08 54 29 fb ef c7 3f c4 ff 11 25 a4 22 c1 3f
       0.18701114194852383 0.1338696652419441
000520 1a 6a a3 97 36 51 d9 bf 74 17 60 17 49 ec c5 bf
       -0.3955818634837286 -0.17127336160063644
000530 e3 2d b9 00 21 35 e3 3f 14 4e 2b c5 c0 ec c1 3f
       0.600235463536077 0.14003762843513867
000540 fa 05 35 2e 9f 8a d7 bf 95 ce cf 1d 90 15 d7 bf
       -0.3678358031503134 -0.3606910983209926
000550 97 6a 84 11 e6 47 c5 3f f5 d2 04 d3 91 23 b3 bf
       0.16625667434057753 -0.07476149942233319
000560 80 68 1f 0e 24 99 c3 3f d0 1f 1a 91 e5 5a b8 bf
       0.15311098756393804 -0.09513697426348178
000570 81 93 c8 2b f0 d4 a0 3f 9c 55 81 ad 76 e1 b1 bf
       0.032874589295068375 -0.06984655128447631
000580 95 0c d8 65 73 fb d3 3f e2 8d 66 d6 ca e3 e4 3f
       0.31222233720490894 0.6528066813956992
000590 d3 85 b7 2e 32 08 d6 3f a1 73 30 7f e2 14 94 bf
       0.3442502456874454 -0.01961091901113188
0005a0 d4 55 5a a1 6d 17 b5 3f e5 1e 2c 95 92 2f cf bf
       0.08238873662261109 -0.24363930019193628
0005b0 d4 c4 5f 12 c6 b9 d2 bf 8d 69 a0 fb ed 18 de 3f
       -0.29258872789712354 0.4702715832987899
0005c0 94 7e 53 92 a4 14 c1 3f a8 9d ef 61 95 ac ab bf
       0.1334424700244098 -0.054051082806661654
0005d0 1e 4e 17 36 e4 5c c3 bf cd 6e 2e 0c 4b e0 b4 bf
       -0.1512723220936189 -0.08154744193455628
0005e0 25 ea 34 d8 ce 3d af 3f 4d 3e 9b 7e 53 07 ca 3f
       0.061018432514590416 0.20334857637361595
0005f0 7b 73 ae 21 99 d3 d0 3f a6 b1 7f 29 16 c3 cb bf
       0.2629149273796469 -0.21689106966313182
000600 03 46 8a 72 9e 00 a2 3f 0c 0d c3 e1 8f 07 b6 3f
       0.035160972101163444 0.08605288755193302
000610 d0 3b fd 7d f9 70 ce 3f f8 13 21 8b 04 64 d2 bf
       0.23782271053138837 -0.28735459887349135
000620 e3 98 75 9f 7d 16 b7 bf ce a2 2a d4 e7 ac 8c bf
       -0.09018693106699831 -0.014001666223820843
000630 3f 4e 8a a7 cf c2 9b bf b4 83 1e 85 7e 8d dd bf
       -0.027110333062024813 -0.4617611217491302
000640 b7 8a 67 1c 6b a2 a0 3f d6 6b 0e ec 36 6a b3 3f
       0.03248915406927238 0.07583945525259081
000650 73 40 43 7c 1d 12 9e 3f 58 35 62 e7 a1 21 a4 bf
       0.029365978917497104 -0.03931909513003501
000660 85 ae 55 00 39 5b d1 bf 16 10 36 3a d8 7c cc bf
       -0.27119278938946706 -0.22255995600073736
000670 d1 ad c6 9e e4 f1 e1 3f 5f af 6b 42 36 4a e0 bf
       0.5607779599280837 -0.5090590760496346
000680 09 94 5d b2 ee 89 ce bf f7 75 b1 ac 7f a1 ca bf
       -0.2385843630719651 -0.20805355007443868
000690 36 1d d3 94 66 b3 e4 3f 54 cc 0d 7e b4 6e d6 bf
       0.6468995005351761 -0.3505068999285801
0006a0 d5 f8 4b dd e4 6f c2 bf a7 58 78 2b 4a b2 d3 bf
       -0.14403973393922934 -0.3077569412720415
0006b0 c6 1d 2b 57 74 f1 cf 3f f0 c6 9a b3 0c 7a b9 3f
       0.24955610519667298 0.09951857933881647
0006c0 91 a3 b0 09 2e 70 bc bf ec 0c df d8 3b 37 b0 3f
       -0.11108672844478763 0.0633428005667615
0006d0 0f ef 6f 83 a4 46 d7 3f 7a 85 7a 31 71 09 e2 bf
       0.3636866839949428 -0.5636526075724497
0006e0 c5 90 51 83 be cf d0 3f 42 90 6c 31 dd aa d1 3f
       0.26267969917377015 0.27605371309823934
0006f0 48 dd 35 1e 0e 95 b7 bf 74 52 2e a2 cc 17 c7 bf
       -0.09211815106924803 -0.18041379851333128
000700 75 6f 62 6d 35 f5 b9 bf b3 49 4c e0 39 1b d9 bf
       -0.10139783783455221 -0.3922867479715492
000710 b5 f3 39 b3 9d 6d df bf ab 12 b1 fe 67 b9 dc 3f
       -0.4910654306657379 0.44881629822001895
000720 a2 b6 d0 20 38 c0 a4 bf 70 be ed 56 64 8c c6 bf
       -0.04052901650025588 -0.17615942234577942
000730 9f 4f 51 bf 1f c1 d5 3f 7a 4c 6c 6a 15 55 8b bf
       0.33991235431062167 -0.013345877943299767
000740 af c8 54 12 5c 36 d8 3f d0 05 7c eb b3 4e d0 3f
       0.3783178500190258 0.2548036384251562
000750 43 90 b4 17 3d 95 e5 bf 61 14 58 1f c3 65 c6 3f
       -0.6744676077837614 0.17498053579780318
000760 1e 23 a8 92 5a d2 d6 bf 6d f9 a9 95 e2 08 97 3f
       -0.3565889770693945 0.02249483145214397
000770 af 1b f3 c0 fa 06 bd bf 2d f1 de cc 3e 00 d8 3f
       -0.113387748820158 0.3750149727527681
000780 c9 09 a7 35 8a 24 cf 3f b0 af ef 66 d9 48 b2 bf
       0.243302608678347 -0.07142409098713531
000790 4e 3b 7e 85 84 9f ce 3f e4 e5 15 c9 92 7f be bf
       0.23924309271066097 -0.1191341153079502
0007a0 ee 21 98 55 b9 db b0 3f 49 ae 05 32 fd 34 b2 3f
       0.0658527215929394 0.07112104865307702
0007b0 b9 a7 9e 05 83 91 c0 bf 76 41 25 45 9a b7 99 bf
       -0.12944066786195466 -0.025114450903232798
0007c0 8a bd 77 e0 3b d0 bb 3f 9f 63 1d 2f 1f 3e 9e 3f
       0.10864614706200917 0.02953385090890814
0007d0 7f 6d 0b b9 d5 50 dd bf 03 60 19 b7 68 cc aa bf
       -0.45805876799359874 -0.05234076724144645
0007e0 42 ec 2e 46 5b b5 d8 3f b5 a5 6f 2c d4 14 a9 3f
       0.3860691247352329 0.04898703615601666
0007f0 ad 63 dd 43 3a fa d1 3f ce 39 25 e9 83 82 91 bf
       0.2808976805441102 -0.017099438767496804

lin1.bias f8 [64]
000000 78 e3 1e fd f2 ac e4 3f 6e 11 f6 d3 b9 47 d0 3f
       0.6461119598162517 0.2543778009351375
000010 55 c5 c1 92 b5 2c e2 3f e5 78 8c 98 83 3a c3 3f
       0.5679576746316949 0.15022320698421435
000020 ea 4f e1 11 f0 7c e7 3f 94 3e f0 93 18 83 de 3f
       0.734001192972298 0.4767514652930711
000030 18 58 aa 8f 00 84 cc 3f a9 57 1f 05 ba d7 cf 3f
       0.22277838721191823 0.24877095461004942
000040 05 fd e2 d1 56 b0 d8 bf d8 6c cf 20 dd c3 e6 3f
       -0.38576288696999966 0.7114091530633244
000050 fa 31 ac b4 d2 6a 76 3f aa 23 80 6f 50 33 d1 3f
       0.005472968167634646 0.268756970298052
000060 38 3b 52 81 80 e6 e7 3f 0f 8b 19 54 d8 c3 df bf
       0.7468874479107859 -0.4963284322058578
000070 1f 90 dc c2 6d e8 e3 3f 88 a9 f8 c4 c2 46 cf 3f
       0.6221226507082099 0.24434694879284913
000080 19 55 2b f8 35 8c ad 3f 2f e2 53 f0 2a cc d5 3f
       0.05771034864816666 0.3405864092779067
000090 cc eb 54 48 67 c0 a8 bf 75 cc c7 08 69 01 bd bf
       -0.04834292180972674 -0.11330276932112489
0000a0 6b 7a 69 1d 22 59 c8 3f d8 75 ef 70 aa 1d cc 3f
       0.19022013126501078 0.2196553279344886
0000b0 e4 00 13 66 29 13 c9 3f ac 55 9c 73 7f 53 da 3f
       0.19589726909726501 0.41134630479913414
0000c0 da f1 57 6a 0d 99 dc 3f 8f 9f 63 de 1b 67 e0 3f
       0.4468415773879123 0.5125865310228493
0000d0 45 79 32 bd 0e a3 d3 3f 02 ba f4 c2 88 90 c6 3f
       0.3068272445324463 0.17628583449682372
0000e0 11 93 92 2f 87 b9 d2 3f b4 ba c5 53 19 00 b4 bf
       0.29257373471982456 -0.07812650962089657
0000f0 5a 6f 37 b1 37 fe e0 3f c7 6a d3 84 be ee d4 3f
       0.5310324155102351 0.32707179042124007
000100 0d 57 61 4a 02 b8 d9 3f 99 9b 6c 44 91 5b bc 3f
       0.40185601485914973 0.11077220840944192
000110 8d 75 94 9f 1e e1 d2 3f 70 fb 7e 90 21 5d e0 3f
       0.29499021133400377 0.5113685438335391
000120 e1 2c 13 6b d2 ca d3 3f 56 66 cf 11 fc e2 d8 3f
       0.3092542691853862 0.38885404338143326
000130 87 0f d1 8f 1b c1 d0 3f 86 e4 e8 e1 7a 5e d3 3f
       0.26178635639757214 0.3026416021489883
000140 06 c0 45 4f 56 fa df 3f b6 13 df 34 18 50 e4 3f
       0.4996543668885355 0.6347771675724434
000150 4e 7a b7 b2 e8 d1 dc bf 1c cc 35 a8 50 56 e7 3f
       -0.450311827209508 0.7292865071634682
000160 de 89 d4 4e 95 dd d1 3f c8 81 76 09 3b 72 d0 3f
       0.27914936731590767 0.25697208332169597
000170 01 1d 13 9d 98 5a c0 3f 66 dc 79 cb 03 8b dc 3f
       0.1277647749868507 0.44598479147629744
000180 dd 86 b2 a8 6d ad e4 3f 88 cf e0 3f b7 3d cb 3f
       0.6461704535360827 0.21282091731120212
000190 33 31 7c d8 c5 7f e2 3f d7 b6 9e 9b b6 61 e6 3f
       0.5780972698426353 0.699427894540089
0001a0 9f a6 1a e3 d6 e1 e3 3f 51 18 dc f4 13 b4 bd 3f
       0.6213182864787149 0.11602902153035301
0001b0 94 f1 dd 8a fe db df 3f fb 83 85 09 37 55 b8 3f
       0.49780238686778344 0.09505027754268262
0001c0 f4 99 90 40 73 27 d2 3f 21 5f 3d 09 84 de b5 bf
       0.2836578493610482 -0.08542657113627829
0001d0 a5 b4 12 8f 66 57 e0 3f 40 a4 18 3c 71 be d7 3f
       0.5106690210719945 0.3709986769559386
0001e0 85 49 ec 5a 80 ba dc 3f bf b4 8e 9b 78 20 c0 3f
       0.4488831413192645 0.1259909400518264
0001f0 28 ff 34 17 b6 93 d8 3f b0 27 6c d2 2f 9b b7 bf
       0.3840155817633666 -0.09221171271579354

lin2.weight f8 [64, 64]
000000 9c bb 00 f5 6e 4e dd 3f 56 a0 76 da 3f e9 dd 3f
       0.45791219640789804 0.4673614152366147
000010 8c 1e 84 ae 88 e8 e0 3f 39 b0 b1 b0 e4 40 b7 3f
       0.5283854874150662 0.0908339434988087
000020 e4 7d 5d b3 cc cd d8 3f c5 11 60 83 92 2d df 3f
       0.3875610114682486 0.4871565134965546
000030 2c 02 fc da d1 70 d0 3f 17 54 29 3e 4c de c4 3f
       0.256885970928155 0.16303399119593173
000040 ff 11 c6 92 9a 03 bb bf 29 50 d4 93 6b 44 de 3f
       -0.10552373965590077 0.472926039089773
000050 a4 e3 8b c9 0a 95 d8 bf 09 45 26 07 17 b4 b4 3f
       -0.38409681017179254 0.0808729546027004
000060 dd 71 ee 3d 67 38 e0 3f bf 7d 84 55 b1 43 e6 bf
       0.5068851670835631 -0.69576327040334
000070 89 f0 cb 8a e3 12 d0 3f 47 5e da ac 3a 57 cd 3f
       0.25115288309439926 0.22922452392661993
000080 c8 15 26 15 36 2d c6 3f 59 62 85 ed 9f 23 c6 3f
       0.17325473816542414 0.17296218011576306
000090 cf 89 69 cf 2d 28 b0 3f a0 bb 51 6c 7e 82 dd 3f
       0.06311308206344467 0.46108971193364745
0000a0 22 83 1a f6 cf 4c c0 3f 41 a1 95 e2 9a 7c be 3f
       0.12734412686133917 0.11908882171485848
0000b0 d6 15 ac e6 2f ec da 3f 77 35 0b 95 68 e6 c4 3f
       0.4206657173784526 0.16328151013878386
0000c0 57 6e 06 d0 a3 e6 bd bf d4 b8 8b 5d 2e 51 c7 3f
       -0.11680053547609624 0.18216495101609687
0000d0 b7 d2 6b e7 8d f6 d4 3f 2f 0c 9c cd b2 7d a8 3f
       0.3275484809849262 0.04783400306589446
0000e0 65 b7 30 ad 23 f9 c0 3f 69 75 07 8f c2 3b da 3f
       0.13260312992627657 0.4098974606293582
0000f0 e4 7e 36 29 4b 67 d2 3f 24 ca a4 e7 d7 db d0 3f
       0.28755454086966226 0.2634181749482727
000100 7d 7e cd a6 6f 3d d1 3f 4b 49 e2 b5 7a ee c3 3f
       0.2693747643406608 0.15571531182338058
000110 1e c8 d7 8e 50 11 db 3f 2b 43 83 e0 fa 89 cb 3f
       0.422931804175393 0.21514831507240592
000120 33 b4 52 b2 b4 4e d0 3f e5 6a 59 66 03 01 b0 3f
       0.2548038236080316 0.06251546143304727
000130 16 25 4e 50 04 d3 a8 bf 68 11 8c c9 90 d2 b2 3f
       -0.04848493080414522 0.07352547569832313
000140 cc 01 6d fa 23 53 b6 3f 54 d2 cb d4 32 79 d8 3f
       0.08720612396155686 0.38239737301708954
000150 6b 88 df cf d2 0b d1 bf 98 3a fd 27 23 2d e3 3f
       -0.26634664821734216 0.5992599278486805
000160 c1 27 72 e5 64 ae 64 3f 19 1c ae 86 53 22 de 3f
       0.002524563849481049 0.47084510948519803
000170 08 2d d9 e6 87 c3 c2 3f 6a bd 4f 23 5d 35 c6 3f
       0.1465921284856011 0.1735035345477443
000180 c3 35 fb 18 6b 07 d0 3f 73 24 5a 6b e8 63 d7 3f
       0.25045278014735234 0.3654728935585531
000190 d5 8f 6d 37 84 3b a7 bf 3a a1 85 1b 66 c0 d1 3f
       -0.045375949636564585 0.2773680943269202
0001a0 50 c2 d7 12 ff d0 a0 bf 90 d6 82 62 86 75 b9 bf
       -0.032844515848300504 -0.09944953827911207
0001b0 cc dc 72 ed 4a 24 da 3f ca 67 75 8f 78 55 d5 3f
       0.408465129741171 0.3333417321169888
0001c0 21 6c 1b 21 75 0a b3 3f 59 2f 81 e2 2b 06 d4 3f
       0.07437831934241547 0.31287667388527535
0001d0 7b 11 01 75 b3 be d6 3f a9 8b a5 c6 22 70 da 3f
       0.3553894655817868 0.4130942287358104
0001e0 62 d1 ec 8c 5e 36 9e bf c1 75 d1 98 14 cb a2 3f
       -0.029504277564414656 0.03670563092667179
0001f0 57 4e bf e0 bc 65 d5 3f 21 c6 48 48 da f9 de 3f
       0.33433458278634504 0.48399979647646957
000200 94 e2 9b b9 c3 ea d4 3f ff 9e 32 dc b4 60 c2 bf
       0.3268288910472077 -0.14357624770968155
000210 12 e7 9f ba e9 34 cf 3f d4 15 b2 74 b4 35 c3 3f
       0.24380227673082594 0.15007644365338868
000220 b6 71 b3 b0 f9 73 d1 3f 0e 14 ab 8a b0 3b d4 3f
       0.27270357376053356 0.31614316503356654
000230 a6 f9 f9 68 85 09 ad 3f 6c 05 82 eb f6 1f d0 3f
       0.05671326548052784 0.2519509601480283
000240 3e a0 38 68 c3 5d c0 3f bf c6 e1 83 05 18 d2 3f
       0.12786142910886328 0.28271615866752237
000250 60 19 f8 ae 79 2b d2 bf 62 fe b8 f7 19 06 e1 bf
       -0.2839035233195286 -0.5319948042233131
000260 86 e0 7a 5e f3 0a d5 3f 40 61 8b bb da e9 d6 bf
       0.3287933752685678 -0.35802334132087665
000270 c9 ae fb b9 cd db c7 3f 9e 85 3f b4 08 83 8f 3f
       0.18639537411887933 0.015386646271454304
000280 c2 48 cf 63 86 ad cc 3f b2 8e 39 c6 2d b8 c1 3f
       0.22404556153794003 0.13843319109866098
000290 00 7c d3 2f 19 e8 9b bf 04 b4 42 9f aa 82 c7 bf
       -0.02725257257850089 -0.1836751248969507
0002a0 0a c9 99 ca 00 b9 dc 3f 48 35 8d bc 44 15 9d 3f
       0.44879169259287777 0.02840144539668657
0002b0 01 74 19 7f cd bd d5 3f dc 18 f3 37 81 b5 a1 3f
       0.3397096387105308 0.03458789642313473
0002c0 e6 0b 23 d1 e7 03 a2 3f 6c e2 91 23 97 52 89 bf
       0.03518604686680486 -0.01236455991077997
0002d0 a6 16 4e 84 b6 04 d5 3f 00 e7 a3 5e 37 53 bb bf
       0.32841265602506053 -0.10673852978279896
0002e0 a0 dc 21 87 a9 e4 ba 3f 63 89 2c d6 0b f8 d5 3f
       0.10505160855415108 0.34326454081942454
0002f0 ca 2c a1 3e 81 21 b6 3f da 9f c0 0f e4 9a cd 3f
       0.0864487436203262 0.23128939408456867
000300 af cc e5 f6 9e b6 c5 bf 68 61 20 fe 24 cc c9 3f
       -0.16963564925717864 0.20154249580879058
000310 a2 80 8d a4 1c d2 c3 3f 94 4c 76 87 b6 70 a1 3f
       0.15484960589220004 0.034063056980039225
000320 42 b4 2d cb c4 22 af 3f fc 3a a1 06 e3 84 c0 bf
       0.06081213932234465 -0.12905538390847215
000330 21 4a ae cc 99 91 bd 3f d7 32 3c 60 e3 1f ab 3f
       0.11550294158067988 0.0529776625608968
000340 bd 86 4d c3 db 90 a0 3f 90 a4 43 df 75 60 d5 3f
       0.03235518225734555 0.3340124779047722
000350 56 11 16 89 3f 11 bc bf 48 73 c6 7b f8 d1 a1 bf
       -0.109638186424552 -0.03480507384231274
000360 e4 3d 73 6a fe 1a b2 3f 7f 32 9f 45 d7 3c dc 3f
       0.07072439288025795 0.4412134342099207
000370 24 fd 9b 69 b5 83 93 3f 35 9b e2 e5 bf b6 c5 3f
       0.01905711609924511 0.1696395752416834
000380 73 04 81 0c 15 10 c4 bf 95 b0 b0 86 b4 3c b5 3f
       -0.15674079046769726 0.08295753753981423
000390 2c f9 cc 9e d1 d3 c5 3f a0 b5 0d 2c 21 a5 c8 3f
       0.17052669767321882 0.1925393548112142
0003a0 00 dd 3c 98 37 37 98 bf 63 d3 7a cb 04 b5 c9 3f
       -0.023648136774878203 0.20083675323044323
0003b0 4e 28 59 4f 46 30 d4 3f d1 22 18 37 30 f1 a7 3f
       0.3154464506993734 0.04676199600732434
0003c0 85 9e 7d 34 41 ee b3 3f 15 d3 be 5e 2a b2 dc 3f
       0.07785422832022888 0.4483743596313599
0003d0 b0 67 d8 37 83 da b2 3f 51 17 89 38 a3 df c6 3f
       0.0736467372265952 0.1786998773624711
0003e0 84 d4 08 38 c7 ee a4 bf 07 b3 c5 21 1b c3 ce 3f
       -0.040884233083866156 0.24032916211162833
0003f0 90 d7 0c 96 7a bb de 3f 3f 68 9d 88 0e 50 d9 3f
       0.48019280103050566 0.39551127759262167
000400 60 6a b5 0c 1c 47 dd 3f 3f 40 72 c2 de 19 d3 3f
       0.4574651836498216 0.2984539889230326
000410 8a 87 64 47 4c 10 d1 3f 7a 27 99 5d 7a 9b cf 3f
       0.2666197488016385 0.2469323117277858
000420 4d d8 d7 b7 a0 68 c3 3f eb cb f5 c3 86 f6 d2 3f
       0.15163048721996333 0.2962967790292043
000430 dd 50 8f 5e ec 0c d8 3f b7 f9 59 4f 08 d3 cd 3f
       0.3757887767253701 0.2330026996095975
000440 05 27 a3 ed ab 0c a8 3f cc fa b9 35 a2 9e d2 3f
       0.0469716765961277 0.290932228534001
000450 6b 99 ce 3c 22 80 5d bf bc 9f 8d 9e a2 5d b2 3f
       -0.0018005689955572178 0.07174126025131405
000460 03 22 d8 e5 8d e1 e0 3f 20 9f e8 cf 76 e9 d4 bf
       0.5275334824701193 -0.3267495184286293
000470 f0 d7 ae 4c d8 fb d1 3f 27 0b 21 b0 82 44 ca 3f
       0.2809963940484286 0.20521577453663406
000480 55 11 80 bc 07 21 cc 3f 1d a2 50 2d 90 f4 d3 3f
       0.21975800232042766 0.31180195260324856
000490 4e 44 db 1c 1d ad dd 3f 85 35 9a 92 b1 13 d9 3f
       0.46369102304476406 0.39182700459135616
0004a0 42 70 a1 14 d3 fd e0 3f 7b de 28 bf 25 51 ac 3f
       0.5309844401304036 0.05530660589687116
0004b0 ae 24 98 3a 1e 10 da 3f a7 f7 87 24 8f ae ca 3f
       0.4072337696275764 0.20845212253328535
0004c0 bd c9 2c aa c8 ed b7 3f 4b 2f 46 fa d0 63 ad 3f
       0.09347204355871148 0.05740216307739717
0004d0 e0 a9 8e b9 28 65 cd 3f 51 41 0c f1 78 5a 93 3f
       0.2296496301690487 0.01889981242408229
0004e0 d7 ba 26 19 f0 18 c4 3f 59 60 16 66 6f b2 d4 3f
       0.15701104381647354 0.3233908173510876
0004f0 ce c7 ec bc d5 a1 d0 3f 2f 12 f0 5e f6 a2 c6 3f
       0.25987761926364505 0.17684821735032716
000500 c7 6e e0 1b 4a 92 c0 3f eb 5b 18 4a 09 6f d9 3f
       0.12946440087477226 0.39740211711745016
000510 7d ca 2f f1 1c f0 da 3f fd 23 36 35 d6 84 d3 3f
       0.42090533784281786 0.30498271175798647
000520 36 c3 5b 71 13 cc d8 3f 87 1b c9 96 27 f6 c4 3f
       0.38745580740128405 0.16376204359604804
000530 6d 54 2e 57 80 5e d2 3f 89 0f 98 2b 6b 47 c0 3f
       0.2870179034592358 0.12717952374088906
000540 b8 e3 a8 36 d6 7f 98 3f 16 37 6c 60 84 fe ca 3f
       0.02392515858284458 0.21089224537029655
000550 db c2 cb 63 37 b7 a9 bf e2 b5 fe 77 f6 5d d3 3f
       -0.05022595494472678 0.3026100322557267
000560 11 60 65 23 7a 8d c0 3f 21 b4 51 c3 15 31 e0 3f
       0.12931753853149577 0.5059918227030985
000570 96 8c bc d0 1e f1 c1 bf 6d aa b3 72 25 d3 b6 3f
       -0.14017090980732821 0.08915933657014259
000580 a1 42 a3 83 f8 91 d5 3f 62 f2 7a ab 4d 92 cc 3f
       0.33703434806106186 0.22321482537326448
000590 03 58 03 c6 00 9b c1 3f b3 96 6d 27 fe a3 ce 3f
       0.13754281681639222 0.23937966275405173
0005a0 6b 10 b4 b6 ca f1 c9 3f 83 1d 2f 31 49 55 d4 3f
       0.2026914016825033 0.31770543864373496
0005b0 68 e3 0a cf 65 0e b5 3f 44 f4 59 2c 12 1e a0 3f
       0.08225094132184341 0.031479423440921056
0005c0 5a 63 cb 7b bd 68 b8 3f 8f b0 ed aa 96 50 dc 3f
       0.09534820816351211 0.44241873447641294
0005d0 01 04 09 20 15 41 c9 3f bf e1 10 a2 6e c1 b1 3f
       0.19729866089076611 0.06935779053390599
0005e0 9e de b3 bb 5e 7f d4 3f f6 e6 06 fa 1f 62 ca 3f
       0.3202740510018688 0.2061195345721029
0005f0 9e f3 9a a5 cb 46 b9 3f b4 ae 84 4e 2b e3 e3 3f
       0.0987365035352483 0.6214806111870161
000600 15 d3 27 45 c8 26 c3 3f f6 bd a4 82 fa 97 d3 bf
       0.1496210420297294 -0.3061510349097881
000610 d7 1a 14 29 fa 35 c9 bf 7a b2 50 90 ba 76 e4 3f
       -0.19695975309169597 0.6394932573944765
000620 04 00 e5 45 62 cd c0 bf e6 9c 68 c5 62 66 b9 bf
       -0.13126781857317849 -0.09921853370234465
000630 cd bf bd 24 fb 09 d8 3f 72 3b 54 da 28 27 d8 3f
       0.3756091936875208 0.3773901111716703
000640 a5 b2 6f c4 a6 31 da 3f b4 59 09 12 f6 5c bb bf
       0.4092804830859598 -0.10688722553582047
000650 35 d0 82 da 6e 92 cb 3f 70 38 d2 08 96 6a 97 3f
       0.21540628118020924 0.022867531097795213
000660 68 80 be a8 e2 a3 bd 3f 5d 46 13 39 76 82 b1 bf
       0.11578194255571506 -0.06839693921508556
000670 84 47 40 c2 c2 e8 e2 3f 7b e5 80 0d cd b3 da bf
       0.5909131807295442 -0.4172241813535817
000680 fd 52 95 21 da 52 ce bf a4 5d c0 cf 3e 20 c3 3f
       -0.23690344466981364 0.14942155021774994
000690 60 1d 30 95 27 bb d0 3f 2f 74 c0 93 bd b7 a6 3f
       0.261423011485439 0.04437057903872021
0006a0 a2 86 db 35 73 75 aa 3f af d4 45 2e 73 8e d1 3f
       0.05167732269707172 0.27431945341897807
0006b0 c9 a2 4e 7d 21 54 df bf 86 d6 95 6f fe cd f0 bf
       -0.48950993763950784 -1.05029147708902
0006c0 19 51 70 3e dd ff cb bf 9a 8d ab f9 1c 4d ef bf
       -0.21874585675016858 -0.9781632305497852
0006d0 e6 2d 17 62 ff 1c 94 3f 0e 24 fc 43 23 4b e8 bf
       0.01964186702916306 -0.7591720893698282
0006e0 4d 64 fe 04 f3 8f e0 bf 8e 43 12 82 30 26 cd bf
       -0.5175719354184679 -0.2277279505838376
0006f0 f0 75 93 37 39 e8 f2 bf ea 81 09 e9 f8 57 99 3f
       -1.181695191472837 0.024749650214632192
000700 da 71 cf ff 5c 28 f3 bf 37 71 c8 f0 87 a2 ac 3f
       -1.1973543160048536 0.05592751325841266
000710 26 de 5b 42 2d b9 d3 3f d9 57 0e e7 35 20 e9 bf
       0.3081772945438125 -0.7851819527447744
000720 3f 1a c3 c5 d4 59 f7 bf fb e7 3e 4b 7c 81 cb 3f
       -1.4594314313013823 0.2148890845690515
000730 6f f8 8d 19 fd be ca 3f 86 85 c4 fd 09 6f f3 bf
       0.20895351169378126 -1.2146091378020585
000740 4f 27 a4 d7 6c a7 d8 bf 0b 4c 50 04 e1 c1 d7 bf
       -0.38521882113183364 -0.3712084333539571
000750 c5 6a 9b 25 12 60 ce 3f 64 5d e0 09 7f f9 c2 3f
       0.23730685077938155 0.14823902113196674
000760 f5 64 ad c6 71 29 ee bf b7 f5 7a a8 c5 82 ba 3f
       -0.9425591354767265 0.1035579239205252
000770 4d cd 88 37 f4 a9 da bf 3b af d3 d2 5d e2 df 3f
       -0.416623167259975 0.4981913145882008
000780 a4 db 80 8e 0d 79 e4 3f 63 84 bd 32 c9 f2 d7 3f
       0.639776972128733 0.37419347720248747
000790 54 f8 70 17 70 5c bb 3f 60 8a 36 18 f5 bd d6 bf
       0.1068792397718153 -0.35534407963328896
0007a0 37 cb 81 d0 a3 5d e2 3f 2d 40 46 35 e4 1c a9 bf
       0.5739306518938524 -0.049048549178337765
0007b0 f9 f5 40 fa de 73 ee bf ed b4 7c 59 b5 3c a2 bf
       -0.9516444099205607 -0.035619418309900876
0007c0 12 1f a2 e8 5b b1 ee bf cc b0 72 78 15 f6 e6 3f
       -0.9591502708071593 0.7175395348072242
0007d0 5f 29 ad d1 e0 9e d6 bf e6 ba b4 62 19 8b d4 bf
       -0.3534471557255951 -0.320989939110332
0007e0 a3 0d 4d 70 e1 a2 da bf 30 d2 27 16 0f 73 c4 3f
       -0.41619144408124437 0.15976131994070064
0007f0 87 f4 2e 94 7c fc e3 bf 9c f7 4d 8a 23 30 97 3f
       -0.6245711225707432 0.022644572559776685

lin2.bias f8 [64]
000000 c0 dc 4f 85 ea 5f da 3f 40 a3 52 2b 90 55 c4 3f
       0.41210425394769956 0.15886118045207276
000010 76 74 80 4e e7 55 cf 3f cc 34 44 3e 5a eb c0 3f
       0.2448090680417498 0.1321823886905008
000020 67 bc 5a 8c f2 81 ba 3f 25 05 cb a5 12 c6 d1 3f
       0.10354534079191212 0.27771440687873145
000030 02 24 75 61 cb c2 b6 3f 22 13 e5 50 73 15 cf 3f
       0.08890982751212564 0.24284211587851084
000040 2b d8 e7 c3 f4 d4 be 3f a8 63 0a 5a 7e d4 c3 bf
       0.12043695242741197 -0.15492228886139725
000050 ad 39 73 39 37 49 d3 3f 89 5f b1 02 f0 da d3 3f
       0.3013437329326745 0.3102378870294094
000060 29 96 14 17 a5 3a db 3f 01 51 52 1d 74 6d cc 3f
       0.42545439962336445 0.22209025794712292
000070 b9 ba aa bf 0b 90 89 3f d8 68 02 8f 61 1e da 3f
       0.012481776987752867 0.4081043144775669
000080 e0 b8 50 70 44 cc d4 3f c9 5b a7 a5 e8 0c e0 3f
       0.3249674889401728 0.5015757785248464
000090 46 ee 54 f2 07 33 de 3f 1b 43 99 bf 84 03 da 3f
       0.47186468758784306 0.40646475516136754
0000a0 34 4e 37 8d dd 36 d8 3f 46 14 8f 5e a8 0b ca 3f
       0.37834872046116463 0.20348076455244007
0000b0 89 fe e1 81 5b cc 54 bf 8b 02 9d 17 20 26 c6 3f
       -0.0012694257380018467 0.17303849366182464
0000c0 55 23 40 58 45 8a b6 3f fc c0 62 f7 b7 67 d7 3f
       0.08804734615854433 0.3657054820896659
0000d0 11 1e 05 56 2b 5f d8 3f 82 3a d0 2a c4 6c d3 3f
       0.38080867195500995 0.3035135667895831
0000e0 95 10 39 cd 30 bc d7 3f 6f 43 6b 10 85 af d5 3f
       0.3708612445955251 0.3388378773061537
0000f0 34 f6 a1 5b 38 14 b4 bf ce 09 cd 6b 36 12 d0 3f
       -0.07843353497624933 0.25111160781321196
000100 de 1c b3 74 c2 af c1 3f a4 39 99 96 10 99 d3 3f
       0.1381762571165614 0.3062173338593317
000110 7c 2c 9b 12 5d 9c a2 bf c8 62 9b 26 f4 4a dd 3f
       -0.03634920932889771 0.4576998116513491
000120 c0 9c be ca 29 e6 cf 3f cd 9c ff ff 4f 63 d2 3f
       0.24921152495992338 0.2873115539536684
000130 68 99 2a 7e d5 f6 cb 3f 49 cc 40 2f 48 ff cf 3f
       0.2184702745482341 0.24997808749467001
000140 6e 3c 9f d5 29 88 dc 3f 24 09 c8 34 66 a4 c3 3f
       0.44581075536274894 0.15345456673828395
000150 0e 3f e8 75 ae d1 c0 bf 22 0c d6 93 d5 f3 d4 3f
       -0.13139897114933102 0.327382463809217
000160 81 9a 7d 59 d5 9b cc 3f 15 98 4a 57 8f e4 db 3f
       0.22350565786037538 0.43582519077824716
000170 58 47 8d e9 ce 72 da 3f 71 c3 95 d5 1a e4 d6 3f
       0.4132573395519237 0.35767241342460127
000180 27 53 4c f3 a1 1d da 3f b2 db 05 49 84 14 d1 3f
       0.40805863151153904 0.2668772423853013
000190 63 56 3f 6a ac 7c bc 3f 20 7c 6b bd a3 4b ba 3f
       0.11127736658030467 0.10271666883953445
0001a0 63 42 2d 70 6b 67 d1 3f c1 94 32 85 c4 e9 d3 3f
       0.2719372363544947 0.3111430454976692
0001b0 67 8f b0 10 0f 27 d0 3f 6c 7d 6f 4c 57 0a d5 3f
       0.25238396291591986 0.3287561651649955
0001c0 fd a7 d2 e5 27 4a d5 3f c0 97 08 83 ca 14 e0 3f
       0.33265111392631735 0.5025379714249922
0001d0 f6 96 84 94 ba a2 d6 3f 22 d8 46 61 d5 4b d2 3f
       0.3536821794863124 0.2858785104721183
0001e0 a3 4f 0a 2f 53 4f da 3f ce 90 2a bf 09 a5 d2 3f
       0.41109160989548793 0.2913231245859266
0001f0 2f 53 df c7 e8 bb c2 bf 6b f1 51 70 9c c5 d0 3f
       -0.14635953673737265 0.26206122368582524

lin3.weight f8 [16, 64]
000000 3b 37 c4 63 c9 40 d1 bf 77 11 11 0d 02 a2 b3 bf
       -0.269579265049163 -0.07669079607973638
000010 e1 c3 66 60 d9 32 c7 bf 31 cb 1b b4 f4 da c9 3f
       -0.18123929221249482 0.20199450296748858
000020 8c 47 1d a9 d7 8b fb 3f 41 10 93 ab b4 78 9a bf
       1.7216412168531603 -0.025851080867838275
000030 a2 30 74 3b 78 28 b7 bf 15 57 22 6e 15 96 a6 3f
       -0.09046126796255519 0.04411379784975914
000040 d0 93 1d ea fa fb f9 3f 0e 0e 60 af 9f d7 a1 3f
       1.6240185876024391 0.034848203809840425
000050 fd 0f a0 13 f3 e0 bc bf 5b 80 1a c3 da 35 bf bf
       -0.1128074572480386 -0.12191550505895192
000060 8b 82 50 cc e2 15 d5 bf e5 9f 02 de d1 8c d5 bf
       -0.3294608111628256 -0.336719958121192
000070 82 3d 97 d1 6c e2 e3 3f 38 ed 0f cc 23 e8 c8 bf
       0.6213897794313399 -0.19458434547400727
000080 e2 22 90 19 8e 3e bb bf f4 27 96 26 ac 13 cd bf
       -0.10642326473329036 -0.22716285595043895
000090 2e 37 b2 89 84 31 d6 bf 91 08 85 c3 28 dc d2 bf
       -0.3467723221482285 -0.29468745321003903
0000a0 64 4e a7 3f 0e d9 c0 bf c5 79 d0 ad 37 9c bf bf
       -0.13162401302416804 -0.12347743981852151
0000b0 e1 20 5f b3 82 a5 74 3f 7a 00 31 5b 81 67 9b bf
       0.0050406556601460826 -0.026762028876192258
0000c0 36 dd 2e 64 75 1f b3 bf 80 44 78 25 38 97 ba bf
       -0.07469876953006324 -0.10386992373266146
0000d0 1d 39 44 2a e9 f4 ce bf 93 30 22 cf 65 fb c1 bf
       -0.2418490845088365 -0.14048454870169688
0000e0 1e 22 6b 9d 94 6b ad bf 20 fd 4c 0e bc 43 de bf
       -0.05746139928448123 -0.47288419148022065
0000f0 01 f8 50 a8 26 27 ad bf f2 d1 f3 69 a0 67 b4 bf
       -0.05693932346956388 -0.07970621668557223
000100 35 e4 7e ca 42 00 97 3f e0 cd 16 59 f5 da b0 3f
       0.02246193276343807 0.06584103989626255
000110 3b 96 1b 34 7d 1e bd 3f 7e 33 71 df 1c 5e cf bf
       0.11374647638475548 -0.24505959425223617
000120 00 5f 0c bb b7 e7 8c bf b5 ea f2 93 1a cd d8 bf
       -0.01411384143425165 -0.38751854370245137
000130 f3 be 18 64 1d 13 c1 bf cd f4 16 5b ef 8e d1 bf
       -0.13339583766491322 -0.2743490590617739
000140 02 76 55 cc 05 5c b2 bf 49 65 86 12 fc fe b5 bf
       -0.07171665419215148 -0.08592200710554211
000150 1c 9c 3d 69 a7 e6 c0 3f ae 8c 88 ba 72 ef c1 bf
       0.13203899992660773 -0.14011987789226538
000160 fc c4 7f 66 fb 09 a5 3f 3c 74 86 1e f4 29 d7 bf
       0.041091781866166216 -0.36193564396836897
000170 58 e9 f3 56 b0 d2 a2 bf 7a 65 b4 c9 22 19 b0 bf
       -0.03676367818293852 -0.0628835432475138
000180 73 54 d5 de 2f 7e d3 bf 90 fd dc 2c df a4 ee bf
       -0.3045768428904189 -0.9576259495005832
000190 98 44 40 18 b2 51 c4 bf 43 c4 bf 3e 32 a6 a6 bf
       -0.15874315437443864 -0.04423672691326221
0001a0 5f 9f 6f 90 d7 d5 c9 bf 41 32 75 33 b6 1f a3 bf
       -0.201838441396144 -0.03735131624361943
0001b0 e3 90 c8 29 2a 53 b0 bf 6d 41 21 04 03 ce e1 bf
       -0.06376899261573814 -0.5563979225790213
0001c0 a2 29 fd 5f 48 c6 af bf fb e3 cb 49 40 54 e5 bf
       -0.06205965205898002 -0.6665345612847199
0001d0 28 63 76 b1 b4 44 a5 bf 8d ff b9 d8 11 8b bb 3f
       -0.04153980890550307 0.10759078541923213
0001e0 d2 b9 77 3a 91 a2 c8 bf 7b a3 60 53 0c b6 db bf
       -0.1924611602293696 -0.4329863371117921
0001f0 53 eb 3d df 4f 1f b5 bf 29 d3 20 94 1d 50 e2 bf
       -0.08250903320542351 -0.5722797291879022
000200 88 39 42 d6 e6 95 a4 3f 83 f8 b4 c8 18 c3 a9 3f
       0.04020615926229981 0.05031659555469139
000210 24 59 89 95 fc 7b cd bf 86 0b 5f 58 39 25 b2 3f
       -0.23034627248370854 0.07088049323560427
000220 de bf 63 f3 a5 f4 bb bf b0 15 38 e6 09 0f c6 bf
       -0.10920178596620597 -0.17233394375959454
000230 61 51 65 e6 95 43 bb 3f 9f 14 01 b9 b5 5f d3 bf
       0.10650002360245515 -0.3027166659051747
000240 6c 48 59 fd 1c c1 b6 bf de 84 ae 54 fa 92 b7 bf
       -0.08888417420647138 -0.09208645408081703
000250 6a 46 44 6b 87 1d 94 bf 68 b0 da 58 5d 52 9b bf
       -0.019643894121207962 -0.02668138365577058
000260 0a 8d f8 3c 32 51 c1 bf 1c 21 5c 9a a9 ab 55 3f
       -0.1352904126843913 0.00132266581334945
000270 40 c1 a5 e8 de 77 de bf 26 1f 36 6f 5c db d6 bf
       -0.4760663291881606 -0.3571387373017266
000280 4b ed bf 3e 9a 20 c5 bf e7 78 bc 72 f8 b7 d0 bf
       -0.16505744995070368 -0.26122866825779884
000290 d9 78 b7 24 e0 48 c1 bf 9c 83 f3 37 91 42 c2 bf
       -0.13503648560339945 -0.14265647155755523
0002a0 3a c5 ba 7d 30 7a cc bf c0 55 4f f1 5c 31 9a bf
       -0.22247892512454276 -0.02557893011893042
0002b0 28 0a 61 f9 4a c4 dc 3f ad c4 37 af 0f 53 c5 bf
       0.44948076585220287 -0.16659732871588542
0002c0 0b 80 03 23 b9 91 ab 3f a7 20 2d 84 f4 8e d1 bf
       0.05384615471280093 -0.2743502894195537
0002d0 18 42 fe 5a 94 1b d0 bf be 3a 48 05 e0 5b cc bf
       -0.2516833199124746 -0.22155380494992544
0002e0 4d 7e 75 c5 ba 94 c6 bf 73 95 ad 29 16 db db bf
       -0.17641386643934923 -0.43524698324320993
0002f0 5b 3e 06 76 a9 d6 a4 bf 3f 38 33 3e 58 90 b3 bf
       -0.040700240762018246 -0.0764212753158242
000300 de 99 69 2c 47 2a c4 bf 70 5f 4f 85 78 52 d6 bf
       -0.15754022282199193 -0.3487836171966512
000310 c7 a6 7e 9a 0b 4b 90 bf b4 d5 7d 75 48 8d c9 bf
       -0.015911275200472 -0.1996241162957354
000320 90 bf 1b b7 ce e3 b9 bf 49 f2 53 57 64 f5 e2 bf
       -0.10113231630725594 -0.5924550729392389
000330 2e 82 79 5d 15 2d 88 bf ab 8e f0 21 60 27 a2 3f
       -0.01180473987113925 0.03545666136076638
000340 4b 12 e6 c6 81 23 cd bf 57 4e 79 17 c5 5f ce bf
       -0.22764608585215948 -0.23729766508278047
000350 b7 f3 f0 cf 9b 7e 8f 3f 5e 6b 6e 21 a7 ca c0 bf
       0.015378205569612875 -0.13118447430027919
000360 5f 4a 2f e8 a4 cb c8 bf ae 66 fc 3d 2d 9a c1 bf
       -0.19371472680230092 -0.13751760031373322
000370 f8 69 05 42 32 59 c6 bf 55 55 b2 e7 fc 8c c0 bf
       -0.1745970556610954 -0.1293026095706106
000380 0a 7a 88 4b 6e 18 ad 3f f4 01 6e 54 8b 23 c4 3f
       0.05682701751742421 0.1573347246412734
000390 df 2e 4d eb ef b0 cc bf 09 35 a7 a1 d5 35 b9 bf
       -0.22414969434100038 -0.09847769924745732
0003a0 02 23 b9 2f e4 d3 a2 3f ed 1d 9b 98 2f 35 d1 bf
       0.03677285273130872 -0.2688712110798111
0003b0 9e bd 5f 7e 15 eb c7 bf 32 68 a5 c5 97 40 e4 bf
       -0.18686169310192907 -0.6328848705554775
0003c0 f1 d1 b8 a5 6a b2 d3 bf bc 60 68 28 7f 46 e2 bf
       -0.3077646845224811 -0.5711055554593467
0003d0 f6 1a 89 d2 98 b1 ce bf 80 6d 16 37 d7 a6 c5 bf
       -0.23979482917840017 -0.16915407361817003
0003e0 dc f6 b9 da b0 9d c9 bf 4b 83 93 6e 9f cc b9 3f
       -0.20012484245301365 0.10077854585280226
0003f0 13 3c 8b b1 f8 d5 bc 3f f2 6a 5c ae be d2 a4 3f
       0.11263994535987391 0.04067035559110889
000400 ab 14 76 f2 7b fd ca bf 01 b0 cc 88 f6 22 7b bf
       -0.21086072291305888 -0.006625140213866843
000410 30 3c 7b 56 f8 cd d1 bf d6 b0 04 df 37 8c d2 bf
       -0.2781964153809353 -0.28980824259884963
000420 e0 3b 24 8a 91 27 9a 3f 12 95 ed 2f 67 8f ce bf
       0.02554156690262832 -0.23875131454693893
000430 b1 e2 34 dc 79 91 aa 3f 63 e7 05 7f 8c bd d5 bf
       0.05189114392346051 -0.3396941414317693
000440 e9 4a 05 76 85 5a ca 3f 06 47 e4 03 6b 33 81 bf
       0.20588749182441937 -0.00839885335566094
000450 b8 13 65 14 ca 58 c2 bf 95 71 0c e2 d5 14 c5 bf
       -0.14333463664857304 -0.16469834840326017
000460 01 37 3c 63 bf 17 cd bf ed 02 91 3e 10 4a c1 bf
       -0.22728721948117683 -0.13507273726465688
000470 92 8f 3d 2f de b0 d1 bf e5 cd 95 32 96 f8 b5 bf
       -0.2764201604206785 -0.08582438216199469
000480 73 0b bf c8 87 4a c1 bf 99 c0 d4 9f 69 02 ad bf
       -0.13508698751510514 -0.05665903163969794
000490 11 23 95 2e 85 1d c3 bf 18 6f 29 03 87 3f c8 bf
       -0.14933838629283305 -0.18943870214831615
0004a0 d3 88 a5 4f 8d 4f d2 bf 49 a8 de d9 44 78 ca bf
       -0.2861054685400976 -0.20679531706020018
0004b0 d1 37 6a 36 eb f3 f2 bf 8e a5 bc fd 88 95 c9 bf
       -1.1845504880507074 -0.19987594975945594
0004c0 16 8c 52 ca 6b 8e 90 bf 13 ac 93 8b f5 50 d1 bf
       -0.01616829321268306 -0.27056635504294596
0004d0 b9 2a 21 8d 58 91 cc bf ad ae ce 04 6d 9d ca bf
       -0.2231856049641772 -0.20792925581678415
0004e0 f8 8d f8 ae a6 ba d1 bf c6 af 13 34 4e 11 da 3f
       -0.2770172795009951 0.4073062428058133
0004f0 51 f5 3b a1 71 cd 92 3f 4d 37 92 b0 3a 83 ce bf
       0.01836183115573437 -0.2383797990955209
000500 15 50 ff 53 91 f1 b8 bf cb 93 42 3d 94 05 8e bf
       -0.09743603039470401 -0.01465907871199503
000510 7c 1f f4 07 98 77 a3 3f 54 ab 30 bd 3e 37 bb bf
       0.038021803828143214 -0.10631172293566965
000520 a5 15 4f ec ed b2 a7 bf c0 70 a1 20 b7 cf dc 3f
       -0.046286997886947824 0.45017793833336484
000530 71 4c b4 51 61 30 d3 bf 0e 74 f6 33 fd 14 b2 bf
       -0.2998278901952239 -0.070632767854889
000540 8d 9e 48 9c 32 43 c3 bf fa c5 fc 3b c0 d2 d3 bf
       -0.15048821097410717 -0.3097382150473035
000550 aa 6f f2 45 91 fe c0 bf b0 a0 90 51 8d 0a c6 bf
       -0.13276878276235254 -0.17219702227271716
000560 18 84 87 55 c9 d6 bf bf 67 67 25 de 85 a9 b5 bf
       -0.12437113130683064 -0.08461796449173918
000570 7d 96 9d 62 f6 e4 b8 bf ab 3f 7b ae b7 0c c4 bf
       -0.09724368960959313 -0.15663810748673987
000580 cb fa 4e 79 6b 4d c4 bf 17 f3 1b e4 95 8e e1 3f
       -0.15861266539828586 0.5486554579980262
000590 ab 2c 6e 22 a7 90 c8 3f a1 5f f7 c0 7c 27 9e 3f
       0.19191445523424497 0.02944750716946454
0005a0 87 46 1c d0 d5 b7 cd bf 70 7d be 96 9b ad d2 bf
       -0.2321727052845299 -0.2918461773023955
0005b0 01 96 f3 bb cb d8 d5 bf 47 01 49 e0 9f a9 c3 3f
       -0.3413571677650396 0.15361402942108723
0005c0 0f f3 79 9d e4 12 c3 bf 52 c6 e0 b0 9e 82 c9 bf
       -0.14901406945491444 -0.19929870258924837
0005d0 b0 c0 fc b9 3f 66 d2 bf 2a f7 60 96 e3 1c d4 bf
       -0.2874907795221686 -0.3142632454436006
0005e0 20 9f c4 92 92 02 bb bf 89 6c 83 36 ac a3 c5 bf
       -0.10550800402836247 -0.16905739461694605
0005f0 89 4a ec 58 ba ad b7 3f 2e ce 06 fe c8 63 b5 bf
       0.09249462767574292 -0.08355385019131553
000600 7c 99 c0 c1 dc 6e cd bf e3 6c 05 1e 95 61 d2 bf
       -0.22994574986041616 -0.28720596248395064
000610 8e 10 51 2c da 95 d0 bf 4d c0 a7 ea 20 79 f7 3f
       -0.25914625480459896 1.4670724073621557
000620 e7 07 01 0f 16 93 d9 bf 3f 97 b7 1c be c4 b6 bf
       -0.39960242715107913 -0.08893955422499021
000630 b0 a3 80 6d f0 7d a4 bf 9f f3 4b 3f 64 4e 97 bf
       -0.040023339621547804 -0.022759977687190177
000640 0c 1b ee 3d 5b be 9a bf 0d a8 f9 56 d0 40 82 3f
       -0.026116777090943663 0.008912685064576232
000650 8f 1a f0 ca 69 72 ca bf 5d 38 21 f4 f2 c0 c7 bf
       -0.20661661538197904 -0.18557583732985253
000660 2f 5a 17 c9 37 42 ce bf b3 c4 ab 94 c4 e7 ca bf
       -0.2363958103075716 -0.2101979947979423
000670 b2 ce 85 db 19 75 e2 bf 26 c9 a7 04 6d 53 c2 bf
       -0.5767945563843198 -0.14317095496478166
000680 34 f6 f1 a2 7a ab c1 bf 59 90 13 10 2d 06 bb bf
       -0.13804562526995456 -0.10556298868647342
000690 f9 d2 17 bc f8 ad c5 bf 83 4d 26 3a 7f ba d0 bf
       -0.16937169250709141 -0.26138287237809993
0006a0 74 c8 23 1e fa ca ca bf 33 a1 2e 6e 72 c1 c2 bf
       -0.20931936713856525 -0.1465285337446943
0006b0 f2 e6 5c 1c 91 66 bd 3f 50 3b 4c 6e 90 b4 b1 bf
       0.11484629576161945 -0.06916144078080078
0006c0 57 31 1a 1b fa 81 94 bf 6e 04 af 2b 89 0a c7 bf
       -0.02002707281512647 -0.18000902779570843
0006d0 34 2a 04 7c 15 56 ce bf 29 8b 25 41 80 6c d4 bf
       -0.23700207286340602 -0.31912237512567515
0006e0 95 c8 96 0f 2f 4a c2 bf 85 76 df ee bc 20 d1 3f
       -0.14288891087705183 0.2676231701605974
0006f0 3b 84 7a c8 d9 0a b5 3f 40 d5 0f d9 dc ba 80 3f
       0.08219681877609812 0.008168912290765662
000700 ef f1 2a a7 01 d0 cb bf 2b 4c 46 30 87 18 d1 bf
       -0.21728535330284113 -0.2671220752174032
000710 12 ed 1f 52 6c c8 99 3f 48 a4 94 b8 0f 5f d1 bf
       0.025178616058821275 -0.2714270880265457
000720 0d 95 a1 44 93 55 a4 bf 1d 4d 28 bd 74 25 c5 3f
       -0.039715387466268216 0.1652055667515037
000730 54 0b 2b e8 ad 5f d4 bf 33 22 fd 26 ad 31 d6 bf
       -0.31833980248136595 -0.34678200538158704
000740 4a 17 85 aa a2 2e b1 bf 3f 7f 99 7a 81 4f cf bf
       -0.06711784995158357 -0.24461382376011362
000750 d5 2c 64 54 5e 5e b2 3f 32 f1 52 7a c5 a8 c8 bf
       0.0717524486573667 -0.19265049431658948
000760 7a 96 04 04 c2 d0 cb bf c2 83 7c bc 72 df d4 bf
       -0.21730828472316316 -0.32613819510339337
000770 84 f7 b6 e6 92 25 d3 bf 03 31 9c 2e 9a 47 d1 bf
       -0.29916832476362054 -0.26999525596399127
000780 e2 b9 67 3e 49 fc b3 bf 9b a6 16 78 b8 1f ca 3f
       -0.07806833051265685 0.2040930353517084
000790 ae 86 ce 8a be 0f da 3f 98 6b d6 1e c4 32 97 3f
       0.40721095614763214 0.0226545947858586
0007a0 0e b9 7b 73 3f f8 c4 bf a0 a9 2c 35 8e 47 c5 bf
       -0.16382592333634033 -0.16624620052728023
0007b0 f9 3c 03 c8 56 4a c3 bf d2 9e 22 13 8c 90 9f bf
       -0.15070614591829903 -0.030824841182634462
0007c0 6a 84 49 4a 5f 56 d0 bf 09 9d 50 5d 6d 77 b8 3f
       -0.25527174238783934 0.09557231453128535
0007d0 84 32 67 7b 72 68 c4 bf bf 61 27 12 db bb af 3f
       -0.15943747544806197 0.06198010059933123
0007e0 55 3e 95 59 c3 15 b9 bf ee 96 76 db 75 e7 b3 bf
       -0.09798832833370714 -0.07775055511464377
0007f0 40 bd 19 6a 44 0e bb bf 16 ad ea 3d 3e 1a b6 bf
       -0.10568645086617767 -0.08633793841970702

lin3.bias f8 [16]
000000 47 da 9a b7 98 11 d5 bf 17 ba ca 0f 1d 94 d5 bf
       -0.32919900827565524 -0.3371651319711488
000010 3f e0 39 48 09 06 99 3f 39 7c 93 5b 3b 6f b6 bf
       0.02443708899815555 -0.08763476358170487
000020 b0 6e 59 37 09 bd c0 bf f1 47 97 ef f9 78 d0 bf
       -0.1307689209232783 -0.25738380811264877
000030 ae e0 52 b6 33 3b c7 bf d6 74 4f 86 e3 75 c7 bf
       -0.18149420168424996 -0.18328517969249586
000040 c5 83 5b dc 76 56 bb bf ef bd cd 10 70 a9 d1 bf
       -0.10678809051343226 -0.27596665993675534
000050 57 6c f7 a6 6b b2 c4 bf c8 69 01 ef f4 7d a3 bf
       -0.1616949620500658 -0.03807034890697342
000060 2d f0 32 11 da 60 b3 bf 8c fb d7 5f 2e 5c cf bf
       -0.07569659156700999 -0.2450006454455117
000070 57 2d 33 26 9a 7b cf bf f0 15 22 f9 ce 6f a0 bf
       -0.24595953812818536 -0.03210303107429613
