LP4-MachineLearning/HW_B_tetris/Strategy/dqn_target_10000.pth (torch, 54623 bytes, 6 tensors)

lin1.weight f8 [64, 20]
000000 1e 00 de 54 eb 30 e3 bf 62 8b 2b 19 f1 ea f3 bf
       -0.5997215898096362 -1.2448588355261667
000010 36 bc 59 4b d4 73 b3 3f 03 54 a5 a0 8c f5 e0 3f
       0.07598616447079184 0.5299742829907931
000020 11 4d e1 ea 82 a9 e4 bf df 85 49 fb 3d bc c6 3f
       -0.6456923091413121 0.17761969346888315
000030 d3 68 34 14 db 50 df 3f bd 0f 2a 0d f2 2f dc bf
       0.4893100449859393 -0.4404263619001048
000040 50 41 7f d3 4f d1 dc 3f 73 af 07 58 77 ba e5 3f
       0.4502753796960137 0.6790119857155176
000050 f7 83 d2 d5 e4 70 ec bf 48 17 55 3e 18 54 e7 3f
       -0.8887809921471889 0.7290154664449142
000060 53 b0 a0 f4 fb db 6b bf 20 85 20 63 41 33 d6 3f
       -0.0034007950789796486 0.34687838249563363
000070 33 0b e4 d1 62 8f c0 3f 52 26 5f 23 9a 96 e9 bf
       0.12937579392026918 -0.7996340456822486
000080 f9 0d f9 0a f4 db c3 3f dd 8f cf 5c 5b d5 e1 3f
       0.1551499417856659 0.5572945416174623
000090 fd f4 8b ca e0 30 cc bf 8f 38 56 b9 da bb ef bf
       -0.22024164094901968 -0.9916814441546807
0000a0 97 bd 97 ee f1 7a de 3f de 29 1f f8 7d 01 c3 3f
       0.47625397014686527 0.14848303428000426
0000b0 68 eb 9a 27 6b bd d4 3f ae 08 44 86 66 20 c5 bf
       0.32406119220438834 -0.16505128436989963
0000c0 89 5c db d2 a2 b0 d5 bf 64 ce a4 a2 5d 43 d6 3f
       -0.3389060076855875 0.34786167987042504
0000d0 44 dd f8 5f 26 0c cb bf d6 17 48 37 04 60 93 3f
       -0.21130828558100678 0.0189209612599582
0000e0 9e 24 3a f8 14 ae f4 3f 49 b0 20 70 7e 1f f7 bf
       1.2925004669544147 -1.4451889400470626
0000f0 53 4d 41 9b fb a7 ec 3f b0 10 71 a9 83 af f4 bf
       0.895505717499342 -1.2928501719298247
000100 40 2f c2 a0 e4 d5 e2 3f eb 15 1f 23 f5 fb cf 3f
       0.5886099948706729 0.2498766347400044
000110 32 43 21 51 a4 d7 e4 bf 5d fb fd 2f d4 74 e5 3f
       -0.6513234695977188 0.6705113351198225
000120 69 59 1e a2 ea 8b d6 bf ea 4e ee 70 5d 1e e6 3f
       -0.3522898276509268 0.6912066655808904
000130 22 d0 f8 c5 11 52 b7 bf 41 12 b6 e5 67 d5 ee bf
       -0.0910960300760171 -0.9635505186602772
000140 84 a5 e2 20 1c ab cb 3f a2 55 b7 93 5d d2 e3 bf
       0.21615935903291128 -0.6194293866234839
000150 23 84 a5 0d 8e 7c e6 bf d0 3b 0a 37 46 22 a4 3f
       -0.7027044550451403 0.03932399198412606
000160 43 a3 a6 4d 31 a2 db 3f 49 fb 20 19 1d 7c dd 3f
       0.4317744501409388 0.4607002969168446
000170 2d 63 e1 ec 7d 25 fb 3f 54 a2 a2 ee 94 78 e2 3f
       1.6966532948628796 0.5772194538922784
000180 a7 4a e6 b4 12 b2 d2 3f a2 d5 a3 64 1e 45 e8 3f
       0.29211871782278326 0.7584373441338139
000190 9e 3b 65 25 60 2a e7 3f 59 63 e9 de 23 03 df 3f
       0.7239227991466242 0.484566657721691
0001a0 24 a8 0b 03 b1 bd d7 bf 2b ef da 3e a4 4e be bf
       -0.3709528474561259 -0.11838747534323761
0001b0 50 eb 1b 37 4b 44 86 3f e7 a3 56 f3 86 8c ae bf
       0.010872447604460739 -0.059665887073897576
0001c0 67 15 22 cb 27 ff b5 bf 65 49 4a a6 23 7c d2 3f
       -0.08592461308770326 0.28882685889506937
0001d0 d4 be 6e 40 82 f6 f5 3f e0 7f 75 3c ef 3e d6 bf
       1.37268281144127 -0.3475912180347205
0001e0 77 ad 4b eb 71 a8 b6 3f 83 5b 26 9d f9 d6 f2 bf
       0.08850776667138925 -1.1774841440835366
0001f0 8c ae 04 cb 1e ab d8 bf a3 73 30 02 83 71 c1 3f
       -0.38544435335163807 0.13627660376451187
000200 d6 c9 a9 52 dc 45 e8 3f fa dc 0d 99 fa 96 e1 bf
       0.7585279097095803 -0.5496800412501266
000210 62 e5 65 17 19 f7 d0 3f c5 c9 5d 87 eb 7e c9 3f
       0.26508166584934234 0.1991857920616679
000220 f5 ad 9c 9d c5 ca a6 3f 13 bc 2f 4f 59 af ad 3f
       0.044515777101278 0.05797843066817889
000230 75 21 61 4e 01 9d b5 bf ad 3b c3 7f 2a 2e 9e bf
       -0.08442695773658733 -0.029472984359752697
000240 e0 d9 90 f7 67 89 dc bf 56 32 9a 0f 26 b2 b9 bf
       -0.44588660408353853 -0.10037458306232713
000250 17 3d ba 68 70 68 ce bf 50 89 ea a0 9b 3e eb bf
       -0.23756222833296967 -0.8513925688642221
000260 d0 ca ae 08 e9 6f f5 3f e0 e3 f0 e3 72 9d c9 3f
       1.3398218478366068 0.20011745576792261
000270 5b d9 4c 0d 32 45 f1 bf 89 09 d8 fa 3a 1b f0 bf
       -1.079393436387895 -1.0066480444516819
000280 f8 01 80 bb aa 1e cf bf 47 f5 7a c9 e4 b1 c7 bf
       -0.243123380234479 -0.18511638486772083
000290 d8 36 bd cb 93 ae 8e 3f bc 78 13 b5 2c 66 be bf
       0.014981417327045873 -0.11874656124880095
0002a0 da 7c b3 1c 34 54 e5 bf 42 c8 ff 5b cb db b9 bf
       -0.6665287552422356 -0.10101004596779808
0002b0 cd 32 5c c3 ab 2c bb bf 9d 8b 93 80 2f 58 ef bf
       -0.1061503745988361 -0.9795148383385485
0002c0 c4 55 1c 40 9d b9 ea 3f 02 64 3f 59 c6 a2 eb 3f
       0.8351579906617919 0.8636199706189702
0002d0 55 11 cd 1b b9 2a e9 bf 55 5b 77 14 fa ec cc 3f
       -0.7864652197827505 0.22598196029022213
0002e0 8b dd b7 a4 15 bc e5 3f 5f a2 92 57 88 bc e1 bf
       0.6792095391419236 -0.5542642317205483
0002f0 5a bf 6b 5d 02 d1 e6 3f 3e 69 e2 52 9a 63 dd 3f
       0.7130138229967813 0.45920427412206155
000300 e8 d7 0f f7 37 7c c3 bf 85 8f eb dc eb f7 ef bf
       -0.1522283512455822 -0.9990138354155397
000310 47 65 1d 44 75 bb d2 bf 95 40 e2 96 dc 87 ce bf
       -0.2926915326293806 -0.23852116935131976
000320 ea 6f 4f 7a ad 8e d2 3f 20 e7 5f 41 9b 46 a0 bf
       0.2899583525120294 -0.03178868458776507
000330 7d dd f6 f2 d8 9f e0 bf 27 94 3f 39 8b d9 be 3f
       -0.5195126290699786 0.12050695560135748
000340 af bd 01 c4 e8 64 e6 3f 4d ed 34 77 ed be d1 bf
       0.6998180225618195 -0.2772782959106806
000350 3d fd c8 94 15 08 dc 3f a1 6b 37 79 b4 bb dd bf
       0.43799342660709667 -0.46458160245463814
000360 27 84 17 f1 84 e2 e5 3f 00 00 20 96 45 61 f5 bf
       0.6839012821984668 -1.336248003412038
000370 a7 2b 56 39 68 b8 d3 bf ba 8b d6 e8 14 43 f6 3f
       -0.30813031768109983 1.3913773627507298
000380 80 bf 43 52 4a 7a da 3f 87 92 12 86 5d 6f e0 3f
       0.4137140086522706 0.5135944002727947
000390 54 75 ce 74 0e 08 e4 bf 52 74 da ae 57 1e b3 3f
       -0.6259834557892341 0.07468173998718555
0003a0 6d c9 72 fc b1 07 8e 3f f0 f6 6a 32 a3 04 ef 3f
       0.014663115040410369 0.9693160996173145
0003b0 30 7d 96 f0 1f e6 d7 3f 5e 25 52 17 4b a5 db bf
       0.3734207009783459 -0.4319637038939471
0003c0 a7 cc 43 43 bf a3 b1 bf b1 40 aa 4a ff dd c3 bf
       -0.06890483276565594 -0.15521231790308357
0003d0 65 66 73 35 c0 d0 d9 3f 2d 80 4b 9d 87 9a d2 3f
       0.40336613864710663 0.2906817470629928
0003e0 63 02 55 81 6d 66 c7 3f 85 9b e8 af 6a 07 e4 3f
       0.18281334700624816 0.6259053645816129
0003f0 fa 3b de 4d 3f 92 cf bf 9e 8b 7f fc dc 08 e4 bf
       -0.24665061285165263 -0.6260819369893971
000400 4d 48 48 f6 50 1e fa 3f 80 4c 18 61 8c 32 f6 bf
       1.6324014301685736 -1.3873409073610503
000410 99 22 5e 7b 3c e4 ea 3f 9f a6 de 19 5c 67 df 3f
       0.8403608712697689 0.49068357969609083
000420 e7 a5 88 bc ea 35 e3 3f 8c c1 6f ac be 9e e8 bf
       0.600331657629053 -0.7693780296231565
000430 27 75 43 ef 55 5d c5 3f 9c 8d 34 a2 80 e9 cb 3f
       0.1669108789709892 0.2180634300249097
000440 dc 59 16 66 6e 91 bd 3f d9 bc 54 e3 f3 7b e3 bf
       0.11550035469404157 -0.60888094330394
000450 11 00 6b 38 42 f1 9b bf 82 93 83 99 f3 68 e0 bf
       -0.027287516301612472 -0.5128114698714941
000460 02 90 f4 d1 c0 0b c6 bf 18 2d 99 98 64 91 be 3f
       -0.17223367931103445 0.11940602040811077
000470 da fe 2f 6b 8e ae e0 3f 12 58 fe 9c cd fd d1 3f
       0.5213081449037091 0.28111591655158563
000480 e1 c9 08 af 4f 2c e6 3f f9 93 bf ff 0b 27 e1 bf
       0.6929090899123446 -0.5360164637646668
000490 c0 f7 e1 a6 f6 f6 cd bf 6f 35 99 d0 52 49 dc bf
       -0.23409922741478617 -0.44197531100220194
0004a0 ec 09 94 8d 2b a8 d5 3f 69 b6 bb ac a0 71 a1 bf
       0.33838929010394625 -0.034070035062410416
0004b0 ad 7f 2c 86 95 f4 df bf 89 0f 02 8d c1 b3 c0 3f
       -0.4993032274523966 0.13048571953924817
0004c0 a8 82 9d 0c 23 f8 e6 bf ff 18 9f 85 24 dc f4 3f
       -0.7177901502983177 1.3037457675541757
0004d0 f1 fe 82 5b 8d d7 fc 3f 8c 00 36 c3 80 1d f1 bf
       1.8026250433612712 -1.0697028756549427
0004e0 f0 f0 22 7d 6c b4 e5 3f 91 40 b6 5a ca 49 a2 bf
       0.67827438774796 -0.03571922643016124
0004f0 d2 31 dd 88 1e ea bc 3f c0 4f 79 dc e6 fb e1 bf
       0.11294737664611113 -0.561999731648477
000500 85 a4 97 73 f6 ea d3 3f be f2 3a 3b 90 44 ae bf
       0.31121598518672783 -0.05911684725785936
000510 65 b5 68 3a aa e6 d1 bf 34 75 3c 2a 1d 80 d7 bf
       -0.27970367149358416 -0.36719445347428636
000520 c4 ef e2 ae 40 2f ea 3f de fd 60 bc 1c 06 eb 3f
       0.8182681480170619 0.844496124198425
000530 dd 2b 85 20 9b 65 d2 bf 4e 61 de ab e2 e0 e0 bf
       -0.28745153594780765 -0.5274518353281026
000540 92 3c d4 f4 c9 ad de 3f 3f 09 dc 09 24 dd db 3f
       0.4793572321804699 0.43537236178248756
000550 32 49 f8 11 15 55 eb bf 8c e4 81 27 84 bb f4 bf
       -0.8541360236143076 -1.2957803290612757
000560 6f c2 08 62 18 77 d0 3f a9 62 0e c8 79 f4 bc bf
       0.25726899694112765 -0.11310540327247999
000570 5c 32 cf ae 54 82 f0 bf 36 23 b4 f9 1f f3 f0 bf
       -1.031819041108199 -1.0593566659974392
000580 d6 52 dc af 9a 0e d7 3f fc c8 1d 3f e3 76 d2 bf
       0.3602663724316647 -0.2885063282366358
000590 5b 9d f3 30 4f 89 e3 3f 4b f1 07 9f b8 3a d3 bf
       0.6105113941274952 -0.3004590561902389
0005a0 38 0b 99 24 99 95 c3 bf fb f0 9e ff ee 3e bd 3f
       -0.1530028752041177 0.11424154034370197
0005b0 cd b7 f0 ba cb 88 f3 bf 56 b1 dc 5b 4d 5b ef 3f
       -1.2208974172931335 0.9798952860051411
0005c0 cb 6d fc fc 69 ac a7 bf a0 c7 71 15 5a 56 e8 3f
       -0.04623728955467817 0.7605410021626433
0005d0 a1 51 af 77 6d 55 db bf 86 52 6c 72 4f fb 39 bf
       -0.42708908737156476 -0.000396448990089206
0005e0 df a0 20 7c 45 2f bb bf b1 89 0d 07 31 71 c4 bf
       -0.10619005470710217 -0.15970433086756722
0005f0 3b 97 03 bb 64 77 e3 3f 02 c4 d5 bf d5 06 ed bf
       0.6083243992440893 -0.9070843455102706
000600 39 7a 3d e4 77 71 c4 bf f0 6c cb ba 67 f4 b4 3f
       -0.15971277851618185 0.08185432730117603
000610 d8 75 75 49 df 5b bf 3f e5 d8 12 f2 25 96 b4 3f
       0.12249560874393894 0.08041608009338892
000620 9d 40 b7 ee 12 44 b7 bf 81 25 f4 30 82 32 a9 3f
       -0.09088247612021623 0.04921347472743332
000630 ab e4 2f 67 a8 68 d0 3f 90 75 e1 e6 c8 1b e8 bf
       0.2563878066717488 -0.7533916959179567
000640 72 13 c9 f0 dc d9 cd 3f d8 b1 e1 ff a4 c4 9f 3f
       0.23321115262129016 0.031023576848768858
000650 f6 e2 7c fc 58 7c db bf 03 ed 51 86 04 be ce 3f
       -0.4294645753575844 0.2401738792285429
000660 e4 9f 00 b0 75 fa de bf 3a 86 dc 39 9c 75 db bf
       -0.4840368479513002 -0.4290533604672394
000670 11 48 7e 1e c6 13 ee 3f b1 5b 0a b7 5f 94 dc 3f
       0.9399138064929976 0.4465560233597286
000680 93 6d f5 a9 c0 56 98 bf b7 32 b2 c4 2f 2a cc 3f
       -0.023768434880691535 0.22003743271161166
000690 14 af 24 e7 01 49 e2 3f 22 f9 ef 5d 16 12 d8 3f
       0.5714120401875982 0.376103965507257
0006a0 48 58 7d 86 07 0b f0 bf d5 38 6e 37 55 e8 ee bf
       -1.0026927236081224 -0.9658609469059011
0006b0 6f fe 8c 15 ed aa ca bf d1 8f fe 2b 6e 08 c8 bf
       -0.20834125091822694 -0.18775727413333113
0006c0 39 e2 65 0e 87 17 bb bf 37 7c 96 50 b7 92 c5 3f
       -0.10582775212777386 0.1685399192328718
0006d0 e4 a1 c7 e7 57 15 b3 3f 16 80 11 78 e1 c7 ef bf
       0.07454442413985124 -0.9931495041928453
0006e0 b0 5d 05 02 5b a6 bb 3f fe 30 e4 76 24 ea d7 bf
       0.10800713347759117 -0.37366592035756685
0006f0 6e 61 0c 0d 6b 0f e4 3f a5 ec 5d 82 30 65 d1 3f
       0.6268821005678953 0.2718011162866765
000700 c4 3d 62 ed 3f 9a c1 3f c6 21 d1 50 55 45 d7 3f
       0.13751982775691662 0.3636067666270971
000710 3c b7 20 17 e5 81 f4 3f 7f c6 df e0 7f 5a e3 3f
       1.2817126182012109 0.6047973053047854
000720 53 5f f2 9c 62 9c e2 3f 43 5a d1 59 ef 56 c5 3f
       0.5815899911276382 0.16671554456361734
000730 65 8c 80 39 5b c3 d4 3f 7c 63 7a f0 62 12 a1 3f
       0.3244236051124914 0.03334340272448963
000740 db 70 73 e3 2d ab d2 bf 46 e4 dd a2 eb 8c b4 3f
       -0.29169795238500534 0.08027527548064581
000750 10 a5 d8 58 fb 7e e0 bf 1e 35 79 46 a3 f2 ce 3f
       -0.5155007109907803 0.24177971783721203
000760 46 2a 9b b4 bd d0 e9 bf 33 83 ed 15 6a 86 e5 bf
       -0.8067310836280022 -0.6726580074574485
000770 5a 84 8c 3a 4c 86 e7 3f da 1c 41 e7 90 e0 f1 3f
       0.7351437705548378 1.117325690591136
000780 19 f5 32 6f 38 22 d5 bf cb a4 ed bd 3e 29 de bf
       -0.33021365031511746 -0.4712674002426637
000790 2e 68 83 be 29 7e e1 3f 26 19 8a 18 8f d7 fd bf
       0.5466507645571761 -1.865126701218807
0007a0 ec 61 f5 a9 d0 33 db bf eb 56 4d cf 8e 3b d5 3f
       -0.4250375423194146 0.3317601227221149
0007b0 7e 64 11 d5 07 45 f0 bf a6 63 e6 25 54 5b e1 3f
       -1.0168531725851433 0.542398523352962
0007c0 c0 60 27 01 37 1d c1 3f 9d 29 a9 63 0a 72 bb 3f
       0.13370406681383962 0.10720887120365892
0007d0 42 0e 92 5b af b2 e0 3f d2 5b 32 ca 8a 40 c4 bf
       0.5218121326910892 -0.15821967003713994
0007e0 bc b1 f7 bc b4 46 9c 3f ca 84 a7 b5 08 dc b3 bf
       0.027613472016968052 -0.07757620272561208
0007f0 d6 7f 0f 9d 89 dc d9 3f c7 15 3e 25 37 f9 c4 bf
       0.40408554399436747 -0.16385545080645

lin1.bias f8 [64]
000000 9a ca 62 24 11 88 cc 3f d7 f4 57 0b fe a8 c0 3f
       0.22290243412642924 0.13015723756681183
000010 6b 1a 36 0f 33 52 c6 bf 03 6d 90 0c 93 be 53 bf
       -0.17438352816334954 -0.0012051044489059255
000020 7e e2 5c 62 e4 72 eb 3f 4d e5 7e 39 14 16 da bf
       0.8577749177121203 -0.4075975953561127
000030 b6 2b 4f 1b 9f 92 e1 3f d9 31 d1 74 88 a1 d1 bf
       0.5491481336006163 -0.2754841938774724
000040 4c 21 1a 88 96 a0 a3 3f 1c 48 45 a0 95 f5 e5 3f
       0.0383345643177245 0.6862285738263867
000050 ed a6 9d fb 95 ca d1 3f 4c 72 65 1d de 6a 9f 3f
       0.2779898602662872 0.030681105179029708
000060 94 05 69 f2 3e 7b da 3f fa f8 4f 95 9c d1 c1 bf
       0.4137723319327844 -0.13920934000629598
000070 03 c3 5d 4d 6b 0f c0 3f d5 e5 54 ff 5e 80 ab bf
       0.1254705550923277 -0.05371376864281855
000080 ea c2 20 3e ea 5d df bf 7b f9 39 43 8c 06 dc bf
       -0.4901071173399446 -0.43789965214809684
000090 6b f7 81 58 85 80 e4 bf ea da ff 34 cb e3 be 3f
       -0.6406885842004447 0.12066335719996926
0000a0 cb c9 67 bb d1 af a6 3f 4e 9e 63 69 65 6d c7 bf
       0.04431014454521039 -0.18302600522950957
0000b0 9f 9c 6a 03 e3 1d d6 3f f3 d9 be 32 7a e7 e4 3f
       0.34557414373052525 0.6532565108416847
0000c0 3a 21 fc 7e cb 87 b5 bf 08 04 41 39 24 a7 cb 3f
       -0.08410331583229871 0.21603825374225516
0000d0 e3 d5 61 45 82 4c d8 bf 3d 67 10 4d 58 ca ca bf
       -0.3796697309074643 -0.20930007708448697
0000e0 73 1d f0 0d f4 80 cd 3f ca a0 14 6c 01 16 cf bf
       0.23049784355701383 -0.24285905625698084
0000f0 b7 08 06 90 17 61 d4 3f f2 93 8d 73 d4 1f c4 3f
       0.3184260279159718 0.15722137109983653
000100 af 01 8b fd cf df 88 3f 95 12 fb 5c f9 f0 c0 3f
       0.012145638394373074 0.13235394516063495
000110 77 89 b0 ee aa 2d c0 bf 2d 88 f8 8f df 64 d3 3f
       -0.1263936677433539 0.30303181705142174
000120 59 20 6d 55 cf e5 d2 3f 14 a1 70 70 43 3b d7 3f
       0.29527648298654224 0.36299215298142085
000130 72 a3 66 9d f8 f0 d0 bf 72 4e 28 e8 03 9c b6 bf
       -0.26470771189865794 -0.08831810396105214
000140 8d 91 6f e0 6a ca d0 3f 5f a3 96 ba 52 59 c4 3f
       0.26235458295402553 0.15897592650187684
000150 f1 90 95 e6 0a 55 ee 3f 95 e0 20 ac 39 60 e5 3f
       0.9478811744307035 0.6679962503321969
000160 ab 34 6a 3b f1 a7 c3 3f 2f 4e 7e 81 a3 d8 cb 3f
       0.1535626926528598 0.21754878828925103
000170 84 a3 e4 2d b8 af d9 bf 44 65 c1 0c 58 d1 de 3f
       -0.4013500641036034 0.4815273403706508
000180 c8 be 88 f9 c4 d6 e0 3f d1 f4 c4 f3 f9 55 da 3f
       0.5262169717516025 0.4114975815353548
000190 86 3c ee 4a 96 a3 a8 3f 7c 0a f7 b8 c2 64 d7 3f
       0.0481230703800231 0.3655249410914292
0001a0 ae b3 a0 c8 ff fd b9 3f 9a 11 5c 81 d5 b8 af 3f
       0.10153196952951646 0.06195704654786312
0001b0 27 b8 13 37 3d c9 bf bf 8c fc 65 11 dd 02 c9 bf
       -0.12416441530851384 -0.195399888510995
0001c0 c3 72 f7 16 c3 bf c9 bf 14 0c 17 9d 91 64 d3 3f
       -0.20116461392799154 0.3030132326204591
0001d0 e0 17 82 c2 c4 61 db bf 82 db bc 50 65 0c b4 3f
       -0.4278423213476099 0.07831414433608866
0001e0 07 ae 14 6c 8d 54 c6 bf d5 dc 2e 94 2d 7a d3 bf
       -0.17445533540136202 -0.30433215590478585
0001f0 88 fb 46 25 dc 91 d0 3f 5b 74 25 fd 62 5a c0 3f
       0.2589025844608206 0.12775838242206103

lin2.weight f8 [64, 64]
000000 76 c5 43 7d 45 3a e6 bf 8b 7a 5e e5 77 3d c0 bf
       -0.694613213212661 -0.12687586497937206
000010 14 7f 4a 28 82 90 cb 3f af 6c 77 d9 23 0d af 3f
       0.21534754721960125 0.06064712552662265
000020 28 9c 83 9a 47 cb d6 bf 02 75 f9 4b 65 42 c2 3f
       -0.35615720834033704 0.14265123567285093
000030 74 db 50 39 68 ff e6 3f 4d 4c e2 02 9b 47 c4 3f
       0.7186776275110405 0.1584352268297117
000040 a5 d5 b5 95 18 8a a9 bf 78 79 64 93 a1 bc c7 bf
       -0.049881714129621536 -0.18544406601808894
000050 90 05 15 c7 87 95 e2 bf 7c ae 10 ae 28 a9 6d bf
       -0.5807532203981953 -0.0036207003145330412
000060 93 18 3b e8 cb c6 d1 3f d3 38 bb ac 2a 7c f1 bf
       0.2777585761908849 -1.0928141352956586
000070 d8 0d b4 c3 37 3c cc bf 64 b6 64 0e b6 e8 cf 3f
       -0.22058770232989278 0.24928928091815117
000080 9a 8d 4f 50 06 d9 e5 3f 68 92 75 9f 50 a1 bf bf
       0.6827422684258864 -0.12355522053764789
000090 82 b9 45 1e f0 92 e7 bf fa e0 79 73 3a 3b e4 3f
       -0.7366867629296368 0.632230020083653
0000a0 59 33 19 93 e9 b8 ec bf 53 4a cf 7a 07 cf c2 3f
       -0.8975723145500566 0.14694303032463782
0000b0 96 8a 90 b3 18 df cb 3f 59 d3 64 c3 b4 02 d3 3f
       0.21774586456111383 0.29704016763144164
0000c0 76 31 f1 0e 94 58 cb 3f 32 67 0c bb d0 d2 de bf
       0.21364069680783943 -0.4816171480793968
0000d0 52 7d d5 21 97 3f bc bf 30 21 40 92 3a 78 b2 3f
       -0.11034531188987742 0.07214704580849651
0000e0 00 33 1f db 98 11 d0 bf 16 31 fa 4a c5 dd e9 3f
       -0.2510740413534194 0.8083216156387916
0000f0 9c 94 d1 9f 30 ec ec bf 96 39 b1 6f 2c b4 f0 3f
       -0.9038317796190714 1.0439876902561074
000100 a0 c3 fc ae 09 af cf bf 72 26 e0 64 b2 c7 f0 3f
       -0.24752923054032028 1.0487541141941645
000110 cb 70 cf 55 e2 f0 d4 3f 11 63 64 9a fd 3c b0 bf
       0.3272024000159603 -0.06343064326609872
000120 a1 0a 24 1a ac ae dc bf c1 4f d9 79 09 11 e0 3f
       -0.4481611495286107 0.5020797138081364
000130 f6 82 be 68 3d 9e e1 bf bd f9 4c 06 f9 04 d1 3f
       -0.5505663915429 0.2659285127191671
000140 ed fc 2b 67 36 81 c5 bf 7d cf 5c d2 4e 79 bb bf
       -0.16800575292288703 -0.1073197616177008
000150 49 19 42 cb 4f 93 d1 3f 13 27 53 10 cf fb e1 3f
       0.2746161923354476 0.5619883841365855
000160 de 77 d4 60 e8 ab d0 bf dc 47 fa c2 e7 d3 e5 3f
       -0.26049241500902365 0.6821173484952356
000170 b8 d2 30 a9 d7 ae ed 3f 3c d2 e4 5c de 26 f4 bf
       0.9275930695062788 -1.2594894055047368
000180 1a 77 9e 03 b8 8d ec bf 24 df c0 5d d4 4b e6 bf
       -0.8922996588405312 -0.6967565375443638
000190 82 f0 5e 78 a3 cf ec bf 67 90 9a 1c e0 d2 d1 bf
       -0.9003465033524807 -0.27849581521355166
0001a0 22 f2 9a a2 a9 f6 d1 bf d5 f2 ef e1 95 e4 68 bf
       -0.2806800926153149 -0.0030386855501077594
0001b0 ee 07 4c e2 22 bd f5 3f c1 84 e5 d8 2e 1b e4 3f
       1.3586758460737616 0.628318236948097
0001c0 ae e0 18 cc 4e 43 e1 3f aa cb b8 d7 1c c7 c7 3f
       0.539466284396459 0.18576393636030036
0001d0 0e 4c a6 31 8e e5 e2 3f 46 01 4f a5 8b bf d1 bf
       0.5905219049185477 -0.27731600898188835
0001e0 70 fa e2 cd 41 be e1 bf c5 83 8e 51 3d 61 c9 3f
       -0.5544747372840231 0.19828001482258464
0001f0 47 01 ec 6f c3 bb d1 3f 50 d3 94 53 2c bc f3 3f
       0.27708517007706174 1.2334407105347118
000200 84 63 f8 d5 4a 23 af bf d5 bb 2d 65 75 5c a5 bf
       -0.06081613408986811 -0.04172102794733915
000210 99 ff eb 42 72 24 e2 3f 64 d6 cf 59 35 1d f4 3f
       0.5669490153377296 1.2571309574390392
000220 6f 56 74 bd 3f 28 d1 bf b0 95 f5 6e e4 32 dd 3f
       -0.26808160306368384 0.45623122058745036
000230 58 68 5c e4 11 f7 d5 bf 33 e3 20 21 21 d0 da 3f
       -0.3432049493873186 0.41895321116639933
000240 21 2b 1e 57 76 02 db bf 6f 3d 67 5c c6 e0 e9 3f
       -0.42202528483965024 0.8086883358718476
000250 a9 e7 97 d1 94 ab e7 3f f4 52 42 77 05 99 f4 bf
       0.739694985735004 -1.2873587282712693
000260 f1 98 3b b4 56 cb 84 bf cf e5 53 ab 41 98 b7 bf
       -0.010153462767857198 -0.09216700012975497
000270 55 70 5b 0f ba 45 ec bf 35 50 3e a5 ce 77 db bf
       -0.8835115718789078 -0.42918745171596423
000280 f3 ed 41 b4 af 6c f6 3f 67 f3 a9 3d 98 ea 89 bf
       1.4015347520170252 -0.012654485112983683
000290 9d 25 c5 29 50 34 e1 bf e0 f2 a2 96 0e d2 9a 3f
       -0.53763588102554 0.026191928810237353
0002a0 12 3c 94 c8 76 c9 e4 bf 16 45 7b eb 17 52 ed bf
       -0.6495927732047468 -0.9162711714981551
0002b0 a3 52 5d 30 a1 d7 dd bf 76 54 9e 62 ca 18 f3 3f
       -0.4662859890279753 1.193552384594367
0002c0 d1 46 2d c6 1f b3 b7 bf 50 5a 61 60 c7 c1 e7 3f
       -0.09257696712782183 0.7424046404292515
0002d0 8a 3b 0e ab 3d e3 c3 3f 0f bf 27 09 db 3b f3 bf
       0.15537234165500663 -1.2021131856562908
0002e0 4a 19 b9 93 47 f9 b8 bf 89 ea b4 2b 0a 8b e9 3f
       -0.09755370480079253 0.7982226232191617
0002f0 d4 4a 51 b3 91 26 ba 3f 87 4d 58 57 2c d5 b5 bf
       0.10215101840848756 -0.08528401501125958
000300 2d 09 f3 22 43 4c e2 3f 3a ba 2f b2 0f d8 f9 3f
       0.5718093569378532 1.615249343910945
000310 0d 8c 22 13 e4 3b f2 bf ec e1 b8 2d c0 f9 87 bf
       -1.1396218059023824 -0.011706830401736
000320 5c bb 23 8f 8d e6 f2 3f eb 44 d2 b6 a1 72 c5 3f
       1.1812873450650931 0.16756078173469943
000330 43 03 75 84 41 33 cb 3f a2 77 0d 12 b9 8f c6 bf
       0.21250170676833066 -0.17626107579684197
000340 9c d0 62 1e 58 55 c8 3f 01 61 a3 8d 87 61 de 3f
       0.1901044987076873 0.4747027285752808
000350 cb 5d 43 be 33 b9 c5 bf 3c 7f 60 1e 41 d7 f8 3f
       -0.1697144202250754 1.5525523363684917
000360 71 ba 5c 8d ab 53 e4 bf c1 af d1 7d 9d f5 ca 3f
       -0.6352136383992059 0.21062058108816298
000370 49 77 3b 0d 6e 1c ca bf 26 d5 d3 2f 82 9f d7 bf
       -0.20399261137111527 -0.36911062880183676
000380 0d 8c 27 3e 65 43 ce 3f 02 86 a2 b7 67 11 dd bf
       0.23643174681555515 -0.45418732579318555
000390 4c 6c 33 d7 78 75 c0 bf 64 f3 44 64 10 c5 c8 bf
       -0.12858496196608582 -0.19351391693080722
0003a0 e4 3a fa e6 6b 8a f4 bf 52 3c 00 ce 31 1d dc 3f
       -1.2837943098599505 0.43928189389493355
0003b0 16 bd a5 3f 7c 8a cd 3f b1 82 3a 0b 1c 4f ba 3f
       0.23078873737129219 0.10276961588034329
0003c0 8e 74 2f 2e f8 61 fe 3f 0f 96 0a ce a3 71 d3 bf
       1.8989183239093879 -0.3038110267756062
0003d0 91 79 67 e2 d8 ae df 3f ae ff 2c 1a b0 db f1 3f
       0.4950468264559272 1.1161347410670532
0003e0 92 09 a0 8f f6 a2 ef bf 4e 5e ed ea f3 82 e0 3f
       -0.9886429600885995 0.5159854496404905
0003f0 9d db 2e eb e5 6e f5 3f c3 40 ec d4 6b f9 e5 3f
       1.3395747362935488 0.686696925988166
000400 22 31 c3 73 32 7a e4 3f ab b0 5d e6 ba 63 e0 3f
       0.6399166356073105 0.5121740817389954
000410 d2 b2 2a e7 4e 34 c0 3f 88 ca ea 09 7a e5 ca 3f
       0.12659632003251048 0.21012807354198437
000420 29 ee 1b 2d d9 76 ab bf 51 de d1 c1 a4 78 c9 3f
       -0.05364111591003635 0.19899424995286322
000430 6a d3 94 e8 73 e2 b7 3f 3a ea 8b 65 ec 3a f5 3f
       0.09329914501433981 1.3268856016790225
000440 5d 1d 61 79 05 b4 cf 3f f6 ab 1f f6 dc 24 c3 bf
       0.24768131663061413 -0.14956247346648838
000450 95 b9 b5 fe b8 5e 93 bf cc 40 48 1f d9 16 d0 3f
       -0.018916025682693755 0.25139453940302015
000460 91 e9 bb a8 23 56 e7 3f cf 6e 26 2a b8 d0 f0 bf
       0.7292650504671646 -1.0509568830956828
000470 9f 0a af 45 76 69 ea 3f db ca 20 64 6c 46 90 3f
       0.8253737793932777 0.015893643962224906
000480 9e 89 50 86 68 e6 e9 3f c4 3f 5d e3 81 81 d3 3f
       0.809376013119891 0.30477950290241673
000490 85 95 0d 95 38 5a aa 3f bc 8f 57 9b e0 2b e2 3f
       0.05146958178992648 0.5678561243080291
0004a0 e8 cc 5b b0 09 af d6 3f 3f 1a 43 f6 ef 7a e3 3f
       0.354433462357703 0.6087570009047524
0004b0 71 b8 c4 ff f9 42 ee 3f 63 9b c6 46 7c 95 df 3f
       0.9456758494832355 0.4934988681001668
0004c0 b7 e2 88 cd 81 77 f6 3f eb 41 22 f1 d6 22 e6 bf
       1.4041765240382753 -0.6917528829235925
0004d0 2b 0e d6 29 cb bf cb bf 60 ed d9 1c a2 2f de 3f
       -0.216790576389131 0.47165730302341125
0004e0 e1 e7 73 95 16 b5 c0 bf a2 2c bb 0f a9 38 d5 bf
       -0.1305263738393583 -0.3315832761406431
0004f0 60 0c c1 11 3a 76 c5 bf 31 08 62 8d 1b 51 e5 3f
       -0.16767049662493871 0.6661508332620142
000500 ee ae 88 19 96 fa e4 3f 3c 70 b6 90 e4 68 ed 3f
       0.6555891512593612 0.919054300920386
000510 92 43 01 59 7d c8 e3 3f 44 d7 ca 99 82 47 cd bf
       0.6182238329293901 -0.22874481686965897
000520 8a 7a f2 91 cd df d1 3f 3d 35 c5 cc cb 53 de 3f
       0.2792848515763714 0.4738645076475512
000530 cf 41 1a 45 13 0f 9c 3f 3c 82 ed 9d 3f 5f f7 3f
       0.027401257603345826 1.4607540291837173
000540 0f 5f 71 ee 79 b2 91 bf 41 0b 3f 0c 93 29 e4 bf
       -0.017282395532986657 -0.6300750006852028
000550 0f f0 70 36 8d e9 75 bf 6a f8 7c f9 17 bf 79 3f
       -0.005349685298877928 0.006285756731641093
000560 72 ae 9c 60 05 ee b6 3f 4c c9 20 41 97 73 d5 3f
       0.0895694123143416 0.3351801048294376
000570 bf 2f 5e 00 40 66 b2 bf 88 27 6c 03 df 6c d7 bf
       -0.07187271126730276 -0.36601996740557086
000580 86 25 5a 3c 83 1f 91 3f 07 de 4b 24 8a 24 d1 bf
       0.016721773680307382 -0.2678552011925323
000590 ce ae ee 8a f7 0e e9 bf 70 f0 07 0b 2b bf df bf
       -0.7830770219347529 -0.49604297711608236
0005a0 2f e2 f9 9e cf f1 d7 3f 88 48 a4 db 1a 2a e0 3f
       0.3741339733601618 0.5051397600057195
0005b0 f0 ed 73 09 ca 00 d8 bf cc 96 9b 99 ed e3 e5 3f
       -0.37504816935663055 0.6840732574607613
0005c0 f6 db b6 73 c1 be b7 bf 4a 6c db be 98 10 c2 3f
       -0.09275445056015016 0.14113148993678443
0005d0 cc ad 50 1e d0 2d c9 bf 13 e8 d1 3c 48 1a b1 3f
       -0.19671060066444424 0.06680728421079633
0005e0 86 0b 1e 3e 63 af e0 3f 0e 96 12 ba 97 32 d1 bf
       0.5214096272687676 -0.26871293231155924
0005f0 75 91 6d 63 1f 4e d9 bf 75 aa 42 b3 e5 3c e0 3f
       -0.3953932257629938 0.5074337483577681
000600 e1 e3 fd 38 22 fe b7 3f 93 b2 a1 fe f9 fe d1 3f
       0.09372152224922516 0.2811875330578825
000610 c0 a0 48 58 e7 ac d9 bf be 89 af 52 da 9a b2 bf
       -0.4011782037873779 -0.07267536657994975
000620 f8 db de ef 30 eb de 3f 03 50 d1 c1 d8 1d e5 3f
       0.48310492920739945 0.6598933969021349
000630 48 96 51 a2 8b af dc bf 3f 92 e9 21 d9 f7 f3 3f
       -0.4482144436973141 1.2480098080351494
000640 2e fd 63 3b 50 45 d0 bf 3a a1 51 e6 fc 17 e2 3f
       -0.25423055457936783 0.5654282091536864
000650 59 1d bf 7b d5 0a d9 bf c6 ba 48 57 3d fa d1 3f
       -0.3912862499677963 0.28089841388547787
000660 c7 55 b2 da 22 9e de 3f 61 6d 6a 65 c3 57 fd bf
       0.4784018645962899 -1.8339265786697398
000670 c1 6f e1 a6 a8 d4 d5 3f 37 b0 d3 42 95 1d ef bf
       0.3411046628659698 -0.9723612122738875
000680 5a 3d c5 34 5c 23 e6 3f 7c 02 57 66 12 7a ef 3f
       0.6918164282487098 0.9836513518167318
000690 52 43 e2 ab 41 e4 b4 3f 03 f2 51 d7 a2 a6 e4 bf
       0.08160791822798544 -0.6453413205595669
0006a0 4c e1 f8 e5 76 2d f9 3f 3d 03 11 65 06 47 de bf
       1.573599718407496 -0.4730850207306963
0006b0 df ca 93 a8 3c 07 e3 3f 4d 25 be a0 68 78 d4 bf
       0.594633416416709 -0.31984916398558455
0006c0 98 85 b6 b1 85 3c eb bf 03 de f2 7b 53 ee d6 3f
       -0.8511379691082537 0.35829627136578795
0006d0 a2 97 39 be 28 17 ea bf 8b c6 d5 a9 27 dd df bf
       -0.8153270449954457 -0.497873226027061
0006e0 37 84 30 62 4b d3 d5 bf e2 7f 2a ef a4 25 e9 3f
       -0.3410213908082968 0.7858452483378608
0006f0 13 f8 ae 75 d0 ea ef bf 74 29 eb a1 ed a6 d3 3f
       -0.997413854456456 0.3070634919391957
000700 1e c0 05 46 09 07 dc bf d6 57 4b 0e 7e 82 d1 bf
       -0.4379294570744622 -0.2735896243660795
000710 71 a2 ff 23 20 4c f6 3f cf 8a dc a9 50 15 e7 bf
       1.3935853391832576 -0.7213519399268423
000720 8f 1d a7 c6 2d d9 cb bf 56 2a 80 c5 c3 88 e6 3f
       -0.21756527137607093 0.7041949136194698
000730 ed 91 f6 2c 3a 56 f3 3f 00 a8 27 16 d8 0a ec 3f
       1.2085515743611908 0.8763237412179024
000740 f5 ff c3 35 b3 da e6 bf cb bf fe b9 93 18 f0 bf
       -0.7141967821225977 -1.0060002580103056
000750 d3 59 f0 61 69 63 d3 3f af 5d 43 b7 5b 38 dc 3f
       0.3029426056322368 0.4409398355178053
000760 c4 97 f6 1e 99 91 f9 3f 7c 3a 2d 96 a0 23 f7 3f
       1.5980464181425171 1.4461980692173304
000770 16 17 50 1d 46 1a e5 bf 8c 67 e6 0f a3 3d d0 bf
       -0.6594572613255163 -0.2537620215676888
000780 00 f2 02 bc e3 87 f7 3f 7c 70 ab 14 12 2c d8 bf
       1.4706761688422603 -0.3776898576595682
000790 de ab fb f3 b2 84 da 3f 2b 0f 48 99 6e 3f e2 bf
       0.41434930635904077 -0.5702431672839102
0007a0 7b 06 74 0b 66 06 f5 3f ed e5 ca e8 9f aa c5 3f
       1.3140621611968573 0.1692695509607768
0007b0 fc 1b b6 7c 47 74 db 3f ec 75 69 99 37 8f e1 bf
       0.4289721219906253 -0.5487325664832361
0007c0 13 66 8a 8f 0a 41 fc 3f a4 64 a0 ab 4f e8 c7 3f
       1.7658792120986433 0.18677707557870804
0007d0 71 f5 1e cf a2 5e fe 3f e4 de bc 56 19 1e f1 3f
       1.8981044855748588 1.0698483837313058
0007e0 96 26 c4 c0 9b 32 d6 3f 41 d5 4e c2 1f 95 90 3f
       0.34683889221978725 0.016193863138785906
0007f0 4e db 6d a5 da 6a d8 3f 79 fb e8 08 8a cc e6 bf
       0.38152185588062515 -0.7124681638741627

lin2.bias f8 [64]
000000 40 c8 4d 06 f9 17 99 3f 7c 79 84 cb 46 3d da 3f
       0.02450551129317824 0.40999002337220936
000010 55 09 f5 d2 b1 ba bb bf b6 17 a7 c6 39 f3 a0 bf
       -0.10831748390504477 -0.0331056647296885
000020 77 02 c8 89 f3 09 ca bf 40 88 45 be d3 3f c0 bf
       -0.2034286902198976 -0.1269478491840932
000030 7d 18 89 d8 9f 1d cf 3f 00 1d f1 e2 4e 13 d5 bf
       0.24309156487487718 -0.3293034759739868
000040 4d 55 34 48 6a 42 d5 bf 1c a2 21 47 52 4d d9 3f
       -0.33217865992749723 0.39534432360099614
000050 1b c5 ed 3b b8 f7 a3 3f 15 ee 36 1d 56 f4 d7 bf
       0.038999326053167326 -0.3742881093309916
000060 26 22 87 04 ab e6 b2 bf 7c 90 c3 c7 0f c1 cb bf
       -0.07383221493285727 -0.216829273739794
000070 9a 31 60 b4 09 82 7a 3f 02 02 51 f3 ed d6 c2 3f
       0.006471670063558222 0.14718412762341876
000080 46 ea 19 8b b7 92 db bf b3 67 ce e9 1f c1 a9 bf
       -0.43082989296059215 -0.050301549235157415
000090 53 1d 81 bf bf 09 c2 bf e5 02 f6 f8 3b 87 c0 bf
       -0.14092251635359307 -0.1291270223264497
0000a0 65 fc da 2a cc 47 ac 3f 4f 47 e4 b5 36 b2 c4 3f
       0.05523527167451262 0.161688650907815
0000b0 b8 d0 fa f3 28 d9 b2 3f b1 67 18 68 c9 16 ce bf
       0.07362609821831512 -0.2350703962591161
0000c0 84 fa d1 77 1b 13 c0 bf c1 a4 f9 8d 3c be d1 bf
       -0.12558310843083487 -0.27723611702692713
0000d0 60 73 0a c3 a8 98 d1 bf 1b c4 52 a7 69 96 d0 bf
       -0.2749425797172105 -0.2591804632202767
0000e0 98 28 49 c5 2e 38 c5 bf 72 9d 1e c5 53 5d cb 3f
       -0.1657770598706676 0.2137856209276197
0000f0 2a 2b 76 af e8 a3 b6 bf 86 5e 0e 7f a4 21 bc bf
       -0.08843855174761175 -0.10988834478336615
000100 aa 32 cf 6c c7 b1 c1 3f 62 1a 82 b9 bc d2 db 3f
       0.13823788464505543 0.43473737827335956
000110 87 c4 eb 45 ca 1d b4 3f 5f 8d ea f4 2a 0d c4 bf
       0.078579561300801 -0.15665184935378826
000120 a2 3d ef 20 9e 10 e7 bf f2 ab 3c f1 94 bd d3 3f
       -0.7207785266163464 0.30844615515041973
000130 0a 72 61 75 a3 dd d7 bf bf 1e 71 99 5b a1 d4 bf
       -0.3729027410788893 -0.3223484991508307
000140 f4 da 78 ce b2 fb d1 bf 6b 42 25 22 47 3a dc bf
       -0.2809874550179494 -0.4410569985821328
000150 75 c6 9f 73 5c 6d c4 bf 49 61 81 ae ba a3 d6 bf
       -0.15958743711194115 -0.35374323884527265
000160 33 c0 1a 26 da 47 d7 bf 3d 9b 08 b5 0b 3d ab bf
       -0.36376050683157074 -0.0532001169670395
000170 17 f4 59 65 c5 2c d2 bf fb 04 02 ea 59 71 d7 3f
       -0.2839826097259119 0.36629340984661923
000180 d3 92 c6 dc 32 82 90 bf ad c6 55 4b e0 4a c1 3f
       -0.016121668553426737 0.1350975387427317
000190 bd aa f6 d3 bf 70 d8 3f 50 1d 31 c0 42 12 b2 bf
       0.38188167285504077 -0.07059113685783314
0001a0 0d 39 dd f0 7b 60 b0 bf 3d 25 ef 84 72 65 dd 3f
       -0.06397223120186286 0.45931685430385355
0001b0 71 9e d2 d8 59 98 d0 bf 47 10 5f 17 4a 27 c2 bf
       -0.2592987649354433 -0.14182401791743102
0001c0 b2 18 34 a5 d0 3c 72 3f d3 7f 92 8c 8d 31 c1 bf
       0.004452528973393809 -0.13432473529701258
0001d0 bb 03 6f 91 b1 fe a1 bf ba 5b 0c d0 ef cc d0 bf
       -0.03514628315270537 -0.26250834767546005
0001e0 9b 04 3d f9 9a 48 ae 3f c5 fc 9c 54 7a ab ac bf
       0.05914768497906061 -0.05599577219845168
0001f0 c2 40 ed a9 45 7e ca bf 92 61 4f c2 00 3b c3 bf
       -0.20697851941304718 -0.15023812759205818

lin3.weight f8 [16, 64]
000000 d4 9f cb 34 4f b3 da bf 68 da 1f 4a 05 25 e2 3f
       -0.4171941772060539 0.5670191238157942
000010 a2 4a 5e f1 c3 fb d3 bf 57 c1 c3 a1 26 f5 da bf
       -0.3122415406334459 -0.42121282384234376
000020 23 91 2f ac f3 77 0d c0 4b 11 e1 e1 36 d6 a8 3f
       -3.6835702373520163 0.04850932605089272
000030 a5 88 ae ff 62 47 ed bf f6 06 3e 72 2d d7 67 3f
       -0.9149641984734173 0.002910221826767474
000040 7d 86 08 d1 3d b0 a4 bf b3 b1 ce 5b a3 85 f4 3f
       -0.04040711571384479 1.282626494047787
000050 60 06 ba 62 12 81 ae 3f 7a 7e 4b 00 27 a6 e3 3f
       0.0595784898296301 0.6140322690734614
000060 11 4b 24 e7 5b e9 d3 bf 77 f2 24 7f d2 4b d7 bf
       -0.311118102764497 -0.3640028230327412
000070 46 dc 45 12 16 c2 01 40 e1 cf 69 43 c5 08 ec bf
       2.219768660313579 -0.8760706249872748
000080 89 5e 3c ac a8 c7 7e bf 7e af 33 a2 f7 03 e6 bf
       -0.007514628294096001 -0.687984291840152
000090 3a 52 9c 7a bd 9f d9 bf 2c 1d 23 ea 24 1d d6 bf
       -0.4003747651452475 -0.34552882065732393
0000a0 27 d8 b2 3b 47 8e c0 3f 4b 73 16 83 59 e6 f5 bf
       0.12934198775264003 -1.368737709103885
0000b0 5f 45 b2 23 62 9a e0 bf d2 74 6f eb de 20 bd 3f
       -0.5188456246561762 0.11378281829771034
0000c0 35 17 73 eb 56 0e 01 c0 a7 49 dd 74 89 a0 f4 3f
       -2.132001723718441 1.2891935887351822
0000d0 1c 2a e5 2b 26 ba d5 bf f6 40 18 fa 94 27 b8 bf
       -0.3394866398490721 -0.09435397249058383
0000e0 12 56 c1 d6 4e 66 f0 3f 6d 7e 12 f2 5b 91 e8 bf
       1.0249775303722157 -0.7677440383885831
0000f0 08 70 ef 71 7d 3c c5 bf 28 d6 f7 8d df de ac 3f
       -0.1659085089039538 0.05638788803109335
000100 e0 f7 1b 74 65 0c de 3f 0e 6e 38 4e 2e 91 ec 3f
       0.46950661028665586 0.8927222755186806
000110 0d c7 a3 6c 5b 18 ef 3f 0e d2 dc ce f4 d5 c9 bf
       0.9717232820387111 -0.20184192753517077
000120 69 99 ae c5 25 d4 e7 3f be 03 19 04 35 d8 10 c0
       0.7446469174363247 -4.211139740015765
000130 70 10 bf 9c 6c f0 b3 bf 0f 65 47 87 aa 59 dc bf
       -0.07788733317198804 -0.44297278605297746
000140 a8 32 d6 b3 16 9d bd bf ce e7 2c c2 e2 ff 8e 3f
       -0.1156782330564946 0.015136500883830364
000150 4d 5c 83 60 a0 62 b7 3f e2 fe 00 bc 6b 2a c3 bf
       0.09134867054250258 -0.149732081221365
000160 6f 34 97 b4 7e 47 85 bf 3e 81 db 37 8f e1 ca bf
       -0.01039027203196438 -0.21000852801717856
000170 79 60 cb 3e b5 2e ab 3f 9c 0b 93 c7 e1 9f c9 bf
       0.05309072867902471 -0.20019170994609403
000180 b9 10 3b 1c 31 8e d4 bf 1c 22 18 c4 a3 dc fd bf
       -0.32117870098978646 -1.8663671169216576
000190 a5 79 e9 13 ad 00 c7 3f 5a f3 ca 99 c3 cc 11 c0
       0.1797081324793456 -4.449964907657739
0001a0 76 f3 20 ac 64 38 cb bf 48 69 96 07 f0 d2 d5 3f
       -0.21265848545763405 0.34099961033793535
0001b0 7c 87 f9 e8 7f 62 7f bf 9c 69 aa 2a 89 92 7d 3f
       -0.007662295960104145 0.007219825560833473
0001c0 f8 76 ab a8 33 b2 f5 3f 18 50 45 a8 59 2a ea bf
       1.356006296984047 -0.8176697050607826
0001d0 cc 7e 83 c8 8b e9 d9 3f ef f4 97 38 01 2c bc 3f
       0.40487951833163716 0.1100464595001147
0001e0 2c 80 e2 83 7c 81 c4 bf a5 88 79 67 7e 2d 04 c0
       -0.16020161094366026 -2.522213753124634
0001f0 93 77 36 8f 2a 46 af bf 0e f4 71 e5 3b d1 04 c0
       -0.06108220098688757 -2.6021650243187713
000200 b8 60 be a0 ec 9c da 3f de 33 c1 2e 1f a5 e5 3f
       0.41582790086387034 0.6764064706018151
000210 4a 68 72 d5 3c 5e dd bf c8 cc 37 68 be 92 11 c0
       -0.4588768085901661 -4.393304470449216
000220 13 69 97 c7 da 8d f6 bf cf 94 63 26 74 2e e8 3f
       -1.409632472662058 0.7556706189904164
000230 26 f6 53 6b e0 32 dd 3f 37 8f d8 a5 f3 b6 ce bf
       0.45623026353118445 -0.23995824430414256
000240 aa 84 07 8b 29 40 e3 3f 99 0a 05 8b ea 94 f2 3f
       0.6015823092858643 1.1613564901787525
000250 28 fa bb 02 b6 60 e2 3f 21 ca a9 e9 96 cf ec bf
       0.5743055394557972 -0.9003405154929319
000260 64 ad 41 61 e5 e8 df 3f 0b fb c3 94 23 0a d4 3f
       0.49858984468183665 0.313118834761483
000270 c0 7e ab 95 cc 82 f1 bf 55 5b cf 32 80 f4 03 c0
       -1.0944333883743838 -2.494385144188906
000280 c7 eb 90 f9 33 0a e3 bf c6 42 8c 85 c6 ff fb bf
       -0.5949954866731496 -1.749945184394322
000290 66 5b d0 2c 66 a1 da 3f 59 e5 ba 6f 49 d2 d0 bf
       0.4161010205875101 -0.2628348914255035
0002a0 d1 ad 08 20 f2 3d d3 3f 17 ea 81 09 4f 74 e4 3f
       0.3006558716612889 0.6391978440945562
0002b0 0b 2d 99 61 a1 48 01 c0 86 07 d6 30 63 ce d2 bf
       -2.1604640602942076 -0.293846891108949
0002c0 8e 4c 51 b6 b1 d6 ec bf c2 0d 71 9e 4b 12 f9 bf
       -0.9012077866449475 -1.566966647064746
0002d0 bc 8f 1a 6e f6 88 c3 bf ff 3b 2c f6 4a 4a 76 3f
       -0.15261726738128611 0.005441944903181727
0002e0 a6 d7 00 2e 17 a1 d4 bf 49 6a 5f 75 64 1c 02 c0
       -0.3223321866274723 -2.263863484358158
0002f0 ec 0f 8d 67 1b 56 a1 3f 06 7c e0 10 a4 30 e6 bf
       0.033860069647317775 -0.6934376077296072
000300 8f 78 e4 77 d0 b2 e0 bf a2 45 fc 74 e3 7d 04 c0
       -0.5218279210710238 -2.5614689959990793
000310 ff 63 ce c0 74 66 e3 3f 54 d7 4b 1f e3 29 e7 bf
       0.6062568441149095 -0.7238631831412285
000320 1b 49 26 a0 b3 ed d1 3f 6c 73 a1 a4 b9 03 c7 bf
       0.2801331581078032 -0.17980118311507043
000330 19 16 e8 fe 6c 22 d4 bf 44 06 2d 0c 0c 54 d4 3f
       -0.31460118191930203 0.3176298254876182
000340 03 4f bc fa 29 dc ec bf 5a 4c 37 3a 93 ed cc bf
       -0.9018754861048993 -0.22600021689013056
000350 1d 52 5d 1b 27 f0 9a 3f c5 1e 9c 27 e7 b3 dc bf
       0.026306735081862088 -0.4484804045500648
000360 63 6b 71 17 ef 7b e6 bf 42 49 9d d4 26 60 90 bf
       -0.7026286561843843 -0.015991789557412213
000370 b6 18 e6 df 93 33 f4 3f 92 03 98 17 3e c9 e1 bf
       1.2625921960875934 -0.5558157406631941
000380 ac 24 5d 00 5d 2f ce 3f 31 7e 48 88 bb 5e ba bf
       0.2358204128052298 -0.10300800397134748
000390 65 a7 ab c0 d6 1f e2 3f 37 d4 c4 8c e6 94 e6 bf
       0.5663865817161705 -0.7056763409988268
0003a0 f8 20 6c e2 59 36 cf 3f d3 f8 89 44 c6 4a e7 bf
       0.24384616428165606 -0.7278777445460726
0003b0 af ff de d8 46 eb 82 bf 8a b4 a5 54 cf d9 b5 bf
       -0.009237817281132125 -0.0853547650965131
0003c0 f2 2a f9 9e a3 ee 09 c0 1b 21 5f b5 9a 26 b9 bf
       -3.241523019770619 -0.09824530532853652
0003d0 55 85 e1 55 ae 2a ec 3f 2b 5b e2 1d d4 ed dc bf
       0.880210082756245 -0.452015904601853
0003e0 97 a7 59 42 74 aa d0 bf 4b cd 09 da d7 b3 ce 3f
       -0.2604036949111274 0.23986337801361865
0003f0 6e 2c 4c 4c 38 cd bc 3f 3e c0 60 f4 93 cd e0 3f
       0.11250640738232828 0.525094964314128
000400 67 ab 0e 39 88 f7 ce 3f de 1a 5f 0c 0e 69 db 3f
       0.24192908082963102 0.4282870407882181
000410 d8 64 6c 05 f0 54 f0 bf 54 93 c8 3f 05 a3 98 bf
       -1.0207367145397281 -0.02405937387279107
000420 f8 1d 97 61 74 6c eb bf bb 09 ac d8 ba f4 b0 3f
       -0.8569890886364524 0.06623428144306491
000430 58 6c 65 0d b8 db ee 3f 2c 6a 45 c9 40 03 ff bf
       0.9643211614269473 -1.9382942068247173
000440 53 19 61 63 f0 6c f1 bf 78 9d 23 fd b4 8f ef 3f
       -1.0890964395526523 0.9862923568843334
000450 da 95 04 2f d9 75 dc bf 7e 13 fe dd 1e a0 c5 bf
       -0.4446928939017575 -0.16894899215199283
000460 9d 70 b5 30 c6 28 e2 bf 40 43 53 6b 39 9d c1 bf
       -0.5674773169844404 -0.1376106046723411
000470 71 19 37 f9 b9 68 e9 3f 31 22 f5 79 6b 20 03 c0
       0.7940339915738105 -2.3908299949582887
000480 75 df 34 01 ad 67 e9 bf 1a c4 c8 0a 0b 53 cf 3f
       -0.7939057372632151 0.2447217753083642
000490 b8 5a d8 45 5d 84 ee bf 6f 85 e9 8a 20 64 f0 bf
       -0.9536577572024134 -1.0244450975663673
0004a0 9c 7b 41 15 d4 db de bf 79 4d 3a c0 10 c8 d6 3f
       -0.4821672637535188 0.3559610249733037
0004b0 51 8e f9 70 a3 17 d3 bf f1 10 64 f8 42 80 e3 bf
       -0.2983177760381511 -0.6094069339165157
0004c0 df 95 c1 93 75 99 ee bf af ca 2b 62 39 a5 ae bf
       -0.9562328229773661 -0.05985431025864806
0004d0 86 b5 4e 5f a7 66 e2 bf c2 0d dc 8d b7 9b db bf
       -0.575030981204393 -0.43137921193575945
0004e0 80 aa 1f a8 f8 4f e2 3f 15 c6 92 65 c1 0a e7 3f
       0.57226212345752 0.7200629218916129
0004f0 40 23 19 a1 a2 d9 e5 bf 00 15 f8 9d 25 35 d1 3f
       -0.6828168055008987 0.26886883188883814
000500 f0 8d 7f bc ad 34 ca bf 82 e2 84 19 1b e9 d5 3f
       -0.20473262504593448 0.3423526524743822
000510 08 0d df 3a c2 25 db bf 0e dd b9 98 0a 2f eb bf
       -0.4241796088137595 -0.8494923575334796
000520 de 5d 09 e0 b6 79 c6 3f 67 06 3c ed 0e 7d ee 3f
       0.17558942736898947 0.9527659066663546
000530 94 9c 65 17 ba 90 f6 bf 73 ae 17 40 9f a2 e4 bf
       -1.4103337205831723 -0.644851327114749
000540 c4 2a f1 b0 b2 dc e6 bf 92 fe cb 88 88 d5 c8 bf
       -0.7144406753444277 -0.19401652030500266
000550 1f e1 13 b7 c1 70 ba bf 72 e2 37 bd 45 28 f1 bf
       -0.10328303069752963 -1.0723321334209257
000560 73 2f 66 1a bc 9f e8 3f e1 a6 1c 0d 45 5d f6 bf
       0.7694988742455123 -1.3977709304985455
000570 b7 11 7f b8 e6 db dd bf 92 ef 98 71 e0 f6 98 3f
       -0.46654670731757214 0.024379259999690435
000580 3b 5c ba 62 e8 2b 01 c0 5d bf da 5a bd 8c d7 3f
       -2.146439334213509 0.3679650676012807
000590 9e b3 7d 75 08 27 f9 3f 2e ea d6 10 07 d1 f0 bf
       1.5720295514576956 -1.051032129077281
0005a0 a8 6a 9d 81 b4 b8 ea bf c3 ab 87 f4 6a c5 df bf
       -0.8350470096150575 -0.496424425886911
0005b0 9f f4 7c 61 44 b8 e4 bf 67 17 d4 2d 58 6e bd 3f
       -0.6474935440125086 0.11496497267589022
0005c0 ad 11 67 a4 90 37 ec 3f 2b 73 73 93 11 27 f4 bf
       0.8817828379620117 -1.2595382461360696
0005d0 a4 ac bf d0 b0 4e ec bf c0 f4 d8 02 b1 45 a5 3f
       -0.8846057965396494 0.04154732856520971
0005e0 b0 e7 6d b7 63 c3 db bf 42 e9 4f 35 8e 4d d4 bf
       -0.4338006297399444 -0.317233612120294
0005f0 9f 38 74 42 ab 8d b9 3f 26 83 11 e5 7b 19 e3 3f
       0.09981794712459412 0.5968608354561169
000600 9e ac 80 7b e7 d7 bd bf 19 5f 08 16 ee c6 e1 bf
       -0.11657568707657837 -0.5555334501577561
000610 56 ab df 3e 9b 03 e1 bf 60 45 3a 94 d8 25 7e bf
       -0.531690237808429 -0.0073603115194072755
000620 c8 3c d6 35 76 69 a3 3f 29 6d b8 86 84 cf f1 bf
       0.03791398436725896 -1.113163496257423
000630 e5 78 c7 2d 6d ba 00 c0 3b 5f 93 59 6e e3 e0 bf
       -2.09102855458251 -0.527762579872593
000640 78 23 71 f7 a8 12 c2 3f cd 3f ee ef 76 17 f8 3f
       0.14119445879103032 1.5057286617556997
000650 af 26 93 58 a5 4a d0 3f 1c 2d 38 c3 f8 06 b5 bf
       0.25455602311977094 -0.08213763013934677
000660 01 97 87 48 48 fb 03 c0 64 4d 25 8b db fb d9 bf
       -2.4976964632395497 -0.4059971674771161
000670 dd e3 39 4a e9 3e ce bf 33 e1 51 0c b0 d9 b4 bf
       -0.23629490017245205 -0.08144665051247983
000680 b4 f1 14 63 74 9e d5 bf b1 b8 ec cf 9f 07 de bf
       -0.33779630351980505 -0.4692153482927877
000690 61 80 a9 8d 2a 4f ed bf a1 b7 b2 31 d0 a7 e3 bf
       -0.9159138457143962 -0.6142350168863581
0006a0 68 bd d3 bb c9 39 08 c0 bd 07 fb 41 54 2e ac 3f
       -3.028216807746208 0.055040963224669316
0006b0 5e 61 22 c3 f7 f2 b2 bf 42 3a 51 87 60 ef aa bf
       -0.07401989473362877 -0.05260755206892444
0006c0 1e 0b d1 a5 54 f0 be 3f 86 b9 d6 05 86 8a f1 bf
       0.12085465477234122 -1.0963192203595056
0006d0 df be 6e 1f 4a 4a dc bf 83 5b 92 17 e3 fd 03 c0
       -0.44203427381124344 -2.498968300012565
0006e0 84 e8 37 6a d8 5a 07 c0 39 7a 40 48 16 15 eb 3f
       -2.9193580911933754 0.8463241015595663
0006f0 56 bb 03 97 90 e5 fe 3f 5d 9c ed 36 cc 83 97 3f
       1.9310460947997021 0.02296370587592055
000700 df a2 7e d0 9b 0a 04 c0 bb 57 c5 1d 6b 17 e5 bf
       -2.505180004944449 -0.6591086942159942
000710 ce 2f e5 0b c7 83 e7 3f 2e b2 45 0d c8 c6 f2 bf
       0.734836123688632 -1.1735306280562656
000720 91 cd ad 7d 7d 21 d7 bf 60 41 62 9f 34 cf f7 3f
       -0.36141907952625113 1.4880872941904144
000730 e4 b5 6f 13 34 c0 d9 bf 0d e3 2f cf 6a 58 f8 bf
       -0.40235616586764267 -1.5215862363094772
000740 75 1f 7e 1a b9 4b d4 3f 6d 09 f7 ba 3b fd d8 3f
       0.3171217688291031 0.3904561353521306
000750 6e f0 9f 79 3c f5 bc 3f b0 16 9a 5d 49 5e fa bf
       0.11311700791697074 -1.64801918566938
000760 33 56 8a 02 44 eb c4 3f aa 45 2c ae c9 bc ea bf
       0.16342973827402005 -0.8355453874411769
000770 4b b6 7b 32 aa 72 04 c0 b3 53 f0 a5 ac 3e f6 bf
       -2.5559886878971034 -1.3903013689025385
000780 21 6f 70 5b c2 54 8a bf b5 48 5f 82 ab 05 c8 bf
       -0.012856977859022902 -0.18767303338842614
000790 62 f7 1f 37 96 37 eb 3f 08 1b 04 74 8a 83 73 bf
       0.8505354954392994 -0.004764118988765949
0007a0 f3 12 c0 0d 8c ad f9 bf 7c ba 0e 64 45 85 d8 bf
       -1.6048698937531156 -0.3831342198490473
0007b0 a6 3e cb 84 4d 50 b1 bf 70 c5 c8 22 c4 dc 7b 3f
       -0.06763157360114266 0.006802335887685515
0007c0 0f 3e b0 a1 00 75 fb bf 9f 4f 52 25 4a ed db 3f
       -1.7160650554614028 0.4363580097644845
0007d0 d6 35 9b 98 a3 68 eb bf 7c 61 5f 5d 30 bf d3 3f
       -0.8565233212081533 0.30854424589553964
0007e0 38 76 09 2c 2e 01 fd bf 4b cd ca 06 3e d6 d1 bf
       -1.812788173694015 -0.27870131171512885
0007f0 78 b4 d1 f8 4f 92 b9 bf f2 9e ad ee f2 87 b5 bf
       -0.09988879990278743 -0.0841056664190736

lin3.bias f8 [16]
000000 ad fb 8a b8 56 58 e2 3f ff df 6d 35 42 43 d1 3f
       0.5732835392335481 0.26973014085479
000010 a7 bc ed b8 6a 4a d9 3f c4 ac a2 70 d0 78 e2 bf
       0.3951670461601204 -0.5772478294287784
000020 47 4c d4 b1 32 25 f9 3f ba f5 2f 9d 06 06 e0 3f
       1.571581549306545 0.5007355756821916
000030 bb e0 b4 a7 bd 1d ab bf 92 66 03 b5 d9 22 e1 3f
       -0.052961279603949994 0.5355042014518452
000040 0c db 15 5b 51 2e ec 3f e1 fd 3d 9d 13 5f 03 c0
       0.8806540278445438 -2.4214241299193735
000050 20 1d 22 1b 03 12 c1 3f 45 e1 96 f8 11 cb b5 3f
       0.133362186669026 0.08512985533787283
000060 c9 32 a4 a0 34 eb e2 3f ee e3 d0 63 e9 86 ec bf
       0.5912116181876509 -0.8914687108546084
000070 08 6e 1b 52 3b ef e0 bf 27 6d fa f1 91 d1 ec 3f
       -0.5292030910163144 0.9005822874200121
