LP4-MachineLearning/HW_B_tetris/Strategy/dqn_action_5000.pth (torch, 54615 bytes, 6 tensors)

lin1.weight f8 [64, 20]
0	0x3fad776019b64ab0	0.057551386965447704
1	0x3fc38d7780bfca0b	0.1527547243745889
2	0x3fb8d5543471f622	0.09700514107131444
3	0x3fb9ec8862b87d34	0.10126545343563437
4	0xbfafaddb81b0dee3	-0.06187330206051713
5	0xbf96fbbba7dfd8a0	-0.02244466030239123
6	0xbfa6fb38982c7c51	-0.04488541467275609
7	0x3fa7e1eb33a98511	0.04664549832956245
8	0xbfaa817f9c160d47	-0.05176924496029272
9	0xbfc18d44f56afbfc	-0.13712369902893318
10	0xbfd6b3ea1c58379f	-0.3547311093142244
11	0x3fc69b9a7097a6ed	0.17662363526988348
12	0xbfca13749bcdded8	-0.20371873481393865
13	0x3fa61a0230b181b2	0.04316717953111339
14	0x3fc60fa687296b97	0.17235261535355725
15	0xbfcbd9fa868e3319	-0.21758967943278476
16	0xbfd7fa8f76cd6128	-0.37466799356254166
17	0xbfdd34c036985edc	-0.45634465533792734
18	0xbfb00f4cf768db21	-0.06273346939347536
19	0xbfe068ae278b4aa5	-0.5127783558221678
20	0x3fc6e7cb88eb65d8	0.17894882379077504
21	0x3fbafba3b5e82041	0.10540221396524975
22	0x3fc81262dac2197e	0.1880611007838517
23	0x3f910d8167dddbc0	0.016653081860080965
24	0x3fb2f6c05a51b839	0.07407762723025337
25	0x3fd0245dba02ea00	0.2522196117894566
26	0x3fba6c46bf181f6d	0.10321466603647673
27	0xbf923a3e0f0b9055	-0.017800302189144485
28	0x3fde385c47522363	0.4721899696819973
29	0xbfe5c87add69986c	-0.6807226490461864
30	0x3fe2225de0b3b1b4	0.5666951550206734
31	0xbfd721d320b83d49	-0.36143949694902183
32	0x3fd186114bdf399b	0.2738078347146257
33	0xbf43365fa7f9f85e	-0.0005863158293804118
34	0xbfd545bf4c91f47b	-0.3323820350413553
35	0x3fc223031aa9f695	0.1416934852785984
36	0x3fb33d94c7a531e5	0.07515840410378123
37	0x3fc10414b90b5782	0.13293704066625983
38	0xbfd336661c856607	-0.3001952436949015
39	0xbfdfaf299dba36c9	-0.49506607440058
40	0x3fd9da4aed35ab31	0.40394852795604935
41	0xbf76fd8aabdcb2d2	-0.005612889943034731
42	0xbfd3a972a043acba	-0.3072172703820787
43	0x3fb2fe9546d62378	0.07419713000684947
44	0xbfd9e880dc25d1a8	-0.404815878856676
45	0x3fc8bc157bfb3e67	0.19323986581592864
46	0x3fcd76907c471b92	0.23018079822778909
47	0xbfbf8ac48c106af7	-0.12321117801222302
48	0xbfdb93c5bcfd0f63	-0.43089431243810433
49	0x3fddc5bc87b57f81	0.46519387486295477
50	0xbfc105b016f67223	-0.13298607941841664
51	0x3f9c193c4102f2f8	0.027440015285480762
52	0x3fc1a2d1ef3148c8	0.1377813737804614
53	0x3fc02ddbef695d8a	0.1263995093347428
54	0xbfd09b471e742455	-0.2594774053000653
55	0x3fcb45939c348b9e	0.21306080939492927
56	0x3f99dbd2719b6078	0.025252617057816867
57	0x3fba8618f791e648	0.10360866588771345
58	0x3f9ac8105db77b68	0.026153808326735556
59	0xbfb67448b5d81b4c	-0.08771185340456816
60	0x3f71406db89c1df4	0.004211834524319159
61	0xbfd123e58d043ac2	-0.2678159596552342
62	0xbfd7ba8a1d52e96a	-0.37076046813640195
63	0xbfcc6c008b67390c	-0.2220459633521802
64	0x3fd1a02c5c8399a0	0.2754012015779157
65	0xbfe4e0091cc451df	-0.6523480951169026
66	0x3fcc3443d71cd49a	0.220345001254519
67	0x3fdc689fc4fb38b1	0.4438857482572401
68	0x3fc336629f822151	0.150097206005976
69	0x3fc99ff414021cb2	0.200193891305593
70	0xbf6da3e64898cfe1	-0.0036181924558835597
71	0x3fa2871189cf6d6b	0.0361867409444255
72	0xbfd8f38425fb2663	-0.38986304959380486
73	0x3fc6d50a000e0162	0.17837643625899618
74	0x3f87c2174eb5740d	0.011600668038846984
75	0x3fba9b73b3799669	0.10393450862610511
76	0x3fdd76016906d9d1	0.46032748466987267
77	0xbfc691a1651c72c7	-0.17631928860727994
78	0xbfd6ba7e441d9dbb	-0.35513264324114474
79	0xbfe30053572299df	-0.5937897397860147
80	0xbfd1567375ed2a56	-0.2709015514016405
81	0xbfcc24bbd306e3b5	-0.2198710232167095
82	0x3fa482cdf0b986b5	0.040060458789196764
83	0xbfc04f4dc1778334	-0.12742015787719085
84	0x3faab2aef8ef6c83	0.052144496810535144
85	0x3f9c13d39287c8c1	0.02741938192225102
86	0xbfafb4e2d3d16719	-0.06192692599934286
87	0xbfb9051391c54aa8	-0.09773371037344225
88	0x3fd11d8652661ed1	0.2674270443608125
89	0x3fd2a643b8206f84	0.2913979814636536
90	0xbfda761a87674a71	-0.4134584734248739
91	0x3fba6385c13dca2a	0.10308109252745426
92	0x3fcba1a6d659a06b	0.2158707186347358
93	0xbfbc214fa176c683	-0.10988328639975901
94	0x3fd4eb89b38b85e6	0.32687609227840964
95	0xbfdfc05cb9d4e020	-0.49611585757839016
96	0xbfe00684ccaf6723	-0.5007957456357172
97	0xbfd62967d43b12ed	-0.346277196175193
98	0xbfcbb59dd1d1bd02	-0.2164799952038053
99	0xbfc9b57f7c6bb6c3	-0.20085137915832804
100	0x3fae278c797b3aa1	0.05889548285414504
101	0xbfa968f54bedae44	-0.0496288924394688
102	0xbfd47eeb848097f7	-0.32024658145598955
103	0x3fce6c5fa5474f5a	0.2376823002838318
104	0x3fbfb15b782b0559	0.12380000766554157
105	0xbfbccb38c156534e	-0.11247591705462165
106	0x3fb50e0d025bfcc4	0.08224564845658039
107	0xbfd3dc75abea5030	-0.3103307894573417
108	0x3fe08ccc9a557af2	0.5171874059995771
109	0xbfdde6d0246c78c6	-0.4672127109241838
110	0xbfd53bdd9b66ac6b	-0.33177890945325456
111	0x3fdbb2c2b688c016	0.4327856810150491
112	0xbfc06ce93f9fa127	-0.1283237038289908
113	0x3fc9d04b83c38665	0.2016691583040028
114	0xbfaf4c1c3b8381fe	-0.06112755037770866
115	0x3fc5e113fda17c4d	0.17093133816067266
116	0xbfc4f300cebb4674	-0.1636658677512518
117	0xbf645b33203e6a00	-0.002484893660903653
118	0xbfc34f1c20a23f95	-0.15085174172827168
119	0xbfdc9a460191470c	-0.44691610482287625
120	0xbfc6797d408f21fb	-0.17558255817699817
121	0x3fa77209d5aac6f6	0.045791919071588014
122	0x3faa2608f9b3b7f5	0.051071434479908286
123	0xbfd322b551b115e0	-0.29899342515667904
124	0xbfcf5e1456ad9081	-0.24505857689212365
125	0xbfd0e69d10cd821e	-0.26407553330321487
126	0xbface26f4ab94547	-0.05641505992083267
127	0xbfd14f2f4c9b35ff	-0.2704580543621375
128	0x3f6ef5f9581980d3	0.0037793989184110393
129	0xbfb1c79229b73b6a	-0.06945146101427971
130	0xbf9b502010f4d794	-0.026672841105401426
131	0x3fb478721aadc31e	0.07996285582863691
132	0x3fd67b87ec673754	0.3512897308945544
133	0xbfddb62fe55c166e	-0.46424481771860016
134	0xbfa6a35fc7586f5c	-0.044215195736085205
135	0x3fc4196bbb8df071	0.1570257821839536
136	0xbf846bea8ee51a0a	-0.009971458898360392
137	0xbfccae5ae9cbca38	-0.2240708962995812
138	0xbfd60c30a5ae0e2d	-0.34449402026823145
139	0xbfc1962827d512fa	-0.13739492363870182
140	0x3f922ac7fc1824b1	0.017741322290053933
141	0xbf9c46d5db70adf0	-0.02761396552902612
142	0xbfc2366aa4fe6dc1	-0.14228566223469666
143	0xbfc280045b7a4efc	-0.14453176943481327
144	0xbf62d156aaf560ca	-0.002297086022434146
145	0x3fa1c71ecb6a44f8	0.034722292262026444
146	0x3f943b0b6751c841	0.01975648706542921
147	0xbfbc4687ff405009	-0.11045122129172581
148	0xbfb5ac8333b5ceb2	-0.08466358196693127
149	0xbfd83fbf19416362	-0.3788907763133037
150	0x3fcfb72439300095	0.24777653496130783
151	0x3fd8418b3814028f	0.37900047756560523
152	0x3fbfd1ac86aae83e	0.1242931202677093
153	0x3fa2e69d669e082a	0.03691570165302978
154	0x3fcf6efaa619e510	0.2455743132630137
155	0xbfd8d092a389a567	-0.3877302739188821
156	0x3f96adab3ddc2fc8	0.022146869326249236
157	0xbfd95ffbeb8df071	-0.3964834022842814
158	0xbfe3709ae275f583	-0.6074957297384319
159	0x3f68b958621eea0d	0.0030180670009631928
160	0xbfb89326401efa39	-0.09599532189802397
161	0x3f9e67173e00ebb1	0.029690135154151146
162	0x3fae498131da15f3	0.059154546103893944
163	0xbfcf3086fd6d3f55	-0.24366843580582534
164	0x3fd14645645cfb06	0.2699140052899768
165	0x3fc5bbdc63630ecf	0.1697955594337288
166	0x3fe316539b590556	0.5964754137168409
167	0xbfda34ffe76a92cb	-0.40948484038589744
168	0x3fe104fd66d6cca0	0.5318591126037013
169	0xbfc23003f4121113	-0.14209031503208588
170	0xbfd395d36e4e27bc	-0.30601964733125064
171	0xbfba8e94904cc9b4	-0.10373810313175263
172	0x3fdea987dbeb9f2f	0.4790973327312597
173	0xbfb03d0dd3052b6e	-0.06343161012516216
174	0xbfc077b468d030f2	-0.1286530982764656
175	0xbfac0f445c7c8904	-0.05480397824273278
176	0xbfd08ffc04f82532	-0.2587881134537212
177	0xbfe465c0643ab083	-0.6374208409884122
178	0xbfcced5d50677967	-0.22599378992067473
179	0xbfd85a8ba8b0e086	-0.3805264613506626
180	0x3fc93cd7a0f768ff	0.1971692596405958
181	0xbfd6673eb67160ee	-0.35005157295883194
182	0xbfd35479f755b964	-0.30203103212161
183	0x3fe286d96a16007b	0.5789610931388006
184	0x3fd140e28c4bb1df	0.2695852632594135
185	0x3fcbd9a927d41a89	0.21757997936966358
186	0xbfbd3fd789c6de9e	-0.11425540078823324
187	0xbfb83c4db875ff73	-0.09467015984955456
188	0x3fbd091f8196095e	0.11342045701716105
189	0x3f9fc1c140cb8882	0.031012553767944435
190	0x3fb55be9aa79df57	0.08343372737897191
191	0xbfbb9d610b0777b5	-0.10787016410128454
192	0xbf9b3b5dfa4d2cbb	-0.026593655016125633
193	0xbf963c661cf77296	-0.02171477844045685
194	0x3fc838150a256a62	0.18921149249475194
195	0xbfd58489992af2fb	-0.3362144466189389
196	0xbfb1d51d7df11799	-0.0696581299281135
197	0x3fa2946f68d7f176	0.036288720653803105
198	0x3fb7eae19ca4f725	0.09342775415731504
199	0xbfda75d865ca5b0f	-0.4134427064940817
200	0xbfa7cce13c9e3daa	-0.04648498406379116
201	0x3f88d8bfe08bc11b	0.012132166900727761
202	0x3fdf52381f31bfbd	0.4893932633049152
203	0x3fb2e061555908f0	0.0737362702721247
204	0xbfdebeaba6344837	-0.4803876040542749
205	0x3fc4a0b4d7253c00	0.16115437035702485
206	0x3fca86fc6800ef42	0.2072444446401907
207	0x3fc095fd911f3781	0.12957734666855106
208	0x3fd28bec1b79b42d	0.28979017909188337
209	0xbfea5195b27fe8df	-0.822459076530574
210	0x3fe0cc4bb289c1d7	0.5249384390900173
211	0xbfce1d50fc11ddc3	-0.235269663887932
212	0x3fcda93932c48de0	0.23172678927322377
213	0xbfd02d79d6d96b19	-0.2527756307733156
214	0x3fda8d561386f958	0.4148764792152142
215	0xbfd7b4720333518e	-0.3703885108236812
216	0xbf8b5557c051574c	-0.013346372181483844
217	0x3fd181340eff457f	0.2735109468895515
218	0x3fb217d21a7deab9	0.07067597529195781
219	0xbfed6142c09102bf	-0.918122650247902
220	0x3f8c86e8ce78e3e2	0.013929194260628056
221	0x3f8f07628dab5196	0.015150804470444961
222	0xbfb8601b266c757d	-0.09521646202161622
223	0xbfb3c9328f7f8ba9	-0.07728878024458531
224	0xbfbe8107132df5da	-0.11915630548715886
225	0xbfc6fae29afba79b	-0.17953140800028397
226	0xbfca5c1eadb35099	-0.205936274351761
227	0x3fa01314cd6c1760	0.031395578456836715
228	0xbfc78170e2d2c5e5	-0.18363772464139952
229	0xbfda35eb6591b06f	-0.4095409862409331
230	0x3fb92da7a19a72d9	0.09835288710969382
231	0xbfc79e9bfa065e1c	-0.18452787121053482
232	0x3fb49f9ab1485000	0.08056036785302467
233	0xbf9159fff13e9f07	-0.01694488439502975
234	0xbfe3bbfbec9d8d03	-0.6166972752947973
235	0x3fbae5f2d659eef4	0.10507123692689985
236	0xbfe5e32b57147ca5	-0.6839806271344925
237	0xbfb061f05c46ffb9	-0.06399442913880095
238	0x3fc20807ef560261	0.1408700865395245
239	0x3fd46b6b05dc7b58	0.3190562779654349
240	0x3fce263c86b11d74	0.23554188324690595
241	0xbf90897c80a4068d	-0.01614946875725436
242	0x3fd752623e0d7209	0.36440330562416584
243	0xbfd0f80813e6638f	-0.26513864463191167
244	0xbfbe2984f15ffba2	-0.11782103436415395
245	0x3fbf21cb70220de0	0.12160941588995611
246	0xbfbd22c491376941	-0.11381176514934045
247	0x3fa271ed8db28a44	0.03602545122818815
248	0x3f9c904be1c991fa	0.027894197135895006
249	0x3fa4fc839f74be83	0.04098903008923307
250	0xbfd4572a0f460408	-0.3178200863986267
251	0xbfbacb053520e557	-0.1046603445728541
252	0x3fd0612e6a59b296	0.25593147645739955
253	0xbf86baf85949c7fd	-0.011098804688320025
254	0x3fd3e4576d16a760	0.31081185963795654
255	0xbfd02f722781d5e6	-0.25289586885568693

lin1.bias f8 [64]
0	0x3fe3f9d2fde7f961	0.6242461165527794
1	0x3fadb78e6992c833	0.05804104841935533
2	0x3fda264f751cb747	0.4085882800744582
3	0x3fb239fee81501e7	0.07119744459215092
4	0x3fe49429cc7fb132	0.6430863374821796
5	0x3fda52ac8df0f94e	0.41129602300124624
6	0x3fd9705aca104046	0.39748258335840025
7	0x3fd193f54dc63b90	0.27465565295363437
8	0x3fed9e574943556b	0.9255787306707765
9	0x3fe3296d2a61c4c8	0.5988069370052012
10	0x3fc4e207f1edf50c	0.16314791977848875
11	0x3fd7ca674c2d1f0e	0.3717287296208135
12	0x3fe8824ccbaaeff3	0.7659057596097213
13	0xbfd68ddbcab682a1	-0.3524083594912018
14	0x3fe1ab88365ebfab	0.5521889745632412
15	0x3fc08839426fcec8	0.12915721649152645
16	0x3fa963cd8a4c8c37	0.04958956063480751
17	0x3fda805a645ec2b3	0.41408405114911345
18	0x3fb0797b803e9211	0.06435367470709986
19	0xbfb021a132895e17	-0.06301314815333857
20	0xbf9b4d29fa43b0ba	-0.026661544704368302
21	0x3fbce128ad3808d2	0.11281065205551791
22	0x3fd32e4cc25a2c0e	0.29970091800413534
23	0x3fdfce3302c27b6d	0.4969604041052012
24	0x3fd669ff8e9a1f26	0.3502196209524179
25	0x3fde4254a8806922	0.4727985044024924
26	0x3fd2716a89ccc72c	0.28817237336180557
27	0xbfb686efe38de6fc	-0.0879964762260918
28	0x3fd344301335d8d2	0.30103685260781987
29	0x3fba2508188df7e7	0.10212755774952563
30	0x3fdcb65d7c8a9a7f	0.4486306873535923
31	0x3fcc21a271e8ab13	0.2197764450259788
32	0x3fdbf27c0d7536b4	0.43667508424992296
33	0x3fba0c7859aef92e	0.10175277890718767
34	0x3fcfaa91cf0c50f4	0.24739287004252442
35	0x3fdaf02876799716	0.42090808458157036
36	0x3f975c652cba3488	0.02281339726919332
37	0x3fcceff3004070a4	0.22607266914645152
38	0x3fd3c1a9661b3869	0.30869517299004784
39	0x3fd0321c79d14b4a	0.25305854698415386
40	0x3fd1842bcf672de6	0.2736920857830384
41	0x3fd91903e9943c59	0.39215181169942565
42	0xbfdad4003de43193	-0.4191895107658407
43	0x3fe6f667d8690271	0.7175788141976921
44	0x3f4ce7710b43196b	0.0008820821735973488
45	0x3fbd8d765eeeba6d	0.11543979470909856
46	0x3fbf4013ad9ad9c1	0.12207148540878789
47	0x3fd97e0cb96f8449	0.39831846341082106
48	0x3fe03f779a5976d9	0.5077474608076172
49	0x3fc88a037c9a5639	0.1917118414318553
50	0x3fdd8ed804eadc88	0.4618434951802972
51	0x3fe63c6dbb36d27f	0.6948765427137714
52	0x3fe1b6cc28d8a9c2	0.5535641477375111
53	0x3fb8d086aa353151	0.09693185477698775
54	0x3fded43c9d284edd	0.4817039046040302
55	0x3fbb9c646b018293	0.1078551064724798
56	0x3fc15db2b3f6513e	0.13567193782058412
57	0x3fc2dae9ac40a8f6	0.1473056880070726
58	0x3fd49216628728c9	0.3214164697825593
59	0x3fd4d26ec8fc1a21	0.32534379603785807
60	0x3fdbf1605e5e7538	0.43660744872780155
61	0x3faf0f735dce8663	0.06066475410558494
62	0x3fd2d64e33094814	0.29433016761788733
63	0xbfab48b926b53024	-0.05328920934206874

lin2.weight f8 [64, 64]
0	0x3fddb58da82b3eba	0.46420613692042034
1	0x3fd8a15a8bde0f2b	0.38484824809005386
2	0x3fd3f0aaa7292d9c	0.3115641243391225
3	0x3fd5dcb010a8f79a	0.34159471156078214
4	0x3fdb25ed7ae04990	0.4241899204218038
5	0x3fde8b588d6de6f3	0.47725499927001563
6	0x3fcc2222b83758c1	0.21979173655444664
7	0x3fda54ec7259e12d	0.41143332640742153
8	0x3fde3833fbd5eb4b	0.4721803626377336
9	0x3fde2d38a09347b8	0.4715100830190937
10	0x3fc5bffe41dc49c9	0.16992166725010652
11	0x3fc0d55695b23abf	0.1315105658472557
12	0x3fd8938a2c741319	0.38400511113313623
13	0xbfe2cd3975d59232	-0.5875518132639341
14	0x3fc9e7e89465585d	0.2023897862042671
15	0x3fcef696fc58a3a5	0.24190032312006085
16	0x3fc9c1f48843e3db	0.20123154309820176
17	0x3fc6d7380a10f70b	0.1784429597045619
18	0x3fc9ea8685002c28	0.20246964925931477
19	0x3fdfdbb0c863c7e8	0.49778384751618754
20	0x3fcfb9e25b961aa7	0.2478602359007784
21	0x3fbf8bf7bc2eb626	0.1232294878415919
22	0x3fc832a52217ee12	0.189045564315038
23	0x3fc3258a3b122028	0.14958312877956925
24	0x3fbb929f5099dfd8	0.10770602910804372
25	0x3fb2b90be7e80c3b	0.07313608562257994
26	0x3fd2ce8dcd728fb4	0.29385705054505284
27	0x3fc5fc7451d75d8f	0.17176679607539966
28	0x3fc8cdb35960822b	0.19377748359785704
29	0x3fd0381bbfd6a796	0.2534245847151565
30	0x3fc3303222fa15b4	0.14990832050186287
31	0x3fd134862c490800	0.26883081745847903
32	0x3fcb94df75e4d51e	0.2154807401326843
33	0x3fb7be4271a94119	0.09274688029222879
34	0x3fd0dc6eff462d12	0.2634541981612567
35	0x3fd622c71d128b5f	0.3458726676855601
36	0x3fd5dd3c5229c374	0.3416281511663819
37	0x3fae82538963a2b3	0.05958806087602877
38	0x3fc3d6407e6360c8	0.15497594996737107
39	0x3f9791da24de7e44	0.02301731920272078
40	0x3fa137f1d55ab28a	0.033629948896622144
41	0x3fd81437ef24a54c	0.37623403886626217
42	0xbfd49cd4892a49fa	-0.32207215685880863
43	0x3fda367ec0f78f79	0.40957611889302076
44	0x3f68ae96575010b1	0.0030129371975836307
45	0x3fd4680e1b952632	0.31885101979841857
46	0x3fc95d483140be09	0.19815924076964134
47	0x3fce2651cd4bd8c4	0.23554441951973193
48	0x3faef6f74f49cdaf	0.06047795145868961
49	0x3fda3a609d29d724	0.40981307361595243
50	0xbfb24c8e42bfb85c	-0.07148064736949905
51	0x3fd63b6903b64c7a	0.34737611162672233
52	0xbf9cf71695ccff7a	-0.028286316769708254
53	0xbf8a7ca56a3fb769	-0.012933056168516992
54	0x3fc3028c8985b2a9	0.14851528849557852
55	0x3fd72dfc65fb8dc3	0.36218175849191087
56	0x3fc23d13523fb661	0.14248887554224424
57	0x3fcab0031429da29	0.20849646076722309
58	0xbf93a35f08dd322b	-0.019177899280565718
59	0x3fd0ca1abaaf0cdf	0.2623354743083847
60	0x3fb002c441cb0c68	0.06254221540716431
61	0x3fbe255ec39fa0e8	0.11775772357907821
62	0x3fc25549b68fca9d	0.14322778143067164
63	0x3fe06c9b4cb7250b	0.5132576464031059
64	0x3fd0ad5c78df3ae5	0.2605811291113425
65	0xbfb96dba04f83413	-0.09933054562880299
66	0x3fd1acd06af90ecd	0.2761727375657131
67	0x3fabad3b6ce369ec	0.054056031267197685
68	0x3fcd3d5c96047d26	0.22843510937762196
69	0x3fcbb29f3fe46e40	0.21638861293546263
70	0xbfbf4ddfbbb238fa	-0.12228201229502025
71	0x3fb7ca8ef2eda666	0.09293454581134028
72	0xbfaf34f2d3c78a1a	-0.06095084033201577
73	0x3fd1cca1bfdd1ad8	0.2781147359532219
74	0xbfd08638a59ff573	-0.2581922166280812
75	0x3fbc351cfaa8d8fc	0.11018544311159312
76	0x3fd32ef7e72215d7	0.29974172183605446
77	0xbfd0b7d0792c8005	-0.261219137510125
78	0x3fc28db1e1b85f50	0.14494918366903642
79	0xbfc3787e617fad6e	-0.1521146751468722
80	0x3fe18ab3ebe596d6	0.5481814963684097
81	0x3fbde289ed4ae5e6	0.11673795741344115
82	0x3fca2b3c0df1fb3c	0.20444441491050636
83	0x3fb62d261790ed0b	0.08662641597122815
84	0x3fe39f234db44527	0.6131760137233514
85	0x3fae14a42d34ab80	0.05875123073413757
86	0x3fc899d13bc4c9eb	0.1921941320266137
87	0x3fd7d81ed929c288	0.3725659485562933
88	0x3fd73aa918df2cbf	0.3629553549660151
89	0x3fc3a3580e64a438	0.15342236235417928
90	0x3fc3b5d3f5c1c929	0.1539864492402299
91	0x3fdef5f1f629037a	0.48376130141337337
92	0x3fb10baa9c9c3c43	0.06658426593297499
93	0xbfadaf5522bb64fe	-0.0579783062837098
94	0x3fc303aa20ccfb90	0.14854933358762112
95	0x3fd0e7611f516390	0.2641222768630138
96	0xbfbc6886a19e9e87	-0.1109699387148969
97	0xbfa45670bff60d7f	-0.03972198813701321
98	0x3fca598fd8a6384f	0.20585821226672116
99	0xbfd1e60c72c3f658	-0.27966605384412935
100	0xbfd37b37ff8c2b47	-0.30439567523778915
101	0xbfb20e0aa192d99e	-0.07052675671261574
102	0x3fb48c6dd1d4c8f8	0.0802677762301619
103	0x3fbb7d7f908e9702	0.1073837020799964
104	0xbfc59d7953a4e12b	-0.16886822303946167
105	0x3fd9dcd97da77028	0.40410458823112316
106	0xbfd2e44739fac64f	-0.2951829973418158
107	0x3fb6dfcc1bc07ea4	0.08935237576997196
108	0xbfd522da23a3dd81	-0.33025220375517256
109	0x3fc191d876fe181c	0.1372633534448945
110	0xbf90061b4b389786	-0.015648294893388058
111	0xbf87290ca3031c05	-0.011308764195190344
112	0x3f8c45dd32dd2730	0.0138051301143097
113	0xbfc0fab8af352d31	-0.13265141062798017
114	0x3fb61627951a4baf	0.08627555265620289
115	0x3fc1e2150a72c70e	0.1397119809167226
116	0xbf94d4849b78322d	-0.020341941823106936
117	0x3fd744a99beb9192	0.3635658285768609
118	0x3fe047b286c2fb55	0.5087521202147892
119	0xbfb095d2b4a2715d	-0.06478611860297208
120	0x3fcc4c0def362ea6	0.2210709970498687
121	0xbf8b3c299144eaa5	-0.013298344369663548
122	0x3fb891a394e5ebfd	0.09597227463920883
123	0x3fe1f8b6096ce803	0.5616102394189969
124	0x3f737c2dcd4891ab	0.0047570981155654985
125	0x3fc9ad51bf6dbbf2	0.20060178610898977
126	0x3fd8f1229029d726	0.38971771315060477
127	0x3fb91a3125dfdb3f	0.09805590796154905
128	0x3fddd06d29d7973e	0.46584633909366235
129	0x3fd783c3a893ea07	0.36741725409197595
130	0x3fdfde70fa9c8965	0.4979517409684802
131	0x3fd6ce67b65e1015	0.3563479691440546
132	0x3fc7fde9a8472e99	0.18743630139066594
133	0x3fd1169ff0df65ee	0.26700590632171284
134	0x3fc781437b070a00	0.18363231188966722
135	0x3fd49612651a5313	0.32165965913127187
136	0x3fda16551dcb0e53	0.40761306676379155
137	0x3fc5025d9af73e01	0.16413469378174741
138	0x3fda419513186929	0.41025282730847096
139	0x3fcde240ece509e6	0.23346721236346396
140	0x3fe3518593f05366	0.6037013902119781
141	0xbfe0ca14a0aad265	-0.5246680391342805
142	0x3fd1c2a24e796a6b	0.277504517207183
143	0x3fb667ec5a4fefef	0.08752324299706492
144	0x3fd01af222b1d335	0.2516446436705338
145	0x3fd33472151183f6	0.30007602746451256
146	0x3fe01236bb54d664	0.5022233637634597
147	0x3fcc6e8ad800e8e3	0.22212348506020083
148	0x3fe794f05a4cec44	0.73693101536572
149	0x3f9da32369de1722	0.028942635857240558
150	0x3fc76ef01f0c0a7d	0.1830730582806445
151	0x3fd22e5e91ea22cb	0.28408016442749034
152	0x3fbf0b2da346baa1	0.12126431690442498
153	0xbfb1fdd690210ad5	-0.07027951258445893
154	0x3fcca49d8203bce9	0.22377365921372608
155	0xbfb093a126bbba30	-0.06475264735829778
156	0x3fcdea43f8bb7917	0.23371171612866057
157	0x3fd6cee339912d3b	0.3563774168184925
158	0x3fd1e33ac76e2ea5	0.27949399448037077
159	0x3fb62ea572df1d29	0.08664926580887723
160	0xbfad53db3e19ccd3	-0.05728039868417913
161	0x3fd45c292024f245	0.31812503947347565
162	0x3fdcdd93ea59a70c	0.4510240353180144
163	0x3fd380969db5bf95	0.30472340966570616
164	0x3fdc67c357a1faa9	0.4438331943310155
165	0x3fb76890f63268c7	0.09143930445353297
166	0x3fd808a740c5c745	0.37552815747686835
167	0x3fc0f80db803133a	0.1325699947830346
168	0x3f7a5dfa6d4695f3	0.006437280874171491
169	0x3fd2a59b96aeb2ff	0.29135789599494893
170	0x3fa5676ceee743ad	0.04180469909955007
171	0x3fd76690ca3adf6d	0.36563510655422854
172	0x3fc62d542182620f	0.17325832019993512
173	0x3fdc433a7da13460	0.4416033007481186
174	0xbfce269f8ab7b775	-0.23555368684122482
175	0x3fc81cd38dc51e2a	0.18837971136439197
176	0x3fc06f0207c68029	0.12838769321115365
177	0x3fcf82839672a576	0.2461704716309147
178	0x3fc753abe95e849c	0.18224095244389538
179	0x3fce474a7c1ba77b	0.23655062732660412
180	0x3fd16b53ca9ee008	0.27217573916595983
181	0x3faea2d0859bb185	0.05983592635115812
182	0x3f8f4a80f73a27f3	0.015278823418402232
183	0x3fba986aa692b68e	0.10388819281316783
184	0x3fb9b318d0bb1d29	0.1003890523526151
185	0x3fd90463b256fc64	0.3908929101562022
186	0x3fb268e8e4cd1e71	0.07191329561202921
187	0x3fd8b80807c26b42	0.38623238332518295
188	0x3fe1e3366520d274	0.5589858985100151
189	0x3fc659c601998f78	0.17461466863744213
190	0x3fd54390f5fd59f9	0.33224891683985863
191	0x3fd52444e4356590	0.3303386906241821
192	0x3fd3f56127e954f7	0.31185177705385975
193	0xbf92937b8787b91c	-0.018140726229767798
194	0x3fc2e92c264a4e43	0.14774085874215545
195	0x3f8e5eabfc9dae6a	0.014829009672858013
196	0x3fd4bb53bd0a7345	0.3239335390187999
197	0xbf5d51c520b7e62d	-0.0017895150257331114
198	0xbfb78d8ceaf6f640	-0.09200363861506222
199	0x3fd3df908cc8acbd	0.3105203032343516
200	0x3fd7c4d8374483be	0.37138944051008227
201	0x3fc60fbc8b82c060	0.172355239983065
202	0xbfd7f48e402960a1	-0.3743014933184075
203	0x3fd838c64a56ae97	0.3784652448618799
204	0x3fd984307e2d3931	0.39869320222796306
205	0xbfda41a1b988762d	-0.41025584333860615
206	0x3fc0af477f05c31c	0.13034909918089788
207	0xbfdba631a9af1384	-0.4320186764783147
208	0x3fb791fecdbc2ece	0.09207146189526869
209	0x3fc3094f073ea4ac	0.14872157911057593
210	0x3f5361c077fdebf2	0.0011829738213850996
211	0xbfcd123627aecc75	-0.22711827218663286
212	0x3fd913ca3d7e3423	0.3918328857915318
213	0x3fc5e40cbf666ee8	0.17102202745160544
214	0x3fde48c9299169a2	0.47319249209763303
215	0xbf8492c618cb5ce4	-0.010045573836960427
216	0x3fa3d535f23a3624	0.0387360437572222
217	0x3fc049ce38480676	0.1272523665248177
218	0x3fa17c96e80fb9a4	0.03415366728573879
219	0x3fa2fd396870e6d8	0.03708819770731758
220	0x3fccb789a0da34b8	0.2243511233722637
221	0xbf5698492bb96ff1	-0.0013790812071396953
222	0x3fbbd5b62a0bcce0	0.10872972990528096
223	0x3fc52f7f310e2deb	0.16551198859484315
224	0xbfb58b499f328280	-0.08415660988476681
225	0x3fb91a3002bfa9f6	0.09805584017855282
226	0x3fe0adcf40d84a02	0.5212169901372479
227	0xbfcf6964fe604851	-0.24540388508518388
228	0xbfdf5e6e6f07f28d	-0.49013863413691966
229	0x3fdc18c556574ab2	0.43901189262139007
230	0x3fa92615b95edac5	0.04911868942092704
231	0x3fcd9234ab743286	0.23102434512874853
232	0xbfc52acd49038513	-0.1653687101852844
233	0xbfb4169bcf1bcd51	-0.07846998030054421
234	0xbfb09df79e4a7d57	-0.06491038908506162
235	0x3fcc6e4db2db734e	0.22211619599593252
236	0x3fd877adf122b0ed	0.3823046545828806
237	0x3fdd05809a544852	0.45346083708966944
238	0x3fccc60e874dd27d	0.2247942124046353
239	0x3f82ab5a4bea3ddf	0.009115891877882141
240	0x3fd35a6f8d393110	0.3023947600493253
241	0xbfa3b577c788e764	-0.0384938651154261
242	0x3fd4e8dc14a01369	0.3267126275462063
243	0xbfc6d3cd91b73d5b	-0.1783387147429306
244	0x3fda5d45fda83977	0.41194295664981645
245	0x3fdd4ad4b74dec37	0.45769231701678187
246	0x3fdbea035a4cfe98	0.4361580259173734
247	0x3fb10ed7912868a3	0.06663272184269657
248	0xbf440449c86900b1	-0.0006108627574761464
249	0x3fb02cb4ce3d042d	0.06318216357341618
250	0x3fe87640055aef9f	0.7644348244279974
251	0x3fd79eb9d1779fcd	0.36906285720624227
252	0x3fe1dac04c272679	0.5579530227052621
253	0x3fc088953a6aabe5	0.129168180011532
254	0x3fd5ad5c70f11ecc	0.33870612172584624
255	0x3fa71134d3a0a193	0.045053149064474905

lin2.bias f8 [64]
0	0x3fd8cbde876c81c3	0.38744319176660386
1	0x3fbac891fb320ade	0.10462295897199733
2	0x3fcf228c3da5099c	0.24324181566232717
3	0x3fd437f01e52eeaf	0.3159141822941178
4	0x3fd37aedf1afafc5	0.3043780193536317
5	0x3fd1b59383c0557a	0.27670753351534183
6	0x3fdef7f406305816	0.483883863490861
7	0x3fc9e0de28c47b0f	0.20217492094612807
8	0x3fd13acf4f1e31b4	0.2692144653927031
9	0x3fa435d76a7e27b2	0.0394732778068624
10	0x3fd1fd36cfc28799	0.2810799626259893
11	0x3fd2de277936eee3	0.29480921590196213
12	0x3fdaf12f05e5bd02	0.42097068382186376
13	0x3fcf4af6c0ad4fb6	0.2444752159886982
14	0xbfaaae5c7a1e5b2c	-0.052111520678570805
15	0x3fd25a64644824c4	0.28676709931512456
16	0x3fd0a522ccd13007	0.26007909776376475
17	0x3fdcde5b61fa975a	0.4510715920281335
18	0x3fdc63c3ac8d251d	0.44358913279264006
19	0x3fd9fc895714ab8f	0.4060386038205985
20	0x3fd5fc2c7127d03d	0.3435164551767718
21	0x3fd30816f2b0a48e	0.297368752481426
22	0xbf642beeb30cee1e	-0.002462354860112161
23	0x3fcfa2890bc11661	0.24714768480241658
24	0x3fb5342b6b849d77	0.08282729506446694
25	0x3fd4d81a6e522866	0.3256898953774282
26	0x3fd75985d4662bc8	0.36483903638935233
27	0x3fd0d92e192b90f1	0.26325561960244587
28	0x3fd5e8cbf9247860	0.34233378725355657
29	0x3fd12eea103d9e5e	0.2684884222603382
30	0xbfb51d3e2d9f0514	-0.08247746099279524
31	0x3fcd60af85fb6729	0.22951311151592194
32	0x3fb85cef8dec315c	0.09516808714778818
33	0x3fc689eb117f5019	0.1760839305339921
34	0x3f93a848b2135f37	0.019196639889599267
35	0x3fd97c23b6d3ff03	0.3982018742972146
36	0x3fce45be73aa17bf	0.2365034165160846
37	0x3fd4115a97653edd	0.3135591963264071
38	0x3fc92d7158d217e8	0.19669930302569516
39	0x3fc957ad9dadd415	0.1979882259289815
40	0x3fd903c09ff76d4d	0.3908540308163609
41	0x3fc3a9d33bfe905b	0.15362015180028518
42	0xbfb91272822654f5	-0.0979377334354757
43	0x3fd5933303ba5bc3	0.33710933078822
44	0x3fc8a4efd9c735b6	0.1925334752435625
45	0x3fd9292e16ecd178	0.39313843001152504
46	0x3fd8c578570fc9f5	0.38705261709324584
47	0x3fd2a0eba00deb7e	0.2910718024283411
48	0x3fda9e330b489efe	0.4159057245437764
49	0x3fd7fff682c2fd00	0.3749977375955069
50	0x3fbb58e76f68a0bd	0.10682531804980307
51	0x3fd903e768910ffc	0.3908632775458043
52	0x3fcc2f4aaea1b01a	0.22019322897847432
53	0x3fd00f8d18a7a459	0.2509491673250231
54	0x3fb047a9df10f11c	0.06359349914504658
55	0x3f9ca70528fa54ef	0.027980881334390636
56	0x3fcd8910d71fab84	0.23074541572654195
57	0x3fdf6302eb5ad4ec	0.49041817649715713
58	0x3fd35d002700594b	0.30255130585409934
59	0x3fd203ac718da3c3	0.2814742192190886
60	0x3fd7bc5e2a640d24	0.3708720602009683
61	0x3fcd8884f494200a	0.2307287401420129
62	0x3f8a021c8dbd8f25	0.012699339938712815
63	0x3fce43771b6ef24f	0.23643387641449684

lin3.weight f8 [16, 64]
0	0xbfcc165397047663	-0.21943135141275424
1	0xbfa6f61d8ae95c00	-0.04484646149347071
2	0xbfc87e077e756cd0	-0.19134610819569398
3	0xbfcf5d736f0dab10	-0.24503939554718857
4	0xbfe1b906eaf00c72	-0.5538363064409977
5	0xbfa35df83855cacb	-0.03782630622563018
6	0xbfe6f1e61ffe659d	-0.7170286774518676
7	0x3f92db6f3f9a44af	0.01841520143222358
8	0xbfdb51861ff29d26	-0.4268508254994735
9	0x3ff9812cf394961f	1.5940370097026813
10	0xbfb80b0ffb7f0574	-0.09391879930537589
11	0xbfbcfb54241dc1ac	-0.11320997125381521
12	0xbfda7db2062b5d3a	-0.41392183878402344
13	0xbfd378b4741157d8	-0.3042422421907509
14	0x3f6d67b7c2f2c08a	0.003589495572292438
15	0xbfc0dc8c01280f47	-0.13173055702656652
16	0xbfa70256fa4a86d5	-0.04493972592650911
17	0xbfc787b60c613137	-0.18382907490230035
18	0xbfd395726cf3da76	-0.305996519469239
19	0xbfd069d371e338b1	-0.2564591037925182
20	0xbfb30a0668d1d24f	-0.07437171992371215
21	0xbfe0a0e7f1b1303f	-0.5196418495702416
22	0x3fb2703bb0f6652a	0.07202504225133013
23	0x3f7f9290d80783ee	0.0077081354106391786
24	0x3f86611991935367	0.010927390818702155
25	0xbfb5bdfea4348504	-0.0849303389445773
26	0xbfcf59e8aaa18966	-0.2449313004645532
27	0xbfc133c70c671f66	-0.13439262490851006
28	0xbfa399cace161d2e	-0.038282716424016136
29	0xbfe69b5fda023f97	-0.7064666040405311
30	0xbfad9f7d7c1975e3	-0.05785743846784521
31	0xbf9406824b56e3c6	-0.019556079719879958
32	0x3f74d1271d89be05	0.005082276148285829
33	0x3fb600b9e52b0b93	0.08594858021665024
34	0x3ff26ea210990035	1.1520100258203574
35	0xbfcc79458236e9d1	-0.22245091302995815
36	0xbf99f88a217c3d34	-0.025362165731221256
37	0xbfe7b764ec2a29f3	-0.741136990794358
38	0xbfb62495cd0c6182	-0.08649574523986384
39	0xbfcf52dbe886ff95	-0.24471615651964088
40	0xbfa7a4373d63c046	-0.04617474197755249
41	0xbfb58263eaa9be7b	-0.0840208480747097
42	0x3fb71e5487c78f4c	0.09030655207567156
43	0xbfc42d42f450a04d	-0.1576312725967476
44	0x3f639f149f23579a	0.0023951914564390277
45	0xbfd3b65523fe0958	-0.30800369753719314
46	0xbfb90b833e0da411	-0.0978319193360593
47	0xbfa20f04513173dc	-0.0352708195793878
48	0xbfd1af24df18e00b	-0.27631494318802713
49	0xbfe030d627a5a649	-0.5059614920002754
50	0xbf95c0adacd6ecb9	-0.02124282233647243
51	0xbfdc9a634b562a15	-0.44692308766448835
52	0xbfc4e116a174b059	-0.16311915286621817
53	0xbf8aeeca470c6870	-0.013150768559672538
54	0x3fe2c8b01d7373cb	0.5869980406965792
55	0x3ff74c28c3a428e0	1.456093563293102
56	0xbf972cdbd3180e1d	-0.02263205982127491
57	0xbfdd885c3969c318	-0.4614477692294243
58	0xbf93f09b37d6a07a	-0.019472527773956895
59	0x3f9eba05750c15f0	0.030006490010256515
60	0xbfc81c748288ab3b	-0.18836838124965447
61	0xbfd1fdd4e99863a4	-0.2811176568225682
62	0x3fec7fc94762a3fa	0.8905989069218088
63	0xbfdb2bd847700c5d	-0.42455107666336805
64	0x3f9c4299df306aae	0.02759781288851098
65	0x3f861594eb7bfdb0	0.010783351360713705
66	0xbfc7b544745da97f	-0.18521934205939414
67	0xbfe8f4d073ddeca9	-0.7798845541978113
68	0xbfd19c107d83c0dc	-0.27515041596690337
69	0xbfc8ecdc56fda656	-0.1947284149894581
70	0xbfc056eb3ef4989a	-0.12765255521771196
71	0xbfc65192ed91eff8	-0.17436443901158305
72	0xbfbcc4b984efde0a	-0.11237678046733648
73	0xbf71748ac9181875	-0.004261533862068946
74	0xbf8660919547c058	-0.010926377647564475
75	0xbfa2e6f319e0b59e	-0.03691825571909678
76	0xbf96801cf8cf5d0c	-0.021973087965162327
77	0xbf99d8e63ae15988	-0.025241467803732515
78	0xbf77ebd5dbdb6f60	-0.005840144525531915
79	0xbfd213fee3481f49	-0.2824704379604453
80	0xbfc2ddc4c84424dc	-0.1473928430425876
81	0xbfcee1119ca4c222	-0.24124355457890184
82	0xbfb8e5ffb6ec0e54	-0.09725950446959902
83	0xbfbe159a2a4d64e5	-0.11751712353488449
84	0xbfcca57b9fb2cdbf	-0.22380013749862646
85	0xbfdc3828df645a30	-0.4409277135431777
86	0xbf9c686b20428c21	-0.027742074817649013
87	0xbfd2c0e5eecc8d3b	-0.2930235702535417
88	0x3fb1138134c31081	0.0667038682759671
89	0xbfcc66f4cae340ee	-0.22189197451235237
90	0xbfc6125d838e12fb	-0.17243546413023822
91	0xbfca3acb1a57019b	-0.20491923128248576
92	0xbfc2a89b7cce3f45	-0.14577048868204137
93	0xbfde39c0c494dbfe	-0.47227496335420927
94	0xbfa7316c279c471c	-0.045298938594113575
95	0xbfbb25ff337ed90b	-0.10604853636946047
96	0xbfccfde036249618	-0.226497675358744
97	0xbfd21d82eaf59c09	-0.28305123276953786
98	0xbfdf91e90a7f60f7	-0.49328065896180767
99	0xbfc84d21266860b4	-0.1898538053071711
100	0xbfb8b082c44a76ce	-0.09644334118135164
101	0xbfe9b5b05f18f5c1	-0.8034288270352407
102	0xbfbd99e333fc10d7	-0.11562938708454183
103	0x3faebfd53577fb86	0.060057318474711116
104	0xbfcdf3fee5c43cb6	-0.234008657637309
105	0xbfc823d2d056f858	-0.1885932462009261
106	0x3fac13a7f7474c3a	0.054837464270939454
107	0xbfb8660214a3d5bd	-0.09530652049928441
108	0xbfc50455c370459b	-0.16419479411028423
109	0xbfc6c4a07a39d7da	-0.1778755757147213
110	0xbfcb5b266ae0b146	-0.21371917933118761
111	0xbfc54b68ff62d013	-0.16636383504885596
112	0x3fae5d014ba4cf31	0.059303322299824386
113	0xbfce4fcbc41fbda3	-0.23681017948500224
114	0xbfd6b25d79dd55fb	-0.35463654423560315
115	0xbfe7b1ea37f8006e	-0.7404681294574524
116	0x3f7da5e971150179	0.0072383040254070325
117	0xbfc74b11a51a923f	-0.18197842179974263
118	0x3fdbbe57796d6466	0.4334925351918798
119	0xbfcd2c8a1999aed5	-0.22792173624053783
120	0xbfce05910b933858	-0.2345448786276758
121	0xbfe2f568cd450c11	-0.5924571999715927
122	0xbfcfcbceb512d766	-0.24840720979198777
123	0xbfc33301f9b824c1	-0.1499941319782803
124	0xbfcf1e5f7d0c9994	-0.24311441045683735
125	0x3facdba0079a63c1	0.056363106659041325
126	0xbff1c423afa31508	-1.1103855954000341
127	0x3fbc04d9e49e525c	0.10944902259354578
128	0xbfd13b662ccd176a	-0.26925043463813003
129	0x3fb12ffa823c17eb	0.06713834456976968
130	0xbfd4580cfa274cac	-0.3178741877465636
131	0x3f6290087e328153	0.0022659459951485466
132	0x3fa5def14278300e	0.04271654068369922
133	0xbfcd623d975a036e	-0.2295605649015004
134	0x3fc3eeb43faff01f	0.15572217092255955
135	0xbfd4597b326cf226	-0.31796150135395107
136	0xbfc6a876f6dfbaf7	-0.17701613478080677
137	0xbf9a009d55fdd033	-0.02539296948766907
138	0xbfc2b0bffeeb7c88	-0.14601898143061853
139	0xbfcd0055c2144381	-0.226572723164761
140	0xbfd4209b66e6f7e1	-0.31449017571492105
141	0xbfc84659fca737c4	-0.1896469577463319
142	0xbfa59c5cd1736d13	-0.04220857674382663
143	0xbfb9d5674da9ccfd	-0.1009125294311168
144	0xbfbe3bb46bada900	-0.11809852246156893
145	0xbfa705118fba1512	-0.0449605453441483
146	0xbfc75323120656fe	-0.1822246397029445
147	0xbfce2a9f7a6fd1cf	-0.23567574957236423
148	0xbfd03d3d585078a9	-0.25373777031371475
149	0xbf83f991239f02b1	-0.009753354930468335
150	0xbfd2393c9806984c	-0.2847434506060196
151	0xbfc375ced70d026b	-0.15203271389511328
152	0x3f8acc27aaaa9668	0.013084707160781764
153	0xbfcf7844474d93f5	-0.24585774880975433
154	0xbfd06218d02ef2aa	-0.25598736124428945
155	0xbfc744e2064a62b2	-0.1817896395412127
156	0xbfca485fcdf231d9	-0.20533368640862085
157	0x3fb735e5c0802178	0.09066616010398387
158	0x3f911a190a0d4bd2	0.016701117743035905
159	0xbfd06a72244188ee	-0.2564969400465448
160	0xbfbf42c6c3ffd627	-0.12211267743244801
161	0xbf91cd02e8fb35fd	-0.01738361880307159
162	0xbfc8818502e4a4df	-0.1914526237608589
163	0xbfc00da7901bc9ae	-0.1254167035727511
164	0xbfb70bd64099a766	-0.09002436711457804
165	0x3fe19fb521c6e966	0.5507455501276979
166	0xbfd7b107ed0d5bc2	-0.3701801123583516
167	0xbfbd8f7145a2a6f1	-0.11547000837404277
168	0xbfc7203c6a161c30	-0.18067126445768755
169	0xbfd38514849386f6	-0.3049975676241127
170	0xbfbb2fb2369e02fa	-0.10619653542927301
171	0xbfc744879c9a6f77	-0.18177886149066655
172	0xbfaf47c4eaad163d	-0.06109443058680284
173	0xbfb798e22c7af06e	-0.09217656694358009
174	0xbfc1173726358dce	-0.13352097860034323
175	0xbfc2fc27262686b3	-0.1483200966150001
176	0xbfccf1a93e5a39a1	-0.22612491173317742
177	0x3fd7ee3c36aa5e3f	0.37391572321346084
178	0xbfcf2e08b0edb65e	-0.24359234465684926
179	0x3fc16e91719880ed	0.1361867718378628
180	0xbfcfb40640c79770	-0.2476814094836146
181	0xbfd0069f50379fe1	-0.25040419419974397
182	0xbfee413f419e6647	-0.9454647332779097
183	0x3fdbf3340c1f00db	0.4367189520235237
184	0xbfce198a0332dc13	-0.23515439182458006
185	0xbfd0d40ff12bd67d	-0.26294325401190816
186	0xbfd492dfd591f369	-0.32146449905831403
187	0xbfd108a653a28f0e	-0.26615293662529005
188	0xbfbf625a4edac93f	-0.1225944941059298
189	0xbfc9fec8364ab6cd	-0.20308783198327376
190	0x3fd80213c156cbbf	0.3751267803265214
191	0xbfd1d7f72baa5517	-0.2788064886493244
192	0xbfca6cb95a5d7f3c	-0.20644299423565282
193	0xbfd6543472a4384d	-0.3488894576593154
194	0xbfd2d2dba18c2fd0	-0.29411974693425424
195	0x3f96511108dfa72c	0.021793619314770016
196	0x3fa4fd02efab3e96	0.040992824322185914
197	0xbfbbb026aeed8b21	-0.10815660258007799
198	0xbfc5205902d17f77	-0.16504967343916707
199	0xbfc0a18f8353b1f7	-0.12993043816040004
200	0xbf9fb0ccaa5449dd	-0.030947873970100893
201	0xbfd07ee47965e936	-0.25774490218431667
202	0xbfc9f90c1b0c5116	-0.2029128200598584
203	0xbfc6005d4b2a8bee	-0.17188612146591659
204	0xbfcc6e19c14d98a3	-0.22211000383976395
205	0xbfc759486ac73e6a	-0.18241219724449148
206	0xbfb2d16facb49a5b	-0.0735082432407607
207	0xbfca41592a7ad816	-0.20511927198612118
208	0xbfc30f360dc4a784	-0.14890170738481967
209	0xbfbe5a25991c56f4	-0.11856303203634494
210	0xbfc24c93e7c21fb7	-0.14296196762393062
211	0xbfceb706e35c6d55	-0.2399605379258484
212	0xbfd40ddbf4074b69	-0.31334589796931894
213	0xbfaf56415b51e762	-0.06120495071168254
214	0xbfa9ecc8c5f6d0a1	-0.05063464561990939
215	0xbfc435dd2af2f226	-0.1578937968933058
216	0xbfa320dbd69f909f	-0.037360067319043504
217	0xbfcd8040d26adacb	-0.23047647737776908
218	0xbfcf8b835e40de16	-0.2464451036664605
219	0xbfd53d5c1896484a	-0.33187010193899324
220	0xbfc8752b2870ed6a	-0.19107570147194092
221	0x3fd9fde527cc32ed	0.40612152945031604
222	0x3fb497fe7ce1f0fe	0.08044424580470275
223	0x3fa001683f399f62	0.031260736196428565
224	0xbfca3b1463e2fe8a	-0.20492796780853367
225	0xbfd590c18c4b4dae	-0.33696020794487935
226	0x3fe0f557338baab0	0.5299488074063756
227	0xbfd33bbb271137fc	-0.3005206948772636
228	0xbfb10cba65748b28	-0.066600465554569
229	0x3fdc7a6d60d72896	0.44497236687733144
230	0xbfd2dd3b657e6900	-0.2947529307508745
231	0xbfd2d1ee0c7fa197	-0.2940631029182667
232	0xbfa2ac0d968f076d	-0.036468910816906376
233	0xbfd07990892af804	-0.25741971392915297
234	0x3fbc24b127484424	0.10993487557449605
235	0xbfc491eb65ee36b5	-0.16070311047626765
236	0xbfd055c2725579f3	-0.2552343479673304
237	0xbfd57078da348c07	-0.33498975094897826
238	0xbfd497a3ddf837b7	-0.32175537754744304
239	0xbfd11dd7b3dce437	-0.26744644703609616
240	0xbfa5b3742be875ed	-0.042384748802060425
241	0x3fc68bff7b6a182b	0.1761473991975334
242	0x3ff7a86df9a4e160	1.4786205054970978
243	0xbfae1c389fd90448	-0.05880906058565266
244	0xbfc59c8a81d1adc2	-0.16883975352116748
245	0xbfcbeb841a7db2f3	-0.21812487882143436
246	0x3fc85d7fb459efe4	0.19035335832802425
247	0xbfd080e2d9716f1a	-0.2578665851085461
248	0xbfcfc5c5c9d18ff5	-0.24822304109977691
249	0xbfb75520589693af	-0.09114267504499084
250	0xbfc645501a99da79	-0.17399026202084025
251	0x3fa7122de060f1f0	0.04506057132718755
252	0xbfc105109a1d73bc	-0.1329670670046691
253	0x3f9cc67417022fd1	0.028100789932565654
254	0x3fcb5f68d82a641c	0.21384916834793521
255	0xbfb8a3d018878475	-0.0962495860944886

lin3.bias f8 [16]
0	0xbfd62b50ef88e77f	-0.34639380828922833
1	0xbfcb60974c43f015	-0.21388522361655818
2	0xbfa29c681a2f70ac	-0.03634953803677496
3	0xbf9f02e21b72e0f8	-0.030284436154688316
4	0xbfa825eb8f1bfbce	-0.04716430780353385
5	0xbfd4839da12c99cc	-0.3205331872908601
6	0xbfc15a4b285b6bd3	-0.13556804152071197
7	0xbfbbc28efb3b9326	-0.10843747743235763
8	0xbfc04c5c5fea0476	-0.12733034785563618
9	0xbfd4afc432c5dbd5	-0.32322792967118846
10	0xbfc06a24c92d91a3	-0.1282392484964819
11	0xbfc11bf2655526d9	-0.13366537044412644
12	0xbfb58081113c363a	-0.0839920680120593
13	0xbfcc54995160eafa	-0.22133175347865813
14	0xbfd1a37467229511	-0.2756014830759606
15	0x3f94666c559db9ff	0.019921963430016728
