LP4-MachineLearning/HW_B_tetris/Strategy/dqn_action_10000.pth (torch, 54623 bytes, 6 tensors)

lin1.weight f8 [64, 20]
00000000: 281b c3d5 c795 eb3f a003 9ca3 7924 c83f
00000010: 7cdf d402 dcd0 e0bf 720e 8eb2 708b cb3f
00000020: 8754 2c75 e264 9a3f 307b d2bc b57f ea3f
00000030: 305b c2f3 338d a23f 9953 e00a 9f73 db3f
00000040: 2982 a41d 07a7 d33f 25f9 fc8d 853e d23f
00000050: 9db8 787e 867c e2bf 95e9 daf5 f314 f83f
00000060: ed8c 0453 7eef bdbf 81b6 c842 bf83 813f
00000070: fa15 3a80 12ca d1bf d0f7 515f ffbb ddbf
00000080: bb31 2ccb cee8 bebf 22e7 29f7 aeab b8bf
00000090: 455d 1c44 54f1 ec3f 2f2f 181a dad5 edbf
000000a0: 4610 069d a77c e23f 5b43 fd67 04f5 b0bf
000000b0: 79b7 4ac8 a326 a23f f025 e832 21f8 cbbf
000000c0: 061a 8bbb 51b1 f73f 693a 5394 c944 edbf
000000d0: fbc9 e697 e380 abbf 41e5 8d73 8d43 c8bf
000000e0: 7876 7388 2585 ba3f 6bba 57e1 f2aa fabf
000000f0: bf23 90b6 be27 b73f f9e2 16b1 4555 c5bf
00000100: 6eda b119 3a8c f03f 67ed 7e8c ef4e c6bf
00000110: 4043 70f2 d55c dfbf ade3 452e d3c2 d13f
00000120: e890 d603 1312 dd3f 9385 a36a ab4b d03f
00000130: c950 d7c8 fdb3 d2bf f17c acb3 8c53 eebf
00000140: ec64 8ea5 ea0c 96bf 8d9d e5b9 61da f1bf
00000150: 0d80 3d68 0ba2 dbbf b7e4 ca32 0f2f b8bf
00000160: 66dc de2f 6ee9 e6bf a9b0 c68f 9439 f43f
00000170: dc8a 0e3e a258 be3f 2c76 fbf1 2660 aebf
00000180: 34de 9bb0 9893 f0bf b5cc ce09 2944 e83f
00000190: 6c44 6379 cc80 b03f 6eb0 1335 a40c c63f
000001a0: 3a0e a959 54ce d63f 9354 da0f e2eb ec3f
000001b0: 94e4 387a 3917 e5bf a2a4 985c 2686 dfbf
000001c0: 6bc5 3ae7 3e19 e1bf a310 aa63 1bf2 d33f
000001d0: 442c a4a9 0c38 e63f 265b ecfb 55dc c13f
000001e0: 2f3e 987d 1004 db3f 594d c839 ec43 dc3f
000001f0: 714a 9802 dff4 bbbf 26ad 32ea d822 e2bf
00000200: 7efd 9c07 14b1 a23f 7fd2 549c c19e e23f
00000210: 8e3a 3737 6362 bd3f b181 80ec ff5e e1bf
00000220: dccd d5d6 3f1e c4bf 5df3 4deb cd3b c0bf
00000230: 5d23 73c0 478f f13f f4ec 6277 ed62 a13f
00000240: 15da f40d 8c39 ebbf 58f9 e7e6 90e8 e0bf
00000250: 6db0 60e0 8ccd dfbf 4a26 a6ba c111 e9bf
00000260: 51f1 aca2 e63b f73f 700e da0f cce4 e33f
00000270: ba50 be18 cb01 f7bf e164 a94f cf91 e4bf
00000280: 16c8 893f c9ce e8bf 1177 b4b6 4eb6 d53f
00000290: 9439 7adb 273c c93f b253 cca3 10ce ad3f
000002a0: d702 e719 b5c8 e4bf 66ce c7ab 008f ccbf
000002b0: 07f8 6c33 55ef ddbf 017d 7e53 7e7c bc3f
000002c0: 0bb3 53f8 c51e f13f c039 ae64 3042 d53f
000002d0: 3db3 7310 d19b e7bf e2ac 13ea 728e bdbf
000002e0: 8171 03de b475 ed3f 134f faab 6705 a7bf
000002f0: c5da 0a83 0751 f13f fc30 91e8 9cca d3bf
00000300: 3d10 eaef 56c4 dabf 03ad 5a20 f910 e3bf
00000310: 40a9 d7bf e676 c83f 4c0c 0941 125f d83f
00000320: 7df5 df37 a8b6 c4bf 4b26 ff08 a640 d3bf
00000330: 6ac9 2db1 8641 c1bf 8eb8 607a 89ac e33f
00000340: 9f2d f735 bcbc cabf d0ba 5692 81a9 bf3f
00000350: f44b d58b b65f e6bf d145 9169 6f9a b2bf
00000360: 8400 7ac9 0cfe f93f 2218 ef77 f375 e3bf
00000370: 35e5 3fee 9a3c e9bf 8c94 2205 2dcd e73f
00000380: 7464 3776 b42a d43f afc1 5ea0 e950 3a3f
00000390: 2391 6e45 67e2 cbbf 0764 d7aa 1fd7 e33f
000003a0: 124f 3318 a512 ca3f 338d c9de e391 813f
000003b0: 43d6 51e6 2b16 d03f 48eb 4b8d e4f7 f0bf
000003c0: 280e 03c0 be5b d8bf d861 da8b 2c50 a5bf
000003d0: e7a1 b725 292c f63f 4706 f3c0 8c39 a8bf
000003e0: 865e 3e5c faee e0bf e070 f4ab ad9b e33f
000003f0: 5891 d068 f781 edbf ab94 f108 9475 f7bf
00000400: ecd5 383c a7b5 d93f bc5b c251 459e e6bf
00000410: d557 3874 c957 d33f 28ec 89d4 2711 b33f
00000420: f9a4 8c3c 4f73 ee3f c01f 72fb 79f6 e4bf
00000430: 3e79 ee81 8f4e a7bf a0bf 7260 2b13 e13f
00000440: bbb0 3faf 78e6 e33f fdec 7ff7 92ce d43f
00000450: ed3b 8b8a 7fbf da3f b11d 531c fe14 e5bf
00000460: 5363 c469 fdf6 a8bf fffc 9ffa 3533 c83f
00000470: b7cf 0ea6 f114 e73f 06bf 9c8c 4bbd c8bf
00000480: a8a3 c04d 3833 e93f 8a1a 65ee 5ab0 d3bf
00000490: b7ce 51ae 11fe f0bf c3f0 90ba 42f2 bf3f
000004a0: 98a2 84cc 4f8e e23f b79e a39a b141 debf
000004b0: cd95 19a3 3b7b c23f c378 804d 0128 b83f
000004c0: 0961 a78a 017a ddbf e283 1f82 0371 f13f
000004d0: 0d6b 2245 468e ed3f 3ebe 8a37 c93b e5bf
000004e0: 0753 9c0e e4ba e73f 2e5a 1a77 feb2 bebf
000004f0: 719f ea66 c3c0 e7bf 11a1 d67e 94b4 d33f
00000500: c004 d059 6ade d2bf 132c c307 b101 d5bf
00000510: 6502 c346 bc20 de3f 69f2 6609 796a d33f
00000520: f806 cc37 56a7 eebf 4d9a c163 e421 edbf
00000530: ca1d 4e46 94fa f03f 0782 147b 51de f23f
00000540: bbfd fad9 ef62 ddbf 041b 9f37 b1e5 f4bf
00000550: c6a4 45ea e309 c1bf 1572 e91c d3dd ca3f
00000560: cb47 334f bad4 e33f cdb6 c663 345b d6bf
00000570: e912 147d 43cc bf3f 9346 0067 8dc9 b7bf
00000580: ef44 7533 12a7 e43f 9c06 91e3 0681 f33f
00000590: 2249 3593 16a3 e53f b1e1 d6f2 b7bf b73f
000005a0: 95bd 9bc5 533a ddbf 6377 258c 5b94 c9bf
000005b0: 6391 ccf2 2804 d8bf 6319 c005 df9e e63f
000005c0: befd a2a2 e1b6 e73f c7e4 5da0 4653 d33f
000005d0: a933 b99a 4dd1 e7bf c8f6 9bd1 b189 e2bf
000005e0: 9111 9d49 1f1e c83f 7c69 5dd2 5b54 bc3f
000005f0: b8fa 973d 17f2 e13f 04e0 98da 91a8 a1bf
00000600: 1902 3cf9 2f44 7ebf 477e c470 912f ce3f
00000610: bba9 4673 87a8 e43f ce70 3a20 81e9 ccbf
00000620: e04e 898b e9f4 d2bf cf40 fd1f 3bd7 de3f
00000630: 4743 57c7 cfcf b23f b041 1979 1e6c e2bf
00000640: ba4b 3ada 710d eb3f 93bd cb2b 6f24 cf3f
00000650: d7e5 9135 7b51 a8bf d410 60db bd2f cabf
00000660: b2e2 acdb 7fba b23f a7b6 9c5c acc5 e03f
00000670: bb13 71b8 39c7 f53f c91b ea76 66ae dbbf
00000680: 00d4 a2e8 9fe1 e3bf 0ed3 7aad 8d96 923f
00000690: 65f0 d059 e14a f43f 56a4 c8f4 86ad cebf
000006a0: 24ca f168 75aa e3bf c417 b11d 160e d7bf
000006b0: 6a7d 7a6a 1e56 e73f 5e67 71cf 1bdd a73f
000006c0: 50f9 735a 4251 d83f a89d 8644 f7ca e6bf
000006d0: 690b 331d 814e df3f 3858 7f2e 3150 e4bf
000006e0: 11d4 c4bd 133f d03f 103b 903c 18e1 dc3f
000006f0: 3a86 8a58 ef8f d7bf b596 7d5d 0462 dcbf
00000700: 1166 3d09 7a12 bfbf 00e7 8c19 52c1 e3bf
00000710: 1108 580d a664 febf 84c5 d6a5 8a4b f73f
00000720: 36d1 99dd 7b56 b4bf b280 c16e e6c8 e5bf
00000730: ac66 9dff d3ba e63f 5333 9452 ac10 b83f
00000740: ccde 529c e665 d33f dc07 2e7e 1b0f b4bf
00000750: 12f7 2580 3dfa e3bf 6a51 ed7b eabd e93f
00000760: 5128 604d 2d61 eabf 96d9 7872 ca64 d2bf
00000770: 4443 678d 9455 a93f 2481 d9af e2ee ef3f
00000780: 876b 8293 60c9 e93f dc53 ef62 1888 dcbf
00000790: ed7f 8a3f 5a1c eb3f 159e f0a8 c6be a6bf
000007a0: caa7 9efb 61a8 e6bf 5b6e 443f e3be e4bf
000007b0: 57f7 9c3d a9da dabf 6647 3697 8d2e e23f
000007c0: 4d31 5a2a 57eb e83f 2332 15d8 8ee0 d03f
000007d0: 942a 0ea7 4766 d5bf 40e5 85f3 ef36 dd3f
000007e0: 8798 c61e 9f7f e13f 59e5 3535 f7c0 e73f
000007f0: 01a4 d1e6 9be1 df3f 5848 ff97 fb8c cabf
0.8620337653199828 0.18861313332311358 -0.5254955344489498 0.21519287794591296 0.025775469209368154 0.8280895889218751 0.036233542924654194 0.42893196165214814
0.3070695676306366 0.28506602159531474 -0.57770085050085 1.505115471240605 -0.11693563010026127 0.008552068925463676 -0.27795851251752846 -0.4645994597302634
-0.12073986492413884 -0.09636968168515783 0.9044591265000369 -0.9323549756677262 0.5777166430348266 -0.06623866595078935 0.03545104808777828 -0.21850981698689464
1.4807908368981102 -0.9146469017958455 -0.05371772031084628 -0.18956154005335615 0.1035941560871495 -1.6667355349015007 0.0904502101622162 -0.16666480204528236
1.0342350963307143 -0.17428392753741237 -0.490041243320821 0.27751616972778487 0.45422816634005736 0.254618505610858 -0.2922357999170911 -0.9476989278081459
-0.02153364787554761 -1.115815855178741 -0.4317654149981543 -0.0944680689816718 -0.715994924065751 1.264057695031662 0.11853994383867977 -0.05932733253369479
-1.036034288290364 0.7583203498419581 0.06446531261032512 0.17226078597684896 0.35634335285087426 0.9037943181634936 -0.659085024562176 -0.4925628570804951
-0.5343317524149546 0.31165203793376345 0.6943419755274438 0.13953661728802408 0.4221230722914439 0.44164567606749966 -0.10920518697120386 -0.5667538236788559
0.036507249764777136 0.5818794301363396 0.1147825250438734 -0.5428466433696056 -0.15717313756941464 -0.1268250845859268 1.0974805371826826 0.033957882712877835
-0.8507747910105673 -0.5283894071469986 -0.49692079460033406 -0.7834175725449282 1.4521242479814485 0.6216793355565198 -1.4379378286876503 -0.6427990489857188
-0.7752424469929362 0.3392521652439067 0.19714830605194023 0.05821277617921029 -0.6495004182725904 -0.22311409366340057 -0.46773271581685133 0.11127461946897556
1.0700130176803124 0.3321648581703833 -0.7377705880477162 -0.11545484747664461 0.9206184707832535 -0.04496311163270952 1.0822825545161987 -0.3092415114558802
-0.41823361806041587 -0.5958219177167908 0.19112858168893787 0.38080269194705774 -0.16182425239814427 -0.30082083586294023 -0.13481219912825831 0.6148116483871193
-0.20888474116359831 0.12368020842289273 -0.6991837245099064 -0.07266899421053742 1.6245239134005098 -0.6081483213863559 -0.7886480954468086 0.7437958812994494
0.31510650200431845 0.00040155128260279787 -0.21784678354482265 0.6200102173562535 0.20369399720822706 0.008579044567517435 0.25135323993831465 -1.0605206984898405
-0.38059967757382873 -0.04162730414572352 1.3857814286549173 -0.047314070275672075 -0.5291721154817004 0.6127537115567314 -0.9221150443232018 -1.4662056302416129
0.40171223527008126 -0.7068201634273161 0.30223308896654305 0.07448052348074496 0.9515758688550299 -0.6550874625254366 -0.045521244631560695 0.5335900195841425
0.6218837187602938 0.3251082818021159 0.41793812303234185 -0.6588125756469961 -0.048759383355167295 0.18906283128305998 0.7213066333119887 -0.19327682844004118
0.7875024336436711 -0.3076388671947049 -1.0620285806043464 0.12479035429800249 0.5798720354551561 -0.4727596292636735 0.14438577140678746 0.09436042921194869
-0.4605716566125158 1.090091236394294 0.9236174917490146 -0.6635480961612712 0.7415638242115116 -0.11991873176371179 -0.7422806749427605 0.3078967322021678
-0.294825160701361 -0.3282282424740412 0.4707480135948912 0.30337358396699315 -0.9579268541130821 -0.9103872249950854 1.0611765619558917 1.1792769248787651
-0.4591636303630044 -1.3060772106852605 -0.1331143278032753 0.2098945513888714 0.6197177454835069 -0.3493166899087157 0.12421056560203748 -0.09291919483828286
0.6453944211044965 1.2190007104221996 0.6761582255515217 0.09276914290138084 -0.45668501184169347 -0.19984001486858025 -0.37525390349244087 0.7068934547722104
0.7410743881700268 0.3019577566224822 -0.744299699968555 -0.5793084234171255 0.1884192571107062 0.11066221128331749 0.5608020976067882 -0.0344892100660559
-0.0073892473189976155 0.23582666403034322 0.6455724002346906 -0.22587598870894116 -0.2961982596072925 0.48188665508224643 0.07348345391006915 -0.575698124428575
0.8453912031421773 0.24329938543767735 -0.04749665287904364 -0.20458195888216457 0.07315825570266091 0.5241300400573053 1.361139030909938 -0.43251954663031406
-0.6212920707390595 0.018152440751424463 1.2682813175624912 -0.23967062904674447 -0.6145579385468563 -0.3602347650488549 0.7292625503213632 0.046608800003652404
0.3799596675234129 -0.7122761095424055 0.48916652537825783 -0.6347890766289828 0.253849921532777 0.4512386886062112 -0.3681600918444904 -0.44348248605670487
-0.12137568212110518 -0.6173487185508009 -1.8995724221463244 1.4559427717289006 -0.07944463882615058 -0.6807739413452707 0.7103061668851374 0.0940044118508017
0.3030945326422454 -0.07835552053987221 -0.6242969038864621 0.8044330997895888 -0.8243624221079334 -0.28740178278840156 0.04948105074038847 0.9979108271182082
0.805832183937455 -0.4458065954361794 0.8472110024486007 -0.044424255487964505 -0.7080545343826483 -0.6483017192544581 -0.4195960141840848 0.5681827500686552
0.7787280871575973 0.2637059316810186 -0.33436766923902295 0.4564781072763999 0.5468288041199835 0.7423053778904133 0.4981450800028711 -0.20742745324838796

lin1.bias f8 [64]
00000000: 59ad c93f e96e ae3f cc59 eeb2 0ed2 9b3f
00000010: f2e0 4373 b0d4 c23f 29cb 0e7a af8d d1bf
00000020: d80a e9ad da20 d03f 291e 5aa8 7d1a d53f
00000030: d06d da3f 79e7 d0bf 1d21 54a9 cf9c d1bf
00000040: 6a34 f811 9a97 f0bf dc02 6705 aeb0 e23f
00000050: 8c0d 8a5e b50e bd3f 274c 6632 b0f2 d03f
00000060: 647f c410 37eb e23f bb71 1913 a2c0 e3bf
00000070: 1854 9194 02a4 9fbf ada5 e5c3 f711 c9bf
00000080: 5731 ece0 23b2 d7bf cf2f 1f18 e267 cabf
00000090: 8b2f 1eaf aa4c c63f 60d6 9968 2c34 d2bf
000000a0: 3ab8 0023 80d5 d1bf 5e97 4ae1 75f1 b03f
000000b0: b56d eb9d 2c92 c33f 9041 865a df5a b53f
000000c0: f9b5 f359 f4e0 923f cf1d f8fd eee5 623f
000000d0: b5d9 0f72 bfb8 c1bf f472 4edd bb04 903f
000000e0: e3cd 7364 5eec dbbf 9080 0402 7f51 e0bf
000000f0: b982 de8d d00e e03f d86b 683b f743 d03f
00000100: 3697 a16a aaf6 b5bf b402 5fe0 728d d4bf
00000110: e093 3205 c909 bd3f 1cce 1872 b50c e03f
00000120: 563c 4e93 1b79 9cbf 1043 ebcd 48cd ccbf
00000130: a3ab 9e28 5911 c23f 4bbe d2a2 cd31 b7bf
00000140: 7046 b7c3 f4aa c83f 2a0e 609f 45b7 d3bf
00000150: c592 65c1 4f6a dcbf 5263 5ec1 0e57 e43f
00000160: 155e 8d28 0454 b93f e729 b580 d1d9 a83f
00000170: 8730 4238 e095 dbbf db03 8be4 7ccc d1bf
00000180: fea0 0845 a8a7 e03f 2d37 4b5e e934 d83f
00000190: 4a54 f6c1 96df c43f 7ae6 7fbc b87e d93f
000001a0: 3f74 67ea 9702 e13f 3791 c9c0 e459 c1bf
000001b0: 9c91 4ec6 2209 d33f 5051 38b8 254a b1bf
000001c0: e0b2 b625 51e2 b6bf ce46 c881 98f0 f1bf
000001d0: 129f 437f 1168 dd3f ec37 f17c 6a35 d43f
000001e0: f82c 9bce ef6c e13f 2509 7604 dddd e1bf
000001f0: 0c0f 1526 e2a2 d1bf ba71 9d47 cf42 c43f
0.05943993476543125 0.027168492957196297 0.1471157610719796 -0.27427279395776566 0.2520052622168527 0.3297418731749269 -0.2641280292097834 -0.2751959947204499
-1.037012167161516 0.584067354728258 0.11350568349921825 0.26481251642070663 0.5912127807132319 -0.6172647831950181 -0.030899086301662576 -0.19586083474432084
-0.37024781193828943 -0.20629526307891274 0.1742146830623564 -0.28443441595968544 -0.27865603845828313 0.06618439436223642 0.15289838515205437 0.08341785392827306
0.018436258306726547 0.0023069064916432023 -0.1384505564635227 0.015643058187936057 -0.4363018017749864 -0.5099482573896399 0.5018084307558502 0.25414830018570234
-0.0857950697260009 -0.3211333457111707 0.11343056084531566 0.5015513637976627 -0.02780573927480775 -0.22501478247297557 0.1411544273699664 -0.09060368752647567
0.19271716648522697 -0.3080610329054446 -0.4439887417450275 0.6356271530849915 0.09893823614162785 0.048536822282205176 -0.43102269643782914 -0.27810594862608945
0.5204659794153768 0.3782294674718852 0.16307339163600637 0.3983594742599973 0.5315665796475811 -0.13555583394475842 0.2974326073256408 -0.0675376486545407
-0.08939082308524915 -1.12123919197295 0.4594768278898168 0.3157602520121816 0.5445479426647628 -0.5583329283838664 -0.2755666133782462 0.15828886982752782

lin2.weight f8 [64, 64]
00000000: e9b0 4611 8dcb e0bf 101e 50a8 8289 f43f
00000010: e282 882f 25a2 dcbf 55e4 fc2a f709 dbbf
00000020: e0c1 63f9 db66 e13f 489a 8409 0a7e c1bf
00000030: e487 ec90 db62 d03f 9b9b ddea cf2d c8bf
00000040: 7bc3 9eb5 d85f f3bf 4929 ee7c 530c e1bf
00000050: e764 6af0 cc2e d6bf d8ed 3533 574f c63f
00000060: 2d09 ed18 e8f0 c0bf 651a 7d66 0ca0 e4bf
00000070: 95f8 2220 7496 e33f 3456 5b61 043d ba3f
00000080: 206f b3bf 02b7 c13f 0a43 0035 16d2 c73f
00000090: 47eb 1a81 d154 d2bf 9553 7a40 500d f03f
000000a0: 349c 959e dcf5 b0bf 7a5e aa24 1236 de3f
000000b0: effa 67d4 ffdd d43f ce6d 66d2 077e dfbf
000000c0: a891 7f82 d24a f1bf e432 298e d9ec f63f
000000d0: edf4 bd1b 41f4 e33f ac08 78bd 0141 d3bf
000000e0: 2458 1575 969a b83f 00e7 6c99 2b55 f03f
000000f0: bb9b 93ee 7550 afbf 82da a3a8 218e da3f
00000100: ce64 4a40 b0d8 b6bf 8582 6085 bd5e e1bf
00000110: 6bdb 5470 64a9 c6bf 38cd 3e1b b394 d2bf
00000120: 1299 1584 fa7d ad3f bc02 e298 a23d d63f
00000130: 8da7 8911 2cc9 ecbf 0643 ab01 6353 ba3f
00000140: 7f76 7311 87d1 d13f 4e82 640a df25 b93f
00000150: 6919 e766 2070 c4bf eba6 5136 af52 92bf
00000160: cf54 f396 3e36 8bbf 6ef2 b46f eeed cc3f
00000170: 1512 77e3 f98a db3f aa43 8b00 1259 98bf
00000180: ec1c 4c4d bb52 773f f5e3 6355 ae95 cf3f
00000190: ca2c 1ca5 6de6 ebbf d2fb 9956 4114 d53f
000001a0: b68c f931 e0e6 c3bf 7d10 df8f 2135 d4bf
000001b0: fa72 2bcc a741 bfbf 62f9 9c05 d57b babf
000001c0: 0200 73e5 bdb1 e93f ba55 915a 776a d63f
000001d0: a2ec af21 badc abbf 8a83 3224 f87f babf
000001e0: 9849 9e92 6a3e f4bf d494 75e6 d948 d53f
000001f0: d334 589a e28c eb3f 17cc a9bc e089 0040
00000200: 4fd3 8bc4 5c73 e93f 3855 3e35 7f3c a33f
00000210: 4562 9884 2c41 c43f 4189 38ea c866 ee3f
00000220: f0d2 27dd 36cd d03f 86c0 6f22 ae06 f93f
00000230: e0fd 6856 6d4e a9bf 1a48 4dcc 6e99 de3f
00000240: 5b0b 67d3 4a50 e2bf e562 74ba 970b b6bf
00000250: 6dc5 c0ec ad3c e3bf b1e6 4926 3307 fbbf
00000260: c9ff 1626 97fc e93f ee5c f569 c21f f9bf
00000270: d35c cbd4 7d74 d33f ea26 b397 319e f4bf
00000280: 7920 3a64 a413 c63f 7f5d 2c9d 1300 c63f
00000290: 4d19 80e4 113f f13f f1c0 3025 4ad7 a73f
000002a0: 3e41 c021 078b e83f 746d 8fa8 3db3 bd3f
000002b0: 7f49 ade0 9ad9 e5bf 8ebd b443 e9e8 e53f
000002c0: b45c 94fa dad3 ef3f 1c0b 4062 ede3 d7bf
000002d0: 1903 77ca 77f8 d13f a1e7 4275 93fd d7bf
000002e0: 8f85 515e 8ec6 e63f 1641 e4c1 df0d e2bf
000002f0: 3079 9f19 f0b0 f23f c21a 3df7 dde8 d93f
00000300: 7b66 8603 25f5 cb3f b471 70cf 5fd7 cb3f
00000310: 5d90 68f1 40b0 d3bf 8c45 c0b9 2344 f0bf
00000320: d766 6147 dd44 e2bf 3346 e714 7260 b33f
00000330: ad90 43ac c1f5 d43f 7564 03a7 dc32 c6bf
00000340: 35d3 6117 2e53 c43f dbf1 bec0 b037 f03f
00000350: 3d4a b212 cad3 e23f b332 0d58 1d67 efbf
00000360: 2488 a3db b60b a9bf e411 9bb1 dd3a e33f
00000370: 7ce9 7a96 f767 903f c46a ca6c fcdc 91bf
00000380: efff 0ebf 6b0f d8bf ddd1 6b70 df8f c3bf
00000390: 4151 0122 4ae8 d43f d063 5e5a 9076 e2bf
000003a0: 094a 9390 92fe 913f 1060 cf53 61e1 d33f
000003b0: b4a2 edc2 55fe e33f 9369 4e1e fe97 bbbf
000003c0: 515b 1ea1 2185 cebf dc2f 65e3 d105 e03f
000003d0: df8b 5c8a 95b3 f0bf 153c 0549 a784 f93f
000003e0: 38c6 5944 197d d03f 3614 8cd3 3da7 e73f
000003f0: 7ff8 1663 effc b4bf af53 1b09 50e3 ce3f
00000400: 3a52 9d91 d954 c33f 8c85 f92f 1495 cabf
00000410: d6c2 e0d5 ddbd d43f d561 abda 6dcb c23f
00000420: 40a3 431b 2ad4 c1bf 1462 4f9d 2bc7 d13f
00000430: 3cbf f6ed a3a8 dd3f f347 05bf 004d eb3f
00000440: 994d 9a25 83fc bebf fceb 0668 08dd efbf
00000450: d7d9 a50a 947c d0bf f6b8 2199 9d3d a13f
00000460: 7aae 119f de52 91bf 5468 47bc e088 e5bf
00000470: 33ba 59ba 6d74 babf 0ae0 e50d 77a8 da3f
00000480: 435b b17a d7aa da3f a43a 9e2b d6ec be3f
00000490: 19d5 d872 bd40 f53f 8b71 6fc0 b22b dcbf
000004a0: c399 ce27 3eaf f83f 958f 2068 9c8b d93f
000004b0: 57ad 1641 8395 e73f 8829 5647 540a e43f
000004c0: 7746 19a9 176c cabf 72c5 acce d15a e2bf
000004d0: c636 8534 794c debf e689 a23d 4b8a bd3f
000004e0: dbda f437 b1c7 c33f aaf2 fd04 88ad e33f
000004f0: 1565 97b0 0579 e8bf ba55 6e52 136f ab3f
00000500: 350c 3a4c 7a59 cf3f beff c31a eb18 c83f
00000510: c5f2 a5a5 ca58 8abf 8e48 91d9 6a15 c33f
00000520: 9ed0 4cb2 9db5 ac3f 1e67 6d09 6183 ee3f
00000530: b6bb 37fd e7e4 633f 423d e4e7 3dc8 c33f
00000540: 49d5 141d 411a d3bf 7521 4e92 3a68 d5bf
00000550: e5a6 20a8 16c8 dbbf b33d 117a 0ab1 da3f
00000560: 23e7 20cb 74aa e33f cb40 7d58 ffb3 a83f
00000570: 6a27 e44e f808 c5bf 0e9c 5bcf 17c4 af3f
00000580: 8837 8674 897c e83f 0658 d306 8f26 e13f
00000590: a5d4 899b 9e2c e8bf ebd3 3314 3eb1 c83f
000005a0: 358f 6acb fb3c ea3f 3c56 a4f8 fd13 d63f
000005b0: 869c 6f16 7b68 f0bf f721 8e31 2406 ce3f
000005c0: ede9 be46 eff9 eabf 0aba be46 e92a f43f
000005d0: 4a0c cee7 8da6 bd3f 623c 0b2b eaaa dc3f
000005e0: bb6a 3816 8b79 d33f 877b 6b08 5472 e73f
000005f0: 2b79 4784 10db edbf f891 90e3 fa31 cd3f
00000600: 7378 6176 a5ce e9bf adbb 6531 027b dcbf
00000610: d9e0 d6d8 98a3 f5bf 5a90 f511 3a65 f53f
00000620: de72 cd1b 9885 b1bf ea4b f22c cbcf cfbf
00000630: a19e c0f1 8db8 ec3f 9a6a 647b de7b f23f
00000640: 4008 8168 bc0b d9bf 3de5 7053 7f74 e33f
00000650: 1c77 1e02 e847 f73f 73e7 3731 e6ac debf
00000660: 32a4 ae98 5066 ef3f 7253 536a 8ee8 e5bf
00000670: 12c3 61ba 82d0 ee3f 3596 1979 f6c0 813f
00000680: 5542 40a3 a4a9 dfbf e5e7 ca19 156c f23f
00000690: 96d2 33a5 97a5 e33f 2807 94f1 616d c2bf
000006a0: ae5b 46d8 1b10 e0bf 637b 789e b056 d53f
000006b0: 3c72 6b45 f7a6 e7bf 848d e097 dc7f 17c0
000006c0: 1a60 b988 c1e6 ffbf c5b9 bcb2 c705 04c0
000006d0: f102 beda d7bd c03f e11f dcec f097 f8bf
000006e0: e996 dd2a b558 f2bf 9964 8f04 3ee5 d6bf
000006f0: e078 2d6b de47 01c0 304a 78a0 cb9b dd3f
00000700: 6ef6 46d4 3bf9 efbf 195c 284f 6ee9 be3f
00000710: 71d9 1e88 266f ee3f 15cd 060e 1b80 883f
00000720: 7828 b253 0bbb eabf 25bc 3122 30f3 77bf
00000730: 26c2 139e 8e6a eabf c30a 8904 032b 06c0
00000740: 5fd6 935c dfad eebf bf6f 560d d286 fdbf
00000750: b10f fc13 4550 d9bf 33ee 5fd6 51b9 f23f
00000760: a3a3 85dd ee86 e9bf ab87 1173 f04f ef3f
00000770: 8d9e 4036 f698 d13f 5a7c eae6 3713 f33f
00000780: cec6 ed42 997d f43f e3e0 d273 9684 d53f
00000790: b67d adec e866 c03f 8a82 ed70 e994 933f
000007a0: 2e89 2de2 affa e63f 0bbb 68ea f38b ecbf
000007b0: fa0e 8379 934f f7bf 4db9 74bb 98a2 ffbf
000007c0: 83fa e010 2319 01c0 0ac6 1e0b 9029 f83f
000007d0: d33a 0117 9a41 d2bf e10e 8473 3727 df3f
000007e0: 7c03 934b 0376 f1bf 1436 2703 2602 e53f
000007f0: aea6 4628 1313 d03f c493 2e3c 920c f33f
-0.5248475396561193 1.283571870300765 -0.44739656106871284 -0.4224832458308517 0.5438060637371187 -0.13665891136879993 0.2560337939522681 -0.18889807670640554
-1.2109000296152022 -0.5327546539349807 -0.3466064784821143 0.174296283726888 -0.13235188691221236 -0.6445371629459485 0.612115919844444 0.10249354721903431
0.13839754448314867 0.18609883869114469 -0.2864269028465753 1.0032503622689763 -0.06625155326547444 0.4720502241193355 0.3260497640875845 -0.49206729456792864
-1.080767164000557 1.4328246644174039 0.6235662023388194 -0.3008427000314764 0.09610882147293914 1.0207935326747588 -0.06116074120819045 0.4149250170588986
-0.0892439038238024 -0.5428149800319068 -0.17704444394049842 -0.2903259054248397 0.05760176527364726 0.34751191072431786 -0.8995571463139967 0.10283488074061262
0.278413550416964 0.09823411945081625 -0.15967183136508403 -0.017893541040769383 -0.013287056905407017 0.22601108984408164 0.43035742963209717 -0.023777276309207153
0.005694133423055119 0.24675540131991594 -0.8718784546666936 0.32936128098657236 -0.15548326912094063 -0.3157428650849921 -0.12209557280170805 -0.10345202815094504
0.8029469949178749 0.35024818272117 -0.05441838895054586 -0.10351515659068702 -1.2652383544233086 0.3325714827136157 0.8609478964368925 2.067323182994652
0.7953323210518678 0.03757092976517601 0.1582389495313398 0.9500469755769602 0.26252528760168925 1.5641309113671311 -0.04942647628604013 0.4781147952209054
-0.5723013047175799 -0.08611439039340103 -0.6011571525652194 -1.6892577644015712 0.8120837921087453 -1.5702537669183658 0.3039850786276023 -1.2886215139173438
0.17247443097972218 0.17187733816602344 1.0778979230686503 0.04656440452561295 0.7669711741637355 0.11601624837151353 -0.6828131092282063 0.6846815416701462
0.9946112531787521 -0.3732865771745979 0.28079027912103666 -0.3748520512705174 0.7117378084332574 -0.5641936099000613 1.1681977272888382 0.40483807701495433
0.218418719025795 0.21751020077580352 -0.3076326711182043 -1.0166356330777004 -0.5709062952184593 0.07569039354645994 0.3274997885003 -0.1734271827215569
0.15878845349984663 1.0135962990890366 0.5883531918683002 -0.9813372344738894 -0.04891749793183944 0.6009357899534362 0.016021603164270357 -0.017444557323510038
-0.37594121606889436 -0.15282814969363204 0.3266778308946137 -0.5769731297506215 0.01757267959039591 0.3106311148126233 0.6247967536156325 -0.10778797378444542
-0.23843784682386596 0.5007104340852453 -1.0438437847849327 1.5948860981332065 0.2576354186522596 0.7391652232914854 -0.08198448342497676 0.24131203121819797
0.15102691278538477 -0.2076745256663738 0.3240885342266159 0.146833163997839 -0.13928724604854814 0.2777813945990897 0.46341799009950413 0.8531497698661482
-0.12104053180728726 -0.995731547525224 -0.25760365524129497 0.03367321485790058 -0.016917684992604688 -0.6729587247202837 -0.10333905982563678 0.4165322910043875
0.4166773508235801 0.12080133976835811 1.3283056722842217 -0.4401671294451936 1.5427838854753737 0.39914617699309335 0.737001063467157 0.6262608903210074
-0.20642371899389264 -0.5735863720530416 -0.47341756943647473 0.11539144758948047 0.15453162414788477 0.6149330232143104 -0.7647732209253798 0.053581813633324996
0.24491814348229615 0.188260448521758 -0.012864669017966244 0.14909110663808572 0.05607312013162978 0.9535374817016622 0.0024284869230010954 0.1545483953745848
-0.2984774383542868 -0.3344866207849216 -0.4340874330397198 0.41705572052611756 0.6145576445917168 0.04824827151480945 -0.16433624126539864 0.06204294592117075
0.7652022624840678 0.5359568723022228 -0.7554467237338441 0.19290901171157712 0.819944283768996 0.3449702194351152 -1.0255080105214645 0.23456242007911474
-0.8430096036675515 1.2604763759114825 0.11582266721056658 0.44793180659775633 0.3042934147830853 0.7327060856294886 -0.9329912742212277 0.22808776961859656
-0.8064753830074224 -0.44500784706081725 -1.3524406881606892 1.3372135831387113 -0.06844473532460024 -0.2485288590874853 0.89752862183828 1.1552414722452
-0.39134130673858536 0.6079708699900618 1.4550552447103149 -0.47930292898637744 0.9812396032404023 -0.6846382214231268 0.9629529609938763 0.008668828554799205
-0.4947291940925756 1.1513873107455705 0.6139639116868973 -0.14396309181034295 -0.5019664024465464 0.33341613269469955 -0.7391315799573657 -5.874864934044471
-1.993836912230114 -2.5028223003239156 0.13079355412266794 -1.5370949985826814 -1.1466571497380136 -0.35774183698010514 -2.1600921986820225 0.4626339976395313
-0.9991740366019266 0.12074937279281563 0.9510681780437108 0.011963092198902939 -0.8353325495420583 -0.005847156545413267 -0.8255074584431596 -2.771001849586669
-0.9587246711877916 -1.845415165043036 -0.3955242819940806 1.1702440618527248 -0.7977213217355835 0.9785082099372081 0.2749610452469618 1.1921919841913877
1.2806637396246745 0.3362175112811327 0.12814055973556798 0.019122741239132192 0.7181014459168062 -0.892084081487924 -1.45692775216679 -1.9771964380739349
-2.137273914209176 1.5101471361525705 -0.2852540230423248 0.4867685916981213 -1.0913117363090512 0.6565122663102465 0.2511642354316831 1.1905691481454008

lin2.bias f8 [64]
00000000: 6aee b2b3 c9ae c7bf a7c0 72aa 244c c23f
00000010: 5cf3 9f13 8972 cbbf 44a4 8536 0c87 95bf
00000020: 574d e955 bd9d cc3f e49f 87ad 3f51 d7bf
00000030: d0e5 a270 aa42 ad3f 91cd 68d5 dba4 d2bf
00000040: a07a 5917 5259 d53f 0b4e 4b55 6435 b0bf
00000050: 0a4a 14ab 716f 7ebf 9f81 07d9 8db3 c6bf
00000060: 830c 9236 6b4b b0bf 5000 0618 6355 bbbf
00000070: cc87 4d86 76b9 7e3f 57e5 ff62 4f35 c3bf
00000080: 16d3 9b05 5d3e dabf d2a0 2b78 6fee bdbf
00000090: aa82 385b d6bc d8bf b800 8eda 330e cdbf
000000a0: 5c44 090a 27a8 c6bf 9433 a448 1d7f d7bf
000000b0: 51c4 93f5 2304 d03f 3c45 7147 1c69 c3bf
000000c0: 0811 6db2 5e9f a73f a005 cfae e3f3 d4bf
000000d0: 8b90 2b21 3b26 d9bf a309 99c4 e798 d3bf
000000e0: 3445 3d08 6124 93bf 564b 3e93 bf2e b03f
000000f0: 2956 c062 0636 bcbf 09f8 61cb aaae d3bf
00000100: fcb7 f663 e946 a73f 273a 978f 756b c1bf
00000110: 417a 2063 d6e4 babf 30d7 4904 5ac8 a0bf
00000120: 8d5b 62c9 60fe b6bf a634 d82b ffc0 d63f
00000130: 7fba 7372 1d9e b7bf 1543 18ec 0d4b dfbf
00000140: 1006 880d 166a cbbf 7e64 0b6b ddd4 d6bf
00000150: 0e3f e875 aed1 c0bf 86bf e006 000d 8fbf
00000160: 08ff d09d 18a1 a73f b828 214d 54aa 9fbf
00000170: a704 6667 8ca2 c0bf 597c 095a ff19 bbbf
00000180: c179 74f4 8f23 ba3f 9aa7 88eb 828b b23f
00000190: 6f83 1958 db67 e23f 1601 1247 da29 b23f
000001a0: 73af 403c f23c d9bf f89c 6485 f0ca 7fbf
000001b0: 065f 6bd7 dd8f d4bf d4da 0763 9609 c1bf
000001c0: c5bd f495 74d9 d6bf d421 dc3f 6b38 b4bf
000001d0: 7ea7 d6fb e1f5 c0bf b976 f05c 5adc acbf
000001e0: 3555 7a7d 7329 aa3f 856a cebc 22ba a2bf
000001f0: 3a20 8a34 cecc c6bf 0aa4 24b3 d139 bfbf
-0.18502160333979428 0.14294870684307634 -0.2144328447174314 -0.021022978618393987 0.22356383032693358 -0.36433402963893813 0.05714924454646175 -0.2913121780468027
0.33357670097567826 -0.06331469614388412 -0.007430500046455632 -0.17735455605635495 -0.0636507995823639 -0.10677165352353879 0.007501090037154112 -0.15006439527477752
-0.41005635783885575 -0.11691948589180193 -0.3865257159068657 -0.22699592753997933 -0.17700660696076198 -0.3671334466351308 0.25025271398687204 -0.15164521683122156
0.04613777092029819 -0.3273858267894756 -0.3929584335257991 -0.3062076015377448 -0.01869346249379085 0.06321332306678804 -0.11019935522957582 -0.30753583776083865
0.045462888195615364 -0.13609189521089712 -0.10505428238000382 -0.032778561614504986 -0.08981900135618855 0.3555295875710932 -0.09225639385452132 -0.4889559560406707
-0.2141749921866425 -0.3567422433239428 -0.13139897114933102 -0.01516151448240045 0.04615094114751456 -0.03092319222222592 -0.12996058510546968 -0.10586543987436538
0.10210513799800137 0.07244127512299628 0.5751778336235541 0.070951120711474 -0.394344862785821 -0.007761897597709615 -0.3212809184746991 -0.13310508571131285
-0.357022425118853 -0.07898588475303053 -0.13250374600221088 -0.05636865982544976 0.0510974970504016 -0.036576352641721356 -0.17812516751678392 -0.12197600005733036

lin3.weight f8 [16, 64]
00000000: 33e5 e6ac 100f e1bf b1d2 4b1a ef83 d8bf
00000010: 1887 41c5 f64a c2bf 7609 a38e 5a19 c33f
00000020: 9dcd f80c f2b4 0340 4975 1907 7b00 e8bf
00000030: a230 743b 7828 b7bf 7ad7 a8cc 3b4e 813f
00000040: cd09 c132 427c 0740 4670 3da7 35a7 f4bf
00000050: 3c5d 6643 8d94 e4bf ede5 bb34 1d05 c3bf
00000060: 979f abb1 ddde eabf b937 f18d 63ad f2bf
00000070: c293 f8c7 b8ad f73f 1d93 23a4 eb4b e0bf
00000080: ab92 01c8 5840 b8bf 5bb8 e3ee af3e fabf
00000090: bebd 212c 5c6c e7bf 2558 026a 48f6 e3bf
000000a0: 9093 27fa 18fe bfbf 5cde 8733 df7a d0bf
000000b0: f729 40a7 ae11 d1bf d5b9 32cb 06b5 b0bf
000000c0: 1327 0a78 4efb a5bf b582 d379 7e7e b8bf
000000d0: c4f6 df06 ffe2 d2bf 8218 f86e 28a3 e7bf
000000e0: 81d9 cdc9 cbd1 e3bf b616 e17a 333b debf
000000f0: 01f8 50a8 2627 adbf f831 6326 5d98 a23f
00000100: 0586 9ae2 34cc b5bf 5b8a b891 98c6 8dbf
00000110: 4e83 6059 605c 0340 e9ac 9620 e1e1 dfbf
00000120: 244d b81e 9756 d2bf 4925 2a6e 994d efbf
00000130: fe62 c43f c14f bd3f a5e7 fccf 1b6d cbbf
00000140: 953d 2583 dc03 acbf 58af 6ab4 147e b9bf
00000150: 1c9c 3d69 a7e6 c03f 720e 24b0 6ff2 dbbf
00000160: 2d9f c9f5 a038 b1bf e93f 974e d40c edbf
00000170: 5390 7703 0460 adbf 0d3a b6dc 3e46 c7bf
00000180: fd86 77c0 1139 e8bf 342d dddd 74ce fcbf
00000190: bc2b d1cc df84 eabf 43c4 bf3e 32a6 a6bf
000001a0: 1473 22b1 1a1b f7bf 4ea2 78bd 2d44 ba3f
000001b0: 6a1d 7718 6f80 c2bf b389 1f0f e36f ecbf
000001c0: d057 70fe 91cc ee3f 8c83 5520 dd76 fcbf
000001d0: 150a f421 8789 b73f 58c5 663f cd32 ccbf
000001e0: 22c3 e97f c0a2 bebf 6bc6 0ef6 ad4a fbbf
000001f0: 53eb 3ddf 4f1f b5bf 9d73 0cfc 2dea 0dc0
00000200: 6549 909c c567 e33f 75c2 5f16 2592 db3f
00000210: 4cf4 d1ba 7be2 debf ebab b069 2a02 a63f
00000220: 8a5e 9914 1cab e5bf 85b1 2eac 4b7c eebf
00000230: 6151 65e6 9543 bb3f 9198 abb6 d9ab 01c0
00000240: dee1 6140 f8eb edbf f81b 0451 7826 b7bf
00000250: 3c79 d460 6eb9 c73f 7b3d a290 8ea0 dbbf
00000260: 2365 0ec4 794b d1bf e2b6 7003 05fc d03f
00000270: 603c 9b72 22f0 00c0 237b f9b3 d714 06c0
00000280: 9f5d f1c8 4c20 e93f f188 0fd0 9e7c febf
00000290: 016a 156e 0d42 d9bf b442 6a9e bfed d3bf
000002a0: 0a0a 73b4 bad6 cdbf 66de c43c 9a6a f03f
000002b0: 383c c1bf 67e5 d23f 358e efed 99f8 d93f
000002c0: 1725 dab2 399c 963f f3df d360 aa66 f4bf
000002d0: dd2f 378a 0a20 debf 5dbc 0f85 a0e4 03c0
000002e0: 9b7f 2db9 28e3 05c0 6bc1 022e 7df2 c0bf
000002f0: 5b3e 0676 a9d6 a4bf 5dc6 6aa2 8aa7 edbf
00000300: 0ae1 235c d11b c2bf 2f94 2bad 207a 02c0
00000310: cb00 40be 097d d6bf 1b91 2775 7f58 d1bf
00000320: 0cdd b083 9d1a f4bf 5574 01ba 6833 01c0
00000330: 7b10 8d5c d728 e63f f240 f864 7e35 d63f
00000340: 38bf 30ff 3293 f1bf eaa1 96d2 539a eabf
00000350: b7f3 f0cf 9b7e 8f3f 8fd0 389c 5eea d5bf
00000360: 0ab1 20ec 01c6 fcbf 6753 fad9 c156 a9bf
00000370: 7e05 5b2f 694b a23f ec69 5ef3 60a7 adbf
00000380: 48de df8f 6090 e93f 1276 888d c8b8 e3bf
00000390: 38f2 043d c903 f03f 0935 a7a1 d535 b9bf
000003a0: a4a4 41b6 85b8 cabf 9b58 b2ca bea1 ffbf
000003b0: af83 fef4 c4cb ccbf 179e 8c06 030e 00c0
000003c0: 50a9 7e4c 6b09 e03f 4602 b323 dc84 02c0
000003d0: cf62 6598 2807 08c0 6384 5e01 9c34 d73f
000003e0: f49d bcb2 8f96 ccbf badc 98d3 5ebb e13f
000003f0: 133c 8bb1 f8d5 bc3f 7de8 0ca9 3974 cc3f
00000400: 9acf 9a05 be60 dcbf 0e24 1302 8345 e23f
00000410: 6cfb b643 6813 e3bf 790d ea83 d5fd c6bf
00000420: 1b05 b7f4 02ad d43f 220d 4ed0 88b0 f0bf
00000430: b1e2 34dc 7991 aa3f 356a e1f7 5a1b d7bf
00000440: 6f36 1baf f44f e53f 5765 5881 90d9 abbf
00000450: 00c5 7a37 66e3 e53f f3b1 95aa 67dc b2bf
00000460: 5683 7425 bcf0 d0bf de94 8775 e2d0 a73f
00000470: 7cb8 80ae a870 eebf 3ece a377 2de7 dcbf
00000480: f570 e237 88ba d1bf d4a5 43fa 324c d5bf
00000490: d982 b72c c842 be3f 4bfe 0a04 3a84 cfbf
000004a0: 6018 a0a4 fe4f d5bf be0d 0b5b 2b49 d8bf
000004b0: d6e9 db62 0d8f 0bc0 2b22 f24b 6aae 06c0
000004c0: 168c 52ca 6b8e 90bf 5541 4a7e 411c efbf
000004d0: bd01 9a47 ea6c cdbf d28b f747 90c6 8a3f
000004e0: 3d88 dbcd 236b f6bf 4aca f224 fb7b ec3f
000004f0: 51f5 3ba1 71cd 923f a359 12b5 2917 d9bf
00000500: b95a 9901 e11a d93f ee62 6432 5ca5 d93f
00000510: ed62 ad55 358c f33f 01b0 c2ac d8cb b9bf
00000520: 10a1 945c e766 b3bf e390 6716 9451 f03f
00000530: 3b07 9c34 d553 fbbf 8e08 92bf 3a21 dc3f
00000540: d197 f291 a3ea cabf 812a 7f3b 2a36 a93f
00000550: aa6f f245 91fe c0bf fb57 4bf0 c888 c73f
00000560: db40 a5d2 f03f b83f 4081 9ecb e046 d73f
00000570: f375 c1bc cb40 cb3f 970d 75cc 081d acbf
00000580: 8936 7c49 2d12 b63f 7f1b 1d6c f9f1 ec3f
00000590: 3afe 967f ba1d d53f a15f f7c0 7c27 9e3f
000005a0: f9b7 cd1a 01e0 d9bf e359 ead0 ef70 f0bf
000005b0: 19d3 563b d2f0 f0bf 3ad8 9b4a e96e a3bf
000005c0: a99b 1d1e c886 f8bf b72a 02bd c8af e5bf
000005d0: 462e 7d59 cf71 06c0 d7d0 a829 d6f8 02c0
000005e0: f78e 08ae 8fcc 95bf 34ea 12d3 7713 d83f
000005f0: 894a ec58 baad b73f 339c dcf7 afa0 c9bf
00000600: c935 8bb7 fac1 c9bf 1069 7cba 8c3d e1bf
00000610: 32fe 8def 24cd dfbf 0809 1351 7003 0b40
00000620: 8ea8 32f8 bd8b e63f 8167 a111 238c ce3f
00000630: b0a3 806d f07d a4bf e432 cc78 2e6a e1bf
00000640: 9862 ac22 7c53 d5bf 0d1d 554e 3e3d d73f
00000650: ffea e9ae be7c f5bf eea3 b785 a05e 00c0
00000660: a5a9 fb2e d31f acbf 90c1 700b 6202 efbf
00000670: 94e5 37d3 07f0 00c0 ed59 0e10 5084 b4bf
00000680: b31b d433 285e d8bf e09e 506f bcea d33f
00000690: dcb5 ec45 ebd4 d4bf 401d 0873 40e0 e1bf
000006a0: 0b3b 577b fdf8 bcbf 1252 8c65 3232 f9bf
000006b0: b614 9614 924a 843f c741 27cb d3e1 f4bf
000006c0: 5731 1a1b fa81 94bf 99f6 d290 15b5 b3bf
000006d0: 8706 5806 bd3a dbbf 447b f718 81e2 ecbf
000006e0: 96d1 e2ee e190 dbbf 57cb 468d 7750 e33f
000006f0: 3b84 7ac8 d90a b53f 91ee 26f7 b73b f23f
00000700: a003 d45a fbab f9bf e065 fafc cf5f ce3f
00000710: 78f8 5e3d 04b7 f6bf 57f9 6b53 b512 e0bf
00000720: cc63 08a1 0d23 e2bf 08a8 c455 3d17 dc3f
00000730: 0e30 5c89 2857 e0bf 0336 0078 2a04 e2bf
00000740: 00a4 a3b3 674e d7bf 1f15 ccc4 b70a fcbf
00000750: d52c 6454 5e5e b23f ff7d 0a53 f7a2 d7bf
00000760: 8e09 da34 2793 d7bf 948b 858c a51b edbf
00000770: 8fc1 890f d4a0 f8bf 4977 10da 2d12 aabf
00000780: 14a5 4392 494b cfbf 6a51 4a95 8705 d0bf
00000790: df62 b4b1 7516 e63f 986b d61e c432 973f
000007a0: 1e70 2a2f b2ab dcbf 49a2 882f d296 debf
000007b0: a5be 120c c67a f4bf e26a ad1e 67d7 ad3f
000007c0: 21af c83b 54c0 e03f 142c 2d9d 8a21 ca3f
000007d0: c0f3 1c71 d9d8 dcbf f63b 951e 125c c33f
000007e0: 7ce3 6269 a467 d43f f1b9 0884 5243 c6bf
000007f0: 40bd 196a 440e bbbf 9a13 acfa 70b0 c9bf
-0.5330890061369814 -0.38305261199938473 -0.1429127181209473 0.14921123470964986 2.4633523000172333 -0.7500586641942074 -0.09046126796255519 0.008449999983991086
2.935673138156949 -1.2908226521312982 -0.6431337658313292 -0.14859356951619365 -0.8397053213238789 -1.1673312706584353 1.4799125491492622 -0.5092676359023219
-0.09473185427629953 -1.6403045016882263 -0.7319775449704407 -0.6238138266078336 -0.12497097117700506 -0.257499504397378 -0.26670423825331063 -0.06526224575893676
-0.04293294158294549 -0.09568014597199233 -0.29510474845288237 -0.7386667411199286 -0.6193598691450434 -0.47236334800650626 -0.05693932346956388 0.036318694053623035
-0.0851471951705421 -0.014538948008582844 2.4201056463793185 -0.49816158468702426 -0.2865350532531059 -0.9782225753453214 0.11449821287932235 -0.2142672315183606
-0.054716959961861246 -0.09958009152131575 0.13203899992660773 -0.4366721363187259 -0.0672703361575457 -0.9078160796143467 -0.05737316648790682 -0.1818312242216539
-0.7569664725417337 -1.8004044214784019 -0.8287199974378079 -0.04423672691326221 -1.444117252284916 0.10260282397997253 -0.14454449362367977 -0.8886580748915577
0.9624719590672104 -1.7790194762276057 0.09194225863397094 -0.22030034633420814 -0.11967089770201914 -1.7057323085431573 -0.08250903320542351 -3.7393455210971767
0.6064174707301332 0.4307949751373948 -0.4825734447875376 0.042985272790552496 -0.6771374132467411 -0.9526728022515704 0.10650002360245515 -2.2089113494030888
-0.9350548989742113 -0.09043075540476753 0.18534641006494634 -0.4316746151389094 -0.27023166795841486 0.2653820546719158 -2.1172532037376612 -2.7601770458708343
0.7851928639092199 -1.9054248931284372 -0.3946565222774155 -0.31138601751539885 -0.23311551867489327 1.0260259984769617 0.2952517864804949 0.40579841838755054
0.022080327550189596 -1.2750648290948419 -0.4707056379090753 -2.4866342921664413 -2.7359175173769024 -0.13240017649287536 -0.040700240762018246 -0.9267018482407355
-0.14147393225699317 -2.3096326378750045 -0.351381717482593 -0.2710264820182304 -1.256497873704407 -2.150102093858133 0.6924855048787458 0.34701499805761593
-1.0984373062492079 -0.8313387978606077 0.015378205569612875 -0.3424297834019478 -1.7983416770685516 -0.04949003015386815 0.03573158934660635 -0.05791762324152558
0.7988741693543 -0.6163065685574927 1.000924337727282 -0.09847769924745732 -0.2087561740802687 -1.976988593849035 -0.22496854746444003 -2.006841708341891
0.5011497968710419 -2.3148730076793838 -3.0034953981342833 0.36258602269851375 -0.22334476687795723 0.5541223652607166 0.11263994535987391 0.22229691271224175
-0.4434046797498411 0.5709853210947828 -0.5961190531305482 -0.1796214002716672 0.3230597867769391 -1.0430992257032092 0.05189114392346051 -0.3610446377475996
0.6660102291150006 -0.054394260205479376 0.6840087016663858 -0.0736756125895182 -0.2646932950756783 0.046515538069607607 -0.9512523086794 -0.4516099613531174
-0.27701001603578784 -0.33277582588069987 0.1182065114185308 -0.24622273633393585 -0.33300748898216703 -0.3794659031957187 -3.444849750839448 -2.8351636822956343
-0.01616829321268306 -0.9721991983988497 -0.229886326753343 0.013074042507417536 -1.401157192355199 0.8901344033859655 0.01836183115573437 -0.3920387523916366
0.39226555973202043 0.40071778222185983 1.2217305514115495 -0.10076669900689696 -0.07578893671291476 1.0199166178872978 -1.7079670004899998 0.4395281668477161
-0.2102856123576076 0.04924137092856019 -0.13276878276235254 0.18386184437866845 0.0947256578704158 0.3637010563343388 0.21291491238200386 -0.054909014661940585
0.08621485752174797 0.904537879142353 0.32993948421423946 0.02944750716946454 -0.4042971383813661 -1.0275724564322608 -1.0587942426620371 -0.03795556102515758
-1.532905690802844 -0.6777080241748398 -2.805571269161905 -2.371502232994412 -0.021288151738317187 0.3761882363575382 0.09249462767574292 -0.20021628954529688
-0.20123228036974997 -0.538763393621851 -0.49689601320276033 3.376679070847903 0.7045583579649859 0.2386516414724689 -0.040023339621547804 -0.544211612637437
-0.3332205141646596 0.36311299943595615 -1.3429552872245833 -2.046204609553107 -0.05493030499004029 -0.9690408919760092 -2.1172024251397463 -0.08014393226617474
-0.3807468896997605 0.31120215292547293 -0.3254955466134939 -0.5586244818413562 -0.11317428838013315 -1.5747550932620737 0.009907857182734108 -1.305133622710956
-0.02002707281512647 -0.07698187623733545 -0.42546010608212054 -0.9026494491225567 -0.4307179291602322 0.6035726317698885 0.08219681877609812 1.1395797399881398
-1.604487757489757 0.23729896404692763 -1.4196817776969777 -0.5022837285357963 -0.5667789597674697 0.43891843200492575 -0.5106394465269675 -0.5630085319295975
-0.36416046660320944 -1.7526166617765921 0.0717524486573667 -0.3693216620394821 -0.368356515515324 -0.9096248383105938 -1.5392647368390475 -0.050919945592097955
-0.2444850887471054 -0.2503375013268597 0.6902416678231836 0.0226545947858586 -0.4479794941523795 -0.47795538560834366 -1.2799740287409034 0.05828401803474549
0.5234776656775219 0.20414860415107283 -0.4507354359264433 0.151247277196006 0.31882581988934766 -0.1739295143792812 -0.10568645086617767 -0.20069706191875697

lin3.bias f8 [16]
00000000: 2a45 658b c34b d7bf 0055 89e3 28eb bf3f
00000010: 47d0 78f0 25c5 e33f c2d3 5e1e 7d0f bfbf
00000020: fd67 f1e2 a19e f03f 91e8 4211 63ea c63f
00000030: 8147 18cc 8841 c9bf 1231 1684 cd59 e63f
00000040: 2989 e45e bb87 e1bf 6a50 fefe 85c2 f0bf
00000050: b3ce 0c01 44ed a03f 7686 2a55 7cf7 c33f
00000060: c101 fb4b 936f e13f 0c2e a707 aa1d c3bf
00000070: 1ab6 ae9c 6c1c e4bf 5826 fc54 b61d e53f
-0.3639992581639314 0.12468200259293738 0.6178159424512238 -0.12133008948769855 1.0387286057434715 0.1790279230388632 -0.19731245008057033 0.6984622554605571
-0.5478188374875447 -1.0474910698585753 0.033060193184068075 0.15599016340734168 0.5448700412744573 -0.14934277890857606 -0.6284697590069215 0.6598769817221166
