LP4-MachineLearning/HW_B_tetris/Strategy/dqn_action_10000.pth (torch, 54623 bytes, 6 tensors)

lin1.weight f8 [64, 20]
-0.6219753353291512 -1.265648740268776 0.0463079036064424 0.5136690806787924 -0.6456435139392758 0.2750671123539237 0.6124953302827142 -0.5467094655269119
0.6082674156092172 0.622444918921183 -0.7906930677514423 0.830058180166444 -0.012256868455924151 0.35962014227351885 0.07469909707138589 -0.7984374459017953
0.07079060843007844 0.5104121524172869 -0.19919337738579318 -1.049036418968517 0.4847267545347484 0.09800391621414534 0.34732756130947595 -0.11743963889938294
-0.41772720936616414 0.3338238723342384 -0.23057845338042143 0.02800861243505006 1.2841931184224575 -1.4722246577238718 0.8603827707405257 -1.2964511805327965
0.5695574135991395 0.24492508583089923 -0.6304754894593257 0.7015880141022726 -0.3800271273655352 0.6945143422299099 -0.11061310979906602 -1.0066847185951115
0.1586880577120948 -0.5431924895307066 -0.6201784999538971 0.06429580322592983 0.5153221366504319 0.47964272703385413 1.727897855268603 0.5692781974918643
0.19916802311239015 0.7749971304006449 0.7169039378910254 0.5174350450895828 -0.38813300154320873 -0.13428233522109043 0.07771152930094102 -0.08998108507678186
-0.04036818794517201 0.29928203363078587 1.316449587863234 -0.3998977336832666 0.16208557026750287 -1.2779265784137168 -0.2895709741933482 0.1649600839444199
0.8171657052498581 -0.5172595758809397 0.3458363615697946 0.12252509896073775 0.01157735410930998 0.08618333994593932 -0.08783314699448988 -0.004075073647271217
-0.5352036703195419 -0.1954302604062268 -0.28191901316637974 -0.9426936274969846 1.2852150439667898 0.19669111105909348 -1.0770700403023175 -1.0462108130067913
-0.2258181039270263 -0.172308834246811 -0.09505685503670787 -0.11615923325931043 -0.7064482726963675 -0.03891126641409426 -0.07918645981445553 -0.9922832911623669
0.8293714066488911 0.8029067125198079 -0.8331116833249601 0.1756020365722545 0.6868707846874579 -0.5303375315601738 0.7004930208391643 0.45466646137974587
-0.2519538924777055 -0.9548722286130856 -0.2616198132623871 -0.21945924116097976 0.2869837033684697 -0.03729283941745085 -0.5786333694235463 0.248455991425215
0.693747539957097 -0.16228367025817197 0.4361395565914618 -0.46118588991375586 0.6854617413315542 -1.4692907086695934 -0.32270478003125996 1.3777574648507647
0.3782212057161763 0.4647293934051467 -0.6173143634132068 0.1554010412313804 0.04742243103136935 0.8754163707211761 0.35700658486790526 -0.36906378796251643
0.020147166978326296 -0.1205836589202994 0.30862486781569615 0.27065832865363654 0.10652872425548952 0.5718766714171708 -0.1744018191191713 -0.5534393981937027
1.7700724605179732 -1.4012280835869284 0.781451563674152 0.5241471257745511 0.5719676969159528 -0.848348636571964 0.20164393897105534 0.21434374459625705
0.05898407736815669 -0.5374216702745729 0.005466878887903374 -0.5114091569570924 -0.3071823871954363 0.18618208857026963 0.5136295719707051 0.3341205944228219
0.7062200461312794 -0.6837307198145318 -0.21717271387490247 -0.3511143161448961 0.3905480873185499 -0.14892919299384919 -0.48346253199881917 0.19352525137466606
-0.6590559045271329 1.376329582228749 1.8687359838025388 -1.1765611165225056 0.5684019935629672 -0.09347741534482396 0.18748090297366465 -0.4354860706427912
0.2707717457369056 -0.01315144172079941 -0.2692022487510371 -0.3415656082784194 0.8511725941393127 0.9087619904828561 -0.29551019364348297 -0.5150318657993128
0.5027342275425274 0.43316856510113183 -0.8577672641862668 -1.2610957133898153 0.23153848780198097 -0.1305459010378804 -1.0264198110209546 -1.0959448739799063
0.352463909269458 -0.2511104942465731 0.6301377966090468 -0.36510806683116337 -0.16569055339593008 0.12110448512227474 -1.2322839814706255 1.0120035674144043
-0.012473223066394425 0.8152575331748967 -0.4735713056588958 0.05570236276469022 -0.07145183617440241 -0.12332027508322216 0.7019616506129551 -0.7587211012278091
-0.24595790784555957 0.06264612714444857 0.12520490388678615 0.04707375961197308 -0.16990675448250864 0.08628896624462516 0.28844796375335946 -0.7915331085547767
0.20399261763788398 0.061923075850903994 -0.45686686965364914 0.2756676528791613 -0.4875862228974387 -0.4152933222563748 0.8949014520677753 0.49591832498020655
-0.03910280573594294 0.221955779571949 0.6105640948675691 0.36693245949088993 -1.02326404532153 -0.9631086821695913 -0.24273752824587644 -0.20467962464121311
-0.09122060926371152 0.14372347762810123 0.09999886592359754 -1.0271121887219512 0.04311017778919268 -0.4815851328415942 0.683176158568832 0.2926586697843937
0.07310682853840121 0.3937396272386976 1.3554414886266886 0.6574339880125807 0.6351692713159566 0.17092809189486383 0.27311896121085627 0.06317276538091751
-0.2738516249336769 0.12185132150252513 -0.4434718228844098 0.2752907533739427 -0.7205915063456161 -0.7049840438329497 0.7082283189981506 1.153087420285155
-0.27692535678280217 -0.4631486262149455 0.5758004164952071 -1.8947684007045658 -0.5532541481977428 0.313608845952716 -0.9813714249942834 0.6277255616504842
0.1560140708747248 -0.007193597107956199 0.4975205392224596 -0.07319352934163144 0.03797315978832603 -0.04731395930341042 0.3583683243522851 -0.20025914310846213
00000000: e908 85d1 38e7 e3bf 0dd9 bae4 1840 f4bf
00000010: 5b6d 1267 abb5 a73f e56a cf23 fa6f e03f
00000020: 78cc 2796 1ca9 e4bf 05fa f016 b39a d13f
00000030: 118b 90ce 8f99 e33f 5741 5bd9 a47e e1bf
00000040: ea72 283a ed76 e33f c57d 4a9b 11eb e33f
00000050: cc52 658c 5b4d e9bf eaf2 322c d68f ea3f
00000060: 9946 5b09 211a 89bf 610c 8333 0404 d73f
00000070: 605b f6e2 7a1f b33f 7099 c1af cc8c e9bf
00000080: 7f35 1254 551f b23f 749f c3dd 4b55 e03f
00000090: 86d3 b928 2b7f c9bf 1586 7c69 dac8 f0bf
000000a0: 0b45 8e5d c305 df3f a409 05df c816 b93f
000000b0: 6cb6 3461 9d3a d63f aaaf 5330 8610 bebf
000000c0: 1821 b8e7 0abc dabf 302d 93cd 5e5d d53f
000000d0: 9a30 3742 9883 cdbf 06d6 a829 4aae 9c3f
000000e0: 9ff6 5515 0e8c f43f 059f 5471 3b8e f7bf
000000f0: e5ea cb72 4188 eb3f b6fb d397 43be f4bf
00000100: e848 1378 d039 e23f e48d ce88 b459 cf3f
00000110: 6509 05ef da2c e4bf 12b7 fab4 6873 e63f
00000120: e12d e84c 5d52 d8bf 8f5f 4f24 7639 e63f
00000130: 5889 1809 2451 bcbf c5fb 7b6f 611b f0bf
00000140: 8fd1 11e9 e34f c43f 5df3 3e37 d561 e1bf
00000150: 987f df94 80d8 e3bf 851b 2094 b075 b03f
00000160: ba30 7ad9 847d e03f 68fa 9768 77b2 de3f
00000170: a850 b338 78a5 fb3f 57b5 11e9 8637 e23f
00000180: b59d d678 567e c93f 5811 32c8 c6cc e83f
00000190: beb2 f386 e0f0 e63f 72d9 8ef0 d38e e03f
000001a0: ec16 08cd 2bd7 d8bf 7740 1adf 2930 c1bf
000001b0: d6a3 de1c e7e4 b33f bbd2 a919 0009 b7bf
000001c0: 5aed 0b9e 23ab a4bf ce5f aed4 6f27 d33f
000001d0: c848 6b71 2d10 f53f 6581 faa9 ec97 d9bf
000001e0: 62e9 b94f 38bf c43f 149e cf23 6372 f4bf
000001f0: aa00 02b2 5488 d2bf bae5 d77a 691d c53f
00000200: d3bf 6eb1 3826 ea3f 6a72 3ef4 638d e0bf
00000210: fc6e add5 2e22 d63f 7bbc f90c ce5d bf3f
00000220: 5a88 302a deb5 873f d221 8782 1c10 b63f
00000230: aa99 d8ad 3b7c b6bf fb7d b340 06b1 70bf
00000240: 5517 9772 6320 e1bf 10f8 8bd8 db03 c9bf
00000250: 77e4 6a0b f60a d2bf b2e8 87d3 8b2a eebf
00000260: 0ea2 62a6 3d90 f43f b2d3 b4a0 2c2d c93f
00000270: 0299 69cb ad3b f1bf 315f a98c 47bd f0bf
00000280: 1d0c 9b8d 9be7 ccbf b572 f343 370e c6bf
00000290: 8dad a463 a555 b8bf 1028 fa8b 9cbc bdbf
000002a0: a67d 7168 399b e6bf a092 6371 2dec a3bf
000002b0: 2b69 3057 9045 b4bf 8a1b 7de3 c8c0 efbf
000002c0: 946c 79e7 358a ea3f ca5d 006b 69b1 e93f
000002d0: 927a 39d5 d9a8 eabf 8d2b 18a6 207a c63f
000002e0: 87ef 9970 d8fa e53f d78d 3c6a 86f8 e0bf
000002f0: 1b93 f256 706a e63f 16b3 8d5b 4119 dd3f
00000300: 52aa 1238 0320 d0bf 0f0f 3834 508e eebf
00000310: 25a5 7c07 61be d0bf 82b2 cb8b 3d17 ccbf
00000320: 74f6 1ce5 f05d d23f 6d8a 580b 0c18 a3bf
00000330: a38c c120 2a84 e2bf ab51 d5ea 67cd cf3f
00000340: 597a 790a 2e33 e63f 5e83 3718 b6c5 c4bf
00000350: 6358 03e3 b5e9 db3f 6699 a3d2 1184 ddbf
00000360: 1eb4 3576 4def e53f 51d7 60f9 3682 f7bf
00000370: 11d1 1ff3 31a7 d4bf 97a9 5569 4b0b f63f
00000380: 3d19 4db7 c634 d83f bd8f 8a5a 20be dd3f
00000390: babe 460d 0ac1 e3bf 3f33 ed6a 2ee4 c33f
000003a0: c2ca c0bc c047 a83f c12c 5431 6903 ec3f
000003b0: 1eb7 9d25 32d9 d63f f3f5 dbb8 bd9e d7bf
000003c0: 5ea8 1d7d 75a1 943f f6a4 7e17 92de bebf
000003d0: 170c 8084 82c0 d33f db45 7d4f 7752 d13f
000003e0: cf0d c36a 7745 bb3f 74a0 224e d04c e23f
000003f0: 6468 bd7e cc52 c6bf 7eea 718a c6b5 e1bf
00000400: 6199 1780 3752 fc3f bde1 9323 6e6b f6bf
00000410: f56e acb5 a601 e93f a2cf 6f31 d0c5 e03f
00000420: 2ceb 1333 8f4d e23f 4bd9 350a ac25 ebbf
00000430: 5f9d a8f5 77cf c93f 2051 92a6 9d6f cb3f
00000440: dfda 8f36 2933 ae3f 28b6 3fee 8e32 e1bf
00000450: 4449 8e20 7064 763f 3a2e 80bc 765d e0bf
00000460: c957 ba50 e0a8 d3bf f850 c18e d0d4 c73f
00000470: ceec bb48 a76f e03f 95d4 7d58 3b62 d53f
00000480: 093b 3dc8 5a99 e63f 6df7 1b3f 1fe1 e5bf
00000490: 1190 d6c3 50cc cbbf a2fb 3f2e a878 d6bf
000004a0: 051b a367 bdfe d83f 3f04 aa9e 1c10 c3bf
000004b0: 9aae f1d4 0cf1 debf fd5b cd78 6fc5 c83f
000004c0: 62c0 8568 fc16 e5bf 8009 032b 7205 f63f
000004d0: 07a5 f4b3 57e6 fd3f bb59 d3bf 31d3 f2bf
000004e0: 54b1 aa60 5930 e23f a414 d2c9 22ee b7bf
000004f0: 82be 72cd 5fff c73f b08e d1f7 00df dbbf
00000500: cbbb 2704 5354 d13f 824c b0a0 24ef 8abf
00000510: 994d 9911 9c3a d1bf 4aa0 3fff 35dc d5bf
00000520: f68d e24e ce3c eb3f 6a18 9f06 9414 ed3f
00000530: 3456 5596 a3e9 d2bf 6930 801b 247b e0bf
00000540: d1ff 3b17 6616 e03f 57ef 30a5 08b9 db3f
00000550: 124d 6855 d472 ebbf 2629 e2b2 722d f4bf
00000560: 8df9 6f9c 0da3 cd3f 7fd2 ca63 bab5 c0bf
00000570: f2d2 042e 376c f0bf 8f66 ff7d fd88 f1bf
00000580: dd49 d5c8 c48e d63f df2b 1ec0 3112 d0bf
00000590: 7119 8dbd 162a e43f 96eb a239 ee5d d7bf
000005a0: 90bb 0b1a 5935 c5bf 45c4 ff1a b400 bf3f
000005b0: ecd0 7c68 6fb7 f3bf e4ae 17a7 2a31 f03f
000005c0: 81c1 2aa9 8f8b 89bf ddb8 59f7 9616 ea3f
000005d0: 2a41 8805 fe4e debf 62bf c424 0585 ac3f
000005e0: 87b3 9be3 aa4a b2bf a689 6ae4 ea91 bfbf
000005f0: e6b8 8d47 7876 e63f 9bdf 9179 7147 e8bf
00000600: 47d3 3179 8c7b cfbf 7574 4e9b 9309 b03f
00000610: 870c bfdb b606 c03f 49fe 1044 0d1a a83f
00000620: a299 ef28 81bf c5bf 73bc 06a0 0817 b63f
00000630: 40c8 ba72 ee75 d23f 1d35 de3d 3d54 e9bf
00000640: 93a8 b01a 6e1c ca3f c672 4ba3 61b4 af3f
00000650: cd73 f289 4e3d ddbf c896 6bf0 89a4 d13f
00000660: 52c7 54d8 9c34 dfbf 03a7 5571 2a94 dabf
00000670: a9c4 b85e 08a3 ec3f cbbb d136 20bd df3f
00000680: b1ab a26f 4805 a4bf ecb8 3507 0c69 cc3f
00000690: 792d 72b6 bd89 e33f 7eab 5648 d27b d73f
000006a0: 1542 9d1e 4a5f f0bf 8a2f 8d4c c9d1 eebf
000006b0: 23f9 a9f8 0512 cfbf a3eb fe22 f132 cabf
000006c0: 0d43 82dd 3b5a b7bf 2440 0aea 8765 c23f
000006d0: a168 c792 8699 b93f e223 be30 0d6f f0bf
000006e0: 806a 7587 8912 a63f 7ad8 f272 4ad2 debf
000006f0: adb8 4e3f 94dc e53f 7259 e76d ebba d23f
00000700: 67cc af0d 21b7 b23f b248 88b1 0733 d93f
00000710: e1b0 146a e3af f53f 5b5f b900 b309 e53f
00000720: e73c f781 4e53 e43f d5fb 53c2 f8e0 c53f
00000730: 155c 94f3 c77a d13f 7e15 4f21 172c b03f
00000740: 80fb 42f7 c886 d1bf ebe5 d3f0 a531 bf3f
00000750: 5a1b ffa3 d761 dcbf 5e77 a81b 5d9e d13f
00000760: 1af4 30eb 150f e7bf f3db 8eb2 3a8f e6bf
00000770: f056 866f cea9 e63f 27dc 78cb 0b73 f23f
00000780: 562d b421 25b9 d1bf 07f4 b122 3aa4 ddbf
00000790: ced7 bbfe f46c e23f 4953 a8ab f850 febf
000007a0: 2f57 1c0b 42b4 e1bf 1c9b 46d6 2a12 d43f
000007b0: 278a f20b 6567 efbf b0dd c4ea 5316 e43f
000007c0: e6b6 0fe2 44f8 c33f 04bd 1b85 0877 7dbf
000007d0: b51e 4363 60d7 df3f 6d16 cda6 cfbc b2bf
000007e0: 2d52 d5ce 3771 a33f bf70 b407 8939 a8bf
000007f0: 11fc 40b2 81ef d63f 271b 3073 17a2 c9bf

lin1.bias f8 [64]
0.3055667845357285 0.17412103663491005 -0.1475040374678284 0.047304134650159584 0.8608337789425352 -0.399349011052358 0.5245332106023785 -0.290591748589599
0.04621698701284462 0.7103886326062065 0.28728638650970145 0.00021848520908324202 0.4103043778975054 -0.1408057003379462 0.14358554966015835 -0.08086864622468966
-0.4655532291767594 -0.43592958233081225 -0.5904337303168405 0.11821480329403594 0.0712241691933016 -0.1426561729620601 0.3232022817234344 0.7163155046931066
-0.14698499368939044 0.25332213360504163 -0.44399431561529257 -0.22235346134048437 0.2550275350483329 -0.21003657015331517 0.28310813810888574 0.15053684191071892
0.03475710007543328 0.12357464163993871 -0.16375256514042155 0.30099070970801833 0.3097078029777787 0.3642563711360671 -0.26034403530330263 -0.08454177786906295
0.20969106853154676 0.16476361073140916 0.9534289096435364 0.5774156765882497 0.1829732271286821 0.21154537059071182 -0.4292394348572191 0.4818613739542388
0.5129986636750846 0.43936503725367526 0.08261024313726012 0.3224214232329445 0.08757242228094304 0.09818546381496691 -0.10493803262116301 -0.1806262800143714
-0.1977765694844357 0.3523686180337916 -0.413826819571956 0.12730451947603108 -0.22630580484291782 -0.2888072455108707 0.23607070706789435 0.11977788381815384
00000000: 0eca 94fc 678e d33f 4b3f f21e 9949 c63f
00000010: 5de4 798c 69e1 c2bf cf76 935e 3f38 a83f
00000020: 8335 fb47 f38b eb3f 7e3a 8a27 ef8e d9bf
00000030: c37f 26df f9c8 e03f 8c81 2b22 0e99 d2bf
00000040: 43ca 7abf c0a9 a73f 58cd 0ff1 80bb e63f
00000050: af4a a970 e662 d23f 1ea8 c4a7 25a3 2c3f
00000060: 226d 1e4b 6d42 da3f 825b 05d3 eb05 c2bf
00000070: e8f9 fbe3 0261 c23f cd8c cebe ceb3 b4bf
00000080: c320 77c5 9fcb ddbf d810 de30 45e6 dbbf
00000090: ce50 4547 d5e4 e2bf 8c0b 0d4a 5343 be3f
000000a0: 64b8 5e45 bf3b b23f 97e7 b8b6 8e42 c2bf
000000b0: a5a9 7f9f 58af d43f bfc9 487e 0eec e63f
000000c0: 8c08 737e 67d0 c2bf 32f1 cb09 6e36 d03f
000000d0: 885d 4b22 676a dcbf 4b0d 4e06 1476 ccbf
000000e0: 612c a702 5f52 d03f 3ae1 e273 7ae2 cabf
000000f0: f32e 9a98 711e d23f a8c1 6c8e ca44 c33f
00000100: 0b6d 41c0 aecb a13f 695d 7574 96a2 bf3f
00000110: 2b05 f513 d8f5 c4bf 1221 a689 6e43 d33f
00000120: adc1 46ad 40d2 d33f 24e6 58f4 f94f d73f
00000130: d486 5507 7aa9 d0bf f2e3 17ab 87a4 b5bf
00000140: d99a cd2c 28d7 ca3f 7ec5 d457 f916 c53f
00000150: 925b 3f58 7d82 ee3f a89d e470 307a e23f
00000160: afd7 47ad aa6b c73f da55 2730 eb13 cb3f
00000170: b960 b7ad a878 dbbf 84b3 9516 d1d6 de3f
00000180: c309 6c2c 7c6a e03f b0a9 8088 8e1e dc3f
00000190: ecd1 96e4 f125 b53f 672d 1477 8da2 d43f
000001a0: 2d68 ba71 256b b63f c522 07bc ae22 b93f
000001b0: ebe7 360a 38dd babf cfdc ba0e c31e c7bf
000001c0: 7de4 ec1c be50 c9bf e2e0 a51a 358d d63f
000001d0: 4a3b 117c 237c dabf 8d2a e4b5 834b c03f
000001e0: 47ff 58af 96f7 ccbf 434a 9462 d17b d2bf
000001f0: d439 339f 9037 ce3f 8376 c86d c3a9 be3f

lin2.weight f8 [64, 64]
-0.76388536516259 -0.15363121213665915 0.2217050631825953 -0.009893456393033673 -0.437524619500195 0.27969505532624017 0.6952836993950289 0.07331984770650461
-0.1219208698682119 -0.1745556400011173 -0.5076769685501502 -0.16164881705429912 0.33689063249337775 -1.2262981825685049 -0.26169108093149374 0.1679664960872857
0.6019447594336933 -0.25446409181469126 -0.6491157375635578 0.632792708709442 -0.9353078345610188 0.07013557749939422 0.1368446872432421 0.22378220550157596
0.15504830630190086 -0.5669665346888048 -0.10209992322659377 -0.06849688379590153 -0.2961917710888412 0.84874216503854 -0.9434114051858105 1.0170931124960743
-0.17351029860168307 0.9388532111293156 0.38578357298742266 -0.0796131214513098 -0.39910554395631986 0.450290201449358 -0.48430450425217914 0.2559621235062669
-0.14977880405658292 -0.1897291182472045 0.24398749699515865 0.5160583893112726 -0.3787763116425162 0.527776474503387 0.901381747041871 -1.4225074253242558
-0.878820041237976 -0.814613774678658 -1.0710027109247675 -0.29348095610833413 -0.40335033264253733 -0.046364155072482434 1.3300540964136354 0.6631290043030567
0.6301646145686685 0.16714705338690883 0.5083993408575049 -0.2604838693880768 -0.685557623255479 0.19374146726357 0.18901232618592245 1.0844410322007216
-0.004351833164329473 -0.12904633733699866 0.5521675717251089 1.309265038194986 -0.2632129014513199 0.5057273521964356 -0.3120465180237692 0.5042343888540564
-0.43058907609324776 0.7876287303014752 0.7866866920099874 -1.2014019590081224 -0.058389896116574774 -0.1295490290489291 -0.8559598392680443 -0.5465472859853759
1.2590530601461742 0.1051581666853325 -0.5968054877752941 0.11410159056694043 -0.5279469159860577 -0.9243731326352406 -0.4975420326444428 1.1933450235507608
-0.11361416920639096 0.6963468683479271 0.02486339908470956 -1.1727263817944305 -0.1390285161214564 0.6669626040233233 0.07290714004689558 0.008651454330395103
0.5863238206987365 1.5257956755973467 -1.118603435035902 -0.022054974759831373 1.1588866295403752 0.22987016165419108 0.3502312486725413 -0.15995136844229405
0.18338530079259768 0.4269846596504628 -0.1994286887114145 1.4811070155079107 -0.7032104460437841 0.1992553438524176 -0.2088347939695598 -0.34213014104134215
0.25927539070198696 -0.37842611044274993 -0.08540770126598007 -0.14529152065826734 -1.2740362483575605 0.48564536076837034 0.20962509740028978 0.1662991815660726
1.9119263603571723 -0.2984300002846581 0.469652661342286 1.1827958277548258 -1.0341704798263553 0.5918898175436724 1.2772674050005333 0.6200732373807442
0.5818543263604071 0.46273591042744416 0.14630008539856726 0.0765097211017847 -0.01677142486647324 0.1579360492924058 0.11408417347328109 1.3478430737927933
0.2111857562099837 -0.1012271594581333 -0.010932786535400795 0.2749132226471695 0.703187681744054 -1.1162063592820306 0.7676559662133465 -0.0596391423984102
0.866475050603327 0.09706815319305574 0.0854867562525381 0.6044249716792582 0.4017338232985062 0.5845917531870323 0.8356164579739982 0.5560559960216637
1.3461757061781932 -0.6296437194757554 -0.20648068062483502 0.47128684495983914 -0.18820621750082417 -0.31255225473565057 -0.21654659246447222 0.7264270767767458
0.5960958438012472 0.8635259052303786 0.6081415477852744 -0.29574954821113614 0.2385087174419563 0.4229807001612702 0.025636375839250103 1.4491224862925993
0.02292847535956531 -0.6424891317746975 -0.0036043529618180344 0.03334833489712714 0.08179704751538978 0.3113404544061312 0.0006810499177667454 -0.380191715536607
0.1480106166064933 -0.24362879863104533 -0.7711044142583025 -0.5034865255168715 0.36212381460038806 0.5045807185483758 -0.4131070411797486 0.6659965325409761
-0.048183344597611984 0.09760150069138787 -0.31798697978814616 0.13399790825568078 0.5086765301914001 -0.22500115947128768 -0.38029437564429935 0.5286823022583811
0.1793176867752493 0.28286115937092193 -0.2777826644310781 -0.0830661094077416 0.41657166009523044 0.7993967101982933 -0.3233329300091056 1.3471529381278349
-0.21830104784451362 0.6097561505316573 -0.41547708258748245 0.30725281622208206 0.422730447651006 -1.8990437614477866 0.3965399999747767 -0.9354109656836431
0.747579735563845 1.0764453866083132 0.07578355526396889 -0.6582969691624035 1.5424963927962951 -0.4282891230727183 0.5429071541635907 -0.34740729642064005
-0.8746000963023473 0.4162169913243028 -0.7296706135170727 -0.5895909965871904 -0.30646035356321766 0.8026148686623816 -0.9743845428693965 0.30961018044122385
-0.4161087459675952 -0.3159522518995531 1.3756104686380963 -0.7499188420478771 -0.20092975381503467 0.7441351333086649 1.2728401084612875 0.8401857313363421
-0.7440653484898577 -1.06474280288529 0.27040141363960274 0.3769740309643036 1.4629678203126832 1.5024007831505584 -0.5827114563364872 -0.32905293656519724
1.432455143649074 -0.3837195629532368 0.38526426060663327 -0.5495483995562017 1.286696315298532 0.16109504586121198 0.49892136210156296 -0.5164198803747494
1.7511556830592114 0.22412682661757227 1.9951048383191063 1.1941004885234556 0.36601187822622755 -0.06560807711156057 0.33981734656887314 -0.5557935194530765
00000000: df85 a8b8 bf71 e8bf fec9 e203 30aa c3bf
00000010: c409 dddd d460 cc3f 5a48 383d 0543 84bf
00000020: 01af fc42 6700 dcbf c6a9 de16 86e6 d13f
00000030: 50fe ca99 c33f e63f 3b11 0cec 16c5 b23f
00000040: dea9 c8c4 3436 bfbf 138e 91d6 d657 c6bf
00000050: bf5e 1bc5 e33e e0bf f8b7 578f e8b0 c4bf
00000060: ebd1 38ba 9d8f d53f 5b6a d4d7 ea9e f3bf
00000070: a65c 90f2 8bbf d0bf 9e61 c217 ed7f c53f
00000080: 8885 f8a7 2143 e33f 9d6d 16c2 2349 d0bf
00000090: d7f0 045e 8ec5 e4bf e4bc a17e d63f e43f
000000a0: 9c3a 24b2 0aee edbf 665e a5bb 67f4 b13f
000000b0: 4aa8 2b70 2084 c13f aa2b 0733 e5a4 cc3f
000000c0: 1af5 6e76 9fd8 c33f 9546 8d00 9724 e2bf
000000d0: 3fad 2e77 3823 babf e503 c803 0389 b1bf
000000e0: e2ef 8a54 cef4 d2bf da74 3254 e528 eb3f
000000f0: 6849 7e1d 6d30 eebf 1285 726d 0346 f03f
00000100: dbb7 01e1 9535 c6bf 9770 b1e3 150b ee3f
00000110: 1d29 5495 adb0 d83f 0e42 f788 8661 b4bf
00000120: b575 bcfa f18a d9bf a9ca 3bfe 8dd1 dc3f
00000130: fb63 c451 d8fe debf 2258 5ef5 ae61 d03f
00000140: 4b4c 87ac f32b c3bf 983e fc32 0b49 c8bf
00000150: c411 1d78 fb3a cf3f 2363 1de2 8c83 e03f
00000160: 5b43 c0ff de3d d8bf 20e3 327d 8be3 e03f
00000170: a232 9888 1ed8 ec3f 825b 6125 97c2 f6bf
00000180: a1f7 0535 4b1f ecbf dbb5 23e8 5011 eabf
00000190: 6696 15bd d322 f1bf 9afb 1e59 64c8 d2bf
000001a0: 63f2 e1e9 7dd0 d9bf 7968 7ce3 0abd a7bf
000001b0: 4a1e e0cd e647 f53f 6c57 5051 5a38 e53f
000001c0: 6f67 55fb 4e2a e43f 78b3 f51b 1365 c53f
000001d0: 624f c9b1 ce44 e03f 9f11 0a89 c4ab d0bf
000001e0: 14fc 6c8a 16f0 e5bf d856 e338 85cc c83f
000001f0: b834 c14f 8e31 c83f 9ee1 fbd6 de59 f13f
00000200: c824 e551 3ad3 71bf 94f7 4323 9784 c0bf
00000210: 1013 cf53 5bab e13f 9d7f 8de5 bff2 f43f
00000220: 9e98 e7ec 7ad8 d0bf 2e0b cc20 eb2e e03f
00000230: 6f89 6ff5 91f8 d3bf ecb1 3428 b022 e03f
00000240: 7376 f57b c58e dbbf 691d c12a 4134 e93f
00000250: c733 cc91 892c e93f bca4 b442 f138 f3bf
00000260: 049d 79cc 47e5 adbf b531 7f05 1095 c0bf
00000270: b40f 8be3 0564 ebbf beca e0bb 507d e1bf
00000280: c91a 54d2 1425 f43f 3f21 d246 a5eb ba3f
00000290: d32e 82d2 0719 e3bf 5d16 e807 c335 bd3f
000002a0: c8e4 45ee f0e4 e0bf 8f05 bff6 7694 edbf
000002b0: bff7 a589 bad7 dfbf faea 8ff3 f017 f33f
000002c0: 6d89 1a75 d115 bdbf 613e 473a 7948 e63f
000002d0: 7ab1 be77 ca75 993f 736a 0fbd 7cc3 f2bf
000002e0: 00fe f9b8 afcb c1bf edec 7df5 c157 e53f
000002f0: 7874 25d6 0aaa b23f 208a 4b8b dab7 813f
00000300: f689 582c 2ac3 e23f ed19 f1b9 a869 f83f
00000310: 65c2 2ab7 cce5 f1bf 91f6 3a4d 9495 96bf
00000320: 7c5c dab4 cc8a f23f 15c4 50ad 626c cd3f
00000330: e27d c553 306a d63f 237e 3454 4979 c4bf
00000340: 8a54 bc66 2b79 c73f 59ea 4577 b753 db3f
00000350: 0829 f317 e186 c9bf e6b8 1745 9db2 f73f
00000360: 05d6 7e31 b380 e6bf 801e b3f8 3281 c93f
00000370: 3fde 2e39 19bb cabf 4fe6 afd1 75e5 d5bf
00000380: 0140 eece f797 d03f 4b76 1326 2238 d8bf
00000390: 6890 c373 47dd b5bf cc82 ce9c e998 c2bf
000003a0: fed3 49d5 7362 f4bf cb12 7d47 d014 df3f
000003b0: c8a5 e0c4 fed4 ca3f b8c3 16a5 4a49 c53f
000003c0: 8682 6118 4097 fe3f 4d8b d724 7a19 d3bf
000003d0: 6472 3c09 ca0e de3f ebd5 6051 bbec f23f
000003e0: 357c 5558 f68b f0bf 74ef 25ea c2f0 e23f
000003f0: d295 4bf2 af6f f43f c19a 75d4 a3d7 e33f
00000400: 4121 d8f6 8c9e e23f 431f 7e14 779d dd3f
00000410: 5a2c 1811 f6b9 c23f a24f f51d 2496 b33f
00000420: 4a3c 3c45 872c 91bf 7800 499b 3f37 c43f
00000430: 3c16 0fd2 9e34 bd3f 5848 21e6 c390 f53f
00000440: b8c5 2686 2208 cb3f eff3 56eb 05ea b9bf
00000450: 1954 fdc4 ed63 86bf db7b 20a1 2d98 d13f
00000460: f94d 0174 8380 e63f bb41 0b33 fbdb f1bf
00000470: 3be6 ae3e a390 e83f 0448 538c 0589 aebf
00000480: fe84 a4e2 29ba eb3f c181 725f 75d9 b83f
00000490: b084 58c6 75e2 b53f c4f0 c709 7357 e33f
000004a0: 75e7 30c8 01b6 d93f 2f63 aec3 f9b4 e23f
000004b0: 00ed dfb9 5ebd ea3f 4d0c b5f1 35cb e13f
000004c0: dd47 8b89 ef89 f53f 22f7 e895 0a26 e4bf
000004d0: eb0d 457d f56d cabf 51cd 884c 9029 de3f
000004e0: 92f2 882e 2417 c8bf 115d 182c db00 d4bf
000004f0: 9efa 587a ccb7 cbbf 8eeb 35ff e33e e73f
00000500: 5d0d 4d97 3713 e33f 1fd3 4614 01a2 eb3f
00000510: 4d73 6243 e575 e33f 25e9 5783 8fed d2bf
00000520: 8baf 9c22 7487 ce3f a009 82a4 1d12 db3f
00000530: 302a 450f 6c40 9a3f 1566 680f 9b2f f73f
00000540: fb11 44ef 8f7a 973f 923f 205e 458f e4bf
00000550: e316 0443 e086 6dbf 09b8 846f 0813 a13f
00000560: c3ea fcbb a6f0 b43f b526 6683 00ed d33f
00000570: 2c18 d78f 0f51 463f b426 1ca2 0f55 d8bf
00000580: 4591 e40a 03f2 c23f 4bf7 3d7d 3a2f cfbf
00000590: f74c 212a e3ac e8bf d04a 22c6 8f1c e0bf
000005a0: 89ee 335d 092d d73f 4570 8b76 8625 e03f
000005b0: 7051 e783 5870 dabf 9d69 d0f5 d74f e53f
000005c0: b16c 84c2 7cab a8bf 7a91 8275 69fc b83f
000005d0: 129c af0f e659 d4bf 2f64 d8ec d726 c13f
000005e0: 3546 ad00 1447 e03f a6e1 be86 d6cc ccbf
000005f0: 28ae 8f38 be56 d8bf 3a8f c525 f7ea e03f
00000600: 01a4 25c8 e1f3 c63f daa1 33b1 651a d23f
00000610: 6b24 c8f0 30c7 d1bf dfec 4f0f d243 b5bf
00000620: 132a 232e 1ca9 da3f f49c da68 a894 e93f
00000630: 4bf9 069a 7cb1 d4bf 8282 3f3d f08d f53f
00000640: 235d 96ea 49f1 cbbf b02f a254 1f83 e33f
00000650: bbd8 7c30 2d97 dabf 81c6 51b7 07aa d33f
00000660: 06cf eb01 040e db3f 0575 11b6 7b62 febf
00000670: f3a3 dc4e e960 d93f f6ca 3dfa e2ee edbf
00000680: f5c4 6c56 2cec e73f c19a 36cc 1e39 f13f
00000690: 5bf0 6e13 8d66 b33f 5f78 33ce c410 e5bf
000006a0: 0121 94b2 10ae f83f 2b1c 35c8 1669 dbbf
000006b0: a7b4 fcd2 7e5f e13f e82d 21d0 eb3b d6bf
000006c0: 164e 5657 b9fc ebbf dcc0 7197 4ca3 da3f
000006d0: 040f bd2f 7659 e7bf fc74 0bf0 eddd e2bf
000006e0: 86c6 04e3 0b9d d3bf 4306 8660 05af e93f
000006f0: 5243 2b7e 282e efbf df3c e037 a7d0 d33f
00000700: 48aa e093 86a1 dabf 8264 40cb 8f38 d4bf
00000710: ac5f 6d1f 8002 f63f 8afe a7cc 55ff e7bf
00000720: 5de6 b6f0 10b8 c9bf abb0 ab7b f4cf e73f
00000730: 9c0d ee96 8d5d f43f 4cf9 d42f cde2 ea3f
00000740: 9b39 3b22 62cf e7bf fab2 d0bf 2f09 f1bf
00000750: e9f3 17bb 414e d13f deb5 9baf 5720 d83f
00000760: 7b7e f5f1 5068 f73f ecdc 5167 d509 f83f
00000770: 2608 ff7e 92a5 e2bf 77d1 4c0c 340f d5bf
00000780: 285b af15 56eb f63f 5b0d 6e7f dc8e d8bf
00000790: 0de1 e76d 2ba8 d83f 8537 7586 e695 e1bf
000007a0: 5374 21e0 4e96 f43f 5ac1 c230 c39e c43f
000007b0: 8d20 60dd 53ee df3f 4bd7 26fc 8286 e0bf
000007c0: 071a 4fd2 bb04 fc3f 3247 3d17 30b0 cc3f
000007d0: 39c0 0a0d f3eb ff3f aa88 251d 091b f33f
000007e0: b777 bb15 bd6c d73f 6f2f 8ce1 b0cb b0bf
000007f0: 9f1d 8841 91bf d53f 8826 ac7d 0fc9 e1bf

lin2.bias f8 [64]
-0.06699710824450046 0.4147953277986526 -0.13972171208184858 -0.03685243596716001 -0.22447463515046528 -0.12424863127127309 0.2637907478938277 -0.32672342874536875
-0.3720056927495522 0.4172573598143193 0.036236641413177846 -0.4013610799309675 -0.053103477347189246 -0.19387543632284418 0.009498847109084583 0.15936642522833805
-0.3780585993280601 -0.06579896884670217 -0.15190693246491868 -0.17308129694986504 0.07064917002082854 0.1804698319742019 0.05865427520257225 -0.22465904658793287
-0.11681090589439376 -0.31156028090251753 -0.24753068445345525 -0.31143624957588506 -0.2300895559377445 0.21717668551161975 -0.08561090975297475 -0.18476525157721868
0.14858680574586008 0.428069374098162 0.061783289565700866 -0.1866066960651194 -0.6833400831331718 0.31995295313233174 -0.39100559931764 -0.33223431719349994
-0.30248299801693956 -0.48914394357799074 -0.15958743711194115 -0.3818249524899658 -0.3613355263572661 -0.11407740257080641 -0.24950809159912035 0.34235384945221253
-0.026299887889771882 0.17129454001894662 0.4025994089093729 0.011806462897785443 -0.10445886631118063 0.4870832034695971 -0.27570644616122 -0.14182401791743102
0.05593346210407358 -0.2078649923833008 -0.038951357395284436 -0.25776604954290805 0.07047237769089988 -0.0606072727727956 -0.20697851941304718 -0.18037082723395528
00000000: 1132 d6f4 b826 b1bf aa71 dbb3 018c da3f
00000010: a861 f7ab 66e2 c1bf 9c86 838e 52de a2bf
00000020: 1c5b 60b8 95bb ccbf 7a04 e21f c2ce bfbf
00000030: 6c3f cc96 f2e1 d03f 1618 5362 09e9 d4bf
00000040: ea3f 12f7 f0ce d7bf 55bd 9a36 58b4 da3f
00000050: 41ad 92eb 9b8d a23f 3435 0c62 e6af d9bf
00000060: e225 0505 6130 abbf 6b8e 4009 e9d0 c8bf
00000070: 523d 77ad 2174 833f 7ad3 3778 1e66 c43f
00000080: 3c7a 05b2 1c32 d8bf ac9e 4e83 33d8 b0bf
00000090: 177b 7cb5 af71 c3bf b376 f926 8727 c6bf
000000a0: e49f ba62 1016 b23f 3e35 1fad a219 c73f
000000b0: dd00 88e3 ee07 ae3f 4b40 ecac a0c1 ccbf
000000c0: 1def a1cc 51e7 bdbf 645e 4d88 9af0 d3bf
000000d0: 87f6 3de1 15af cfbf 93e8 ad4e 92ee d3bf
000000e0: e8ae f316 9373 cdbf 51f0 dc14 72cc cb3f
000000f0: a4e0 91b9 98ea b5bf 100e 7b44 63a6 c7bf
00000100: 5ed5 a577 e404 c33f 4fee 8a16 7d65 db3f
00000110: bc7a 3f30 0fa2 af3f f93a 686c bae2 c7bf
00000120: e94a a305 ecdd e5bf 2c91 7df3 1b7a d43f
00000130: 34d1 6759 3c06 d9bf 461e bdb9 5343 d5bf
00000140: de0a 05a6 e15b d3bf 580d 2d66 224e dfbf
00000150: 75c6 9f73 5c6d c4bf 1d6f efec d16f d8bf
00000160: 0798 250b 1f20 d7bf dd15 4139 2d34 bdbf
00000170: 50b7 c092 e1ef cfbf 3da5 c31e 20e9 d53f
00000180: 9e09 8099 5bee 9abf c4af aebf faec c53f
00000190: 67e6 a94f 30c4 d93f 0e2b 38a0 fc2d 883f
000001a0: 1971 95f6 d0bd babf 244d 5507 5f2c df3f
000001b0: c8c3 63a6 2ca5 d1bf 4710 5f17 4a27 c2bf
000001c0: f164 fa8c 4fa3 ac3f 2481 22f0 519b cabf
000001d0: 408c 4bac 6ef1 a3bf f693 332c 3d7f d0bf
000001e0: 992a 744d 7a0a b23f 09f6 ea9c ea07 afbf
000001f0: c240 eda9 457e cabf a9a7 0f2a 6416 c7bf

lin3.weight f8 [16, 64]
-0.41188198828415196 0.5687033526323438 -0.31570099335654406 -0.5173186705586881 -3.5819214832273465 0.0380763189923437 -0.9917152467973019 0.04171023299774129
0.0008204902932341625 1.3359485380501297 0.09941746592979 0.6765849596293505 -0.34523649719474625 -0.37679153274432836 2.2343415051470794 -0.899488613882948
-0.014135917643872101 -0.8394716499031879 -0.3692871213466139 -0.367519888873799 0.10166241519110705 -1.4668711712772475 -0.5582493909358666 0.10354440476851362
-2.25155777492961 1.303885327538218 -0.3358065001397049 -0.12408130250159415 0.9990537037692652 -0.7901525795518854 -0.16065451140401946 0.07031603788835722
0.44638147431982045 0.9166819572181173 1.0097793217092106 -0.1776827061343846 0.9480533385063639 -4.260718465507504 -0.086836149524768 -0.43727072261698585
-0.1112631144049124 0.00137207547099287 0.09134867054250258 -0.19961465022995206 0.0030010372535965403 -0.24560525842028014 0.04191778262156784 -0.2249011947486586
-0.31561502806396374 -1.8288116779022128 0.15344839863878618 -4.444484465277627 -0.2237366269680073 0.33813699172355965 -0.053515022006234314 0.007219825560833473
1.366148126605237 -0.8807603188673344 0.4438285639048319 0.14509308245550923 -0.17192150665243797 -2.5238912947505043 -0.06108220098688757 -2.6960209535343926
0.37154089180935596 0.6071075325413735 -0.4683586844672389 -4.4007836494444215 -1.401593024259498 0.7439852000939956 0.5017645130316054 -0.18468994699240202
0.5970381316184962 1.1037383214041059 0.5045212148425515 -0.9060189725550726 0.516791155904219 0.3149034768220979 -1.1223157560953256 -2.490411217359116
-0.6248917797898451 -1.721762832163276 0.3794757563368936 -0.27050497798123474 0.215578745824166 0.7093476223941332 -2.127336078054472 -0.292500930850463
-0.9618798496625334 -1.566966647064746 -0.10582121641894705 0.010391055887007053 -0.3494564608294413 -2.3695657280038076 0.18273881004583173 -0.7254422799357009
-0.567649121048469 -2.5228160714465537 0.6341271378845496 -0.630323008323045 0.28588492407286936 -0.17980118311507043 -0.3449090543113826 0.2928552040524409
-0.8852735035900303 -0.246212263496821 0.026306735081862088 -0.4944493760035692 -0.8384097918761023 -0.02129601990364993 1.260345726853012 -0.46059419870491985
0.21431955369495154 -0.10837970699830651 0.51894467297194 -0.6482201769889021 0.09813644302979699 -0.7813777339535501 -0.0244062388361215 -0.0853547650965131
-3.136368182127289 -0.09207064723656454 0.8662149550816632 -0.4833788526991587 -0.2784399032345092 0.2573462490793551 0.11250640738232828 0.49792272825914624
0.250019051463526 0.6099120268548587 -1.0393509493619684 -0.0637762583187342 -0.8569890886364524 0.09111038368609961 1.0672245035190393 -1.8934994281575492
-1.1680107745927024 1.132455347456774 -0.41025756022420634 -0.09458979437795802 -0.6250203163621783 -0.14735266601400362 0.8214716183109065 -2.6170652417040094
-0.7939057372632151 0.23375113095041986 -0.9536577572024134 -0.8652288655335659 -0.14238763911255642 0.2804203568390954 -0.29526452458582697 -0.6627701268104511
-0.8934253304963282 -0.05985431025864806 -0.6921376605825347 -0.38435161552358826 0.4839302889535239 0.678773087495586 -0.7430705165977682 0.3860126370347314
-0.1980934194040458 0.3693265575772271 -0.3499666248358191 -0.8494923575334796 0.17558942736898947 1.0001602405849652 -1.4103337205831723 -0.5042100518727739
-0.7549259974551285 -0.24939981524928723 -0.10328303069752963 -1.0723321334209257 1.0027680340082175 -1.3282173011264398 -0.46654670731757214 0.12579706644041766
-2.1135982988924376 0.27632414985168496 1.5064559788324956 -1.194482600733743 -0.8342233117026808 -0.5417054570534499 -0.6474935440125086 0.11496497267589022
0.8686106445197258 -1.2574007755275827 -0.7928459789602407 0.10423598133118565 -0.44537385527251316 -0.41688298095601306 0.09981794712459412 0.4849956240331249
-0.2084110950339952 -0.5683174047252031 -0.5153635041211257 -0.010764840726434383 0.026699834719346165 -1.0445181231860408 -2.136201212775496 -0.5215730622491733
0.08819396471165915 1.7483718807247024 0.3927917973947561 -0.13482635102624704 -2.7087334569526926 -0.464523208577467 -0.23629490017245205 -0.012605137163669627
-0.2411259533622274 -0.4853117966554462 -0.8462322422871394 -0.652614769708037 -3.2238444690980983 -0.04769534466347463 -0.0828400932784002 -0.0731719777709414
0.14410949143538018 -1.035651309733906 -0.5258835088205834 -2.49897162896744 -2.9193580911933754 0.8885343747093084 1.8560337196797811 -0.09353512133411236
-2.688730479941835 -0.5879704365746224 0.7461832083115674 -1.1119354029607875 -0.36141907952625113 1.4606719568782451 -0.40235616586764267 -1.628119248659516
0.2943854941227659 0.35334716131512406 0.11311700791697074 -1.6398992164492208 -0.11270294615825051 -0.9009746431683573 -2.6331275101885456 -1.273731867720747
-0.06603216451122246 -0.23965811697211417 0.8840000987242287 0.017448779607000052 -1.6120036248890317 -0.3285801932173737 -0.10813048984547728 0.006802335887685515
-1.8141639519500028 0.43057708069022266 -0.9781203604036244 0.3503756909953567 -1.997817835982424 -0.31356613729655547 -0.09988879990278743 -0.07086682766774612
00000000: 177b 5f45 465c dabf 9fce 955f d132 e23f
00000010: 0dfd 71f0 7134 d4bf c81c 75e2 df8d e0bf
00000020: fe68 5a73 c6a7 0cc0 e7fa a541 bd7e a33f
00000030: 210c fe9c 21bc efbf 8886 442d 0b5b a53f
00000040: deb3 f17c c5e2 4a3f 7307 0193 0b60 f53f
00000050: 14d4 d14c 6c73 b93f 725a 5280 95a6 e53f
00000060: ea91 35d2 5a18 d6bf 8dfb a23b 5a1d d8bf
00000070: f29d 6570 eedf 0140 610d 7858 9cc8 ecbf
00000080: 35c5 d5bf 4af3 8cbf 791b 48a6 f3dc eabf
00000090: d621 4173 66a2 d7bf ddeb d523 7285 d7bf
000000a0: e669 7a4c 8c06 ba3f bf4b c1e7 4d78 f7bf
000000b0: 5e9b a2d3 2ddd e1bf 1c20 2ad8 e281 ba3f
000000c0: 8304 03b9 3003 02c0 a02c 78dc b6dc f43f
000000d0: 9697 f88b da7d d5bf 1318 4ad0 cac3 bfbf
000000e0: 915f 1479 3ff8 ef3f f7cf 0010 ee48 e9bf
000000f0: 19b2 37b8 5390 c4bf f462 1d5b 3b00 b23f
00000100: f09b 6f9a 8391 dc3f 04b9 6266 7555 ed3f
00000110: a1b0 ae5c 0e28 f03f 1fbb f491 4ebe c6bf
00000120: 4ef3 77f4 7356 ee3f ab45 0bc8 f90a 11c0
00000130: 1dc7 51d6 e43a b6bf f4d8 4857 3efc dbbf
00000140: c6c5 9e4d bd7b bcbf c0be a2d1 e67a 563f
00000150: 4d5c 8360 a062 b73f c022 450d f98c c9bf
00000160: b6fc 769b a195 683f 8003 523c fe6f cfbf
00000170: 4c00 f662 3f76 a53f b26e 23f6 8fc9 ccbf
00000180: 4f4b ea5f 0933 d4bf 5120 b208 d042 fdbf
00000190: e679 e376 32a4 c33f 32ca 87ef 26c7 11c0
000001a0: 4b5a dfdb 66a3 ccbf 0f50 4156 09a4 d53f
000001b0: 1816 b92a 5266 abbf 9c69 aa2a 8992 7d3f
000001c0: b72d 5423 bedb f53f 9dca a443 302f ecbf
000001d0: 1d1f c0eb af67 dc3f e0d8 02fe 6892 c23f
000001e0: ef8f 4620 8601 c6bf 6de6 4ceb ed30 04c0
000001f0: 9377 368f 2a46 afbf 6e16 066f 7391 05c0
00000200: b5a9 dc72 53c7 d73f 5e74 adc6 6c6d e33f
00000210: 6366 25b4 96f9 ddbf 918a 6c07 679a 11c0
00000220: c2f0 97ce ec6c f6bf 4593 e30c bace e73f
00000230: 9973 b873 740e e03f 53bd 1d91 eba3 c7bf
00000240: 3986 38b6 ef1a e33f 745c 9c83 e9a8 f13f
00000250: e261 bcac 0925 e03f f1be 1580 1bfe ecbf
00000260: a10f 2f9b 8d89 e03f 273f 96e9 6027 d43f
00000270: 6170 c35d 01f5 f1bf 0d31 61b7 5cec 03c0
00000280: 6192 b70b 1dff e3bf f4c0 f92e 578c fbbf
00000290: 6de0 c5ae 5449 d83f 246a 751c f44f d1bf
000002a0: c784 8397 1598 cb3f 7bb3 f5c8 f9b2 e63f
000002b0: 46c2 16c7 c804 01c0 d258 03d3 55b8 d2bf
000002c0: 5c6c 1f40 b8c7 eebf c20d 719e 4b12 f9bf
000002d0: 6908 be67 1917 bbbf 7b13 a5e9 e747 853f
000002e0: d1da a8a1 7e5d d6bf 83fd 5be0 def4 02c0
000002f0: bdab 6d3e fc63 c73f 53b4 6eba d236 e7bf
00000300: c533 507d 2e2a e2bf 3b7d 4531 ba2e 04c0
00000310: 110c d7fe c44a e43f f73d 5528 9b2b e4bf
00000320: a4fe d347 f04b d23f 6c73 a1a4 b903 c7bf
00000330: b325 176d fd12 d6bf ce97 f7c0 23be d23f
00000340: 94e7 3d19 2954 ecbf cbe6 cb29 e283 cfbf
00000350: 1d52 5d1b 27f0 9a3f c2a0 ddfe 0ea5 dfbf
00000360: fb20 98c5 40d4 eabf 1fa6 15b4 9fce 95bf
00000370: e6ca e747 602a f43f a58e 0a17 607a ddbf
00000380: 56ae 01b9 d26e cb3f 0c98 1bc1 c5be bbbf
00000390: fa21 dbdb 319b e03f 11ca 983d 38be e4bf
000003a0: bad6 5b4d 781f b93f 16e6 a4e0 0b01 e9bf
000003b0: 0760 7af6 f2fd 98bf 8ab4 a554 cfd9 b5bf
000003c0: 099d 9333 4817 09c0 0777 cd22 f191 b7bf
000003d0: 2338 ec6c 08b8 eb3f d4ef fada adef debf
000003e0: b2ca 9299 f5d1 d1bf 8ad2 e266 5c78 d03f
000003f0: 6e2c 4c4c 38cd bc3f 5fb8 734a f7dd df3f
00000400: 126b 5ae8 4f00 d03f 0beb 183a 6684 e33f
00000410: 2438 0976 2ea1 f0bf 7d7e bd0f a453 b0bf
00000420: f81d 9761 746c ebbf d2ff 4196 0253 b73f
00000430: 70aa 4100 5a13 f13f eae6 6e0e c64b febf
00000440: 4305 e410 2cb0 f2bf 551d 987f 891e f23f
00000450: c261 06ed a841 dabf 7981 6369 0937 b8bf
00000460: 5f8e 439b 2a00 e4bf 5f18 c1c0 73dc c2bf
00000470: ea99 e7d8 7e49 ea3f bbef c4e6 bfef 04c0
00000480: 75df 3401 ad67 e9bf 77e3 6a9b 8eeb cd3f
00000490: b85a d845 5d84 eebf f9b2 2072 f4af ebbf
000004a0: 0eea ab16 c239 c2bf 8e6b 7039 68f2 d13f
000004b0: a4f7 302d 9de5 d2bf 4855 6db2 6935 e5bf
000004c0: 84ca fcb7 f096 ecbf afca 2b62 39a5 aebf
000004d0: 9c05 11e1 fd25 e6bf 41ab b584 3799 d8bf
000004e0: 8b59 26bf b6f8 de3f 045a 8656 82b8 e53f
000004f0: 7e18 edd1 3bc7 e7bf 7b0a fa58 6eb4 d83f
00000500: 0054 f20a 205b c9bf 30a9 95db 0ba3 d73f
00000510: 4420 176a da65 d6bf 0edd b998 0a2f ebbf
00000520: de5d 09e0 b679 c63f 9326 4106 a800 f03f
00000530: 949c 6517 ba90 f6bf f674 631e 7d22 e0bf
00000540: e109 bf90 5a28 e8bf 84e3 0f49 55ec cfbf
00000550: 1fe1 13b7 c170 babf 72e2 37bd 4528 f1bf
00000560: d5a1 787e 560b f03f 701c e5c8 6040 f5bf
00000570: b711 7fb8 e6db ddbf b4ac 2547 1e1a c03f
00000580: 78fe 9439 a6e8 00c0 b64f ad7c 4baf d13f
00000590: 1330 9f95 711a f83f e2ad 9cc9 991c f3bf
000005a0: cd5c 2a16 f5b1 eabf 627f c3ae a655 e1bf
000005b0: 9ff4 7c61 44b8 e4bf 6717 d42d 586e bd3f
000005c0: 376e e58c a8cb eb3f 32b2 8d46 501e f4bf
000005d0: 60c7 cc87 fe5e e9bf db47 e292 35af ba3f
000005e0: 6ee3 b857 0181 dcbf a8c3 5df4 35ae dabf
000005f0: 9f38 7442 ab8d b93f 7a39 fb15 2b0a df3f
00000600: 0eb4 a5fa 36ad cabf e05a 61fb a72f e2bf
00000610: fe11 789a db7d e0bf 50f8 ee76 e00b 86bf
00000620: 4e79 b693 3357 9b3f 0f9d b2a2 58b6 f0bf
00000630: cf5e 54a9 f016 01c0 73b6 9afd b9b0 e0bf
00000640: ad22 2432 e193 b63f 7756 0fcb 54f9 fb3f
00000650: 6ca4 fc34 8023 d93f cffb 2568 fd41 c1bf
00000660: ef8a 5972 7cab 05c0 6eaf 448d bfba ddbf
00000670: dde3 394a e93e cebf 4354 09df b8d0 89bf
00000680: d72b f419 37dd cebf 96e1 bf35 590f dfbf
00000690: 5935 aea3 5514 ebbf fb0a 995e 38e2 e4bf
000006a0: a355 11f8 6eca 09c0 778c 0033 866b a8bf
000006b0: 44a6 6d23 0235 b5bf 5e84 8213 66bb b2bf
000006c0: 0f0b 6108 2e72 c23f f9dd 951b 0792 f0bf
000006d0: f97b fca6 09d4 e0bf 4260 60d6 e4fd 03c0
000006e0: 84e8 376a d85a 07c0 fcf1 17a4 df6e ec3f
000006f0: 2ac4 e469 50b2 fd3f a94b 28ef eaf1 b7bf
00000700: 57de 3820 8582 05c0 834a 8360 a7d0 e2bf
00000710: a0b8 909b bbe0 e73f d9b2 efc6 7cca f1bf
00000720: 91cd ad7d 7d21 d7bf 469f cf8e e95e f73f
00000730: e4b5 6f13 34c0 d9bf 00b1 efc4 c60c fabf
00000740: 1f24 6b41 36d7 d23f bde7 7e69 3d9d d63f
00000750: 6ef0 9f79 3cf5 bc3f b72a f6f5 063d fabf
00000760: e19b e9ab 19da bcbf 1fde 5dc6 c8d4 ecbf
00000770: 64a9 f327 a510 05c0 dabc bbaa 3461 f4bf
00000780: 8c4e 0fe3 7be7 b0bf c1de 4eff 1dad cebf
00000790: 7ccd 3593 ba49 ec3f d696 11c7 17de 913f
000007a0: d4e8 1e50 c4ca f9bf c7d8 fe37 7507 d5bf
000007b0: 8b37 9695 70ae bbbf 70c5 c822 c4dc 7b3f
000007c0: 6b51 b3c7 d006 fdbf ab2f fe2b 938e db3f
000007d0: 9487 ef11 c34c efbf 82dc 8829 8e6c d63f
000007e0: 5f8f ced5 0ff7 ffbf 9497 34b4 7711 d4bf
000007f0: 78b4 d1f8 4f92 b9bf e948 3413 5424 b2bf

lin3.bias f8 [16]
0.5970501847322448 0.26382212269946087 0.47806653525443465 -0.5535892328962486 1.536088831297191 0.5196533672557342 -0.013186527177225042 0.5339882778822509
0.9090238470097605 -2.46496072976473 0.16354260877749727 0.10020511717449394 0.6065773237101251 -0.8454507866990558 -0.5068962685929572 0.9182348586693206
00000000: 2fdd 2ffd 081b e33f a526 3d2f 76e2 d03f
00000010: 80b5 8e61 a498 de3f b0a0 56c4 00b7 e1bf
00000020: bac1 e2e1 d193 f83f 38d4 3319 00a1 e03f
00000030: cfbe cab7 8901 8bbf bc73 be95 6e16 e13f
00000040: e81c c62d b916 ed3f 481c c254 3db8 03c0
00000050: fcd6 19d6 f6ee c43f 3d03 28e5 0aa7 b93f
00000060: f090 fad8 1469 e33f 51ff e7ce ee0d ebbf
00000070: 2247 0286 7e38 e0bf 7105 0112 2e62 ed3f
