LP4-MachineLearning/HW_B_tetris/Strategy/dqn_target_5000.pth (torch, 54615 bytes, 6 tensors)

lin1.weight f8 [64, 20]
0.06940518750099368 0.18314787759568074 -0.013650257537241028 0.15517872297641708 0.03233167150968215 -0.009109038739777494 -0.10752848982913739 0.050999967531496916
-0.0673660740994608 -0.11550230396511135 -0.41934057193183977 0.11827387071465595 -0.193985717357373 0.08758331416035955 0.08143405481714967 -0.2532773262590895
-0.28952191979235015 -0.42295030153729785 -0.14518623515804246 -0.6325430155220436 0.09695805519960554 0.09323976660806851 -0.027008887108358512 0.22080876768332464
0.3241364905717649 -0.32839014665120636 -0.008970676326154644 -0.2509960244303428 0.46899730474170714 -0.558740378668012 0.30846952400020705 -0.22444236292876968
0.2973733073779842 -0.13296341607921786 -0.36467029967546266 0.37359336445175434 -0.23900712114398176 0.102308762554296 -0.2250218577339464 -0.6147306911928562
0.31764990044049946 -0.25295356057564056 -0.31722603094889434 0.1242988503556095 -0.3230842958261736 0.34982305060523494 0.3578713433126309 -0.22050556913669322
-0.3043104210602842 0.35976623318231993 0.0538685733396643 0.008492683895706774 0.07830695434497408 0.12614439216994577 -0.1276868545676089 0.06944759086353895
-0.23275255714620266 0.09803007258858999 0.07615415707521944 -0.2259091387010466 -0.03617268905433149 0.022370661621065498 0.042223556758882244 0.07043255004319152
0.2273575461593446 -0.2538976279748081 0.015081895133872507 -0.0424568811225874 -0.023317917392242107 0.08319953031959576 0.14774444151764504 0.1473024333448943
-0.32974672494808943 0.08258038981185244 -0.09209028091756309 -0.3596208947615141 0.24329474361103787 -0.106737778815188 -0.746999470715771 -0.29347350866262295
-0.25523290833820494 -0.16259774774528074 -0.08738009536374121 -0.07359045586671577 -0.025279215069242755 -0.1731055507291361 -0.06925780959349861 -0.10050214651477918
0.2357773996873733 0.1849744544191686 -0.38997354157461467 -0.07399911938448094 0.2174054071382867 -0.10978267075001136 0.2011571410837377 -0.25586893707229313
-0.4017730815320308 -0.35751498948051147 -0.30885336664838586 -0.39084521719545406 0.09324697097377271 -0.17081523610721022 -0.1242717417934866 -0.07526424112000535
0.029083084553073263 -0.16274141956286367 0.08500929580151273 -0.13828330729145968 0.3487453117050716 -0.5094620275244669 -0.3055390164391692 0.47697669071783716
0.0009052654136789012 0.09174390011956567 -0.35375321985322894 0.14313291319030272 0.04473871180055895 -0.2882208023272327 -0.21418632691104963 -0.4563038513272399
0.07177770916868349 -0.11456673578039347 0.4013254841815259 -0.24849523032558915 -0.16228480004890153 0.2159558288201375 -0.14205947255328003 -0.15933584370033074
0.27075401031173135 -0.3242814692918997 0.1403717499576795 0.1445973933068454 0.2622052279943374 -0.42956136490798974 -0.031979396116267364 0.1993699733812101
0.17417470293491524 -0.013072012832360909 -0.23004796040846187 -0.2593850550640764 0.06840103606895591 -0.026057886611061405 0.07956940012762996 0.045037273600258054
-0.06316805239341192 0.00838626060782624 -0.2371651894622768 -0.16024502358709097 0.16366245855677153 -0.29102669227582917 -0.0014209199183819422 0.07131677201062539
0.08328940213503062 -0.01472173615928465 0.31738235964902956 -0.41298266472046274 -0.04599407966768075 -0.2985989120840806 -0.6144321854492595 -0.03945225267504167
-0.4315336094240232 -0.33767357397660597 0.16825551328894395 0.12819592109504166 -0.3197780974833319 -0.11448838752912573 0.5860281025697411 0.10388541433445203
-0.3717127445479879 -0.3621232372769792 0.11983152296944659 -0.12844143880754408 0.1312091845993588 -0.09598926123797737 0.02779288710421692 -0.06429075989305723
0.29980585819234556 0.6629003372559397 0.31349500482721965 -0.047892382841060996 0.11273739611333829 -0.2571034309986669 -0.2633987859146958 0.43837992946173865
0.10522740168128797 -0.01464662870107883 -0.17542175972996707 -0.04703045642047934 0.1199184872020946 0.22498219836152783 0.22458782196672283 -0.2809781379321982
0.038902835503480435 0.11540079787685345 0.21925347112331284 -0.2675775013661286 -0.07768714038877729 0.004770773621520211 -0.058640328262749855 -0.4363061416248701
0.11639974092868102 0.03162355712944425 -0.027893025072320037 -0.08308201763577693 -0.23059315502265446 -0.2476430795690484 0.5754994491881346 -0.4975943048432093
-0.24578779316135926 -0.2106312103444457 0.5837507333035125 -0.3433627063498773 -0.10005793446666439 -0.29111754393955497 0.23738748924373393 0.05242264315267203
-0.11820961068024058 0.1055890701961429 0.3111543920325661 -0.5697322231556079 0.25206730395500376 0.2763245189922195 -0.06041704921465293 -0.11778474566307087
-0.16770687977026974 -0.40122158063280544 -0.40848501087802186 0.43977636689232663 -0.0018610064277521877 -0.22459650026827083 0.2646823027143156 0.004948131661496722
0.35388310910563064 0.24565297962899577 -0.6135292069524316 0.2186754072766815 -0.3840975660373901 0.043507679313558874 -0.10084684745169338 0.3541594377992953
0.2580789113945386 -0.047133976176405266 0.23690657153702738 -0.13259216548275107 0.07696492393406677 0.08161801372828698 -0.14561133554468325 -0.021783174755955887
0.1118484065229019 0.0424709304566616 -0.4800365645114939 -0.036280719911133026 0.3760110001582165 0.049688201907030285 0.2768518539393841 0.004475045254816061
00000000: e950 7dd2 89c4 b13f 2879 4dc0 6371 c73f
00000010: 00ab a28d aaf4 8bbf 2b00 1c7a e5dc c33f
00000020: baa8 84df c68d a03f abfa e17b c2a7 82bf
00000030: 7554 34b3 fc86 bbbf 9d28 4af1 aa1c aa3f
00000040: 0efa 1d2d e73e b1bf d48e 241a 8f91 bdbf
00000050: f152 95d6 79d6 dabf ecd6 b046 3247 be3f
00000060: 3b73 f823 86d4 c8bf 4679 fe2d dc6b b63f
00000070: 7d67 38ba dcd8 b43f 9c78 461a b235 d0bf
00000080: 0bee 3ef2 8687 d2bf f6e7 3b24 9e11 dbbf
00000090: eaa4 ea69 7695 c2bf 6b5f 9fd9 ca3d e4bf
000000a0: 7883 2a3c 3ed2 b83f 16b1 44b4 8fde b73f
000000b0: ccb7 53bb 37a8 9bbf 3a5a ef31 7643 cc3f
000000c0: 538a 9cfa a6be d43f 4e84 0c1b 5804 d5bf
000000d0: b1f9 8ccb 375f 82bf 7fad 16a1 5110 d0bf
000000e0: 1dc7 7145 0d04 de3f 39ae aa80 33e1 e1bf
000000f0: 5b30 59f5 f6bd d33f 06da 4e00 87ba ccbf
00000100: 3613 790d 2a08 d33f 8ef5 cff9 f104 c1bf
00000110: b36e bb18 c256 d7bf 4baa 9424 f4e8 d73f
00000120: 9a89 690c c997 cebf 80d2 4335 e830 ba3f
00000130: 8e1d ed27 84cd ccbf 55aa d0b2 dfab e3bf
00000140: f20d 7e3f 6054 d43f 7c10 8521 6430 d0bf
00000150: 7862 1769 6e4d d4bf 802e 35a9 0cd2 bf3f
00000160: ba2c 1bc1 69ad d4bf c921 6f38 8063 d63f
00000170: 7d03 ed34 5de7 d63f 5694 03c8 8639 ccbf
00000180: 5b4c 926a d279 d3bf 7c48 6ef3 6806 d73f
00000190: 8c54 8d61 a994 ab3f 38d8 b2bc 9c64 813f
000001a0: fb05 f6af ec0b b43f accb 78db 7f25 c03f
000001b0: 519d 3ff8 0a58 c0bf cb7d 8b3b 51c7 b13f
000001c0: 836c 80f6 d5ca cdbf 49e1 cab3 7f18 b93f
000001d0: 08af 17be d67e b33f b954 4b35 97ea ccbf
000001e0: 8453 fe08 3a85 a2bf 829d 35b0 55e8 963f
000001f0: e2e6 cc76 539e a53f 7267 021b de07 b23f
00000200: b568 a054 0d1a cd3f fac2 2bd6 db3f d0bf
00000210: 8fba e4b2 41e3 8e3f c2c6 d287 e8bc a5bf
00000220: 6429 71f2 a6e0 97bf bce5 c37d 904c b53f
00000230: 02f6 3d34 4ae9 c23f 8a34 eb5e ceda c23f
00000240: a45e e701 921a d5bf 0f68 8809 fd23 b53f
00000250: d704 d288 3a93 b7bf 9d5f 7d5b 0704 d7bf
00000260: f48e 8c3b 4824 cf3f 3248 42c5 2a53 bbbf
00000270: 4050 1b6f 6be7 e7bf 93b1 7c1c 45c8 d2bf
00000280: 4f3c 8b68 bc55 d0bf 0210 7cc4 00d0 c4bf
00000290: f59b e8bb 8a5e b6bf 61ca 3ef9 d2d6 b2bf
000002a0: 13bb f667 cbe2 99bf 6fa0 919b 5228 c6bf
000002b0: 1259 323b e1ba b1bf 6872 7538 82ba b9bf
000002c0: 3787 652e f42d ce3f e4b2 2930 3ead c73f
000002d0: ad91 d795 53f5 d8bf d36b b035 9bf1 b2bf
000002e0: f8f5 d0bc f0d3 cb3f 10f1 8994 b71a bcbf
000002f0: 9bdf 2767 84bf c93f 016b 321b 2860 d0bf
00000300: 37f7 6571 a6b6 d9bf 5982 e98c 86e1 d6bf
00000310: 87ea 40e9 40c4 d3bf 6ec2 69a8 9b03 d9bf
00000320: e48d c892 08df b73f 1a97 5e0e 46dd c5bf
00000330: 4cea d1da 45d0 bfbf b42e 2b6e 8444 b3bf
00000340: 58c9 16c4 f4c7 9d3f 1312 5df9 b5d4 c4bf
00000350: 10d0 5251 2bc3 b53f 0d24 3375 44b3 c1bf
00000360: e005 1adb d751 d63f 9daf 584f 834d e0bf
00000370: f986 d084 f38d d3bf 3f98 e53d c986 de3f
00000380: 941d 48ac eaa9 4d3f 7ffb 9e3a 877c b73f
00000390: ccf4 878b e4a3 d6bf 6718 91e6 2d52 c23f
000003a0: 2ade 1810 fee7 a63f 1a6e 01aa 3572 d2bf
000003b0: 53aa aa22 756a cbbf 5f51 9f11 1534 ddbf
000003c0: 6d17 7621 0660 b23f 22e2 62df 3e54 bdbf
000003d0: f01a 6715 51af d93f 27ee ba13 b1ce cfbf
000003e0: 0389 6c92 bfc5 c4bf 4fdf 14cb 70a4 cb3f
000003f0: 4907 5a3a 012f c2bf a901 e3ee 1d65 c4bf
00000400: d32e e3a0 0854 d13f b2ae 5310 07c1 d4bf
00000410: efdd ac95 b3f7 c13f f07c abd9 2a82 c23f
00000420: 97db c46f f8c7 d03f 81ea 79f3 ee7d dbbf
00000430: 662e ee78 9a5f a0bf 1c04 bd8d f484 c93f
00000440: 59af 724e 5b4b c63f 77f1 dcdc 7fc5 8abf
00000450: dca0 3b29 3672 cdbf 4891 24c6 c399 d0bf
00000460: 1bbe edf4 ba82 b13f b285 302b ebae 9abf
00000470: 837d 4f03 a95e b43f 28a0 6d22 200f a73f
00000480: 1e85 2e0f c82b b0bf 10eb 5ed8 d02c 813f
00000490: 57bc 3ece 6d5b cebf 7a9f d3af e882 c4bf
000004a0: fcc9 8a35 e4f2 c43f 919d 656b 2ea0 d2bf
000004b0: ec90 1925 c547 57bf f221 71e3 d041 b23f
000004c0: 35fa 454a 7452 b53f 8e78 c1fa 6d26 8ebf
000004d0: e945 c119 fe4f d43f 3a84 b2d7 4e6e dabf
000004e0: fef0 f637 898c a7bf 746d 819c 3e1c d3bf
000004f0: f9a8 c3af 6da9 e3bf 8a54 fced 1533 a4bf
00000500: 1077 e624 3f9e dbbf 49fd 3c9f 719c d5bf
00000510: 7c4e 798b 6589 c53f f9b9 4a54 b968 c03f
00000520: afc0 aa8d 3e77 d4bf 3999 3568 1c4f bdbf
00000530: fa5d e201 bec0 e23f bc0e 1909 3c98 ba3f
00000540: bbc2 5540 24ca d7bf 457b 4ef1 062d d7bf
00000550: 6b03 2f58 47ad be3f 4f96 90e1 c470 c0bf
00000560: 5700 656a 76cb c03f c1c8 c891 c092 b8bf
00000570: 6535 b214 bd75 9c3f a9f8 2cf7 5b75 b0bf
00000580: 2d76 05e9 0430 d33f 34b1 a0c4 7a36 e53f
00000590: 294e 4c5a 4d10 d43f ee4a 0fb4 5985 a8bf
000005a0: e5cd 57a5 5bdc bc3f e108 f5f2 6174 d0bf
000005b0: 84d2 d394 86db d0bf 7ab3 10b1 6a0e dc3f
000005c0: 603b ddd8 2ef0 ba3f 516e 243a 0dff 8dbf
000005d0: 6303 8660 3874 c6bf e3db 7b40 6014 a8bf
000005e0: ad02 b85c fab2 be3f 9e8d 1278 37cc cc3f
000005f0: 22a6 3633 4bbf cc3f 3fd3 53ba 8bfb d1bf
00000600: 4611 6b8c 12eb a33f 723a d01c e88a bd3f
00000610: 7c2a 016c 7f10 cc3f a5d3 6062 fd1f d1bf
00000620: 8d20 4aef 4de3 b3bf 6a93 e5ca 848a 733f
00000630: 7afd 3ae8 1a06 aebf 1fa8 5498 70ec dbbf
00000640: e232 8d98 5fcc bd3f d7ec 4e7f f630 a03f
00000650: 1b74 e339 fd8f 9cbf 9fa0 a1f4 dc44 b5bf
00000660: 2d7b c095 1384 cdbf 8436 eab7 c4b2 cfbf
00000670: 3121 24d2 7d6a e23f 5a8e 7ec8 95d8 dfbf
00000680: 9128 b172 f975 cfbf 1220 f9a7 f6f5 cabf
00000690: 51bf 9104 16ae e23f e214 9c92 a7f9 d5bf
000006a0: b458 3d94 659d b9bf 67c8 a07a aba1 d2bf
000006b0: 8e04 6497 b662 ce3f c83a d203 24d7 aa3f
000006c0: 6ecc f12b fc42 bebf 25b7 4ea3 e207 bb3f
000006d0: 3858 721c f4e9 d33f 60c8 3d12 3f3b e2bf
000006e0: 222b b8e6 de21 d03f 8de3 0909 4daf d13f
000006f0: fbd9 fec4 fbee aebf 6a2f 971e 2427 bebf
00000700: bbb8 f645 6b77 c5bf e01b d147 9dad d9bf
00000710: d125 a850 9e24 dabf a3cc 56c6 4b25 dc3f
00000720: 677b ab6f a07d 5ebf 3061 b9ff 93bf ccbf
00000730: b23a 7f0a 8ef0 d03f ca50 99fa 7d44 743f
00000740: 7bca 0d57 05a6 d63f 6bf3 d58c 8e71 cf3f
00000750: 5e0c e000 08a2 e3bf 92ae 5845 8efd cb3f
00000760: 82a4 26f5 0d95 d8bf 599d 8d77 a346 a63f
00000770: 79b0 b557 19d1 b9bf ebbb ba58 8caa d63f
00000780: 4d84 0e69 5d84 d03f 938c 6acc f121 a8bf
00000790: 12c1 7a5c f452 ce3f 6724 3ab3 c7f8 c0bf
000007a0: db66 3c27 f9b3 b33f 943b ba0b ebe4 b43f
000007b0: 9eaf 0b6a 64a3 c2bf 5533 b81c 544e 96bf
000007c0: cc25 20e0 18a2 bc3f 6e21 aff2 bfbe a53f
000007d0: 0482 5d48 ebb8 debf 01c0 fcf2 6293 a2bf
000007e0: 1d69 2771 9010 d83f 721f 6064 bb70 a93f
000007f0: 856c a0d6 f0b7 d13f b8e7 47d0 6c54 723f

lin1.bias f8 [64]
0.6588938936934489 0.24797532739088754 0.5738635970897177 0.17564221608434732 0.7450744542555977 0.47967180951649985 0.2358868306285985 0.29456359463757975
-0.357415364609437 0.6998421458153639 0.01657384683306145 0.27596033424856253 0.7519374273894994 -0.4980343601651751 0.6365974244035535 0.2562702069742186
0.06416159371358271 0.3426030288125777 -0.079391003269871 -0.10414736492959432 0.16587747211708045 0.21221548629804132 0.19380955484351564 0.405194110726995
0.4616320986948847 0.5080906896057774 0.32794495492215353 0.18039661145951477 0.3132808004353763 -0.06380766175813168 0.5329487356900647 0.3172496669569255
0.4256484843536961 0.12645223234577524 0.2858293329875399 0.49762366964410465 0.30908912823567186 0.4015308313489748 0.3021400779373462 0.3036340136996354
0.4885647380203635 0.6473782119196186 -0.4482326473047075 0.7368849606885804 0.2775000458765732 0.260908617804078 0.11056415484742481 0.45489303185172103
0.6402073450832984 0.21769636582146726 0.5918026078465408 0.7045152613119853 0.6126346062859338 0.12664548038429904 0.5002757547592829 0.08151544153000263
0.27657650695117425 -0.07168555047888782 0.52536861532343 0.36965913250662646 0.44343308345393667 0.1028306977111653 0.4029236442461198 -0.09453829672053525
00000000: 9f51 9ea5 a815 e53f afeb add0 a7bd cf3f
00000010: 32b0 bb30 175d e23f d68a f0b2 717b c63f
00000020: 639c c361 a6d7 e73f c1ef ab63 f1b2 de3f
00000030: 9caf 8d27 8a31 ce3f f8e0 6343 21da d23f
00000040: fa77 85b1 e4df d6bf 6276 145b 1b65 e63f
00000050: ceb7 7708 bcf8 903f bfcf a588 55a9 d13f
00000060: 3ed7 6814 df0f e83f c865 4c82 cbdf dfbf
00000070: bafe d08f 015f e43f cb2d 7927 bb66 d03f
00000080: 44b9 a8ea e46c b03f 21ad 1041 35ed d53f
00000090: 8e06 a402 f852 b4bf c151 56d6 66a9 babf
000000a0: db68 f116 793b c53f dc6a ad86 e029 cb3f
000000b0: 9644 da61 c0ce c83f f9ab 8647 b3ee d93f
000000c0: 7b6a ab5b 618b dd3f eb48 e867 4742 e03f
000000d0: 93d8 11d6 0cfd d43f 1790 4375 3c17 c73f
000000e0: ce6a 15ea ca0c d43f 8843 7cec b255 b0bf
000000f0: d177 c781 ea0d e13f ffcc 0f8c d14d d43f
00000100: a907 f923 d33d db3f c634 3735 962f c03f
00000110: 88d0 5a1d 074b d23f 6290 b5f2 10d9 df3f
00000120: 2d91 54c4 1dc8 d33f c2b0 3e5f aeb2 d93f
00000130: 9450 6356 4356 d33f f8c2 b25b bd6e d33f
00000140: 64ae f108 a544 df3f 99ce 0a83 52b7 e43f
00000150: 0f16 4bfc d7af dcbf 5b4b e2c4 8f94 e73f
00000160: 9a6a 6b8d 8fc2 d13f 13a3 2d0f bab2 d03f
00000170: 43f8 2db5 ee4d bc3f b8cf bea9 f71c dd3f
00000180: 0a56 391d 947c e43f f9a3 d479 79dd cb3f
00000190: d26d cc05 0cf0 e23f 99c5 db96 638b e63f
000001a0: 64ab cce3 b39a e33f 35e8 374a eb35 c03f
000001b0: e087 b54c 4202 e03f 5588 7d2b 32de b43f
000001c0: 179f 0cf3 6db3 d13f 810f e7f6 fb59 b2bf
000001d0: 0216 a5d7 d1cf e03f ff27 32c7 7ea8 d73f
000001e0: cd8a d927 3561 dc3f c3be b1d3 1c53 ba3f
000001f0: 4e9f b440 80c9 d93f bf5d a26c a933 b8bf

lin2.weight f8 [64, 64]
0.48061922466806667 0.44492864350090366 0.5346439807755097 0.1298894517067765 0.3816800887311201 0.5155882961403097 0.24518587547147425 0.17331782244512417
-0.07919023940505057 0.47602510595968756 -0.35391002481830586 0.1004446526082197 0.5278957536170585 -0.6883684896859914 0.26487075716715885 0.19597560787697482
0.15194615574541043 0.17016867995776946 0.09160978441458503 0.42284936966762726 0.14198147954187507 0.10457000088047935 0.38694501650045654 0.12995876674760998
-0.10154463566610175 0.17485995444450114 0.3339980131614571 0.02246950649440578 0.15436044770886795 0.3846811874126394 0.2987071963828138 0.2483582889844898
0.27691713005667773 0.16322417772095332 0.41587342283633866 0.22097414900292733 0.2538348601864757 0.06527844360314172 -0.03735769993648589 0.07919119200483596
0.08247682574539031 0.38299442266949546 -0.2882210679601782 0.61562943521333 -0.002498546722018581 0.43060404767752875 0.13068763183740364 0.18221188763019333
0.2939395269603958 0.3727698353251911 -0.03055656509830996 0.2781814581275924 -0.0269935491915213 -0.11169620105835351 0.4239437267380865 0.30641760884134717
0.08966738410771191 0.30721284141332644 0.36242203020556113 0.4623143969980888 -0.015352979922899943 0.030156988747455767 0.3198018546443961 0.4323371778768171
0.34406057802443346 -0.11647173047508169 0.2866271559386153 0.13449312786370024 0.2885686506788282 0.31668380916606137 0.05608204762368032 0.25110059523926076
0.08496491925254859 0.3192640081571853 -0.26209464219599515 -0.446477994254747 0.37071180806858867 -0.27000564059143034 0.18678271697421886 -0.001758738654770515
0.21309835079278178 0.08104891780724258 0.009519316514480892 -0.146421639568538 0.3594922966433491 -0.01065218554472553 0.31987363331691404 0.042260232957389586
0.05485418254202311 -0.012940430982370747 0.33093438693364974 -0.08349906583874805 0.087792311059624 0.3038272512577602 0.11317847828555096 0.24433253766637666
-0.1490137433038261 0.2075584702808349 0.18774469215662673 0.026385845157622455 0.07341223339103115 -0.12145763246728578 0.13155439479063413 0.07479410614118402
0.04345969867875078 0.34360826999359423 -0.08277436995705423 0.00929816097814119 0.054615278892801225 0.4078845221958006 -0.00975923425556419 0.17777152735313542
-0.15253795874256285 0.07409441799269254 0.18428542528733996 0.204297786891626 -0.015593676155468878 0.17946955987029112 0.3306969625920923 0.07384607105682418
0.08289513778928757 0.3749718508822871 0.09243389649607048 0.160692110587931 -0.04687970745003196 0.25382982024884293 0.41953000404280466 0.38605247650198776
0.47799659753530255 0.32011813194846706 0.2685318205823217 0.26730105619161065 0.15273935758958265 0.32179007840871854 0.3667854993394419 0.2637845371253576
0.030920682941905874 0.29436587565872296 0.023158866603396062 0.07969913174923081 0.56831165554634 -0.3217501547856853 0.298979907473807 0.16500329150844706
0.19683134637177346 0.2931299313746547 0.40051417784632737 0.37939257519339886 0.47645765953727715 0.04843648142455647 0.35522296733209446 0.22116204087903846
0.0952684810398454 0.07432353914673245 0.2291266185306877 0.029630055631691684 0.1763173830405816 0.2775557005818151 0.26560158934232814 0.17227811399130963
0.1292738633539975 0.3732785004472342 0.424660123123453 0.31021225099486344 0.3849622097790382 0.17075223236286816 0.2982509105442103 0.12791261938314866
0.0361617231696546 0.22195969651816613 -0.04400141656107124 0.3190447663506759 0.11914935669900395 0.46220100887083176 -0.15674131537375277 0.10141307072856005
0.34602575279748254 0.21894660262521826 0.15635976383808098 0.24727796113363437 0.22373894616003268 0.3159961168669104 0.07843160511308142 0.03535306444427056
0.11932848822230721 0.39890406236334525 0.21640857167431868 0.05600698039185638 0.3374830586449452 0.2117736471938491 0.09341266480257038 0.6194078645874095
0.17141415109299485 -0.28544124153697037 -0.15390825124352805 0.5825347830303291 -0.1005613391492618 -0.08518169384037014 0.31164049992622767 0.31800525234761295
0.42575575653438213 -0.12764223928931656 0.1884562580054467 -0.05307123677058837 0.14940371092359456 -0.06689265698480758 0.5834131403524423 -0.3501565097490464
-0.25896948576063406 0.14112348906089323 0.2550217832487212 -0.0074952914271568605 -0.01781687622650027 0.22611628369918232 -0.416556135534765 -0.8921808706841272
-0.21053046044390872 -0.8997160896944113 -0.019038995131707086 -0.6803073241748329 -0.4934768200932708 -0.3410739441043395 -1.1023620392053846 0.025982794210415282
-1.1087213495781316 -0.0016603694298503945 0.29981954620657986 -0.831281252980719 -1.5234946007300139 0.19955721905561327 0.2225774379777931 -1.188376344515909
-0.38294241019147196 -0.3557922716592671 0.2557065752406058 0.1662156847648508 -0.8721656619311359 0.08221375041990946 -0.3227088896949481 0.462716182535411
0.638088536157635 0.4463947052379211 0.11913619743395784 -0.37374724510418356 0.5854608890730061 -0.0832523851463069 -0.8815614828236986 -0.06967630396407959
-0.9803437597354531 0.7122066724627742 -0.30338652663015625 -0.3335123740058059 -0.4552477737789524 0.132651043125138 -0.5965532958311507 -0.0008747387839004619
00000000: 67ce f122 77c2 de3f 28f6 38fd b579 dc3f
00000010: e0e3 8db1 cd1b e13f 6586 96b1 37a0 c03f
00000020: 499c a852 726d d83f 8fef c306 b37f e03f
00000030: 82a9 4b32 4062 cf3f 789d 9b45 472f c63f
00000040: e237 68c0 cf45 b4bf a7fe 8a01 3277 de3f
00000050: 158e 943b 76a6 d6bf 93a8 02a2 bdb6 b93f
00000060: f870 afa2 85e4 e03f 3c8b d95a 1d07 e6bf
00000070: f7c7 ec79 a4f3 d03f 129a 528d ba15 c93f
00000080: 8ef8 d6bc f872 c33f 1e6e 9c59 16c8 c53f
00000090: 8ae3 0d24 bd73 b73f bdd3 76cd f60f db3f
000000a0: e290 a2f9 722c c23f 34a2 ec7d 19c5 ba3f
000000b0: 9a0e ce07 b5c3 d83f 8c36 8126 7da2 c03f
000000c0: 0a28 4549 d4fe b9bf 2a0e dc9c cf61 c63f
000000d0: a146 dd33 3960 d53f 34f3 330e 3f02 973f
000000e0: 054e 5a49 15c2 c33f 0bb8 d4d7 9d9e d83f
000000f0: 77d1 e2c9 041e d33f d27f 7054 34ca cf3f
00000100: 44eb 52a0 02b9 d13f a82e 9da4 87e4 c43f
00000110: cee3 968f ab9d da3f 0050 9d83 e148 cc3f
00000120: 387b c591 d43e d03f 30c6 688c 16b6 b03f
00000130: 1544 f666 8c20 a3bf 4ac2 cabb df45 b43f
00000140: 921c 4185 331d b53f d89d fa09 fb82 d83f
00000150: e40e 3ac7 3672 d2bf 4c47 5680 3cb3 e33f
00000160: 50d5 ac0e d577 64bf a736 9347 048f db3f
00000170: fddd 5d50 5fba c03f ab34 2819 b852 c73f
00000180: aafb d2bb e7cf d23f 4f0c ea02 76db d73f
00000190: c3f1 195f 384a 9fbf 19be 409a b9cd d13f
000001a0: 9f15 ec6b 32a4 9bbf ce10 a24a 1f98 bcbf
000001b0: e7cd 6bde e421 db3f 4618 399a 589c d33f
000001c0: a8af 4212 71f4 b63f a103 b20c 60a9 d33f
000001d0: bf4c c52b ec31 d73f 81e9 e41f 8f96 dd3f
000001e0: 72eb 5115 6271 8fbf 8226 aa41 79e1 9e3f
000001f0: ff75 b932 a277 d43f f5da f48d 69ab db3f
00000200: 904c 9da8 1605 d63f 6c8b 4c61 17d1 bdbf
00000210: d4b7 396d 1958 d23f 270d db20 1237 c13f
00000220: 2640 54a5 e877 d23f bd9e e22a 8c44 d43f
00000230: a372 df40 c9b6 ac3f b2c2 233b 0812 d03f
00000240: e239 7fcd 42c0 b53f 9bcc 744e d26e d43f
00000250: 5d12 2c9b 28c6 d0bf d44c ed6f 1893 dcbf
00000260: cb51 f904 beb9 d73f a7d8 04bd c547 d1bf
00000270: a75f 6efe 7ee8 c73f 51ea 4840 afd0 5cbf
00000280: ba46 be87 ce46 cb3f 7ab9 5b33 9fbf b43f
00000290: fa36 e108 dd7e 833f 26d1 afbc f1bd c2bf
000002a0: bbd0 4ffa eb01 d73f a439 5d24 d0d0 85bf
000002b0: d3b9 7c42 cf78 d43f 4358 f21c 22a3 a53f
000002c0: 0e34 22f0 d815 ac3f 4265 ec3e 8380 8abf
000002d0: 121e 406c 072e d53f 2423 06dd 3160 b5bf
000002e0: 5562 d790 8e79 b63f 2c48 f2da e771 d33f
000002f0: f1f4 d8c6 43f9 bc3f 6d19 50e1 4946 cf3f
00000300: 107e 12e1 e112 c3bf b296 eea4 4691 ca3f
00000310: e5b7 67a0 0408 c83f 0603 1e18 e404 9b3f
00000320: bc71 8ae5 24cb b23f aeec 4bef d817 bfbf
00000330: 18ab a23f c6d6 c03f 1b58 cfdf b425 b33f
00000340: 02db 0981 5940 a63f ef7c 908a adfd d53f
00000350: 109d e97b b330 b5bf c631 830a ea0a 833f
00000360: 6aba 69a9 88f6 ab3f 0209 d8ae c71a da3f
00000370: 2276 b13f a6fc 83bf c522 12a8 37c1 c63f
00000380: f154 1924 5d86 c3bf be42 180e daf7 b23f
00000390: ad89 5e31 aa96 c73f 7f1f ac0c 6e26 ca3f
000003a0: eab0 e5c8 93ef 8fbf f09c 22c9 dbf8 c63f
000003b0: 770d ce97 232a d53f 098d 207c 93e7 b23f
000003c0: 576a cda1 9d38 b53f d670 1def 89ff d73f
000003d0: a012 7e72 bfa9 b73f 05a6 d91f 8f91 c43f
000003e0: 3a18 b0f4 9d00 a8bf 44f9 2d6e bf3e d03f
000003f0: 777e c35f 94d9 da3f 056a 4772 15b5 d83f
00000400: 86db 800a 7f97 de3f 5ed1 e4c2 d07c d43f
00000410: c487 d516 a02f d13f d7de a1e3 751b d13f
00000420: 2b64 d498 f68c c33f 8e55 bc69 3598 d43f
00000430: efd5 13e3 6979 d73f cd35 098a d8e1 d03f
00000440: 239a 05e8 aba9 9f3f bace 40f8 e3d6 d23f
00000450: 6230 b23a f5b6 973f 3fee 618c 2967 b43f
00000460: 8d3a d0ec 9b2f e23f af65 12f6 8d97 d4bf
00000470: fab5 309f 7c22 d33f dc6c 61ee d31e c53f
00000480: 0049 bf01 c531 c93f 48e7 2e0b a4c2 d23f
00000490: a2cb db37 06a2 d93f 7041 b3cb f747 d83f
000004a0: 300b 6944 487e de3f 4fb6 4d9f aacc a83f
000004b0: daae de1c f9bb d63f 4096 58aa 094f cc3f
000004c0: 0fde 67e2 8363 b83f 0c4c f511 de06 b33f
000004d0: 57be 9d62 0554 cd3f 6fc7 aa5f 5757 9e3f
000004e0: c213 f068 9191 c63f 0e4e 34fc 78c3 d13f
000004f0: 426b ffce 9dff d03f cf61 b490 350d c63f
00000500: 7c9f aac3 0b8c c03f 7621 ee81 cbe3 d73f
00000510: 90c1 2ea7 a12d db3f d7da 357c 84da d33f
00000520: 5d99 4c89 38a3 d83f 6bd7 db8a 35db c53f
00000530: e388 b2fc 8a16 d33f 6387 7fd2 705f c03f
00000540: 70e7 c214 ca83 a23f 8bad c9e2 2c69 cc3f
00000550: cd06 378a 5a87 a6bf 4ce9 5bbd 3a6b d43f
00000560: c895 5c7e 9280 be3f c5d1 518a b394 dd3f
00000570: 532c bb73 1910 c4bf 8d85 2afe 34f6 b93f
00000580: a7b1 f532 4925 d63f 483d ec38 7106 cc3f
00000590: c223 0cc4 9803 c43f 1e96 0be2 cda6 cf3f
000005a0: f5a6 4c50 7aa3 cc3f d6ce e6c6 4739 d43f
000005b0: f6f7 eefa 1714 b43f c1fa 33ff cb19 a23f
000005c0: b65b 65d2 4f8c be3f 2be5 85e7 a487 d93f
000005d0: 9727 f5ac 46b3 cb3f e2ef 426a f2ac ac3f
000005e0: ba61 f58a 5299 d53f ae15 6d1c 661b cb3f
000005f0: d0f7 5b74 e4e9 b73f 4838 2971 30d2 e33f
00000600: cc0c 821e e6f0 c53f de2d 5557 ab44 d2bf
00000610: ed76 d6fc 43b3 c3bf 1eba 3cfc 1fa4 e23f
00000620: d856 e34e 63be b9bf 6a24 43ad 77ce b5bf
00000630: 08b4 d2fe eaf1 d33f a982 b2b3 325a d43f
00000640: bc87 9912 953f db3f 2efc aab5 9456 c0bf
00000650: 3e12 6eac 551f c83f 256e 9334 272c abbf
00000660: 2eb0 282a a91f c33f 9da0 178e e01f b1bf
00000670: 4cda bb08 52ab e23f 5ba2 76d9 f668 d6bf
00000680: 423f 00c0 f492 d0bf b862 1ba1 5510 c23f
00000690: f188 b4e2 4652 d03f e9a8 dbf8 61b3 7ebf
000006a0: 37bb d652 963e 92bf b75f cadd 60f1 cc3f
000006b0: 367a c410 dba8 dabf 7090 b6e5 be8c ecbf
000006c0: 728e 3581 a9f2 cabf 1d85 9d65 79ca ecbf
000006d0: 2eee c155 f57e 93bf f9ec 91dd 13c5 e5bf
000006e0: 7f9e e8cc 1f95 dfbf 2389 dcce 27d4 d5bf
000006f0: eed2 ab60 46a3 f1bf a3d9 91cd 3b9b 9a3f
00000700: 7b0a 0d99 52bd f1bf 668e a119 1834 5bbf
00000710: 212a 6a52 3e30 d33f 1a90 6a24 db99 eabf
00000720: ad49 dcdf 3b60 f8bf 0325 c348 178b c93f
00000730: 6696 78e0 6a7d cc3f e092 f0e9 9603 f3bf
00000740: c385 01e2 2082 d8bf e68c bcf2 4cc5 d6bf
00000750: c8f4 811c 7f5d d03f 0fda 1239 8e46 c53f
00000760: 8b07 56f6 c7e8 ebbf b3c3 55d9 f50b b53f
00000770: cb91 d72f 43a7 d4bf 9e73 d455 249d dd3f
00000780: 5cfc 57a6 386b e43f ffae 0619 bb91 dc3f
00000790: 66a7 bfb7 b57f be3f fa52 ac90 79eb d7bf
000007a0: 0bfb 7479 18bc e23f 4c73 843f 0750 b5bf
000007b0: 7e83 446d c035 ecbf e4f5 d466 4ed6 b1bf
000007c0: b3d8 5ce0 f95e efbf 260f c7a5 65ca e63f
000007d0: 831b 7b52 af6a d3bf f4a3 ca48 4458 d5bf
000007e0: 2846 fd8e c722 ddbf 395a 009a b5fa c03f
000007f0: 474e fdef f616 e3bf 2125 153c d7a9 4cbf

lin2.bias f8 [64]
0.4192072887008649 0.1696717137059689 0.2544996562940934 0.14472511762762774 0.10004709752374163 0.2887359328006077 0.08890982751212564 0.2583028272609789
0.12982876365258156 -0.15492228886139725 0.3081091396629802 0.31865298240522616 0.4290139263716236 0.22405425408757604 -0.02281360958577294 0.41660146390993524
0.33395565604887106 0.5049009574017976 0.47809086169829657 0.4080841648508627 0.38435811583295215 0.21213719250100324 0.004780164884019696 0.18101959464148323
0.08804734615854433 0.3768269915407828 0.3895114575907602 0.31245336732083134 0.3829914810797271 0.3340410374217745 -0.07843353497624933 0.25934381925829997
0.1435988421535909 0.3193237736037185 -0.03634920932889771 0.4583696870355051 0.2562491209708173 0.27108346598545763 0.23049294196033546 0.25563029031063017
0.45168433346291326 0.16577509985192404 -0.13139897114933102 0.33671947271977676 0.23168050938657295 0.43711425870066795 0.42057972175073194 0.36290219069995977
0.41062704503973807 0.26466668020761336 0.11976104284357279 0.10271666883953445 0.2801360709549303 0.32096293821308364 0.2627936561814034 0.3321269642484613
0.34407651377629167 0.5052127520048739 0.36659541304544985 0.2948304623904856 0.4141823375203939 0.2944940304011527 -0.14635953673737265 0.2667216807105259
00000000: 4cc3 cdce 4ad4 da3f 5832 b67e cdb7 c53f
00000010: 7916 28ed b849 d03f bc69 8f47 5a86 c23f
00000020: e897 ecc3 af9c b93f 26c1 2347 a67a d23f
00000030: 0224 7561 cbc2 b63f 2937 e394 0888 d03f
00000040: d4e5 fb9a 3a9e c03f a863 0a5a 7ed4 c3bf
00000050: 67e0 9c65 0fb8 d33f 0703 8d7a cf64 d43f
00000060: f6db d2d3 f674 db3f effb ea4e cfad cc3f
00000070: bf65 4c6c 735c 97bf 8e5e bd2f 99a9 da3f
00000080: f5d2 428b 875f d53f 5d50 780d 2628 e03f
00000090: 5fae e069 0a99 de3f 0532 830b 0d1e da3f
000000a0: f519 5dc8 5299 d83f eb4d 07c0 4f27 cb3f
000000b0: a2a8 8abd 5d94 733f f1cd 756b a62b c73f
000000c0: 5523 4058 458a b63f 1abc 3af5 ee1d d83f
000000d0: 3a41 f176 c1ed d83f 43c1 8a68 3cff d33f
000000e0: f593 78b3 ee82 d83f 56e6 cfa8 ed60 d53f
000000f0: 34f6 a15b 3814 b4bf a495 88d1 1699 d03f
00000100: 9585 6565 7261 c23f 5da6 1dfb cc6f d43f
00000110: 7c2c 9b12 5d9c a2bf 5fe5 d2cf ed55 dd3f
00000120: b8b2 8cb6 6266 d03f 2635 3977 6e59 d13f
00000130: 01d8 d6ef ca80 cd3f b712 3026 3f5c d03f
00000140: 6cae 1568 65e8 dc3f 7f75 2d54 1e38 c53f
00000150: 0e3f e875 aed1 c0bf e27f d0d4 cf8c d53f
00000160: 45cd 77f9 b4a7 cd3f 8b04 6f15 aef9 db3f
00000170: 5dee 9135 c7ea da3f 4eff 2c1c ca39 d73f
00000180: 711f 53a8 b647 da3f 2749 f583 4cf0 d03f
00000190: 8716 59e2 a8a8 be3f 207c 6bbd a34b ba3f
000001a0: 6c9b cbd7 bfed d13f dc9b b622 a88a d43f
000001b0: 2a4e b97b 9cd1 d03f 2148 6474 9141 d53f
000001c0: 5a6a 7f7f 5905 d63f 4a42 ecee b32a e03f
000001d0: 5434 799b 4c76 d73f 783a 7596 80de d23f
000001e0: 7cc7 8ea2 f681 da3f eb2b 5c7d fdd8 d23f
000001f0: 2f53 dfc7 e8bb c2bf 934b f2cf f711 d13f

lin3.weight f8 [16, 64]
-0.2647738693115734 -0.07659800080384771 -0.17910927343233726 0.29082212243350003 1.6634800026833596 -0.02767596518307206 -0.09046126796255519 0.0347199498272859
1.5435085041520453 0.034848203809840425 -0.11317421056309045 -0.11949370064695224 -0.3173285478705106 -0.32570376651482585 0.5993023192375098 -0.19734429431555472
-0.10864844760802721 -0.2258855358408593 -0.3438325973172555 -0.2893936644028846 -0.12955837792457997 -0.12147608442818934 0.014434239835088332 -0.025213329957529756
-0.07469876953006324 -0.10746411452989907 -0.24201196576743636 -0.1406307267600628 -0.061922250419057336 -0.45662533643191694 -0.05693932346956388 -0.08310056049645435
0.023495757238627575 0.05406112718662555 0.11374647638475548 -0.2418676848330341 -0.012910025653261638 -0.36388411488856004 -0.13457072587219038 -0.2717148675112997
-0.07192820476272889 -0.08661243442355644 0.13203899992660773 -0.14027922653943148 0.03675845048261986 -0.35547307687161517 -0.03666662379322544 -0.06583009811426209
-0.2954217660378868 -0.8488565683260989 -0.11081099685694651 -0.04423672691326221 -0.19954062825567825 -0.0422756413787851 -0.06276104828162364 -0.5537986692906269
-0.06656131804705646 -0.6646513391104808 -0.04580907295208409 0.10164227972052105 -0.1885090828793754 -0.4236572815491246 -0.08250903320542351 -0.5629426444778
0.03986946460608539 0.03646582036467053 -0.22963066164313797 0.07741973098760463 -0.12978412283974397 -0.1734825325690643 0.10650002360245515 -0.2936158987830428
-0.023777997099044157 -0.09208645408081703 -0.021214229363241955 -0.03014578143513417 -0.1360881108104201 -0.0030805186319854817 -0.5186972458112746 -0.3526428347992921
-0.1679994933035562 -0.26031016821157904 -0.13914052066837723 -0.13832119175006127 -0.22283077710206306 -0.018827417394510534 0.43403143306492864 -0.16139492165458935
0.05384615471280093 -0.2713290507070898 -0.24916250347687144 -0.2226591914448347 -0.17093683748871724 -0.413455266370833 -0.040700240762018246 -0.07151241377269164
-0.1629677927812743 -0.34549428073180616 -0.015911275200472 -0.19880619083945547 -0.09660086435303941 -0.5471800527134533 -0.018063902974424437 0.034366274293426924
-0.23035808128805096 -0.23135662183743774 0.015378205569612875 -0.13056862695439245 -0.19243277242983775 -0.1431051341348381 -0.17949401904511314 -0.13902557451794156
0.05803372755515224 0.03788753022795597 -0.206437873674131 -0.09847769924745732 0.033574205790202 -0.26200518408089124 -0.18183061208184487 -0.6193161429431918
-0.30097676743779866 -0.5640637470870142 -0.22730389457684277 -0.16096790977090178 -0.2022579794468216 0.09383574912202872 0.11263994535987391 0.04467509393602692
-0.2179466285150668 -0.011694999967759755 -0.28253693930212764 -0.47002620476382356 -0.007889989985770106 -0.22819196312909504 0.05189114392346051 -0.3169356702909633
0.18097612492109522 -0.00839885335566094 -0.15237570804455972 -0.1718621976527273 -0.22350638956764787 -0.14614665565721732 -0.2838268920545385 -0.08711433343928833
-0.1332554882605707 -0.0546051607232607 -0.14926255281967651 -0.19134860073479681 -0.2688504539015792 -0.2130934356694886 -1.104874700860981 -0.18430004702618716
-0.01616829321268306 -0.2636381995407018 -0.22205423935073224 -0.20437156859371464 -0.2646882034922927 0.3930464919400487 0.01836183115573437 -0.22960146295393272
-0.10510791771361265 -0.020869073359616477 0.038021803828143214 -0.10415564724868767 -0.06243000698451764 0.4328974161363465 -0.3072291611942447 -0.07683320115714273
-0.1485048787656882 -0.3025106865446581 -0.13276878276235254 -0.17113411688416252 -0.11555089196057018 -0.08817032110278192 -0.09768045420848596 -0.1453224969516652
-0.1674648108240315 0.5045921072531349 0.15763664877129152 0.02944750716946454 -0.2335391339897173 -0.28420021151214486 -0.3357629765491111 0.1509894674911733
-0.13943863776515258 -0.1938224224734947 -0.282897390404015 -0.3054329333113185 -0.10138154876373753 -0.17562538503909875 0.09249462767574292 -0.0958013501395869
-0.2282927405155435 -0.3019282879823841 -0.26304100040202244 1.363895363349138 -0.2975878405911399 -0.08562335902619167 -0.040023339621547804 -0.027292153112783286
-0.022152770376889196 0.008912685064576232 -0.20255432627262465 -0.1869937866391002 -0.22757175345273936 -0.20920907875552766 -0.7223686328046144 -0.14492393888153865
-0.1416311500417943 -0.10685446723503203 -0.17131827022229143 -0.25836392244320194 -0.19936779372574312 -0.1357081993875981 0.12364396014518084 -0.048774390731995444
-0.02002707281512647 -0.1806407302021669 -0.24259927694546038 -0.32031844655083147 -0.13853955412539118 0.2728592076446844 0.08219681877609812 0.020635115966601177
-0.19940780702126717 -0.2706853995931377 0.025178616058821275 -0.2662425781047478 -0.02889130169244851 0.18236938157166366 -0.3241519431705874 -0.35156457156960247
-0.0657274771954303 -0.2478570188078122 0.0717524486573667 -0.19730095114220908 -0.21442218776437513 -0.328781799178788 -0.28732300679589035 -0.260164397814044
-0.07247531027173956 0.2885261897641117 0.4220139697260174 0.0226545947858586 -0.16083407898056587 -0.1604373372352837 -0.1466752851392888 -0.032351520505754905
-0.26276331626601895 0.09923627450769604 -0.1537930401733955 0.0777415469435165 -0.09231203350524922 -0.08225628646170133 -0.10568645086617767 -0.08002300848770272
00000000: 59d4 6119 0ef2 d0bf d839 6434 ed9b b3bf
00000010: d3ae e67b 0ded c6bf 3e88 3364 d49c d23f
00000020: 4a33 1135 9d9d fa3f 8ad8 6295 1657 9cbf
00000030: a230 743b 7828 b7bf e3cc 0d32 d0c6 a13f
00000040: 07e5 26f9 35b2 f83f 0e0e 60af 9fd7 a13f
00000050: c37c 1e2d fcf8 bcbf fb4e 5ba0 2397 bebf
00000060: 9139 cc65 1c4f d4bf 635f 579c 54d8 d4bf
00000070: 8658 b10e 7c2d e33f ce99 11ed 9342 c9bf
00000080: 63d6 3c79 62d0 bbbf f6b7 8936 d1e9 ccbf
00000090: b7af 3170 5a01 d6bf 56eb 1101 6d85 d2bf
000000a0: c2ef 0d72 5e95 c0bf 477e dd81 0e19 bfbf
000000b0: 174c 46e0 b28f 8d3f 1807 5dee 85d1 99bf
000000c0: 36dd 2e64 751f b3bf 9c46 66a9 c482 bbbf
000000d0: 9d1c 1b83 3ffa cebf a7a3 1f0a 3000 c2bf
000000e0: 259f e3f0 45b4 afbf 5201 a079 5939 ddbf
000000f0: 01f8 50a8 2627 adbf f38d 9c0d 1446 b5bf
00000100: b217 bd93 450f 983f 7abe 806a e6ad ab3f
00000110: 3b96 1b34 7d1e bd3f 4897 2832 85f5 cebf
00000120: 542e c54f 9270 8abf c7bc 3e99 e049 d7bf
00000130: 6e5d 4f11 9d39 c1bf 8412 73c1 c663 d1bf
00000140: 69ac 1d07 e369 b2bf c5af 4685 3b2c b6bf
00000150: 1c9c 3d69 a7e6 c03f a8c3 2571 abf4 c1bf
00000160: 7456 59ed 00d2 a23f c769 f125 12c0 d6bf
00000170: 08e1 17bc f7c5 a2bf 1f44 7ec6 3dda b0bf
00000180: c331 eab1 30e8 d2bf 8292 fe3f d529 ebbf
00000190: 98a9 8907 1c5e bcbf 43c4 bf3e 32a6 a6bf
000001a0: 5a6c 4a1c 8c8a c9bf 2a53 4722 27a5 a5bf
000001b0: 5f0e d5a9 1b11 b0bf 707d a5fc b7b8 e1bf
000001c0: c9d5 309c 290a b1bf 9d1b 97e2 d244 e5bf
000001d0: 39e9 606c 4974 a7bf a55f 4a7b 3a05 ba3f
000001e0: a8a1 fbcc 1021 c8bf ebce 3d6e 331d dbbf
000001f0: 53eb 3ddf 4f1f b5bf fbc9 f14a a003 e2bf
00000200: 6b30 2f3d c569 a43f 35b1 c6e3 a5ab a23f
00000210: 6543 f59a 8964 cdbf 4429 a88c c7d1 b33f
00000220: ed80 9121 c49c c0bf 7fdb e7f5 ac34 c6bf
00000230: 6151 65e6 9543 bb3f d3f6 b656 9aca d2bf
00000240: 007e 9e5f 4259 98bf de84 ae54 fa92 b7bf
00000250: 2dc4 4cd5 2eb9 95bf ab4b 8125 89de 9ebf
00000260: 1610 a7d0 556b c1bf 5f5b eed8 503c 69bf
00000270: 3e1c 69f7 2a99 e0bf 9d6d a840 b391 d6bf
00000280: 3fde bde4 0181 c5bf 4a3d d2fa eba8 d0bf
00000290: 04d8 e848 5bcf c1bf 5783 7441 82b4 c1bf
000002a0: 4a0a 190a b885 ccbf 9c06 e997 7e47 93bf
000002b0: dcca 9cc6 2bc7 db3f d89b 1fbb 96a8 c4bf
000002c0: 0b80 0323 b991 ab3f a077 cf85 745d d1bf
000002d0: 914c e991 8ee4 cfbf 2c66 b4ac 1880 ccbf
000002e0: f00c 591f 42e1 c5bf 13fd da13 0d76 dabf
000002f0: 5b3e 0676 a9d6 a4bf 2d67 6936 a34e b2bf
00000300: 1900 26ee 20dc c4bf 7fae 2c0b 941c d6bf
00000310: c7a6 7e9a 0b4b 90bf fbea f233 7b72 c9bf
00000320: 0261 2991 d5ba b8bf d9b0 edbd 7f82 e1bf
00000330: ac96 0d02 587f 92bf b8ec 59d0 7498 a13f
00000340: c630 c0a4 5f7c cdbf 6b9e 4002 189d cdbf
00000350: b7f3 f0cf 9b7e 8f3f f98c 5307 79b6 c0bf
00000360: c6e3 2118 a3a1 c8bf 6ed9 7fdf 4451 c2bf
00000370: a22c d0f6 a8f9 c6bf 965b ee0b 97cb c1bf
00000380: 1026 d4c3 98b6 ad3f 5db4 828e fe65 a33f
00000390: af07 0b66 8e6c cabf 0935 a7a1 d535 b9bf
000003a0: c257 b767 a330 a13f 00a2 4064 b1c4 d0bf
000003b0: cece 26ba 3946 c7bf 876d 7a16 70d1 e3bf
000003c0: ba12 400f 3443 d3bf 5622 536a cf0c e2bf
000003d0: 1d01 bb44 4b18 cdbf c7f3 15b2 989a c4bf
000003e0: 3a21 8ae7 96e3 c9bf febd aca1 9e05 b83f
000003f0: 133c 8bb1 f8d5 bc3f 184b cd66 a7df a63f
00000400: 3672 dfd4 ace5 cbbf 6622 1b53 8cf3 87bf
00000410: 9abb 8dd0 1515 d2bf d14f 6eca e814 debf
00000420: 991f a387 a028 80bf 73bc 6ced 6435 cdbf
00000430: b1e2 34dc 7991 aa3f 4379 b58c ac48 d4bf
00000440: 064b f2c4 392a c73f 0647 e403 6b33 81bf
00000450: 15cc 6015 0c81 c3bf ca27 2b9b 94ff c5bf
00000460: 3fee d17c db9b ccbf c1d7 3b01 efb4 c2bf
00000470: 465f c644 382a d2bf 0174 22fd 1f4d b6bf
00000480: 9ebb 0b0e 840e c1bf de9a ff26 35f5 abbf
00000490: c161 700b 091b c3bf c649 2567 1c7e c8bf
000004a0: 1369 c188 d834 d1bf 7dab 984c a546 cbbf
000004b0: da02 2618 91ad f1bf 6b7a 50d9 2497 c7bf
000004c0: 168c 52ca 6b8e 90bf 943b 40c1 72df d0bf
000004d0: e58a f9f7 456c ccbf 08ce abf9 d828 cabf
000004e0: 9eba 68ca a6f0 d0bf 9029 2c79 ac27 d93f
000004f0: 51f5 3ba1 71cd 923f 611d 40ab 9463 cdbf
00000500: ab70 213d 5ae8 babf 143c 4fce b35e 95bf
00000510: 7c1f f407 9877 a33f aa77 a0ca f1a9 babf
00000520: 633a 936c d3f6 afbf 5306 355d 97b4 db3f
00000530: 1a3c ed7f a4a9 d3bf e687 3736 57ab b3bf
00000540: 702b cc36 3502 c3bf 8d96 59c8 555c d3bf
00000550: aa6f f245 91fe c0bf 2aa8 9f05 b9e7 c5bf
00000560: 0589 fe45 be94 bdbf 9a40 9d85 5492 b6bf
00000570: e3ab 4814 9601 b9bf 2be6 e375 ed99 c2bf
00000580: 572a dca6 7c6f c5bf 1f1a cf58 9e25 e03f
00000590: 92d6 8f0d 702d c43f a15f f7c0 7c27 9e3f
000005a0: 3937 693f 9ce4 cdbf 1f80 7d15 5630 d2bf
000005b0: 651b dffe 237d d5bf 2e20 7574 9f53 c33f
000005c0: f603 8012 20d9 c1bf eda8 e052 2ccf c8bf
000005d0: df2c faa7 fd1a d2bf ae61 ec92 368c d3bf
000005e0: 42ab 5b24 24f4 b9bf 2890 8b82 e47a c6bf
000005f0: 894a ec58 baad b73f a01d c3f1 6f86 b8bf
00000600: 38d8 364f b238 cdbf 73c8 a706 cb52 d3bf
00000610: bbf6 8eeb a9d5 d0bf 6502 ccf1 83d2 f53f
00000620: 61ad c1de ad0b d3bf 7089 ca96 69eb b5bf
00000630: b0a3 806d f07d a4bf 5531 3a64 79f2 9bbf
00000640: 965d 2341 37af 96bf 0da8 f956 d040 823f
00000650: d28a 80d7 4ced c9bf 0ec7 1593 69ef c7bf
00000660: 7b54 493b 1221 cdbf f900 a4f3 5cc7 cabf
00000670: 68aa b1d2 a41d e7bf d0ac f31c de8c c2bf
00000680: bd1e c332 f820 c2bf 32ba 347a d05a bbbf
00000690: adf0 e7cf c1ed c5bf 8007 57d5 0889 d0bf
000006a0: 35c0 f644 e284 c9bf 9e9a 15e3 e25e c1bf
000006b0: 0ee6 2b6d 21a7 bf3f b509 27fa f4f8 a8bf
000006c0: 5731 1a1b fa81 94bf 699d 4546 3c1f c7bf
000006d0: b9ca 413c 7e0d cfbf 3372 0ff1 1880 d4bf
000006e0: 93e2 1503 aabb c1bf e6c4 4f77 8676 d13f
000006f0: 3b84 7ac8 d90a b53f 0223 e730 5f21 953f
00000700: 1599 dcec 3186 c9bf 4376 b0da e852 d1bf
00000710: 12ed 1f52 6cc8 993f b9ce 704f 1e0a d1bf
00000720: ecb9 a16f ae95 9dbf 622e d240 e157 c73f
00000730: be8f b6ca e7be d4bf 67b7 54b0 0880 d6bf
00000740: ebc1 0015 84d3 b0bf c88a ee5e c7b9 cfbf
00000750: d52c 6454 5e5e b23f ca0f 5056 2841 c9bf
00000760: b30c fead 2f72 cbbf 3c8c bfd0 c20a d5bf
00000770: 39e9 6409 8063 d2bf 7878 0c93 88a6 d0bf
00000780: 7673 62ef bd8d b2bf eae2 448d 3677 d23f
00000790: 8f6a 9be1 4602 db3f 986b d61e c432 973f
000007a0: 4be3 a60a 3696 c4bf 92ce 3dee 3589 c4bf
000007b0: 1201 6778 41c6 c2bf 589f 18e5 6090 a0bf
000007c0: 1bde 7c3a 1dd1 d0bf 0262 9669 8c67 b93f
000007d0: bed5 f286 7daf c3bf adb0 a9b9 dee6 b33f
000007e0: 52ab eeec c2a1 b7bf 6e50 3e7c bf0e b5bf
000007f0: 40bd 196a 440e bbbf c0d8 614c 637c b4bf

lin3.bias f8 [16]
-0.32410002892296563 -0.3364256746313989 0.018449771450334457 -0.08778650066875444 -0.13201942537539726 -0.25024936358353245 -0.16492398648782203 -0.18584307943947032
-0.10767590556100556 -0.267257406056447 -0.15319592773895724 -0.04200429983321818 -0.08180329148837487 -0.2430664591312596 -0.24310684375068664 -0.016216286255802743
00000000: acd5 360c 0ebe d4bf efe6 848d ff87 d5bf
00000010: 45cf fd33 7fe4 923f a50f 6715 2d79 b6bf
00000020: 1147 3635 03e6 c0bf d2e8 1be8 1504 d0bf
00000030: 2044 25ac 3a1c c5bf c0b2 30be b4c9 c7bf
00000040: d6a2 f3ec a590 bbbf 3014 a8ce be1a d1bf
00000050: 2a75 c295 ec9b c3bf ff6c 266c 9681 a5bf
00000060: 52d1 a57d 0ff1 b4bf 7594 5c3e cd1c cfbf
00000070: cee6 ab03 201e cfbf a265 868c 009b 90bf
