LP4-MachineLearning/HW_B_tetris/Strategy/dqn_action_5000.pth (torch, 54615 bytes, 6 tensors)

lin1.weight f8 [64, 20]
00000000: 77fb 0806 15d1 66bf 0889 1b1c 17e1 c53f
00000010: 3585 4286 b854 ae3f f10c 3f6d e893 b53f
00000020: 8a09 fc38 49cb b0bf 1c05 d611 e8e5 b73f
00000030: 8a06 2bdd 3c08 b7bf 2072 0d93 343d b33f
00000040: a8a2 0eb2 6656 b0bf bf2e 3187 75ac c5bf
00000050: fe45 46c7 19d3 d8bf 2aba b5e5 24f1 c83f
00000060: f262 e91d c6d3 c9bf 19c6 b98a 8700 bd3f
00000070: 6603 7cbb d207 b53f 132f a02c 2508 cdbf
00000080: 154a 9a1f d0d3 d8bf c84f 1dfa 6894 dbbf
00000090: 5c54 be26 6173 c0bf f10a efe8 2122 ddbf
000000a0: 3c74 c5c1 29f1 b23f 8e00 8321 0aa2 c23f
000000b0: 41bc bf5a 32e4 b93f ec78 715f a6b3 c73f
000000c0: b6bf 3b5e 1571 75bf 763e 5b00 7a7d c03f
000000d0: 99fc 5743 2961 ac3f d82e ee91 a34a b9bf
000000e0: a410 5ab3 d325 db3f 5807 4c84 95a2 e5bf
000000f0: a1b8 c90d 82d6 de3f b60f 2588 5267 e1bf
00000100: 6ecb a642 cf14 d33f 7794 cf10 c03f c9bf
00000110: bcb9 2645 d0b1 d7bf b0a7 c8c6 7148 d53f
00000120: f5bc c992 73b3 c6bf 8723 051f 103a a63f
00000130: f457 ae74 1e81 c0bf 94aa 7a34 c057 e6bf
00000140: 6117 e2a7 9b4d c03f 71df 6b84 ae5a c4bf
00000150: 3333 9bd5 4f65 d4bf d08d f6bf f144 c03f
00000160: 2560 4820 fb0c a33f 9ca8 05d2 6af8 d93f
00000170: 4398 2394 ef71 c83f 78c0 b8d7 19a3 ce3f
00000180: 383f f339 e42d dabf 8b94 fbf4 4a94 d23f
00000190: 1032 4626 dc0f db3f ea46 982d beee 333f
000001a0: fae1 a60c ef1b a13f 1d80 0454 5b81 c93f
000001b0: 48c4 ed17 04fc c3bf cf4e 96dd 8b0c a83f
000001c0: a2c2 c033 2f2c c5bf 9b30 b486 cf69 bd3f
000001d0: 083a fb71 b6ed c43f 2026 19be bd5c cdbf
000001e0: 6751 ed08 5fd1 d23f 7060 f91d d960 b33f
000001f0: 7f4d 3e30 f583 d1bf ca36 e55c 6040 c9bf
00000200: 7c1e 4eb2 d023 bd3f b9d6 cdee d5b9 d9bf
00000210: ef88 4ce1 1d76 d23f 7503 7e0b ba8e cebf
00000220: 660f 2084 c321 9f3f 0639 5b8c f087 a3bf
00000230: 7a5a c5e8 4022 a83f 3545 8727 ca77 ca3f
00000240: 3cb5 7e66 aa8b d4bf fba6 1d99 8c84 c5bf
00000250: 112a 7231 f6de d5bf c48f be36 7911 cfbf
00000260: 9a4c 2629 e11e d93f d94e 7f86 a0b2 b4bf
00000270: b84f 09cf 04fc ecbf 2cc2 a075 c585 c6bf
00000280: 397d 9bea 4d03 d1bf de8e 433f a74b d4bf
00000290: 586f eff0 6080 bdbf 385a 6c24 7aa2 b43f
000002a0: ad80 1cb8 869a a53f cca2 9f54 fc76 ac3f
000002b0: b549 df8e d084 b6bf 63ef aa93 1dfd b0bf
000002c0: 2791 6a5a bdab be3f b876 1401 aecb c83f
000002d0: b639 8f24 7ffc d4bf 9ee9 0809 16dc 9e3f
000002e0: 2773 c35c f646 c63f cba0 709c e2ce b9bf
000002f0: ad8d c240 4436 d03f 27e9 8918 3169 d6bf
00000300: 00c7 3480 9ba3 e2bf fe33 d3a6 0200 d5bf
00000310: 750a 9b34 770c ccbf 112f 75c2 8880 b8bf
00000320: 6897 4fc5 1471 b53f 9672 bca1 9d64 c7bf
00000330: 1ce6 68c8 cfe5 c0bf fc63 bb12 4f5f b1bf
00000340: 24e7 0b52 e68b afbf 7cdb b593 696f b53f
00000350: 476a c816 a365 b73f cc42 7da6 5cf4 c0bf
00000360: be99 2b88 36c9 e23f da0f e2de 1b6d e1bf
00000370: f3e0 44da 0322 c8bf a833 8b18 c102 e73f
00000380: 2662 9425 ea68 c5bf 452b e1e7 8a2d c93f
00000390: d9a1 19e6 e23d cabf 7fd0 ada8 b016 97bf
000003a0: c968 c98e df32 71bf 03e6 2b05 f44d a4bf
000003b0: e6a5 b2bf 54c1 c0bf a41c 8766 dcfc e1bf
000003c0: 9d71 faf7 cb07 c63f 1e29 7d74 cd84 b23f
000003d0: 32b8 2b27 e175 cc3f accd 604c 0307 b8bf
000003e0: 4e32 f0b3 68b7 c8bf a489 40e1 fc41 a3bf
000003f0: f7e2 a250 5eb5 c1bf 4505 f053 e321 c7bf
00000400: 7687 4815 4bba dc3f cb02 1bbb 4221 ccbf
00000410: 1fcd 5cf9 9928 df3f 5ccf 9a47 646f df3f
00000420: 14eb d362 17cd 963f 0339 706f 67a0 c5bf
00000430: ee38 9f86 63d4 b6bf 3562 b519 5789 d43f
00000440: 60f1 0728 028c bc3f 3690 d637 2ca9 d9bf
00000450: 55e5 e31f 6de7 d9bf 627f 5492 31f7 c03f
00000460: 9632 aef1 a56a b8bf f9c7 ebfb 3805 cebf
00000470: ef48 06e8 65e3 d23f c963 7c30 7d27 d03f
00000480: b1e7 ca47 af27 ba3f e568 130c d8a1 c93f
00000490: 2422 3eb6 80bc d4bf e532 8d0c 5f34 6e3f
000004a0: 5290 0ff1 df8d a73f d63f aafd cb0f cdbf
000004b0: e48f 5e65 b7a8 c43f 5ad0 8f31 c0b4 d43f
000004c0: 0830 da19 ba96 a6bf b3b4 b0ff 87b3 bf3f
000004d0: a44f 60c2 d16b d23f 5271 a751 8d92 e0bf
000004e0: 48b5 6602 c6d2 b8bf 86d5 0530 da83 d6bf
000004f0: d4dd da66 1ded e2bf 640b 161b 25a1 a63f
00000500: b3b7 a64f b229 bfbf 06bb dd8a dfa0 a0bf
00000510: adf4 7f72 74d4 c6bf cb83 b333 37fd b6bf
00000520: 67e2 43af 5c34 bb3f aff2 de9b a5ff ce3f
00000530: 1b1b 953d 84b4 c1bf 2bc7 e4f4 10ed c03f
00000540: ee6d 897e a094 c0bf 0266 78c1 b302 d2bf
00000550: de4a d559 c6cf dabf 903b cf7e 189d d9bf
00000560: 7b1f bd6d 2731 60bf c84f d13a 50b3 c2bf
00000570: 5e40 4ca0 3375 e2bf 105c d268 7a68 d6bf
00000580: de26 d057 7a32 e73f c707 b7f0 4f5c a7bf
00000590: 3840 b866 9141 b2bf 1706 02b9 205f d23f
000005a0: b700 d29e a7ae d03f 2666 8a06 150a d0bf
000005b0: 85c6 d5ac 071d c9bf 6479 df4e e917 bd3f
000005c0: 8091 9bfe fada aa3f adf4 1bd4 4a72 cebf
000005d0: de3b 9600 cdfb d73f 7e9c 5216 c3f2 c9bf
000005e0: ef27 8905 0b0f b83f 7e09 4d1a c155 d53f
000005f0: 1676 79ae dfac e03f 1ff4 9f19 b4bf d7bf
00000600: b89c 12eb 6fd8 bd3f 06fc 79de c7e8 b93f
00000610: 7ca6 5364 a66c d03f f09b f993 095b dfbf
00000620: ac11 6f0a 40f3 c13f 22ff 0a93 3270 b93f
00000630: 9a80 c361 04f2 b1bf cedf 091c 38cc d4bf
00000640: 88e6 25ec 417e bdbf cf59 4652 0547 a0bf
00000650: 9cca 99c9 8f43 b03f ea72 6843 7692 c7bf
00000660: 19c1 1014 1016 c2bf 6c89 d058 6a4f d83f
00000670: 3471 69e2 f24e e53f 7774 90d0 2aeb e0bf
00000680: 8db4 3a2d 1c4b 9bbf 50ec 6311 8d6c d53f
00000690: 40bd cea8 d37e d23f 02b1 7649 2334 debf
000006a0: 11f9 990b e729 ddbf d552 6fdb d447 d3bf
000006b0: 444c d51f 533e a7bf 60e7 0e95 334c c0bf
000006c0: fa92 f9d1 1048 c43f c5c5 a6b1 43b6 c13f
000006d0: 9118 cfa6 5164 bd3f 0358 ffef 9c76 ebbf
000006e0: 09bb 778b d87d bc3f bfa5 ef7f d82a aabf
000006f0: 44dd 9633 e6ce ca3f 4031 27e3 208d 98bf
00000700: 4bf8 9bea 582b c3bf dff5 2a0f 15ed a2bf
00000710: 6166 b4d0 2d78 d3bf 430e a771 c3d4 a23f
00000720: 5912 c9b9 50bf c4bf 96d4 58bf 230b d5bf
00000730: 0094 6924 421c be3f d71a 865a d16b c6bf
00000740: 8543 89a9 7a74 bf3f 598f a15e 8775 b7bf
00000750: 66a8 b81b d928 dfbf 086b 2446 4f01 c5bf
00000760: 6c2e 8ab8 77a8 ebbf 600c 9097 5fc0 5a3f
00000770: c9b4 a643 4231 dd3f aa9c d8f5 e286 d63f
00000780: 716a cd55 8351 c93f 45b5 32e6 a6b5 a73f
00000790: 5678 87da a04b ca3f 0e3a 7cc3 4d00 b5bf
000007a0: d82f b177 c841 a93f 99e3 fa2f 29af b43f
000007b0: f1f5 d94f ff91 bfbf d460 aa04 195b babf
000007c0: 54c6 1626 8058 aa3f 5e3a 5004 5c4f ad3f
000007d0: e39a 37dd f6ce dabf 16a4 b491 3f8d b0bf
000007e0: ec32 1fff 504b d23f f593 8ffc 542e c33f
000007f0: bb73 28b9 709b df3f dc0f 90a1 e140 d0bf
-0.0027852450005236245 0.1709317099803871 0.05924011839784741 0.08428814570565969 -0.0656018985864987 0.09335184512567135 -0.08996944808589027 0.07515266981267432
-0.06381837699030746 -0.16932553387811386 -0.38788456402207305 0.19485913482954348 -0.20177532635241097 0.1132893289266338 0.08215062215096011 -0.2268110721491828
-0.38792803846550444 -0.43093323159450536 -0.12852110282679774 -0.4552082800620801 0.07399235707039592 0.14557005535425954 0.101138255267629 0.18516997967066773
-0.0052347979251265355 0.12882924096492204 0.05542878100458743 -0.09879514992479288 0.42418377413583586 -0.6760966857839135 0.48184253069383415 -0.5438625964238699
0.29814511784495934 -0.19725800343363506 -0.3702278781228434 0.332546657681287 -0.17735142390618078 0.043411735331182526 -0.12894039819064995 -0.6982117676719377
0.12736840913219807 -0.15901738611114127 -0.3186835847853217 0.12710401414106665 0.037208411875497206 0.4057871867177114 0.19097704633094467 0.23935244591985216
-0.40905099543759915 0.2903010742578053 0.4228430150767801 0.0003041471769345954 0.033416242880267746 0.1992601547472085 -0.15612841766736296 0.04697072105332511
-0.16541090037346345 0.11489579237621898 0.16350441518302739 -0.22939273626461532 0.294029005735203 0.07569653493681172 -0.27367906295076944 -0.19727711234957318
0.11382774689820424 -0.40196750946720844 0.28845927240230557 -0.23873067437309783 0.0304022359268993 -0.038146512158720156 0.04713633386079592 0.20678069048020978
-0.3210245133330607 -0.16810758091315123 -0.3417335017080925 -0.24272074864449966 0.3925097371913552 -0.08085063251138126 -0.9057640117339281 -0.1759573768954551
-0.2658266821944895 -0.317117511540557 -0.11524015314301772 0.08060420407523672 0.04219456670239317 0.05559528859141025 -0.08796409118739386 -0.06636223654908018
0.1198080392592301 0.19371581127864146 -0.3279111725832097 0.030136436749879196 0.17404059915033906 -0.1008130676206093 0.2533121712133049 -0.35017039677008416
-0.5824716094996063 -0.32812563220505797 -0.21913042133936114 -0.09571127650741242 0.08375673119698279 -0.18275804898521092 -0.1320132950366294 -0.06786054808925707
-0.06161422492546212 0.08373126846514184 0.09139460855696156 -0.13245733384476066 0.5870621356560191 -0.5445689538178116 -0.18853805692356893 0.719086215912843
-0.16726424059813033 0.19670234987492044 -0.2050136207137843 -0.022547493262621728 -0.004198907158377626 -0.039657235747608176 -0.13089999542471203 -0.5621168138976782
0.1721129380065464 0.07233890623061653 0.22234739697108946 -0.09385700812054293 -0.1930971983532736 -0.03761282205256869 -0.13834742486303472 -0.18072167967333477
0.4488704402775662 -0.21976503501902864 0.4868531165295326 0.49117381088875844 0.02226673641869599 -0.16895764294935853 -0.08917829548520093 0.32088258276556597
0.1115113589984893 -0.4009504838270489 -0.4047501384189521 0.13254375119231115 -0.09537732267762986 -0.23453438092070636 0.2951292768349409 0.2524102185721487
0.10216804030178996 0.20025158490790954 -0.32400529667987343 0.0036870819498403423 0.04600429360996884 -0.22704458127964128 0.16139881562878522 0.3235321506501855
-0.0441187054212549 0.12383317940175935 0.28783077222873943 -0.5178896517568694 -0.09696614798186431 -0.35179762544370197 -0.5914446839223566 0.04419818835869796
-0.12172998852358212 -0.03247736520903825 -0.17835860815822482 -0.08980126392590575 0.10626773146567246 0.24217672453769043 -0.13832142836528125 0.13223468740175667
-0.12953573397213297 -0.28141492742142316 -0.41893156788607466 -0.4002133596777009 -0.001976563462367351 -0.1460972106166294 -0.5768068438355944 -0.350126840939482
0.7249118533229326 -0.04562616170325345 -0.07131298787885576 0.28705614154032005 0.26066008100316246 -0.2506153644440893 -0.19619842471324858 0.11364610839470896
0.05245193822864547 -0.2378629241647209 0.3747437005740134 -0.2027210101125298 0.0939795387759259 0.3333590275616628 0.5211027534202823 -0.37107565405296045
0.11658381928519901 0.10120820218615742 0.25663146779570645 -0.4899314827984531 0.1402359057375525 0.09936824884334475 -0.07009913813408489 -0.32496454942838404
-0.11520778670628762 -0.031791845601378925 0.06353090927022226 -0.18415716449171465 -0.14129830341108443 0.3798471324281738 0.6658873006922819 -0.5287069390793836
-0.02665370966012808 0.3347504300906552 0.288990893221996 -0.47193224119361343 -0.455682526902721 -0.30125924519715613 -0.045397374759567316 -0.12732548502190877
0.15844927075081455 0.13837476896655523 0.11481199572071633 -0.858229130501741 0.1112952557084378 -0.051108136765673155 0.20943906325349293 -0.02397586237366167
-0.14976035552530428 -0.03696504411844236 -0.30421014195744617 0.03677950632439011 -0.16208848067812445 -0.32880490957479347 0.11761868847823109 -0.17516533775434226
0.12287108077113203 -0.0916370969803756 -0.48686816889915574 -0.16410246777453374 -0.8643148998539352 0.0016327794567139384 0.4561315212875568 0.3519828224984375
0.1978000801999147 0.046307769394255995 0.20543299360628237 -0.08203588507260681 0.049330010043007355 0.08079774304759581 -0.12332149219033518 -0.10295254100708756
0.0514564558501546 0.057246089483773174 -0.4188820991825379 -0.06465527827516868 0.28584694780583564 0.14985143978188345 0.49386232454144946 -0.2539600446473267

lin1.bias f8 [64]
00000000: ea78 49cd 2883 e33f e56b 55ea b133 ce3f
00000010: 0985 3c69 bcc0 df3f e1ca 064b a01e c03f
00000020: 38dc e2fe de53 e43f 84d1 4a21 1756 d93f
00000030: 91ca 2e12 2b07 d53f 6dde 3198 537a d13f
00000040: cc23 bd9a d119 cdbf 18b3 0a76 ab56 e03f
00000050: 31d2 2ac1 b893 b73f f55b 0cfe 1459 d03f
00000060: 4065 7f10 cd81 e53f 47d5 f7e6 8bce ddbf
00000070: 826b 26b2 a241 dd3f 989f 0f39 ef5f c83f
00000080: 0dcf 97c1 83b2 bb3f b2e4 6d10 0a1f d53f
00000090: 99e4 8f44 e6b3 c33f 18b2 adaa 88e4 9bbf
000000a0: 7376 dec7 8224 c6bf 05fa 7f8f faf7 b7bf
000000b0: 6023 208e 709a c23f e364 4494 5ddc d33f
000000c0: 8fd1 8574 17cb d83f 4cd4 a5c1 952b e03f
000000d0: f892 0309 05f5 d33f 5db7 47d6 403e b3bf
000000e0: c55d 8b1e ff21 d23f 4941 03f2 14cd b33f
000000f0: e805 f080 8d92 e03f 615b 7a3c 8353 d53f
00000100: 4a3e 08fd c3e3 d93f d100 8b1a 22e7 b63f
00000110: f86c a162 9383 c33f eff0 8ded f71c d43f
00000120: 49f9 6b17 97d3 c33f 14fe 8497 20b2 cd3f
00000130: 1c0a 45e4 775f cb3f 6b7e 9029 678f ca3f
00000140: dc93 b6a8 7575 d73f 6e5b 50cb 6d72 e03f
00000150: a8c4 5ef9 e366 eb3f e9d1 118e c7eb e53f
00000160: 35f2 0e8f e158 be3f a50d e585 909f c53f
00000170: 722e 3dd1 0a3f b93f 13b6 2b03 4c5e d53f
00000180: e963 47d4 8f87 d93f 9310 fe09 b7b1 c53f
00000190: 6c61 b9ac 27ed df3f b868 fef1 0004 e43f
000001a0: a72e e41e 2257 d73f fdcd aa69 51dd d3bf
000001b0: 5020 6db5 01b2 e03f cb8d 4a80 ac62 c8bf
000001c0: 8360 3b40 0156 d13f ca32 2d20 fb37 c73f
000001d0: 59aa 51a2 5efc ce3f 3d7d f39a 097c d43f
000001e0: ad37 2207 0006 cb3f 9eaf f906 e5bd c73f
000001f0: 5e4b aa50 9711 d33f 493f 8ac8 1f53 c7bf
0.6097606668006652 0.23595260564874745 0.4961386707019107 0.12593463576703015 0.6352381685491144 0.3958795380706521 0.3285625150266834 0.2730912195470186
-0.2273504262505227 0.5105798058990301 0.09209780422208592 0.2554371338787285 0.6720948526591783 -0.4657315974757989 0.4571310748812537 0.19042768751318984
0.1081926677359741 0.33001948933049186 0.15392759654767899 -0.027238974969281043 -0.17298922309139506 -0.09362760547080747 0.1453381246540415 0.31032504538741373
0.3873957288663172 0.5053204328711529 0.31182981376905117 -0.07516865951012393 0.28332498534060974 0.0773480501986842 0.5178897398292834 0.33322220712709877
0.4045267077462752 0.08946431301137926 0.15245287242837668 0.31426809500386715 0.15489472049370992 0.23199851416028194 0.21385096212368715 0.20750131158364424
0.36654416538141077 0.5139683695768846 0.8563098783980836 0.6850316786572509 0.11854371779094992 0.16893202340916705 0.09861819847463396 0.33388042745249996
0.39889903765066365 0.16948593128120545 0.4988497912177283 0.6254887319985505 0.36469319359523883 -0.31038317984641123 0.521729330394928 -0.19051128639431023
0.27087432167673614 0.18139590331192884 0.24207671094639485 0.320070649451697 0.21112060879062025 0.18548262444107605 0.29794867398702773 -0.18222424785607874

lin2.weight f8 [64, 64]
00000000: dfe9 ab2e 70b8 de3f 350b 7a34 93e2 d13f
00000010: 284d 63b2 f33b e13f cef7 b565 241b d33f
00000020: 3d60 4ba5 be61 d73f f29f 35a2 373f e53f
00000030: 1d69 ef2d 865e cb3f bdd3 7ecd 4f18 ce3f
00000040: f4e4 74ae 580d cebf 896f a5f8 a19c bd3f
00000050: f7c1 a159 19e7 babf 2222 5063 9122 cb3f
00000060: faf7 9f39 63f0 d63f bb28 b6da 3563 e4bf
00000070: 56bd 6c0b 003b 82bf 3c93 cc48 29f2 ca3f
00000080: ef79 c050 630c d03f 1c80 82d8 036f c33f
00000090: 1018 68ce 1707 ba3f 669b cdd2 f815 d93f
000000a0: e5ec 83a3 9547 a93f a0dd 1f90 2a15 bc3f
000000b0: 09b6 a430 aef9 bc3f 0fb8 04a2 b41d aebf
000000c0: 56b9 c120 19e8 ca3f 1ba2 5b82 c7b1 c93f
000000d0: 9731 855a 6bc9 d63f 3f8f f631 2c0a cf3f
000000e0: 43a7 39d3 48b3 b53f 487e 6d3d 64be c33f
000000f0: 14b7 ca85 d7b1 c53f 3705 7105 33eb c73f
00000100: c23b 463c 648f c33f e3c7 18be cb7f b03f
00000110: d183 ca04 454c d53f 3fb3 a02b 4da4 cd3f
00000120: cd05 7206 1446 d13f d409 eab0 567d bdbf
00000130: 11f3 1b75 7af0 cd3f e5ad a594 34af b33f
00000140: 8e61 0231 fe43 c43f 3ff2 d136 b657 d73f
00000150: e47a d962 730f e83f 7f00 9899 b16c d63f
00000160: f458 2a49 53d2 b83f ea06 adde 80dc d23f
00000170: 767c 52fb 646a d03f 66e1 53d3 2713 c73f
00000180: 531f 49d3 66ef d53f 3a59 89d8 a0b7 d53f
00000190: 1f58 fcad 093d 983f ce5e d526 7134 d43f
000001a0: 03e7 a166 5e25 68bf c4f1 ba86 78f7 a9bf
000001b0: b888 8ad1 0b4e de3f 2e10 0fe6 bb30 e03f
000001c0: 3824 c8bb 460f c03f e9f2 c965 a758 e13f
000001d0: e33d 1382 6d20 cf3f 8a2f c955 13ce d93f
000001e0: 23a1 3325 6dd7 8ebf 1e53 068f 4c9b c03f
000001f0: c3c9 1eea e622 c03f a08d 047b 2cd2 d63f
00000200: 3788 9138 3f03 d13f b97e dd5c b8f4 b8bf
00000210: 88a5 517c 0be8 d53f 03ea 16a1 f556 c93f
00000220: 9573 b8f0 ce99 d53f eaaf 4ccb 8fc9 cc3f
00000230: c2eb 9188 2924 9c3f 049c 0d85 3acc c53f
00000240: a6e1 4643 6506 d8bf a3c1 7847 3e21 b7bf
00000250: 47be 3f0e 7650 96bf acf0 1455 58b3 c23f
00000260: 1bb7 95b5 29b0 d43f 2f76 fc25 b0a8 d5bf
00000270: e60e 0a0d c3d0 bf3f bf99 4486 1715 bebf
00000280: ed49 3a0b 8f11 d93f e4b2 7624 b278 bdbf
00000290: e812 217e 217a b53f 49e7 249f 30fc 99bf
000002a0: 185c 4b6b 04f6 da3f 4acc ce82 76fb d13f
000002b0: cf6d c2ee 6acf 913f 5183 620e dbee c03f
000002c0: 34dc 0cf6 27db d63f 5119 1932 284d 9c3f
000002d0: 87a0 d6b6 25ac ce3f 4aea 22fa 3d50 c63f
000002e0: 4c00 0ec8 e28c ac3f 785b 3d82 0510 c3bf
000002f0: 7346 7144 2f4a ca3f ec18 43fb f798 b43f
00000300: a52b 7872 c191 cebf 538d 0855 5897 c53f
00000310: d9d4 d852 eec8 ce3f 46d8 e95d 55c1 cdbf
00000320: 67c9 6c8a d33d d3bf 356e 3556 e2ef 99bf
00000330: 7212 2073 7d75 cf3f 02ea 1368 964b b73f
00000340: 8153 74a4 d91c a13f f5c4 d8a2 c8e2 de3f
00000350: e826 9c18 26b6 a03f e6eb af5d 725b a63f
00000360: ba56 974f 31c3 aabf 3887 8a88 37d5 ba3f
00000370: ddcb ed40 b082 c43f 1d5c 1087 1fe5 a93f
00000380: 8c24 4043 bc87 a9bf b24f 6184 15cc c4bf
00000390: d692 bc38 a39d bb3f bbce 9159 f0ee bd3f
000003a0: e0f6 3ce1 32f1 c1bf a153 4d32 2978 d5bf
000003b0: b106 b321 738f e23f 0061 7567 bbc8 9cbf
000003c0: 8cf6 33ee abd6 c73f e91a 5617 b25d d23f
000003d0: e0e6 5cf0 b203 bd3f 2572 dcef 39c4 bb3f
000003e0: 2119 9113 de40 bdbf 4217 14d4 5542 ca3f
000003f0: 2686 ccae 5357 d03f 0ee2 644f 1ffe de3f
00000400: db64 f0b7 b78c dd3f 5031 b44b 85d8 d83f
00000410: 5c54 5f26 65f2 d33f 3e40 7b46 03e8 dc3f
00000420: 0882 cfe9 2077 ae3f a8b6 8c40 2afe d33f
00000430: 3600 f582 9965 d33f 2bce 1aec 5848 d73f
00000440: 2847 6bdf ff95 c3bf 076e 28d4 c45d 903f
00000450: 44ea 28f7 971b c33f 1203 bc0a 4ccf c93f
00000460: a856 da66 30ac e33f 7ad5 3963 22f7 e2bf
00000470: 2680 968b a216 d33f 23e5 ad8b 2a52 aebf
00000480: 8895 2d07 420d db3f 49fc df9b a084 b63f
00000490: f3a0 0851 1f99 d03f a79f f0a8 054b ca3f
000004a0: 7205 6c35 1737 dd3f 6bbb 17b9 8ed1 a93f
000004b0: 3fce bccc 2d6e c73f 237f fa9d f57c c13f
000004c0: b76d 2da0 6d79 cb3f 3f4d e092 da15 b1bf
000004d0: d570 d8b1 e8a7 c83f b8b8 501c 9901 db3f
000004e0: 82dc 4b14 2fc2 a63f 217e 70fc 418d cc3f
000004f0: cb5f fdd6 d8f7 c03f 0951 eec2 5bce b53f
00000500: ae19 8b46 c71d a53f 7a84 ec64 6c8f d43f
00000510: fbc7 d00a 3828 d53f 5425 4c40 d257 d63f
00000520: 3740 b963 e82e ce3f b575 83a2 2a04 c03f
00000530: 8b81 274a c8ad d53f 54a0 5137 7575 ae3f
00000540: 42ad 04e4 ff2b cb3f 8372 0abc 08de c53f
00000550: 95fa f792 1678 e13f 712d a7a4 b995 d43f
00000560: 7246 f294 16b0 ad3f 2582 0741 1632 cf3f
00000570: cd7e 28ac c3e5 833f 85d6 bf39 a01f c13f
00000580: 6f18 88ca 1258 c73f 223a fe55 ad71 ca3f
00000590: 5645 f87d 446d bd3f 21ef 7557 ffc7 ce3f
000005a0: 8774 920c 2d23 e13f 411e 41bc cddd bfbf
000005b0: 4595 c2b7 6851 d03f e188 ce2a 36e5 95bf
000005c0: 306c cdd7 2359 cd3f 6a0e 3309 f090 d03f
000005d0: ed7c 8bc4 769c c13f 1bd4 efda 81f6 db3f
000005e0: 7308 fb17 2864 e23f b584 6fe1 3d5a c93f
000005f0: fdea 2ba6 d402 a0bf 1513 0dbd 6143 e53f
00000600: 350d 904c ebf6 cc3f 44ab 3c5f 0841 c0bf
00000610: 1550 3d0d b9ac d93f 4d91 7140 f67b b33f
00000620: 073b 5056 ef85 88bf 2618 e064 aaaf cbbf
00000630: 6872 75aa eb66 ddbf 6fa0 8974 f2e1 c03f
00000640: c699 40b7 e9f1 cf3f 7341 30ff ba2c da3f
00000650: 1e7f 7aac a088 913f 34a1 94d0 9b9f dc3f
00000660: 4c7d 86a9 5ae3 de3f 5754 c889 37a7 ce3f
00000670: bcbc e341 d2f3 d23f 804e 6fcc 36d5 de3f
00000680: 0a61 d299 d29a 9f3f 6999 a0a2 224f bd3f
00000690: ce95 c70f 6789 b2bf 8106 81e9 26b4 e0bf
000006a0: 16d3 3516 cc67 ce3f d707 122c c514 d73f
000006b0: c123 4eb9 bb48 dd3f 502a 82a8 520e d5bf
000006c0: 590a 0152 b7f2 d13f b39b 0095 274d bbbf
000006d0: e19a 3441 251a b63f fcc5 dc10 0f59 b5bf
000006e0: 766c 4a01 1617 d63f 8b9b 87ad 9af9 bdbf
000006f0: d20d b855 2a9c ca3f 57e0 e7fd bd59 ddbf
00000700: 1c6b b4a9 463c a03f cbb7 de98 1a17 c03f
00000710: 63ff 86df 4877 d23f 6fdd 9b50 cbb3 cf3f
00000720: c1d1 2a56 53e3 babf 0cb4 577d ba8f e93f
00000730: fa4b 6326 be65 d03f e0f8 ff0d 3326 da3f
00000740: 1b51 3922 7ea7 b1bf 4e35 e7bc 54d7 a93f
00000750: 2a30 ba08 71ed 593f b540 b970 3457 d23f
00000760: c019 a89c f7b5 bb3f 0bae 0015 474b cc3f
00000770: 0c6e 33c7 ac95 d33f d0b9 6a83 8301 c4bf
00000780: 7883 2da0 5617 e23f 7ac2 70d1 4505 cebf
00000790: 95e7 a440 6f28 d33f 7d3c 0ecb 5d8c d6bf
000007a0: 9450 c38d d83c d93f 7d4a 793b ff83 a03f
000007b0: 4f17 aec2 9688 e23f abde 3aab 2dc0 90bf
000007c0: f12e 572d dca2 d43f 813a 8d62 5672 dcbf
000007d0: 9383 2bb3 9f5b c53f 39e7 c872 93e9 e23f
000007e0: 2a11 92cc b77d e73f fc7d 6f49 d829 913f
000007f0: b034 4ef7 c9aa e53f 6b02 fa9e 8872 8fbf
0.4800072150971157 0.2794540417163945 0.5385683521402926 0.2985316270131734 0.36534086362872015 0.663966957869887 0.21382214777879308 0.23511693510013557
-0.23478230017079904 0.11567127533402134 -0.10508879125860192 0.211992429249464 0.3584220946066804 -0.6371106406889092 -0.008901596401840333 0.21051517538685427
0.25075610052036174 0.1518254096199606 0.10167073048805286 0.39196606241460186 0.04937427159344469 0.10969797152198746 0.11318482101042816 -0.058820385720864114
0.2102080736107818 0.20073789467939282 0.3560436614978015 0.24249794425588253 0.08476691395631257 0.15424778937721073 0.16948980362706634 0.18686521306703138
0.15281346266826118 0.06445001021418721 0.33278012721899325 0.2315765822435427 0.2699022353118295 -0.11519376582331314 0.23390131681653561 0.0768921721370855
0.15832497971565512 0.3647285018303456 0.7518860750822935 0.3503841400088347 0.09695930992379315 0.29470845933620515 0.25649380248245934 0.18027208155377678
0.3427369178138992 0.33933278223175345 0.02367034077095564 0.31570080559093305 -0.0029475063102467627 -0.05071617741257087 0.4735135599422722 0.5059489720665675
0.1254661957648595 0.5420720089019514 0.24317711688352892 0.4032028520348311 -0.015059330652051067 0.12973935111644946 0.1260651248135912 0.3565779877992217
0.26582317852274023 -0.09748413340775643 0.342287894635398 0.19796629300783772 0.33751271732199345 0.22490117480026522 0.02748169799859191 0.17029506203400058
-0.37539035387046693 -0.09035100216784157 -0.02179130994767167 0.14609817652115475 0.3232521317757901 -0.3384209032973073 0.12427920406667745 -0.11750933673884044
0.39169670196966316 -0.11512292280412911 0.08389481858564418 -0.025376090730083765 0.42126570203748903 0.28097307943534544 0.017392798254702243 0.13228929712661366
0.35712622669547334 0.027638080651990752 0.23962851932197202 0.1743237944954948 0.055762373848665975 -0.14892643794402338 0.2053889354888728 0.08045911678627576
-0.2388231095249839 0.16868118431112097 0.24050692601455273 -0.23246256909959778 -0.30064857976971954 -0.02532914782692171 0.2457730114112056 0.09099712410890251
0.033423234295844935 0.48259178069117975 0.032639685157915654 0.0436664332737207 -0.05227045151302208 0.10481593211673335 0.16023829622608235 0.0505761959431583
-0.04986370392732295 -0.16247815097687873 0.1078741086499336 0.11692716776615956 -0.1401733016772857 -0.3354590407591847 0.5800109537305699 -0.028109481992346197
0.18623875742916984 0.2869687297719979 0.11333769195780574 0.10846292596802039 -0.11427104928688837 0.20514939170259977 0.25533001012999745 0.48426039460494585
0.4617137237815549 0.38821537392575056 0.3116696238260539 0.45166093714670186 0.059502628842668825 0.3123880033843798 0.30307615078709504 0.3637907319746058
-0.15301512154706498 0.015982699822513904 0.14927959030485927 0.20163870357648556 0.6147691735120207 -0.5926677644735456 0.29825652724867024 -0.05922062830991084
0.42268419934256274 0.08796123319187744 0.25934584535072175 0.20541449307461088 0.4564874669741449 0.05042692193443695 0.18304989335011787 0.13662595952791276
0.2146431953541261 -0.06673971258014876 0.19262417491780207 0.42197253956954794 0.04445025561101891 0.22306084467071322 0.13256369111581842 0.08518002995544206
0.04124281631588943 0.32125387054299603 0.3305797677631969 0.34911018637702296 0.23580651158636254 0.12512715277891365 0.3387318348086629 0.059489882471837646
0.21228026040749098 0.17083844358139197 0.5459092016679558 0.32163849906347425 0.057984071428234155 0.24371603179226145 0.009715584460593086 0.13377764529984773
0.18237528695334812 0.20659414957886307 0.1149485404532887 0.24047843714276332 0.5355439420269626 -0.1244782051663771 0.25496881432839685 -0.0213821853282149
0.2292828372690976 0.2588462915266293 0.13758740040700648 0.4369206083350165 0.5747261494036721 0.198066458774553 -0.031271596226323674 0.6644753162769087
0.22628537405408058 -0.12698464060061998 0.401167166642382 0.07611025880175255 -0.011974210568977307 -0.21629838872485257 -0.4594067730556959 0.13189535799324711
0.24957009742611386 0.4089801303935225 0.017122755553486184 0.44724173897931796 0.482626596023654 0.2394780562177938 0.29613167223483194 0.4817635532792579
0.030864039076363738 0.11448875875848831 -0.07240909705395568 -0.5219912109971149 0.23754263958439797 0.3606427126288713 0.45756428810323874 -0.3289991994467174
0.28043921478471173 -0.1066460360312778 0.08633644906931749 -0.08339018022231665 0.34515905500456456 -0.11708990799489365 0.2078907888936628 -0.45860242648587274
0.031709869590676315 0.12570507492404057 0.2885305579074979 0.24767438350657353 -0.10503121236508318 0.798794979867695 0.2562098860627767 0.40858150832344897
-0.06896198592705043 0.050470970210521146 0.001582489380697725 0.28657256134193726 0.10824534964203902 0.2210472919990568 0.3060104317971486 -0.15629619519081794
0.565348923537484 -0.2345359108599217 0.29934293091684455 -0.3523172839131304 0.3943387398151199 0.03225705719946335 0.5791734506935685 -0.01635810239414918
0.32244018962658944 -0.44447860359370145 0.16685863731893544 0.5910126916780661 0.7340964313048393 0.016761188013218117 0.6770982580361729 -0.015355174399929802

lin2.bias f8 [64]
00000000: 368e 9a55 cdb9 d93f f12e 201d d061 c13f
00000010: 0399 c8a7 7f0d cb3f 93dd 3e85 9488 d33f
00000020: 04e6 72c0 81dd d23f 5248 946f bd5d d33f
00000030: a2b9 f304 94a9 d13f 7090 2484 ba5f c13f
00000040: e97a 8e69 4480 c23f eedd afc4 3b55 c23f
00000050: da6e 2498 5b9a ce3f 4a6d 6247 c495 d03f
00000060: 866c 3f68 79bc dc3f d5c8 14c1 15af c63f
00000070: b680 9dca bfc1 9abf 9061 b642 b343 d73f
00000080: b3aa d73c d0d9 cf3f 6732 cf46 6953 dc3f
00000090: ac56 3fb3 0f52 da3f c366 3df5 ed48 d93f
000000a0: 729a a9e6 cb34 d73f 757b 72c9 477c c63f
000000b0: 15b8 1fa3 9b65 c5bf e827 c431 9e0b c23f
000000c0: a404 5130 108e b43f 3396 c884 f19d d03f
000000d0: cfc9 50c5 3465 d43f e055 868b 6e4e d53f
000000e0: 0810 dc3c 13f2 d83f 5fcf a5ed 6d27 d03f
000000f0: c170 06de b5aa bcbf 9ded c216 d18a ce3f
00000100: fc68 3fab 3d8c bb3f 3d69 010b 8faa cd3f
00000110: b0c5 3e43 1fe6 b2bf 7b05 8c1d 2d01 dd3f
00000120: 8a2e 3056 7e36 ce3f a8f4 2686 4e0a d53f
00000130: 2d3d e7e0 0d53 c23f fce2 ec6f 5636 c83f
00000140: fc61 7c59 670a d83f f12e ee36 6385 c03f
00000150: 52f3 28e0 485f b9bf 82e3 493c d54a d73f
00000160: f992 e593 48ba cb3f 95c7 e2ab 3dfc d73f
00000170: 6ab9 104d f900 d93f 370d 7a58 7cf5 d23f
00000180: e368 dab3 7521 d83f 89ce b4ff f802 dd3f
00000190: 3f20 b03b 3354 aa3f 5a7d c38f 529c d53f
000001a0: b698 01a8 bf03 c73f f8ad 58b4 30f3 d03f
000001b0: 2d59 2a3c 0306 c93f 65f5 968d 741f bdbf
000001c0: 4ed9 1ffa afdd cc3f 49e0 6b57 b16e d73f
000001d0: 8fb6 1d55 9bad d03f ec0a eb7c 8bcc d33f
000001e0: d409 5170 d4fe da3f 9457 bc68 7629 d03f
000001f0: 209d c34b b6b9 c6bf c350 e2f3 167a c63f
0.40196545943965434 0.1357975141730701 0.21134944622571802 0.3052111912943129 0.29476970475988673 0.3025964345589546 0.2759752319679142 0.13573390438353128
0.14453940538529444 0.14322611907822086 0.23908562592338606 0.2591410348047317 0.4490035551113539 0.1772181694773908 -0.02612971948781314 0.3635070945251977
0.2488346383173244 0.44259101786591376 0.4112586260283517 0.3950762648506549 0.362597441917763 0.17566773735321886 -0.16716332879099186 0.14097955160133258
0.08029271297074786 0.25964010207312355 0.31867713231181666 0.33291209817374856 0.38977509444544056 0.2524065800455357 -0.11197983427558979 0.23861135112188672
0.10760865622379251 0.23176754033449667 -0.07382388488510716 0.45319679151005915 0.23603800972374628 0.3287540731506149 0.14315961343388875 0.18915825333694858
0.3756349920163584 0.12907066518925306 -0.09911017868666974 0.36394244086800864 0.21662242146989977 0.3747705629895049 0.3906844379988771 0.29623325958546637
0.37704222263131565 0.45330643626514494 0.051423646007663575 0.3376661685888017 0.17980189994267953 0.2648431550212247 0.19549599111332708 -0.11376121956614822
0.22551536286455093 0.366131148693516 0.2605961161815253 0.3093594283965746 0.42180357902921384 0.2525306723413163 -0.17754248332423916 0.17560088070297838

lin3.weight f8 [16, 64]
00000000: c4b0 c6ff 3662 ccbf 6858 3c4d b759 a1bf
00000010: 57f1 658e 37dd c8bf b3c6 115a 1577 a4bf
00000020: 4890 791c 1778 e3bf dd40 534e 0dd4 97bf
00000030: ac23 8a48 c520 e3bf e0cb 4d57 e1bf e73f
00000040: 86c7 8829 fb54 d0bf c052 d82a 8446 ab3f
00000050: 4c2d e742 4303 b4bf c7e1 8e16 a100 b4bf
00000060: 59cc 053a b11a e3bf 8be1 bc47 46a6 d5bf
00000070: 807d 21b9 eec8 943f 0ffa cc8c 1f1d c6bf
00000080: caa2 cbb0 9d4b b8bf 65b8 bfe0 b2ed c6bf
00000090: 5606 e702 588d d4bf 9217 a429 490e d1bf
000000a0: b42b 1a3f 8159 bcbf a63d ccbb 5738 a6bf
000000b0: d9f6 ec8d 938b fd3f 00de dd3b ac40 a23f
000000c0: 0c94 398e 58dd 943f 4ec7 3a19 2b71 bdbf
000000d0: fa9b c47a c138 cfbf 6584 5bcb 3b18 c2bf
000000e0: 7f31 6568 519d 98bf 92a5 7183 90f1 d5bf
000000f0: d679 f657 22ca a5bf cc2c 2596 147e 67bf
00000100: 66f9 fe70 cb32 b43f 638b 076b 6d7c bb3f
00000110: 4ec9 c3ce fd77 e53f b662 6cf6 2a8d cbbf
00000120: c063 b28a 05cb 993f 01ea d35f f672 e2bf
00000130: 0b25 90be ed99 bfbf b58e 49e4 a65b d3bf
00000140: e0ed 9cb1 69c2 adbf f50d 354a e51a bcbf
00000150: e83f 6047 701c b53f bbaf 2d57 0d2c c6bf
00000160: a12f bfed c6f9 a63f 11e9 5b0f 4cc4 d4bf
00000170: 0e0c 7599 3221 b4bf 4b6c 0bd5 3a90 b13f
00000180: c249 2eca 709b d1bf 2ace 5e53 4475 e7bf
00000190: 5827 fe3b eb3d de3f 3b1e 6f93 b218 e0bf
000001a0: f4ff ca8e eaa1 c1bf 2a3c c466 185d 5b3f
000001b0: 660c a8f5 0e9c a5bf 3c6e d01f 3bcc 713f
000001c0: 9d8e dee7 a8be 583f 8075 44a8 22ce cdbf
000001d0: b014 91bf fcd0 913f ce67 1ea0 b2e1 aa3f
000001e0: f2e6 4765 76e2 c4bf 5217 03f2 d720 e2bf
000001f0: 35c9 a894 a884 b8bf 7832 2c34 a333 e0bf
00000200: e2b9 8b33 2e57 8e3f 1287 53f5 7f5c 9abf
00000210: 3741 acad 228b ccbf f421 7978 e6ae edbf
00000220: e49f 7e13 fdec cfbf fb24 4a5c 4a18 c7bf
00000230: 4c6f a462 bb38 c0bf d87a ee40 a6e1 d9bf
00000240: 3e20 105c 6f73 ddbf 8c4a 9b96 36ae c8bf
00000250: f677 215c f32c 9bbf 700c 96fa a5a3 b1bf
00000260: b671 bd31 53c7 d6bf 4eba c43a ac20 a2bf
00000270: fe4a 82bd 4873 86bf 0e2e 9f5e c128 d3bf
00000280: 16f3 9b01 ac0c c4bf a7c0 e324 82a6 cebf
00000290: 04ad f902 eeae bcbf 3c74 6536 d404 c2bf
000002a0: dc16 4458 89aa ccbf bcf0 c2b3 2079 afbf
000002b0: 9ac5 bb51 bb91 c8bf ba05 1983 e861 d0bf
000002c0: a9d5 d2f9 f3b0 b33f feb5 00c1 0bbb cbbf
000002d0: 1938 e33a 47e3 cbbf 3642 e502 c0a0 cdbf
000002e0: bf44 b3d2 748b cabf 2752 caec cad0 d4bf
000002f0: b1ae 2d46 78d1 a8bf b6d8 d3cf 4451 b9bf
00000300: 3e97 6879 337a c4bf aba9 d936 9958 d9bf
00000310: 920b e4e0 36fc cf3f 09fb 76c9 1a44 c8bf
00000320: f6f5 c31f e86b b5bf c14f 286e ec69 d9bf
00000330: 4de0 d5bf 20c1 b3bf ce3a 9bbb a852 a33f
00000340: 1de3 b961 fe93 cabf 0524 846a 802a d1bf
00000350: 6120 6c13 1af6 ac3f cb4c 56ce 16d8 c1bf
00000360: ec92 6f46 64d5 c8bf cd3b 9055 899f c8bf
00000370: 4b96 9d8d 0dc2 cbbf ef08 ce91 2c56 c3bf
00000380: 1e1d be50 0a82 793f 07d5 e145 ce2e c1bf
00000390: 65be 96d6 0297 b63f dc76 e75a 9075 e2bf
000003a0: bc9d fa08 c50c a13f ecf1 0b28 9dfe d1bf
000003b0: 68a8 1587 39f6 c3bf 8ab4 a554 cfd9 b5bf
000003c0: e69c 23ce ce8f cebf bd67 d81b 49cc e9bf
000003d0: b4e2 9843 0ce8 d1bf 07cf b65c 68f2 bfbf
000003e0: 9d1c d39a 54f5 d0bf 605f 391a 570d b43f
000003f0: 6b0e 5268 023e bf3f 9df1 0bbf 7b8d b83f
00000400: d2c0 3d35 f5dc ccbf 5a92 bfb9 3ef8 90bf
00000410: c815 33db e553 d2bf c266 6368 4c28 a63f
00000420: 8e83 b7fb af42 c5bf 6aeb 2b21 52ae c8bf
00000430: 6945 cbc7 581b c73f da23 98e8 6962 a0bf
00000440: e353 b3ca 2e96 ad3f 8e70 a939 6937 c5bf
00000450: 8b2e 266c 8261 c5bf 795e 2c58 fd9f cbbf
00000460: 2a9f e938 1e83 c3bf 473c 48ea 6310 cebf
00000470: 7a56 1c14 d067 bbbf 54ad 4905 c197 b7bf
00000480: 7620 68fc 3944 c2bf e426 61ef 077f b6bf
00000490: 0345 61b4 fda9 c4bf 5ab6 f479 9652 cabf
000004a0: 3618 f28e b7c7 cbbf 1f21 2920 04d8 cbbf
000004b0: 36b0 f9f3 8806 d33f a6fb e530 93f2 cfbf
000004c0: 67ba ff90 9e12 74bf 0892 18a3 1990 d1bf
000004d0: d644 88f9 fa72 d1bf 5966 f984 ea74 c8bf
000004e0: a068 d4ee c75c cdbf 9505 3507 f01f e63f
000004f0: 2718 ba9a d9a2 8f3f 04b9 22c8 7661 cfbf
00000500: 5a90 151e 0d70 bebf b93b 1865 efb4 babf
00000510: d279 f61a f4a8 dcbf 48de 42fa d437 c0bf
00000520: bb32 d9f2 6d42 bbbf 7e58 2bd9 2b99 e23f
00000530: afd9 81ff fac7 d8bf a9cc f950 b8b6 c2bf
00000540: 0301 2a78 d547 c6bf 9ee2 0a93 ddf0 d7bf
00000550: 5cdb 39a0 0182 bbbf ed94 16eb 308f c6bf
00000560: 57e4 83da e5ee c1bf 027a 1ca9 cf1a c4bf
00000570: 14c5 7fae 7e5c c0bf 492e 2ee7 448b a3bf
00000580: 5c28 eeb8 378f c8bf 3030 22e3 d794 a3bf
00000590: 12e2 def7 2e8f dbbf 7cfc 24c4 393f b23f
000005a0: 446e c67e ba61 cfbf 5e75 92b4 afbc dabf
000005b0: 5684 3095 4725 d8bf 6717 d42d 586e bd3f
000005c0: 529d abb6 01a9 c4bf 85c5 9574 c131 e53f
000005d0: b135 32bc 0de3 d3bf 4a39 1552 f403 d6bf
000005e0: 7042 e3f2 225f bbbf 5b16 9e24 e96c d0bf
000005f0: 7679 56e7 8b20 ba3f 442e d4af 8676 c6bf
00000600: 70e3 89f8 5afc cdbf 8763 e47f 5062 d8bf
00000610: ff71 6555 7cf5 d5bf 0e99 85d5 450c a73f
00000620: a64a e1b4 4935 c13f eaba 5f8a b192 c4bf
00000630: 8fe0 07cb 265e 7f3f c520 5657 afa8 d93f
00000640: 3436 5cd7 51b6 58bf 85f4 1d84 efb7 bcbf
00000650: 55cd 9478 d8ab cebf cd40 8581 373a c9bf
00000660: f2a0 7bbc 9f7d c0bf ba6d fa41 02e1 ccbf
00000670: 1024 2a41 49b9 b3bf f7d2 e974 beac c6bf
00000680: f6dd 1402 6376 c1bf 4c4d d558 6e73 b0bf
00000690: 7795 7ba0 1751 c6bf eb02 9775 9537 d2bf
000006a0: 8cd0 a1fa 5bd8 d4bf cdc7 9c2e 788f cabf
000006b0: 45d8 3b04 de35 cd3f 9fd2 492e 8f8d bcbf
000006c0: d187 6540 7712 7a3f 86cc 0253 74d6 c9bf
000006d0: 4ad2 c617 5c4c d2bf 0bce a160 0af8 d3bf
000006e0: 0bae ca4e 8047 c9bf 9412 68f6 bac5 c23f
000006f0: b128 be6a 05c8 b53f 3991 d3ca b5e1 ab3f
00000700: 9267 7680 da8d cebf e06a 332f 2838 d7bf
00000710: 70ae 2361 5452 e43f d5e1 f0df 6f83 d2bf
00000720: 53a9 a8d1 42ca a2bf 7a80 40bb 8c14 ca3f
00000730: 30fe 411f 10b9 d9bf 9484 43b7 d8b2 d7bf
00000740: aee7 87cf b392 abbf f0fd 2cce 73ca d0bf
00000750: e352 3aab ef85 bd3f 9777 de44 f127 cabf
00000760: 56f6 d7da b254 cfbf 8873 04e2 282a d4bf
00000770: 4d5e d63d 7c95 d8bf 8067 3c8a 513b d3bf
00000780: ad1e 8c44 c06c b3bf d015 fc8a 7fa2 c2bf
00000790: e89e 358d 03ae f03f de23 e8ff 3d55 aa3f
000007a0: ecb8 46c7 13e2 c4bf 8810 d235 6c20 c4bf
000007b0: 3721 46bf 8fdf c9bf 70c5 c822 c4dc 7b3f
000007c0: 3542 0177 3001 d7bf e5fc 495b b8bd e53f
000007d0: daf1 524e 0440 cdbf 2150 f615 c0a0 b03f
000007e0: 9ab3 6b1a 87f3 b9bf 2708 d578 e86b 9a3f
000007f0: bbed 3c59 604d bcbf cb95 17be e100 b9bf
-0.2217472790629299 -0.03388760392969986 -0.19425100758588584 -0.03997103428345152 -0.6084094577931944 -0.023269851594535196 -0.5977503220357128 0.7421728806642669
-0.25518683487018057 0.053272371511558614 -0.07817478545546414 -0.07813460160003337 -0.5970083363776083 -0.3382735920490851 0.020297746705521202 -0.1727637708190319
-0.09490380827231629 -0.17912898992603057 -0.32112694056931923 -0.26649693552496345 -0.1107407359178712 -0.04339861075834088 1.8465762657137275 0.03564966421884819
0.020375617676467825 -0.1150080620380127 -0.24391954893619056 -0.14136454991879358 -0.024037620541365264 -0.3428689273483424 -0.04255778621449095 -0.002867737014786797
0.07890006550494419 0.10736736166977105 0.6708973921179593 -0.21524560005561505 0.02518852862394616 -0.576533496059085 -0.1234425153962954 -0.3024689893120283
-0.05812387745978831 -0.109785395256999 0.08246518843247908 -0.17321936375389932 0.04487439777548664 -0.3244810247412185 -0.07863155600084346 0.06860702229771325
-0.27511234039516463 -0.7330648067786047 0.4725292287699765 -0.5030148391314876 -0.1377537915450372 0.0016701448722107417 -0.042206256377561854 0.004345160440631764
0.001510300585757663 -0.23285325256521716 0.01739878577452164 0.05250318722319457 -0.16316108651499622 -0.5665092207716305 -0.09577420834901747 -0.5063034075734114
0.014814721057942518 -0.025743483875778024 -0.222996077347952 -0.9276001313201605 -0.24941981746564956 -0.18042878633813317 -0.12673132244605723 -0.4043975481126103
-0.460170593171373 -0.19281656602705188 -0.026538660524572287 -0.06890332572770475 -0.3559158311598155 -0.035405523466000774 -0.010962074550012964 -0.2993625091591817
-0.1566367156846346 -0.23945643235447742 -0.11204421589507169 -0.1407723680121381 -0.22395436105596545 -0.06147100633958888 -0.19194737902539033 -0.2559758453608897
0.07691883897026365 -0.21664568828548164 -0.21787348151559696 -0.23146820203193536 -0.2073808697519208 -0.3252436935811453 -0.048473127905564246 -0.09889631341852376
-0.1599792807402824 -0.3960326228758741 0.2498844717120759 -0.18957838856837153 -0.08367777610325064 -0.3970900607830537 -0.0771656483028675 0.03774001398197911
-0.20764140865119254 -0.268219093341543 0.056565108176130925 -0.13940701556257404 -0.19401219786882196 -0.19236866643811226 -0.2168595258219049 -0.1510673248231522
0.00622753171399573 -0.13424089824881255 0.08824174632058542 -0.5768510604354691 0.03330054983717498 -0.2811653987007776 -0.15595168205192356 -0.0853547650965131
-0.2387636667765271 -0.8061872047285231 -0.27978808022775614 -0.1247925974228644 -0.26497378463359117 0.07832855596768473 0.12203993842018128 0.09590886511063564
-0.2254930982558166 -0.016571979605844646 -0.28637071996885455 0.04327620291014746 -0.16609763899671431 -0.1928198492022049 0.18052205806319968 -0.032000836985453154
0.05778642868396113 -0.16575351062318017 -0.16703825264663794 -0.21581999593103143 -0.15243890551504907 -0.2348751920658023 -0.10705280772193673 -0.09215933207604127
-0.14270710777805434 -0.08787583917833391 -0.1614377146493454 -0.20564537958982748 -0.21703237991113306 -0.2175297886881333 0.2972738630840043 -0.2495903004418924
-0.004900569343574724 -0.2744201748594439 -0.2726428448523398 -0.1910679959572004 -0.22939395104987614 0.6913986340297692 0.015447330507651525 -0.2451618649697097
-0.11889726623991362 -0.10432335107928638 -0.4478121054943617 -0.1267038557032143 -0.10648238352696186 0.5811976663196814 -0.38720583869817465 -0.1462011714353129
-0.17406719558130854 -0.3740762649500001 -0.10745248948829328 -0.1762448451892519 -0.14010308427512783 -0.1570682121027432 -0.12782271881545937 -0.03817191431070605
-0.1918706562976834 -0.03824495933176342 -0.43061422544590855 0.07127724684413467 -0.24516993704024703 -0.417766500797219 -0.3772753674439334 0.11496497267589022
-0.16140767497493386 0.662323692040602 -0.3107332551815843 -0.3439913560477136 -0.10692041807056696 -0.2566473825066617 0.10205912015815052 -0.17549213014022957
-0.2342637742583764 -0.38100063790766864 -0.3431082567165333 0.04501550895183658 0.13443871814759695 -0.16072673088589023 0.007658149276260086 0.4009207108397386
-0.0015083121520008793 -0.11218163466942783 -0.23961931121594185 -0.19708913635486738 -0.12883373931186487 -0.22561672422021478 -0.07704599228794984 -0.1771467276445475
-0.13642537690769502 -0.06426133793620642 -0.17434974037238835 -0.28464256747615363 -0.3257055232600201 -0.20750334049222233 0.22820639807440748 -0.11153502349936638
0.006365266634334747 -0.20185712865131594 -0.28591062852800475 -0.3120141929314008 -0.19749454352619042 0.14665925056046503 0.08508333068872066 0.05445640660198809
-0.2387040259607685 -0.3628025494523808 0.6350500008824849 -0.2892722784922886 -0.036699379056090685 0.20375212805902604 -0.4019203477145963 -0.3702909269032457
-0.053853625377043954 -0.2623567117152268 0.11532495432249905 -0.20434394705528966 -0.24477229772303372 -0.31507322380075964 -0.3841238597756032 -0.3004955148659221
-0.07587815927046888 -0.14558405195582091 1.0424838558191656 0.051431596268294064 -0.16314933042799085 -0.15723946216542495 -0.2021350559191519 0.006802335887685515
-0.3594475900800121 0.6794091971386506 -0.2285161383096142 0.06495285545526076 -0.10137218852078292 0.02580226171017599 -0.1105556695810525 -0.0976697053043473

lin3.bias f8 [16]
00000000: 86ae c0b5 670f d2bf 0237 c52d 7dff d1bf
00000010: 0e9c 55cb 549b 9c3f 7c2a f78d 0f0a bebf
00000020: 4d57 9706 12aa b1bf c065 751a b455 d4bf
00000030: 4861 221f 3480 cebf dc30 a667 1e4f b2bf
00000040: e975 b550 df3c bbbf 14e5 fb30 b12c cbbf
00000050: 9fda ca7c 0b44 bdbf f5cf 8f1f 66e5 b2bf
00000060: bb12 27fe ae18 a5bf 0977 923c 0277 d1bf
00000070: 189c d742 4f5b d1bf 5881 c6ea d277 aa3f
-0.2821902537277555 -0.2812188097931171 0.02793629160933269 -0.11734101501421351 -0.06900131855885867 -0.3177309282669647 -0.2382874633810934 -0.07151975660798676
-0.10639758797102385 -0.21230139629168632 -0.11431953236283697 -0.0738128497176261 -0.04120394566010562 -0.2728887168430992 -0.2711980965381726 0.05169543376837521
