LP4-MachineLearning/HW_B_tetris/Strategy/dqn_target_10000.pth (torch, 54623 bytes, 6 tensors)

lin1.weight f8 [64, 20]
-1.0293819872246153 0.380772858219683 -0.2797974573048365 1.013625879739273 -0.4279334274257368 0.7930847614945744 -1.420710778000351 -0.21889517344570156
0.6115869414215362 0.761903440112523 -0.16253677524657445 0.3723950083879713 -0.18288439148905664 0.10114945251945216 0.8665758217507342 0.7801403283686624
-0.6596466472685979 -0.10606313013737048 0.8655037182808488 -0.4615226992219102 0.20049776024183275 0.22064259099760258 0.5371369093051923 0.3793465758739401
0.9369181079373519 -0.12293252148964284 0.5024466825282197 -0.13974264325367483 0.3222531711914702 -0.9524092528657828 0.2365745830818207 -0.6974236995266343
0.9074824255120143 0.36722464819606887 -0.1407655208610281 1.2264513479998402 1.0776640621863953 0.981208617793881 -0.868426080130055 -1.3377854810385397
0.11625032968295804 0.12804332938428362 -0.4195353862432954 -0.7678724614613333 -1.0150516752197722 0.2713866323995618 0.7023285775730861 -0.50411655847092
-0.740462811896896 1.323500881145401 -0.1547470965489704 -0.09950391441379502 0.738803500794644 -0.14524187111004183 -0.37047223272714885 0.3787163298871825
-0.0196865314393941 1.3060610894997022 -0.07094115357717033 -0.4945302528150202 0.4264142493190139 0.06640493211034015 -1.1147812781479152 -1.0951180785294645
-0.7238999738427964 -1.3199359678853253 0.19750309927284337 0.9185581507171515 1.5292393839317056 -0.501008087600158 -0.17752997636464113 0.16361279564534312
-0.4097792560094953 0.6446008519988399 0.019990040119049573 -0.1270453618345066 0.595912854221819 -0.2257751005738015 -0.2851247826591963 -0.5131412288557309
-0.20161374840011295 -0.1414039264096007 0.10165747381244195 0.359121092242253 -0.18979741258061436 -0.5369337216040662 0.004974116558214874 0.0806238495451996
-0.13776831191877034 1.3952485189584296 -0.5365539129554331 0.7176103598847502 0.7900303629827699 0.18588585956936113 1.2463665265764199 -0.7813450775673195
-0.35549578298017154 0.03283973905826769 -0.5772428544307472 0.6152597818271085 0.4972553920296973 -0.3255794841657366 -0.3038238713834427 -0.3202704179889406
0.2470580009406859 -0.3886245028486613 -0.47717598705156394 -0.2748671447537173 1.6700009958636957 -0.2098579568993974 0.33163792548115023 1.2926719356215584
0.5365488939047722 0.7461906715563826 -0.3511701113251845 0.7323583353989175 0.3959665766829679 0.18106382510392202 -0.5263055303654243 -1.3366153508732086
0.15604116258550685 0.9158254539302649 0.007685635740724348 -0.262162574862919 0.7155018404163688 -0.45963252138037536 -0.025961627969904522 0.04139836531879824
-0.3371759025617091 0.051292498186078915 0.515914045153975 -0.9238046533133699 0.8757121013127529 -0.2015147809471528 0.060015610378665624 -0.1684978312174569
-0.04232224498975288 0.23905904331248343 -0.3872858703552889 -0.7106314972384437 -1.1621965788843924 -0.8222996690591234 -0.47999415472743817 -0.13166897964964766
0.4966847393255749 -0.35342982826176395 0.0205412292630002 -0.1343875885677605 0.764093638216423 -0.6454156663638166 1.0235194354636057 0.5288759760820602
0.32313402432347976 0.0778233837933911 1.3249924528234849 -1.005089437843762 0.5750055983504968 -0.7435798104473939 -0.6571381629785197 0.24760537688972262
-0.2803554329342805 0.12936084569048353 -0.4999659078726444 0.0969335508050103 0.7419453636624899 0.46390811468117765 1.3121927863852667 -0.7173423504982582
0.722064722261091 0.2528956862281024 -0.5741703850722859 0.4452716288368274 0.8029039025796049 -0.38306091509104095 0.21029500416857574 -0.3352827230838105
-0.4760803126117463 -0.4089919598893898 -0.12762546245076714 -0.012664293110869378 -0.6737291238267817 -0.4991770191376031 -1.2098046256609019 1.0482924555138486
0.35482017330945476 0.6722242772660636 -0.41368580769045743 -0.6783844368499795 0.9821881684114626 0.9801753039318543 -0.17142878327523522 0.37003788721731273
0.3718383509467721 -0.4778945656246237 0.6104251731174156 0.2856585495013001 0.16921598911898106 -0.33222173894195817 0.5075611643508792 -0.8765198884853714
0.14540026919594345 0.19261040557506148 -0.3354056870649021 0.3272395567629204 0.5109621050133063 0.6974667774410406 0.29192882651453667 0.5357437030767419
0.860504510037234 -2.170758198303516 1.2137277543399168 0.21975482603319785 0.44212518951594776 0.08004631310665986 0.8352539759948402 -1.5162714637521906
0.01098741864857164 0.18747382663984294 0.9612760569971425 -1.500187851768254 0.04916330996760181 -0.03183219741211262 0.1028000573531361 0.4670256017339257
-0.6768022461950816 -0.24332169381783805 0.603508153274565 -0.11305837194896219 -0.36549953200633434 0.3240216138447409 0.8387686886898131 -0.2985721625691883
0.6496822969254167 0.11215855798382662 -1.1613901991139721 0.37879467765049446 -0.6413797711721319 0.21410784336291191 -0.35348097388502514 1.1895644495044804
0.3245362439619057 0.3989811435288322 1.2043717973138013 -0.17819083919802486 -0.37611490608123005 -0.22934431531138325 -1.123391285634931 -0.3728726504013982
-0.7396160011164632 0.4896368704344178 -0.07332275691961726 -0.19941308137887687 0.3321499764616894 0.6438486462464745 1.133865790079036 -0.6385609299239744
00000000: 168a 233f 5978 f0bf cc82 501f 955e d83f
00000010: e834 2898 33e8 d1bf 21c0 3dc5 cf37 f03f
00000020: 9e28 eae2 4263 dbbf b067 324b f360 e93f
00000030: 2c61 8939 3bbb f6bf edcb 99cd c104 ccbf
00000040: 081e 02c7 1e92 e33f 23c8 bf52 8361 e83f
00000050: 5669 0a4b 01ce c4bf 3114 8edf 51d5 d73f
00000060: 5b7a 3278 c168 c7bf 6750 9436 eee4 b93f
00000070: 308f bd37 fdba eb3f 994a 94d9 e8f6 e83f
00000080: dde8 1d49 d31b e5bf a25b 400b f426 bbbf
00000090: 03a5 92da 34b2 eb3f 9143 e180 9689 ddbf
000000a0: 4878 941d e9a9 c93f 7e3e 3834 043e cc3f
000000b0: 1817 5ebe 3930 e13f 199a 4edc 3647 d83f
000000c0: 40e0 13af 3bfb ed3f 70af 6977 8178 bfbf
000000d0: 2028 ae10 0b14 e03f d1c8 5041 16e3 c1bf
000000e0: 872d d3c3 cb9f d43f 30ec 2ef8 227a eebf
000000f0: 515c b370 1348 ce3f de82 9d81 4b51 e6bf
00000100: 7b9a 6895 180a ed3f d561 92cf 9b80 d73f
00000110: 9f52 40c6 9a04 c2bf fbb5 dc72 8b9f f33f
00000120: 29a4 f2ab 1c3e f13f 744c 7f9d 0f66 ef3f
00000130: b0dd a47d 25ca ebbf 8bfc a1bf 9167 f5bf
00000140: b234 23e4 94c2 bd3f 0b96 164c b963 c03f
00000150: e97f dbf2 aad9 dabf dc36 af44 6992 e8bf
00000160: 5c1a 4dd3 a63d f0bf 8192 ae09 665e d13f
00000170: 921f f7c7 7979 e63f 4826 800c b921 e0bf
00000180: 350b 2011 dfb1 e7bf 67f2 8b42 0f2d f53f
00000190: 8a15 6abb c0ce c3bf 1032 3baa 1679 b9bf
000001a0: 71aa 423d 47a4 e73f 90b7 361f 4997 c2bf
000001b0: bde8 e82a d1b5 d7bf f4e6 d46a e33c d83f
000001c0: 35c4 d0c2 b428 94bf 6bab 1f50 a0e5 f43f
000001d0: 17f1 8d0e 3329 b2bf a947 ae37 62a6 dfbf
000001e0: 53e8 d7fd 5e4a db3f b0fe b4e3 e9ff b03f
000001f0: fc69 bde4 24d6 f1bf b6ad c888 9a85 f1bf
00000200: b35c 2747 302a e7bf f21a 6e2d 751e f5bf
00000210: fc24 1e14 c847 c93f afbd 1910 d464 ed3f
00000220: acde 5bb7 c377 f83f 19c6 e81c 4208 e0bf
00000230: 56dc 4561 4db9 c6bf 237f 409b 43f1 c43f
00000240: a8f5 c8c5 d239 dabf 4fe1 49f7 91a0 e43f
00000250: 3b6a 3ae2 4478 943f 4e06 18bd 0543 c0bf
00000260: 62c2 84d5 b711 e33f 6698 9bd0 32e6 ccbf
00000270: 0839 3304 7c3f d2bf 8844 8527 a76b e0bf
00000280: edb6 e6b3 7ace c9bf d644 ba1b 8619 c2bf
00000290: 381d 6b65 3906 ba3f 61fe 9e08 d7fb d63f
000002a0: 9917 f317 484b c8bf cc16 cda0 8f2e e1bf
000002b0: ecb9 1a3f bd5f 743f 7e02 13bd c3a3 b43f
000002c0: 23e1 0e5d 64a2 c1bf 9480 6b1c f052 f63f
000002d0: bce6 951c 732b e1bf b139 5f00 aaf6 e63f
000002e0: c874 7bc1 ed47 e93f 19d3 d19b 1bcb c73f
000002f0: f098 e706 1ef1 f33f df59 6164 c700 e9bf
00000300: 0d02 7162 71c0 d6bf d663 87ca 5ed0 a03f
00000310: e526 b401 c678 e2bf 95ba 2f48 35b0 e33f
00000320: cbbd a147 08d3 df3f 8762 2f55 4bd6 d4bf
00000330: f880 d5ad d971 d3bf 48e1 c87e 4f7f d4bf
00000340: 65b0 20b9 989f cf3f 4d31 8a4e 39df d8bf
00000350: d0ab b426 0d8a debf 4693 5d5d 6c97 d1bf
00000360: 215a d8f6 52b8 fa3f de19 d822 a0dc cabf
00000370: 4282 0347 8e39 d53f cc39 7fc4 c8ae f43f
00000380: c0d4 0096 682b e13f 3247 5d42 cbe0 e73f
00000390: b25b de33 9279 d6bf 23b9 6fbf 7a6f e73f
000003a0: 2565 4a32 8457 d93f 5fae a773 192d c73f
000003b0: 28f3 13b2 7ed7 e0bf db4f 35c7 c662 f5bf
000003c0: 9d39 1125 28f9 c33f e931 af2e 714e ed3f
000003d0: 8a6f 7c22 f97a 7f3f 6f5e 5189 45c7 d0bf
000003e0: 9d1d 9a1d 64e5 e63f 506e e085 9e6a ddbf
000003f0: 5d9e 535c af95 9abf eddf 4da2 2a32 a53f
00000400: df1d a03c 4a94 d5bf db8b 7aa4 0243 aa3f
00000410: ee77 ef2b 5e82 e03f 0ef4 bbc6 ce8f edbf
00000420: d830 7b62 d505 ec3f 6410 ea80 3ccb c9bf
00000430: 6cd5 a6b7 5dba ae3f dd50 4341 5691 c5bf
00000440: bda2 3fe4 42ab a5bf 7d8a 6b9a 7c99 ce3f
00000450: 453f d8ac 4ac9 d8bf 31b1 0444 7ebd e6bf
00000460: 074e 9d70 5b98 f2bf 9ddb 4365 4750 eabf
00000470: 2bd5 3467 39b8 debf 3518 bf74 87da c0bf
00000480: 1cd7 f4c9 aec9 df3f ca2b 7424 989e d6bf
00000490: e8ec 9d8f c208 953f ce83 f1cc 9c33 c1bf
000004a0: 0214 6780 7473 e83f fa79 6bc1 3ea7 e4bf
000004b0: 632f 62ea 5560 f03f 6b33 9d4f 8dec e03f
000004c0: 016e ac54 3aae d43f 34b5 41b8 3bec b33f
000004d0: d62d 4549 2b33 f53f f480 91a9 d814 f0bf
000004e0: 5dd5 fd23 7266 e23f 46cc fae2 67cb e7bf
000004f0: c347 de9c 4607 e5bf f00d 0772 88b1 cf3f
00000500: 9f5a ede9 57f1 d1bf cfcf cf6c e58e c03f
00000510: a463 db01 71ff dfbf 77b9 971e a3d0 b83f
00000520: d12c 0b34 04be e73f 34e6 39a9 abb0 dd3f
00000530: 3c26 f9dc bdfe f43f 0fa0 edf1 77f4 e6bf
00000540: 5c9d f679 271b e73f 1f8c 6963 712f d03f
00000550: 42f3 4692 9a5f e2bf 7736 ec92 547f dc3f
00000560: 2320 6d86 63b1 e93f 5547 aced 1184 d8bf
00000570: 9546 b55a f2ea ca3f 39c3 a3aa 4575 d5bf
00000580: 48f6 3b8f 1978 debf e351 039d ec2c dabf
00000590: 3174 aef9 0756 c0bf 09b7 e7a5 bcef 89bf
000005a0: 425c 2661 308f e5bf e116 072b 84f2 dfbf
000005b0: a435 5c18 5c5b f3bf 4f35 514f cec5 f03f
000005c0: 6dcf 14ac 5fb5 d63f 5aeb cd7c dc82 e53f
000005d0: 1b64 b609 d479 dabf 6f5a 4c47 53b5 e5bf
000005e0: 4a0d bbe1 156e ef3f 5b7e 5799 985d ef3f
000005f0: 774e e1dc 60f1 c5bf 5d46 f863 b3ae d73f
00000600: dac1 2d15 33cc d73f 01cf 9216 d395 debf
00000610: d738 665f 9a88 e33f 8e93 fbcb 3a48 d23f
00000620: e8f7 9c99 dea8 c53f 54a9 f1f7 1e43 d5bf
00000630: 256a 33e9 f03d e03f d7d2 ea6f 730c ecbf
00000640: a659 83dc 799c c23f 3837 6830 75a7 c83f
00000650: b983 356a 4977 d5bf 1a46 902e 7ef1 d43f
00000660: 05e1 5033 cd59 e03f 26fc e4d8 a551 e63f
00000670: 16ef a83e f6ae d23f d114 78fa cf24 e13f
00000680: 1d74 15c1 4089 eb3f 5ee6 6979 b65d 01c0
00000690: 0e33 32cb 6d6b f33f 50b2 7917 ed20 cc3f
000006a0: f15c 6d73 c74b dc3f f65e f548 ea7d b43f
000006b0: cf0e d88b 66ba ea3f 82c7 cadd a542 f8bf
000006c0: 70c7 1a5e 9280 863f ad15 2371 24ff c73f
000006d0: bd60 6701 c6c2 ee3f e637 13fa c400 f8bf
000006e0: f7aa f2f0 ee2b a93f cf8e b04d 4f4c a0bf
000006f0: 16d0 5bc4 1a51 ba3f 36e2 7559 bfe3 dd3f
00000700: 088d 282f 5da8 e5bf ab6e ad4e 2a25 cfbf
00000710: 26e0 a554 f04f e33f d14e 0fba 64f1 bcbf
00000720: a8e9 2a26 5864 d7bf 6742 aa26 c5bc d43f
00000730: 149c da6e 31d7 ea3f 1ec3 6e6a ce1b d3bf
00000740: e5b6 4287 32ca e43f 5cce 815a 6cb6 bc3f
00000750: 576e b1e3 0d95 f2bf 5818 1a08 2c3e d83f
00000760: 3602 b0de 2e86 e4bf 35c8 87c4 e267 cb3f
00000770: dd0a a6a9 6e9f d6bf 1fb2 71bb 7408 f33f
00000780: 4cb7 8baa 33c5 d43f 3c54 cb34 e888 d93f
00000790: 1200 9b5c 1b45 f33f 26b2 6619 f5ce c6bf
000007a0: 330c 4a41 4412 d8bf 7998 e48e 275b cdbf
000007b0: 629d 0624 69f9 f1bf 89ff c23f 25dd d7bf
000007c0: a097 0c2d efaa e7bf 8f9f 5be2 3556 df3f
000007d0: 5cb6 05bb 47c5 b2bf c25b 752b 5e86 c9bf
000007e0: be49 91f9 f141 d53f ba7a e679 689a e43f
000007f0: 2415 6774 5024 f23f b1db d054 176f e4bf

lin1.bias f8 [64]
0.12258565591053905 -0.1455108100834188 0.10076383552165252 -0.04228976047727445 0.17079843867379974 0.6788596324134759 0.49596441021696375 0.08344645784206807
0.701693738339459 0.694503011116153 0.0506297672490461 0.021800039644217 0.4722038604975776 -0.17058064387481578 0.22265235542816922 0.04999602982604205
-0.05170881636819865 0.2557823319550968 -0.07195929228708722 -0.32894763486212125 -0.40639751367058735 -0.02012907850386368 0.020826601709481078 0.7715784977035124
0.17989507018971143 0.6914336952330644 -0.3093410298677078 -0.2952275546013361 0.3704259475775215 -0.16703301360209602 0.4559159200927625 -0.4883994872401398
-0.14236086204571208 0.08325655015217238 0.2816135392218819 0.6116877625324101 -0.7265013573900749 0.5175719567976467 0.2685912321429831 0.024736761979771302
0.6197116659869403 0.1380696401413679 -0.22183740153510473 0.5597378450365418 -0.35076191561431647 -0.5253570475132118 -0.054458998326336654 -0.3408512811917987
0.3061335564868344 -0.013563631143187206 0.11715958573580706 0.7094735014743704 0.01030955522968406 -0.16965903992756495 0.12665628215363264 -0.07156150167594086
-0.10103279161675775 -0.0012060299536717318 -0.12004876276559856 0.1057010349328509 0.42498721285623936 0.07754121018570882 0.3026368517512407 -0.4860469473964317
00000000: 782f 1807 c661 bf3f 7fe9 4225 19a0 c2bf
00000010: 845d 2fa2 a8cb b93f 1840 69e4 00a7 a5bf
00000020: 18ea 2726 b9dc c53f 744b f9d5 37b9 e53f
00000030: 8727 7782 e1bd df3f d912 663f bf5c b53f
00000040: 0c3b 3f6d 4674 e63f f4f4 f660 5e39 e63f
00000050: 5fd6 1315 25ec a93f 6e2d 4be5 bf52 963f
00000060: 6173 788a 9638 de3f 3df0 6227 96d5 c5bf
00000070: 517e 7854 df7f cc3f e6bc 1062 1499 a93f
00000080: 9bbc 6ef6 9379 aabf 8a12 a9db bc5e d03f
00000090: 2a2f 0497 ec6b b2bf 3d14 7561 7a0d d5bf
000000a0: 4504 99b7 6a02 dabf fca7 7d97 b79c 94bf
000000b0: 2e89 ea94 9153 953f 63de bd63 c5b0 e83f
000000c0: 6d95 9639 cd06 c73f 341c 8c8e 3920 e63f
000000d0: d9ef a551 3ecc d3bf c002 f91c 02e5 d2bf
000000e0: 63db 9b08 0fb5 d73f 55fc 6279 5661 c5bf
000000f0: e88b a1f7 b92d dd3f ac17 45ec ef41 dfbf
00000100: dcbc 5b77 e138 c2bf 49d4 1420 4d50 b53f
00000110: 2867 44cb f405 d23f 6d15 ee36 f292 e33f
00000120: eaad 4fc6 7f3f e7bf 48b9 7810 f38f e03f
00000130: 24f9 8247 9930 d13f ac24 d9fe 9754 993f
00000140: 7ba2 4b8f add4 e33f 1824 7d16 44ac c13f
00000150: 06bb 4f00 2b65 ccbf ac7e 5857 5fe9 e13f
00000160: 34bb 0f1b e272 d6bf 095b 3995 b9cf e0bf
00000170: 87ae 91c1 0ce2 abbf b32e 61e4 81d0 d5bf
00000180: 806c 5433 b197 d33f 6164 66c1 3fc7 8bbf
00000190: 66f0 25ad 2bfe bd3f bfc0 c6c5 01b4 e63f
000001a0: 57e4 6114 2d1d 853f cdd5 fa2d 63b7 c5bf
000001b0: 0366 d7e6 4536 c03f 06cf 59c5 da51 b2bf
000001c0: 734b d1f7 48dd b9bf ac86 60cd 74c2 53bf
000001d0: ece5 0006 84bb bebf 72a0 3018 390f bb3f
000001e0: 25e3 1b91 fd32 db3f 7902 d7a1 bdd9 b33f
000001f0: af80 35f5 665e d33f 04da d8a7 641b dfbf

lin2.weight f8 [64, 64]
-0.14127050942180588 1.0292456181594622 0.07312232951520661 0.6685313768243885 0.588730810702393 1.895296695732507 0.04417173031584216 -0.29557600627053454
0.8741924015557634 -0.14588728494889538 0.2020676459189635 -0.2512258083042217 0.21447898680915647 -1.2376442565111305 0.14169767570903 0.36774729626010594
-0.27029642155581635 -0.0368487423500198 0.04099952419943339 1.030904723953919 0.012826650286514822 0.8963152675888332 -1.2040493316270369 -0.08857600483229135
-0.2944876170138741 -0.7232032801223702 -0.2776813856306189 0.8076117867194683 0.37685374909217795 0.5431018494132042 0.3814696743659885 0.6415674436626104
-0.07841065174093131 -0.48143939689630644 0.2976523638251287 -0.2872453423946166 0.32845364865189175 -0.4784750407604564 0.03361115406220243 -0.43003816524458033
-1.8808806695313522 -0.16987232160799623 -1.0660738266530598 0.06521339785200592 -0.7227194289107971 0.289438258962596 0.6613827979480528 -0.664430500976543
0.4893886633128076 1.1626915735030796 -0.27438137841280597 0.21361180381802056 0.22200269305708323 -0.14374280590915176 0.05938905188971334 0.7053812112649626
-0.6752740401369065 0.8062904716615216 -0.1971865333968131 0.45356235354255997 -0.27578863122211605 -0.7816666331191781 -0.25173240450918255 1.1051793543523614
1.2344601135696565 -0.05255795006282255 0.5682012910008916 1.2270671235385164 0.05940721820417026 -0.26278378061098234 -0.37141764365133434 0.35619024115865555
0.4330154762161877 0.42015015211838613 -0.8389095420979094 -0.5789341207002777 -1.497662859582519 -0.8746839085932809 0.027289341609005625 -0.6793948035569395
-0.019275689760048148 -0.04816023201513626 0.9912633057672414 -0.25220034799693614 1.4140888532286982 0.9927755851508814 -0.8997458120944356 1.4839607694976282
0.6930141213235954 1.7324929243007414 0.1148614389805401 0.7578302751736047 -0.10435774340689635 -0.5695486262461619 -0.19103194724597292 0.03959066105316033
0.059543244457132036 0.1802301191525383 -0.15618241031275087 -0.9730988290900752 -0.2096826339024156 -0.17596714096023675 0.3960709978132451 0.42783541409102105
0.6182688340660373 1.1699589641424621 -0.32418608638234686 0.21263677013360885 -0.8540230216665027 -0.021014289645200704 0.8451389310384774 0.38062148081893493
-0.2540707338425703 0.6546202572196061 0.1499589471981374 -0.35950684535705324 0.6186224933979106 -0.7039711689463967 0.5681619887716939 0.4589045453780365
1.2461844640991109 0.2748906500142001 -0.14185018175963346 1.2648333973430035 -0.6294718344479538 0.40755312353089523 0.41632064500620997 -0.8268684369306991
0.3783412622284645 0.6382829745075866 0.4595472451292054 0.3917694061974791 0.8749795092934154 -0.08223918778204699 0.007801750213920176 0.046570616446559965
0.057010213472918334 0.1938620895387952 0.38336526809595695 0.4869668632865219 0.6942963101430716 -0.7949246832676836 0.07967858213121409 -0.0650119273521408
1.2186783171645041 0.3367630805251252 2.0073290999517748 0.010163207354808142 0.5536193315059917 -0.06368271325943113 0.4651552594032842 -0.17804903555778256
-0.276958346964136 -0.5563439545909206 0.9820718109157143 -0.24776949682232172 -0.30762631136210555 -0.09511200175398912 0.6819894421184708 1.0375326080489173
-0.7294410346882879 -0.026874251341523714 0.7396932236769506 -0.3794909659608531 1.2959989518311823 -0.16801309971343625 0.20521797174332876 -0.05038792743214814
-1.089122585293912 -0.6502992940576836 -1.0254854620070624 0.033874803497053164 -0.3342028083694331 -0.32623993137550816 -0.5196620937256248 0.0002714851177928771
0.5081076143721933 0.1327079081133707 0.41633318557930676 -0.7100647727996818 -0.043286801935921645 -0.12387466293798494 -0.014459492480283744 -0.4309298101142317
0.15394046943986645 0.010336388941807837 -0.4261942309311931 0.13165108446457574 0.2514571032997707 0.1107632211916556 0.5219928431481449 1.211229020335044
1.300572315086595 -0.34693095592387097 0.9309048814915515 -0.658646571192107 0.3035118466799752 -0.1670728206138478 -0.18502837940450653 -0.1651499171982436
0.438456626618642 -0.19387504696198235 0.4146793158005404 -0.4269105327251673 -0.44417456391189114 -1.078830697565458 0.4450756699808795 -1.6835868899399127
0.020231909527064332 0.07443655387457546 -0.17915538934718153 -0.31076927120332476 -0.11162438138847716 -0.2737534406567572 2.308768188396104 -0.7991543035149302
-1.187261977063372 -1.0879154561287048 0.3287101676254299 0.4576141225094814 0.06145549221497536 -1.1057603534637166 0.8541222807081179 0.6781043136080521
-1.2432246280795276 -0.18796011006162533 1.157036676058068 -0.46836164825826226 -0.36257364926321173 -0.09709958671160455 -0.2804872143466298 0.008774660640128837
-0.5965449785516799 -0.7344220809947767 0.1466558777043711 -0.29270265057984846 0.09875764044000195 -0.7554756611715876 0.047810953170581295 -0.3722507521044605
1.6101103516323707 0.2324109654013491 -1.8424837416750017 -0.3333165389513458 0.28512492244814314 1.0951019964326485 0.4299772856570312 0.5336124569753088
0.7008603252563395 -0.009087784262875147 1.1472245982329483 0.21319074201106455 0.7778976842144174 0.38347315906689056 1.2183505265583607 -0.15423570514064563
00000000: a98e edec 2615 c2bf 36bd d840 ca77 f03f
00000010: b209 e01d 25b8 b23f 71f0 f9e9 9b64 e53f
00000020: b6a8 43ff e1d6 e23f 2b35 c6a0 2253 fe3f
00000030: 1982 3a52 ad9d a63f db82 1aa0 b7ea d2bf
00000040: 9eff e257 62f9 eb3f 95fd e03e 6fac c2bf
00000050: ab9c 6645 5add c93f a2fa a469 1514 d0bf
00000060: 3524 0325 0c74 cb3f bac2 5c10 64cd f3bf
00000070: a774 8b41 2623 c23f 024b a8f4 2b89 d73f
00000080: 44b7 b35c 894c d1bf 9389 959e d6dd a2bf
00000090: fb1e 2dbf e3fd a43f aac8 aaf3 957e f03f
000000a0: e983 fbdb db44 8a3f 8762 265b 9dae ec3f
000000b0: 92bd 613b c943 f3bf 290c f7c3 eaac b6bf
000000c0: 33b3 0997 e2d8 d2bf 4689 8f34 7b24 e7bf
000000d0: 4974 7f25 88c5 d1bf 3460 7aac f4d7 e93f
000000e0: 0c75 ee2f 5f1e d83f fb0e 3421 1761 e13f
000000f0: 0955 f4c7 ff69 d83f 0cb2 9672 b887 e43f
00000100: 00a6 e270 b812 b4bf 083d 2b30 e7cf debf
00000110: 742f 0d80 bc0c d33f 47d8 e049 3a62 d2bf
00000120: 4e8d cd73 6205 d53f e92d 01c7 559f debf
00000130: 66b9 f42e 7b35 a13f df77 f0cb be85 dbbf
00000140: 470d 3554 1618 febf e7a5 e650 60be c5bf
00000150: 1f8b c96d a30e f1bf 1c10 0943 d3b1 b03f
00000160: a761 eb7e 8420 e7bf 6227 1d0c 2886 d23f
00000170: 155d ea41 0c2a e53f be17 05c1 0343 e5bf
00000180: e68b fdd3 2452 df3f f57c b87a 629a f23f
00000190: 9085 bae9 768f d1bf 470f b8af a157 cb3f
000001a0: b5ec 2691 956a cc3f 6b21 350d 2a66 c2bf
000001b0: 02aa 36e7 3d68 ae3f 7511 339e 7b92 e63f
000001c0: cb39 c74d d89b e5bf d49a dbac 21cd e93f
000001d0: 7b51 1388 683d c9bf 995f ca64 2a07 dd3f
000001e0: 3449 ed5b 85a6 d1bf b1e1 33be 6903 e9bf
000001f0: e676 2d3b 621c d0bf 4c86 f28b d0ae f13f
00000200: 4df8 7f3f 59c0 f33f 9949 5429 e0e8 aabf
00000210: 149a 4c79 b42e e23f f983 d922 11a2 f33f
00000220: 5e9f aa76 9f6a ae3f 992d e90f 73d1 d0bf
00000230: 84f3 2882 4ec5 d7bf e191 3b27 d2cb d63f
00000240: 43aa 408b 86b6 db3f 5481 b076 bde3 da3f
00000250: 849c f3d2 58d8 eabf 5947 5ed9 a086 e2bf
00000260: c073 a554 6df6 f7bf eadb b71b 69fd ebbf
00000270: facf f5b6 bcf1 9b3f 482e cb2b 9abd e5bf
00000280: 884d 82a4 01bd 93bf 8910 f23a 75a8 a8bf
00000290: 45d8 ffd2 6db8 ef3f 3cf2 abed 0c24 d0bf
000002a0: 2116 24a2 1ba0 f63f 87b0 cf4d d1c4 ef3f
000002b0: f112 b5ba b7ca ecbf 01a1 d8a5 4dbe f73f
000002c0: 5808 58f3 2b2d e63f f8c4 2680 4ab8 fb3f
000002d0: f62f fe2b 8f67 bd3f 0d42 f946 2540 e83f
000002e0: c458 0467 30b7 babf 11b0 660a be39 e2bf
000002f0: bfd1 f41e bc73 c8bf 8f93 e624 3a45 a43f
00000300: 4640 48bf 737c ae3f bdd5 c1d1 c711 c73f
00000310: d679 4004 c9fd c3bf f1f7 d627 a023 efbf
00000320: b833 936b e1d6 cabf ae23 cc5d 1786 c6bf
00000330: 5d20 a02b 3a59 d93f 01dc e5c9 a761 db3f
00000340: c963 ceb8 dbc8 e33f 6c76 0ae4 26b8 f23f
00000350: 7325 b5ff 76bf d4bf 5551 d382 ae37 cb3f
00000360: ddd6 8216 2854 ebbf 6467 191b c584 95bf
00000370: 845f accc 600b eb3f 476f 1133 1a5c d83f
00000380: 305f 2ee5 b142 d0bf 89d5 812e a6f2 e43f
00000390: 1cb3 fad2 da31 c33f 7ec9 dfff 2802 d7bf
000003a0: 1bd9 3666 c1cb e33f 0974 7e8b ee86 e6bf
000003b0: 115a 130d 622e e23f 409a 982b b15e dd3f
000003c0: 696c e11e 5ff0 f33f 0461 f2f3 ce97 d13f
000003d0: 936d cb91 2528 c2bf dda0 c7f1 c13c f43f
000003e0: 77a0 d61d a224 e4bf 76a9 3cb2 5915 da3f
000003f0: 0fe2 bc58 ffa4 da3f a2c8 d6cb b475 eabf
00000400: 4fe9 ff44 be36 d83f 6651 a36a d06c e43f
00000410: 4eff 32d9 3869 dd3f bd41 ccfc bf12 d93f
00000420: 2abb 2207 d5ff eb3f f136 f99d a00d b5bf
00000430: 9858 5360 baf4 7f3f b860 2f95 1ad8 a73f
00000440: 6eee ce54 7130 ad3f be6d 4013 79d0 c83f
00000450: f83d 397a 0e89 d83f bd48 0310 772a df3f
00000460: ef88 39e5 ac37 e63f 1b5f ade3 0570 e9bf
00000470: 94f9 71c8 d065 b43f b1ce d325 9fa4 b0bf
00000480: c40d c9d5 b47f f33f 99c2 56bc 868d d53f
00000490: dfd0 248f 020f 0040 84e1 b099 72d0 843f
000004a0: 3f0d 68e3 3fb7 e13f c311 c5a2 824d b0bf
000004b0: a5c4 ac90 1ac5 dd3f ce0a 6790 4fca c6bf
000004c0: fe2b a480 afb9 d1bf 3473 49d6 91cd e1bf
000004d0: 8e9b c6dc 216d ef3f fb2c e62e e9b6 cfbf
000004e0: 6b1e ac44 26b0 d3bf f68f fd98 4259 b8bf
000004f0: 3bb7 c385 dbd2 e53f b3a8 c1ca bb99 f03f
00000500: 5517 8bb9 9457 e7bf d01e 777a ec84 9bbf
00000510: 777d 981f 91ab e73f de79 fb79 9449 d8bf
00000520: 4a3e 9c65 69bc f43f 4cce 4808 7481 c5bf
00000530: c332 981e 9544 ca3f 3f5c de48 72cc a9bf
00000540: d5c1 d2cd 0b6d f1bf 51de 1277 40cf e4bf
00000550: 2380 9d71 6368 f0bf 2d46 5bca 0958 a13f
00000560: 8165 0b2d 9463 d5bf cb0d fa72 1de1 d4bf
00000570: dfb7 3066 12a1 e0bf 2f0a c8b3 c3ca 313f
00000580: 0378 52e6 6a42 e03f 723d a29e 92fc c03f
00000590: 265e 13f2 33a5 da3f f6eb 26c2 d9b8 e6bf
000005a0: a690 530d b029 a6bf ac25 1ffa 3fb6 bfbf
000005b0: 2e7e 8e3a f09c 8dbf b2f9 53a0 5a94 dbbf
000005c0: ee36 e340 52b4 c33f 25dd b5a3 3e2b 853f
000005d0: 61f9 e52a c446 dbbf 880f 2157 f1d9 c03f
000005e0: ff3d c188 df17 d03f 8026 9e7c fa5a bc3f
000005f0: a627 c255 2ab4 e03f d3e1 64ae 3161 f33f
00000600: 3514 76ea 24cf f43f 4d6f 6ae5 1d34 d6bf
00000610: ce2c b608 f9c9 ed3f 7890 5cf9 a113 e5bf
00000620: 8e19 dcf3 bc6c d33f 3521 4b66 a462 c5bf
00000630: f3e6 2f8b 02af c7bf 31db a6ea a123 c5bf
00000640: c3a8 0262 ac0f dc3f a928 1bc5 e5d0 c8bf
00000650: f838 ec1c 1b8a da3f 8ed7 178e 8052 dbbf
00000660: 56dd 6d26 5b6d dcbf a16e 3ffa e342 f1bf
00000670: eb0a b4a9 1e7c dc3f ab42 84ce f8ef fabf
00000680: 217a 0477 acb7 943f 9eab 8424 460e b33f
00000690: 37fb 1255 90ee c6bf d8e1 1acc a4e3 d3bf
000006a0: feee 7f5b 6a93 bcbf ac72 b226 2d85 d1bf
000006b0: c7a6 b974 5b78 0240 b0bc c10b ac92 e9bf
000006c0: 0158 346a 06ff f2bf de2b 8e09 1a68 f1bf
000006d0: ee16 f45e 9609 d53f e46b 97be 8c49 dd3f
000006e0: 2e20 7222 1877 af3f e670 b5c4 31b1 f1bf
000006f0: 3ca4 cd3f f854 eb3f bb23 47d1 07b3 e53f
00000700: f0ee f281 3fe4 f3bf 2a68 d5ae 130f c8bf
00000710: 3812 bfe3 3883 f23f b512 7e22 a3f9 ddbf
00000720: 0585 7e1b 6834 d7bf 37a7 61bd 84db b8bf
00000730: 9a27 24a5 80f3 d1bf 65e1 dc03 73f8 813f
00000740: 9c1e af7e e516 e3bf 89a6 6abc 6280 e7bf
00000750: 56d3 40ab 9ec5 c23f 8859 ece5 a3bb d2bf
00000760: e380 eb43 2e48 b93f 82fd 344b db2c e8bf
00000770: 4537 8460 ad7a a83f cdcd 8cd1 f4d2 d7bf
00000780: bb64 7312 03c3 f93f e8b6 d07b a4bf cd3f
00000790: 577e 5e3b d07a fdbf a1c3 80e4 0e55 d5bf
000007a0: ac1d 4c9a 7c3f d23f 8a66 c7ab 8985 f13f
000007b0: fcdd fa72 bf84 db3f 1f4f 6e6e 5a13 e13f
000007c0: de46 01a2 726d e63f fc01 9ec1 9d9c 82bf
000007d0: 6d3c 292e 085b f23f efad 5f90 d549 cb3f
000007e0: ccb8 2aaf 89e4 e83f ad82 4501 d38a d83f
000007f0: e11e 2a1f 5d7e f33f 6b2f bade febd c3bf

lin2.bias f8 [64]
-0.303192640978072 0.054219195690133073 -0.5275037854265263 -0.1912662364555466 -0.2101616417443107 -0.5096332336222968 -0.06010538321474384 -0.30186711354114
-0.5796097623458073 0.2028131529990413 -0.14610956269693776 -0.20774055709342074 0.11012756297895562 -0.1158265513507427 -0.08387719996956913 -0.3211671204865049
-0.34716807364339103 -0.082799837612829 -0.3244734972017946 -0.19278597513595938 -0.13740945134468766 -0.1886900614045279 -0.2789551934031938 -0.24116762521147014
-0.018528177555322222 -0.32838252749087377 -0.26249402760768076 -0.31496388615764265 -0.4407720813209342 -0.12451915866139374 -0.14429917401228592 -0.38841045330866975
-0.367373267400884 -0.1341396925098289 0.3815833096756983 -0.10703965415148957 0.031025464141786023 0.7300432572947727 -0.4945439355170054 -0.1618389866299544
-0.20626205364576572 -0.46672288734042655 -0.11508255387894815 -0.41211895131235105 -0.11604701746360269 -0.13053848712351168 0.06786239932264543 -0.2646912257834313
-0.06541851765025986 0.3087878478828864 0.14156219775401843 0.010171366454936078 -0.4931209385018979 -0.20198205102019887 0.3973472399167924 0.12237570183277595
0.05943452553891992 -0.009346328005879295 0.07079367038460484 -0.1257551937934766 -0.2983130558270773 -0.3352671307592618 -0.25599247386595586 -0.4359280242061122
00000000: 47e0 581b 8267 d3bf 6aed 9b50 9ec2 ab3f
00000010: 4c8a 5d9e 4fe1 e0bf e7e9 337b 697b c8bf
00000020: 8b2e 15a1 93e6 cabf 8a99 eb5a ea4e e0bf
00000030: 2716 71fe 21c6 aebf 556a 1971 ca51 d3bf
00000040: 5ff6 b6c5 298c e2bf ee2d aa09 c8f5 c93f
00000050: 5846 b5d8 b7b3 c2bf a770 6219 3e97 cabf
00000060: d6fe 61e9 5131 bc3f e755 0f12 cfa6 bdbf
00000070: 82d5 bfe6 f978 b5bf db8f c289 008e d4bf
00000080: 33e0 a070 0038 d6bf 2445 a9c2 5e32 b5bf
00000090: 0fa1 b97c 2cc4 d4bf a30f 2bf9 35ad c8bf
000000a0: fde6 d705 a296 c1bf df05 68f5 fe26 c8bf
000000b0: 21d4 2de2 66da d1bf 6391 91ab 94de cebf
000000c0: e34c 9ef2 0cf9 92bf 03ac 0926 3804 d5bf
000000d0: 8f19 febf b3cc d0bf 0bf6 9d49 5e28 d4bf
000000e0: 55d9 901a 9c35 dcbf 4816 2dd2 7ce0 bfbf
000000f0: 8a7d 9c34 6578 c2bf 4aa8 9884 b7db d8bf
00000100: 5b55 3a2a 0b83 d7bf 536d 364c 7d2b c1bf
00000110: 8e6b f066 dc6b d83f 33af f465 f366 bbbf
00000120: 0e2a 54a7 23c5 9f3f 33e2 57ad 835c e73f
00000130: 50c3 5e9b 9ba6 dfbf 4b8f 65d1 23b7 c4bf
00000140: fe3c 6883 cb66 cabf 2cff 5aac c9de ddbf
00000150: bf0f 40dd 0c76 bdbf ffb1 7c2a 2860 dabf
00000160: a8f4 cde0 41b5 bdbf 5c4b 8832 7cb5 c0bf
00000170: dc06 b821 6e5f b13f 94ca 9177 b3f0 d0bf
00000180: 8854 dc99 44bf b0bf 42ca 031b 2ec3 d33f
00000190: cf08 dac8 b51e c23f 7195 3cb2 b9d4 843f
000001a0: a3a9 f51f 4b8f dfbf 8160 c13f 8cda c9bf
000001b0: a54d 261e 236e d93f cb62 3295 0354 bf3f
000001c0: bfc8 e2be 336e ae3f 36c8 fbe8 2a24 83bf
000001d0: 81d0 10b3 881f b23f 6e93 5206 bf18 c0bf
000001e0: cdd0 afa4 8f17 d3bf eb39 8244 0475 d5bf
000001f0: c9b0 d141 2e62 d0bf 6e02 d8a7 3ee6 dbbf

lin3.weight f8 [16, 64]
-0.624241054941334 0.011499937952648732 -0.30270964768143144 -0.12077312380308126 -3.8683568080427286 -0.043723087902051545 -3.2395494042280464 0.08307127643103705
-0.7971283781344282 2.480872672827002 0.03676316958656563 -0.04466373724634433 -1.4209879900295703 -0.43266155496066433 0.003589495572292438 -0.4416878374800439
0.35553420721521206 -1.592135769149423 -0.8670573276789848 -0.3563057936216819 -0.20301357658139235 -2.1452445445486896 -0.1427410586002872 0.2808442915297039
-0.6466202995519679 -0.1658119850658089 -0.27521750401156797 0.12014168216649339 -0.19411141615873925 -3.2739283840377214 -1.5412199843789707 0.08247133031425079
0.22126729096236528 0.3663817869125796 1.9194152069939676 -0.3208407870206143 0.09302600509015478 -0.6791521865943494 0.5514767157103776 0.2678628491908667
0.009616052101494386 -0.20244069222767203 0.05854089176113428 -0.30537079908154013 0.028519614961442306 -0.48114607760874134 -0.1879178392454682 -0.047198938374400486
-0.36872539749523403 -0.8859825587653272 0.24690825460485374 -0.714978024062805 -0.47117545964695706 0.35486557082515957 0.7248648410964718 2.573656609574114
0.06066918693652828 -1.1132754303120487 -0.11184714916954323 0.1319962625834621 -0.17859611555149915 -1.6652139920478322 0.6730461889449719 -2.302595151982591
0.5191921243335135 0.7975088331049978 -0.43448800885466304 -2.1126305506762173 -0.05090361213017854 -0.7983892732412886 0.14175108529557653 -0.5289177960140967
-0.054271219544215495 0.4272263708176267 0.5726624644317934 -0.1176865549683909 0.08166616580080975 0.3778782218207371 -0.005840144525531915 -0.6304602418127122
-0.7128094821493287 0.378620768825248 -0.013475138261303407 -0.635029804997913 -2.5528831715611675 -0.3455793275165737 -1.3358386930163395 -2.19331145715298
-0.36246323863097696 -2.0054485051526454 0.7674769237985201 -2.6852500080319834 -1.6307168399920349 0.38504596082035547 -0.32842150226970546 1.390670848555365
0.11424157041355525 -2.688323083168608 -0.648744882755625 -0.21096210531779686 0.5911897643901006 -0.2203534938083689 0.28247232520920185 0.8392490351203858
-0.6103628043492145 -0.15109622738046286 0.054837464270939454 0.19904070154106066 -1.2270152793589715 0.07338855502521227 -0.45894659633364243 0.14926609842959235
0.47613978723529615 -0.9635009826965807 0.08376169183546887 -3.671638515966024 -1.005331960684839 -1.5925230618824786 0.6322148352414825 -0.5209686598579129
-2.954059758673748 -2.0063418570870577 -2.0224859162698086 0.5314342031158519 -0.6100653853862587 0.7348691367737454 -3.474065918210093 0.7043345767578926
-1.6567625881570032 0.4232207113959944 -1.5150778154042264 -0.5570067377318141 -0.21619084172175942 -1.2878515003872613 0.5770058291115444 -0.34365223525572136
0.024670701806825127 0.9921688412227326 -0.5327620147492622 -0.5927492860502002 0.7983501463664511 -0.35388757160041173 -0.04220857674382663 0.3103788851545018
0.027009541319672474 -0.1832398999901618 0.05682375186964546 -0.9485662367981363 -1.3110372805397226 0.2671248355310666 -2.1022665302661436 -0.880690388889681
0.8501279799680643 -0.37984086573249215 -0.2972864125497986 -1.5349019662839658 -1.5278092844211337 -0.8903408803819576 0.36830546190039976 -1.1706833279417628
-1.3763199611178942 -0.9430390722406004 -0.09930830120760037 -0.6061649556002854 0.9226551515615121 1.4215815096880795 -1.034649275776566 0.8837071348608925
-0.3630198102731005 -0.9351939173433533 -0.10619653542927301 -0.5541229319389266 0.5471175734503143 -0.09983553351965227 -1.272168760339006 -0.254425217782046
-0.9951884884365897 1.0418965992538503 -1.2299161226604844 0.2410200554811714 0.924423658694865 -1.7899267914879564 -1.8105932794846864 0.816071162136149
-1.6613993318036653 -0.32593153374536443 -1.4178826969064444 -0.1003334076103994 -1.479490226095565 0.8168366279194729 1.0373642143953343 0.277926861708737
-0.2789725196142584 -1.6983134242558902 -0.35255283686915584 -0.4637007189467939 0.8783706478950807 0.7216982058748989 0.05294701854667038 0.4386232595861299
-0.036434749518022023 -0.664336059684466 -1.0755123891958904 -0.22379092943470907 -0.18539523932664756 -0.11596851576766773 -0.0735082432407607 -0.9298476306717832
0.8798174722058565 -0.20474484200965415 -0.18644274739621705 -0.5463603843256658 -2.34285899045411 0.2390841840875472 0.0859344343971222 -0.7155715592450144
1.0495108576017025 -0.30557675395859424 0.4190294487216103 -1.5913524069207858 -0.5542678222633993 -0.6598520917220746 -1.686375987738564 0.0102618127900973
-1.8284550001904663 0.32615696022520146 0.6570805380494485 -1.1049355241953671 -0.4508496219547517 1.515625888174195 -0.8497890369109143 0.4862884189590127
0.10024704212661889 -0.21201484172660218 0.10993487557449605 -0.23807804488100104 -3.3480203524075547 -0.026409018935581043 -1.6918173592254742 0.7248437201622401
0.22417569709974275 0.14293099885252936 2.1982291847576776 -0.19879338092923662 -0.3811298048655063 -2.3393789657414725 0.29873855239965874 -0.06945239195839933
-1.3944534175482821 -0.08875713254553738 0.4861465902873955 -0.8135054627985874 -1.4028189327499578 0.46850441704853363 1.9308634969158323 0.09238971147869826
00000000: ea64 7960 c8f9 e3bf 541e 4d8b 478d 873f
00000010: 736d 3e49 985f d3bf 7951 f8c8 fcea bebf
00000020: 756b de0d 65f2 0ec0 d927 3d61 df62 a6bf
00000030: 677c c7e0 98ea 09c0 9f1e 82bf 2844 b53f
00000040: e5a0 595f 1382 e9bf 1aa8 9ac5 d3d8 0340
00000050: eaa8 2446 9fd2 a23f 4293 9455 2ade a6bf
00000060: f3f8 12e7 5dbc f6bf 4db9 3217 bab0 dbbf
00000070: 8ac0 f2c2 b767 6d3f d822 4110 9d44 dcbf
00000080: d74f 268c 12c1 d63f 039e 345b 6379 f9bf
00000090: bc6d 4402 efbe ebbf aebf bed0 b6cd d6bf
000000a0: 32d1 0750 59fc c9bf 8212 c6f8 7529 01c0
000000b0: 1d09 3ec9 5645 c2bf 06db d855 5af9 d13f
000000c0: 722c f00d 1db1 e4bf 1a3d 92be 5339 c5bf
000000d0: 3e0d c1e0 299d d1bf c3a0 caf3 9ac1 be3f
000000e0: cb4c 1794 a4d8 c8bf ea1a 575d 0131 0ac0
000000f0: c696 4d49 d6a8 f8bf 8fac 8e52 d71c b53f
00000100: dbce 2d91 7c52 cc3f b8ee 2898 cc72 d73f
00000110: 20bf 57b8 ecb5 fe3f fd7d decb a788 d4bf
00000120: af2c 8a61 8dd0 b73f 73bf cd5d 9dbb e5bf
00000130: f368 4f7f b2a5 e13f 4ba4 4538 aa24 d13f
00000140: b224 57aa 94b1 833f 88ac 3f9c 93e9 c9bf
00000150: 9c7c 2f5f 12f9 ad3f bb59 cdf6 318b d3bf
00000160: 6633 37f6 3e34 9d3f fd67 fbea 18cb debf
00000170: 7b77 f216 b10d c8bf 21ac 7291 752a a8bf
00000180: 9895 dc68 3299 d7bf bc26 5718 f859 ecbf
00000190: f7f4 518f b09a cf3f 9cab d697 19e1 e6bf
000001a0: f821 771d bd27 debf 5ce8 4a15 1eb6 d63f
000001b0: 58f2 50c0 1732 e73f 5d0a ca46 d996 0440
000001c0: 77db 881b 0810 af3f d716 cae5 f9cf f1bf
000001d0: 7382 d5c7 03a2 bcbf d0be 7ee7 40e5 c03f
000001e0: ed3f becd 3cdc c6bf 21fe 4a6d b7a4 fabf
000001f0: 38ea 4629 9889 e53f 0a8c cd01 b76b 02c0
00000200: 774d 4bcd 389d e03f 76a0 8e3e 3185 e93f
00000210: 653c 22cb a6ce dbbf 857a 9dd8 aae6 00c0
00000220: 8bdc b1ca 0910 aabf a98d 41a9 678c e9bf
00000230: 4f2d c249 e624 c23f ece4 8403 e5ec e0bf
00000240: e9e5 1cf2 6fc9 abbf 64a1 a946 ad57 db3f
00000250: bd33 8c3b 4053 e23f 2aa5 c4c0 b420 bebf
00000260: 7fdf 4de7 12e8 b43f 05ce 2523 282f d83f
00000270: 606f dbdb d5eb 77bf 7771 00f5 ba2c e4bf
00000280: a285 c3d4 55cf e6bf 5636 ec9a 523b d83f
00000290: f889 2171 da98 8bbf ff70 8e06 2a52 e4bf
000002a0: 6ae9 2203 4e6c 04c0 f0de 76c1 f81d d6bf
000002b0: f5c8 b364 985f f5bf 3050 93e0 e68b 01c0
000002c0: cc06 fb02 9932 d7bf a68a fb95 280b 00c0
000002d0: 4bc7 04c4 2b8f e83f 1ba6 305b 647b 05c0
000002e0: 09d6 8c8a 6a17 fabf 6e8a 4bd0 97a4 d83f
000002f0: 004d e39e db04 d5bf d9bb 6013 3040 f63f
00000300: 3b18 c580 ef3e bd3f 1754 5a88 af81 05c0
00000310: 9a3f dca0 84c2 e4bf ea82 8467 ce00 cbbf
00000320: 3922 f9cb 06eb e23f 29af bb14 8b34 ccbf
00000330: 3c1c b3cd 0614 d23f e454 e1ca 20db ea3f
00000340: bbfd 6b93 1788 e3bf e2f3 9205 1f57 c3bf
00000350: 3a4c 47f7 a713 ac3f 578b d86b 2a7a c93f
00000360: 19a0 08c6 daa1 f3bf 52e6 bba3 97c9 b23f
00000370: b643 778b 615f ddbf ff0b 94c9 261b c33f
00000380: ecff 9f03 1379 de3f c70f 4b03 00d5 eebf
00000390: bf49 17ff 6771 b53f e176 a603 845f 0dc0
000003a0: 333d 4cf7 d615 f0bf 9493 4e76 f97a f9bf
000003b0: f00f 2d9b 1a3b e43f f694 8a77 c6ab e0bf
000003c0: 9a77 2f15 eaa1 07c0 4f47 a6f5 fc0c 00c0
000003d0: d1fe 9718 0d2e 00c0 0e78 4b4d 8201 e13f
000003e0: d1fa d4d7 a785 e3bf 3c0e a947 0c84 e73f
000003f0: 6de2 7612 e3ca 0bc0 b2bf 93aa e889 e63f
00000400: 2aee d57c 1982 fabf b2e1 9b52 0c16 db3f
00000410: 83e6 403c c23d f8bf 9bb6 46cb ffd2 e1bf
00000420: ade0 7139 24ac cbbf fc48 c42c 0a9b f4bf
00000430: 9755 b4ed d476 e23f 43b8 e7f1 65fe d5bf
00000440: 91fe b7c5 4643 993f e72d a5de d8bf ef3f
00000450: d8c5 bcec 620c e1bf c203 ca59 cdf7 e2bf
00000460: b4d2 2c9b 158c e93f 2004 9f0e 18a6 d6bf
00000470: 136d 73d1 5c9c a5bf b1e1 4666 3fdd d33f
00000480: 3e81 97a2 63a8 9b3f ddd8 e3b0 6774 c7bf
00000490: 1a11 d5b7 0018 ad3f c168 a494 a75a eebf
000004a0: 0314 3c3a 02fa f4bf 328a 23c4 9218 d13f
000004b0: 73bf 571d 71d1 00c0 b1d8 459c 9d2e ecbf
000004c0: 7e13 ec97 3f34 eb3f 2958 0010 504f d8bf
000004d0: 4294 dc96 bd06 d3bf 7617 3c5d f58e f8bf
000004e0: aad2 f125 e871 f8bf 0f09 7128 ac7d ecbf
000004f0: 9b39 7312 5192 d73f 8fb7 f770 1ebb f2bf
00000500: 6455 5d14 6805 f6bf 34f4 c346 602d eebf
00000510: 2070 e8d1 446c b9bf c51a 890c b465 e3bf
00000520: ed29 ae18 6486 ed3f 7656 cb40 ccbe f63f
00000530: a0a5 2466 ec8d f0bf 4805 6f2f 5447 ec3f
00000540: ee13 3b71 b73b d7bf f10c 4dcb 1bed edbf
00000550: fa02 9e36 b22f bbbf b985 d403 60bb e1bf
00000560: bb26 a1b6 fc81 e13f 0a14 724f d28e b9bf
00000570: dd61 4aa1 cd5a f4bf 3fb3 69b5 8048 d0bf
00000580: 411b 6687 95d8 efbf 13be b9c4 9bab f03f
00000590: 0366 3a87 bcad f3bf de61 fcc3 bed9 ce3f
000005a0: 91c7 b7ec e094 ed3f bccc 7a46 8aa3 fcbf
000005b0: e6e7 9ba8 30f8 fcbf d1ab 1245 411d ea3f
000005c0: 8216 3b77 1795 fabf 36f9 8aef 0fdc d4bf
000005d0: 7970 4cc4 a5af f6bf ed05 6240 73af b9bf
000005e0: 4550 7df1 fdab f7bf 8dd9 6291 8623 ea3f
000005f0: 2be6 ed37 0b99 f03f 1d03 6ebf 8dc9 d13f
00000600: 1a76 0e8e afda d1bf d296 78b2 4a2c fbbf
00000610: 56c3 1dc6 3990 d6bf d085 c0c7 45ad ddbf
00000620: f538 cfc2 9c1b ec3f ec10 fad5 2618 e73f
00000630: 6f45 2822 df1b ab3f 7cfd cb4a 6712 dc3f
00000640: ab57 3c53 93a7 a2bf c1be 3cb2 3d42 e5bf
00000650: 74a0 a07a 4c35 f1bf 6621 8861 2ea5 ccbf
00000660: 4ffb defc 07bb c7bf 9e79 96d6 1cb0 bdbf
00000670: 5b9a b4ac 6fd1 b2bf dbf2 7fd1 4fc1 edbf
00000680: 765a b2f8 7627 ec3f 2c63 3a38 1435 cabf
00000690: 7552 521f 5bdd c7bf 7b47 d0c5 c87b e1bf
000006a0: ad1e b9da 2cbe 02c0 45cc d27f 4f9a ce3f
000006b0: 5efd 5591 ccff b53f 47f6 9c53 f6e5 e6bf
000006c0: bd23 a3e5 cbca f03f 4be1 2acd 918e d3bf
000006d0: 927e 94e4 60d1 da3f a92b 02f1 2d76 f9bf
000006e0: 0b16 3bdf 8fbc e1bf 9397 4422 821d e5bf
000006f0: 9d8c 4163 65fb fabf ff2d a632 2504 853f
00000700: 6069 c007 5a41 fdbf bceb 6171 c1df d43f
00000710: bb55 b8c3 cd06 e53f 37b9 49df d0ad f1bf
00000720: 736a 6d5f b8da dcbf aedd 6aee 0040 f83f
00000730: cd03 41c7 7831 ebbf 758f f675 591f df3f
00000740: 345e 7447 caa9 b93f 62be bd65 4d23 cbbf
00000750: 2444 4827 b124 bc3f 246b 5464 5779 cebf
00000760: 7676 ffe4 bec8 0ac0 ca4f 9742 f70a 9bbf
00000770: 1edb 4a14 af11 fbbf 79d9 1975 eb31 e73f
00000780: 95fa cc0b cab1 cc3f 40ff d31e 904b c23f
00000790: fd2c cd2e f995 0140 b94c e0be 0f72 c9bf
000007a0: d067 db43 6e64 d8bf bc7a b651 0cb7 02c0
000007b0: 4219 274e 881e d33f ce1d 17c8 a1c7 b1bf
000007c0: 16a5 0263 ae4f f6bf bedf 9195 c9b8 b6bf
000007d0: 5e29 9696 061d df3f faca ba9b 3c08 eabf
000007e0: 5bee e543 f271 f6bf de51 50f3 f9fb dd3f
000007f0: fbb2 441f d1e4 fe3f d2b2 4925 daa6 b73f

lin3.bias f8 [16]
-0.016286414268708457 -0.08507185521813192 0.834585201849614 -0.06792280139084612 1.2390469267936624 0.67057637619779 0.28945049072765017 0.7967715902169902
-0.42187918426069965 -0.37158211047980033 0.8857961520934997 0.577066129398331 0.6363542535584678 -0.08467509920822355 -0.07335845876346994 0.2608803335216732
00000000: 3ce3 9cc2 62ad 90bf fbcf f8e3 44c7 b5bf
00000010: c86d 7506 ecb4 ea3f ed5a a082 6363 b1bf
00000020: 009c ccde 22d3 f33f a1ab a796 5c75 e53f
00000030: 5221 df59 5b86 d23f f5a4 4b22 277f e93f
00000040: bfd2 d08c 1100 dbbf 8d85 1255 00c8 d7bf
00000050: 5141 052c 7158 ec3f f4a4 2c63 5377 e23f
00000060: 1388 7698 035d e43f 3687 e26d 44ad b5bf
00000070: 5229 46b5 9ec7 b2bf 494a 296d 43b2 d03f
