LP4-MachineLearning/HW_B_tetris/Strategy/dqn_target_10000.pth (torch, 54623 bytes, 6 tensors)

lin1.weight f8 [64, 20]
000000 4f b1 a0 36 f9 fa ed 3f d5 a4 ad 67 41 f0 c1 3f
       0.9368864123294233 0.14014451563278976
000010 41 db 31 b0 58 fd df bf 7e 10 fa 7b 3c 9c c7 3f
       -0.4998380394603608 0.18445545247607592
000020 37 03 54 0b 50 65 ad bf d4 a4 04 22 be be ed 3f
       -0.057413579352220294 0.9295340217987822
000030 ab e3 4e a5 99 9e b3 3f 7c 9f 2f 00 b8 76 da 3f
       0.07663879667133126 0.4134960176293061
000040 d7 bb ad 45 0d fe d4 3f 56 78 1b 87 a7 df d2 3f
       0.32800609402232567 0.29490078157494304
000050 ac ed 5d 3c f5 00 e1 bf fb 53 96 6d c3 a1 f7 3f
       -0.5313669375458878 1.4769930153609028
000060 d9 f5 8b 12 e4 25 b2 bf 89 bf f6 5d ae f0 2e 3f
       -0.07089066937256606 0.00023605469230636122
000070 0b 5b ed 06 84 7e cf bf ed bd ae 2e 28 a2 da bf
       -0.24604845369568581 -0.4161472755322098
000080 cb c6 f8 12 ea 5b c6 bf a1 bd 0d 0c 64 d9 b7 bf
       -0.17468000341755494 -0.09316087049750489
000090 4d d6 fc b0 32 85 ed 3f 77 15 65 21 9e cd ec bf
       0.9225095230855885 -0.9000998165362678
0000a0 d2 50 c8 d0 a4 18 e1 3f 37 07 d0 30 7c a4 a0 bf
       0.5342582776816249 -0.03250492187363679
0000b0 fa 60 ed 5a 70 65 8d 3f 2a 3a 86 6c bc 89 c7 bf
       0.014353635573272506 -0.18389087008513744
0000c0 f3 0d de 0c e6 f0 f7 3f 7f 38 67 05 f5 74 ea bf
       1.4963131430275751 -0.8267769914180149
0000d0 04 92 47 19 69 42 b6 bf 63 5f 35 70 20 2a c5 bf
       -0.08695084445168538 -0.165348105229664
0000e0 f0 23 8a ec 76 38 b6 3f 05 17 5f 9b ed 6b f9 bf
       0.08679908060925334 -1.588849646491725
0000f0 7e 75 8f 02 b3 46 a6 3f bd b9 e1 67 3d 6a c9 bf
       0.04350814253096312 -0.19855468342161756
000100 af 6a 8a 0f d3 63 ef 3f b2 90 77 d1 99 20 cc bf
       0.9809356025246724 -0.21974489906199818
000110 10 16 24 4f c4 32 e0 bf 27 51 2c 1f 57 69 cc 3f
       -0.5061971231195361 0.22196473142742798
000120 b5 de 94 09 02 0f d8 3f ab 0e 60 aa 09 c2 d2 3f
       0.3759160131043971 0.293093124754004
000130 99 57 53 f9 68 36 ca bf 9c 49 af 76 a0 9e f0 bf
       -0.20478546308612236 -1.0387272487756496
000140 2e f6 18 31 a7 93 b9 3f 73 73 32 c2 9b 5b f1 bf
       0.09990925739926901 -1.0848653398345192
000150 6f c4 b2 81 f5 7f dd bf 9a 19 49 8b 54 0e ca bf
       -0.4609349981865937 -0.20356232453395934
000160 93 0e b2 ad 1b 5b ea bf 59 e2 92 1d a1 28 f3 3f
       -0.823621596573917 1.197419276735806
000170 45 a1 c0 73 a3 ba be 3f cb 5b fd c1 96 b5 c5 bf
       0.12003537727344334 -0.16960415336754261
000180 fe fe f3 d7 8c 36 f0 bf 7f da 73 6e f4 a3 e7 3f
       -1.013317912642321 0.7387640149380131
000190 e0 a1 5d f5 11 2f a1 3f f6 eb 92 76 a4 cc d0 3f
       0.03356224174678224 0.2624903829525346
0001a0 aa 92 d6 04 e0 3b d7 3f e0 31 cd 84 d4 91 eb 3f
       0.36302948448637073 0.8615515321521876
0001b0 cb ce ef ae 2c d7 e4 bf bd fd b8 1f 93 d4 dd bf
       -0.6512664238675482 -0.4660995302001217
0001c0 51 ad 7a 54 bb 1d e2 bf ac e0 2d 4d 02 27 d6 3f
       -0.5661293649658693 0.3461309198096483
0001d0 d0 61 41 23 35 3f e4 3f 1d 64 5a 1e 20 a4 bc 3f
       0.6327157677251822 0.11187935582201232
0001e0 9c 05 83 15 1d 77 de 3f f0 a3 65 db f3 24 d8 3f
       0.47602011776697295 0.37725540566913107
0001f0 9b 3e 11 e0 c7 70 c0 bf cd 43 c6 38 56 b3 e0 bf
       -0.12844179573811662 -0.5218916996838004
000200 13 d9 37 62 ef f0 ac 3f e3 af fc 8d c0 7b e2 3f
       0.056525688876648904 0.5776064656433814
000210 e4 bf 75 e1 96 d9 bd 3f 28 3c 0b 0e 25 cd de bf
       0.11660140041726624 -0.48127104159806544
000220 33 e6 fd b1 2e e3 c1 bf ff 7c ea 11 12 eb c5 bf
       -0.13974555674558217 -0.17123628496936047
000230 81 ba cd 62 c2 5b f1 3f 65 71 e2 a2 4a df a0 3f
       1.0849021777645762 0.032953579314581906
000240 b7 ed bd 66 1c a6 ee bf 4c 58 ac c8 62 3b e1 bf
       -0.9577772146871472 -0.538499252262008
000250 b4 4e d6 0e 8a 47 dd bf fd 3a be e6 a1 88 e9 bf
       -0.45749141167582796 -0.7979287630749635
000260 2a 0e 9d cf 06 e7 f7 3f c1 24 b5 60 16 96 e2 3f
       1.493902979841446 0.5808212174244077
000270 ed 58 7c 88 b1 94 f7 bf 77 eb c0 15 c9 05 e5 bf
       -1.4738021213029768 -0.6569562363505231
000280 4b 18 0a 8e 72 94 ea bf 79 d4 8e 5b 7a 60 e0 3f
       -0.8306210302550964 0.5117770946732342
000290 27 a0 48 08 36 79 c9 3f 1a 6a fe 9a ec 91 b8 3f
       0.19901156811215623 0.09597662719753722
0002a0 c2 d5 b9 d9 f2 ce e0 bf 7c 0d 7a fe 97 8d d1 bf
       -0.5252622845134101 -0.2742671952366533
0002b0 74 6b bb 15 a7 4c d8 bf 90 04 cc 09 20 5c c5 3f
       -0.37967850801731307 0.16687393644682347
0002c0 ba fa b6 e1 82 e2 f1 3f 2e 31 76 ec a4 8d d9 3f
       1.1178005997641507 0.39927027790033065
0002d0 ca a2 57 05 28 23 e7 bf b2 9c 10 8c 35 95 c2 bf
       -0.7230415443746889 -0.14517850245576863
0002e0 88 0a 6b 23 b8 db eb 3f 45 68 71 1d cd 88 86 3f
       0.8705712024460164 0.01100311513998887
0002f0 41 c0 e2 4b d1 5d f0 3f 30 dc 46 7a ed f8 da bf
       1.0229046787535625 -0.42144333783238874
000300 f4 2a 68 e5 a7 d2 dc bf bf 35 9f 24 39 be e4 bf
       -0.45035741236703974 -0.6482206073066478
000310 47 20 77 fe 80 d8 c6 3f 41 98 6c 0f 36 83 d5 3f
       0.17848217415871856 0.3361334944369255
000320 01 0c 85 49 b7 20 c0 bf ad 4f 2b 1c 70 b0 d0 bf
       -0.12599841203527265 -0.2607689166154568
000330 e4 27 6b 73 e8 56 be bf 00 43 49 22 ce 0f e3 3f
       -0.11851361100994456 0.5956793470050741
000340 f1 b3 29 50 c0 a0 d2 bf 20 7a 25 40 3a 06 c5 3f
       -0.2910614760247077 0.1642525494780367
000350 f1 02 09 a0 44 48 e4 bf 5d aa af 82 37 43 80 bf
       -0.6338217855155489 -0.00794070594380008
000360 39 a3 0d 9e c3 a2 f9 3f 28 50 6f 32 d6 7b e2 bf
       1.6022373365360194 -0.5776167855315224
000370 9e e1 35 48 6b 5c e8 bf 6c 4e 9a d1 f8 79 e5 3f
       -0.7612816248284167 0.6711391538432969
000380 af ce 30 65 ab bd d7 3f 0e f6 45 a3 cc c0 b8 3f
       0.37095150834941654 0.09669188486255839
000390 b3 a0 7b 5a 14 f3 cd bf 5b 3c 0d fe 3d e1 e3 3f
       -0.2339806978045594 0.6212453805873211
0003a0 f2 30 e3 28 58 bd ce 3f e9 93 73 1d a9 32 9b 3f
       0.24015333172281533 0.02656044237382452
0003b0 f4 c6 d1 08 00 f6 cb 3f 2f 92 cb 11 e3 f7 f0 bf
       0.21844482832562273 -1.0605192847371077
0003c0 94 d8 27 7f c3 c8 d4 bf 0f 08 7b 59 7a 83 ba bf
       -0.3247536412958507 -0.10356869396767386
0003d0 1c 54 e4 31 97 30 f5 3f f3 22 93 59 52 5c b0 bf
       1.3243629406836197 -0.06390871703036875
0003e0 11 9a 4d d3 9c c2 e1 bf 46 c3 c4 67 ad 81 e3 3f
       -0.5550064208044337 0.6095797564249572
0003f0 f0 d4 0d 02 a5 47 ec bf 0c 59 a5 ca 3b 40 f8 bf
       -0.8837456741445333 -1.515682021699436
000400 9f 44 f0 fa 2f e6 d1 3f 02 6d 5c c0 9e 3b e8 bf
       0.2796745253154515 -0.757277847008851
000410 25 0b 82 d0 70 4c d8 3f 96 30 bc 7c cb 00 8d 3f
       0.3796655689440505 0.014161672348130854
000420 57 be ed 48 8c 1b f1 3f 42 16 de cd 44 dd e3 bf
       1.0692255829598218 -0.6207603474474086
000430 0d d5 52 09 b7 bd a2 bf ee b3 91 03 5a 2c e1 3f
       -0.03660366047680883 0.5366640157423015
000440 e4 73 04 d5 df b2 e1 3f 67 80 6c 16 cb d8 d2 3f
       0.5530852470870937 0.2944820136053807
000450 74 90 82 90 3e d5 dd 3f 9a 2e f3 ad ca 23 e3 bf
       0.4661404048185951 -0.59811910605045
000460 dc b0 64 cf 21 13 b2 bf 30 d7 ea 94 63 d2 ca 3f
       -0.07060443223298613 0.20954556247095857
000470 c7 9e a2 d2 5b 08 e9 3f a7 4c 7a 62 58 e9 d0 bf
       0.7822703470200957 -0.26424226395574596
000480 1c 1b f2 d9 92 29 e7 3f b6 95 9e e4 c2 76 c9 bf
       0.7238249069931473 -0.19893680728016044
000490 d0 11 ab f9 ad 91 f0 bf 4d f3 be 5c ce 3a c6 3f
       -1.0355663063684126 0.17366961983307264
0004a0 f2 23 39 66 d0 9d e2 3f ea df f1 0b 8f c8 e0 bf
       0.5817644115969627 -0.5244822724625895
0004b0 7f 0d 4a fd 2f 0a b4 3f d1 47 12 32 b7 e6 ca 3f
       0.07828044828243284 0.21016588158505425
0004c0 c0 e7 44 1e e1 8e d9 bf ad f9 f2 b4 36 e6 f0 3f
       -0.399345664558151 1.0562045162510956
0004d0 81 90 08 2b 81 ac ec 3f 8e d9 fb d0 81 b3 e8 bf
       0.8960576858994643 -0.7719124871935479
0004e0 1e b2 27 b4 e4 95 e8 3f 8f 56 6f 33 c9 7e b9 bf
       0.7682975309995219 -0.09959084993109911
0004f0 b6 7a 05 09 6a 6b e8 bf 74 9f f2 2a 92 00 d1 3f
       -0.7631120849799433 0.2656598491107538
000500 ad ca dd 20 01 6c d2 bf 89 e3 c5 00 2f 84 d3 bf
       -0.287842065902775 -0.30494284701813307
000510 89 68 02 03 c6 01 dd 3f d2 a3 4e 6c 4c b7 d1 3f
       0.4532332448376413 0.27681265427469015
000520 4a 64 f3 7a 70 ad ee bf 37 8b bb 22 f1 b1 ea bf
       -0.958671798837835 -0.8342214277621228
000530 9a bb b3 49 d5 c8 f0 3f b1 3f 91 7c b6 ba f3 3f
       1.049031532191043 1.233084189025231
000540 7b d1 21 24 ed 49 de bf fc 78 05 15 34 b0 f4 bf
       -0.47326210526013995 -1.2930184193751861
000550 06 3f 21 e8 74 02 b8 bf 0c 11 0e 19 cc 4b cf 3f
       -0.0937874857638655 0.24450064872156252
000560 fd 60 ec a7 98 27 e4 3f 32 22 f7 26 b6 b8 d1 bf
       0.6298335342171694 -0.27689889722072103
000570 a5 5d b6 76 a5 e0 bb 3f e5 72 61 85 5e 19 b6 bf
       0.10889658115626462 -0.08632460361827617
000580 9d 19 51 3a bb 65 e4 3f 5a 5b a8 5e e5 e7 f3 3f
       0.6374183787345832 1.2441152284206596
000590 e0 d9 cd 25 b8 ef e7 3f ba 6d a0 0f 91 91 aa 3f
       0.7480126131402436 0.05189183536296178
0005a0 0d cc 99 ea 02 f3 d9 bf 3e 09 6c f8 2d 50 cc bf
       -0.40545723829490116 -0.22119688634854556
0005b0 e3 49 c4 29 d6 11 d2 bf e0 6c ab ed 74 c0 e9 3f
       -0.28233865813049713 0.8047432558045351
0005c0 bf 9c ee 38 fb 88 e4 3f 59 4d 98 0a 23 5d db 3f
       0.6417213546709702 0.42755962404881626
0005d0 eb e9 2b 6f 52 00 e8 bf c8 5e 4b f9 2c a9 e4 bf
       -0.7500393077200987 -0.6456513279944938
0005e0 42 0e cc 48 b1 d5 b4 3f 4f 22 44 32 e4 8b c3 3f
       0.08138568904183166 0.152706646484392
0005f0 53 10 e5 be 9c ac e2 3f 60 b2 a2 d7 14 2f b4 bf
       0.5835708359159163 -0.07884340538539325
000600 7d d0 b7 2c 78 a2 a9 3f 76 d9 0b ec a2 54 c4 3f
       0.0500676683986123 0.15883289838502507
000610 f2 6f 21 90 d2 b3 e5 3f 53 24 6f 80 1b a2 ca bf
       0.6782009902049124 -0.20807212611387857
000620 15 d1 e6 5d f4 59 cd bf d7 ea 83 65 d3 a1 d7 3f
       -0.2293076952461283 0.36925206101993296
000630 a4 1d bc 2e 0e c9 ab 3f f6 6d 9d 3d 37 24 e1 bf
       0.054268305973944636 -0.5356708720605059
000640 e4 65 e9 43 81 4a ed 3f bf 1f 24 4f 42 cd d2 3f
       0.9153448416138272 0.2937780163633725
000650 f0 fd e9 e7 9b ea 93 bf b5 14 b9 0f 72 a6 d3 bf
       -0.019449649839314576 -0.30703403029867654
000660 e9 57 f2 af 23 77 76 3f 54 5f 59 bd 6e cd de 3f
       0.005484713939173582 0.4812886094200526
000670 81 a1 e3 c1 b5 65 f5 3f 41 fd d8 ff a6 57 d9 bf
       1.3373315404697623 -0.39597487435453976
000680 2c aa 32 1c 33 cf e0 bf 20 55 31 7f b9 ab 70 3f
       -0.525292925905267 0.004070019337708147
000690 bb 87 50 fc a0 e1 f4 3f e8 1f 63 d8 6d f5 cb bf
       1.3050851684606488 -0.21842740121633075
0006a0 76 ed e5 1a b6 07 e0 bf 9e a9 75 e4 46 20 d3 bf
       -0.5009413266520102 -0.29884502707013805
0006b0 07 1c 69 f0 dc 61 e6 3f c3 69 ed f0 e2 94 b4 3f
       0.6994461722869126 0.0803968275262497
0006c0 a7 9d ee cb 9d 44 d7 3f e8 c5 5a 26 4a 7b e2 bf
       0.3635630122684809 -0.5775500058281837
0006d0 12 a9 1a 91 c2 0f e2 3f f5 1b 22 85 70 8b e8 bf
       0.5644238313737182 -0.7670214271792007
0006e0 ba 53 a6 74 0d 49 d0 3f 35 6d 2d 7a f1 ae d4 3f
       0.2544587744862913 0.32317768985167855
0006f0 9b ea b5 2e c2 50 d4 bf d1 23 b1 37 83 69 d9 bf
       -0.31742910920699224 -0.39706497610728514
000700 05 5a 09 f6 f4 48 be bf ff 72 38 cf 5e 19 e7 bf
       -0.1183007336306688 -0.721846966483639
000710 6f f5 91 40 64 1e ff bf 12 b9 be 52 ab 65 f6 3f
       -1.9449198267241987 1.3998215896822939
000720 64 6e 31 87 c0 f7 bb bf a7 44 f0 98 90 9b e4 bf
       -0.1092491464673287 -0.643989847858525
000730 9d 03 c2 8c 3f ab e4 3f 0e bf a0 f9 7d f8 af 3f
       0.6459043263604262 0.062442719194562554
000740 82 9c c8 d1 40 5a d5 3f 50 3e e6 12 78 f6 b6 bf
       0.33363361822780047 -0.08969831906710479
000750 3d fc f9 4b 22 86 e4 bf 48 76 51 55 c0 27 ea 3f
       -0.6413737758556476 0.817352453839427
000760 34 3c f2 03 2b 81 ea bf cc 4d 93 2f da 90 d5 bf
       -0.828267581660731 -0.3369660820582936
000770 56 a1 f9 82 46 c0 bf 3f 30 62 d3 7f 6e 51 f0 3f
       0.12402764032015531 1.019880770987708
000780 52 f1 47 59 24 1e ec 3f ab 9c 4d 97 3d e2 da bf
       0.8786794418115653 -0.4200586297578847
000790 ea e0 1e 04 13 a0 ea 3f 39 4b 4c 16 30 fd 5d 3f
       0.8320403175812576 0.0018303842163660113
0007a0 ef 8b 01 37 d4 ab e9 bf 61 64 b3 17 0f b7 e5 bf
       -0.8022252153717754 -0.6785960638909608
0007b0 16 bc 1f 6b b1 6a d8 bf 9e 17 2a 21 ab b4 e0 3f
       -0.38151202641796667 0.5220542571776041
0007c0 52 70 65 56 f2 9f e7 3f b4 a3 4e d1 f4 56 c7 3f
       0.738274735205332 0.1823411962516538
0007d0 49 25 2b 9d 4a b1 d2 bf 57 34 c0 f8 36 eb d9 3f
       -0.2920710120057107 0.4049813679892557
0007e0 7f 8b ef 37 a8 36 e1 3f 39 b0 f5 04 c1 8e e6 3f
       0.5379220097059799 0.704926023184732
0007f0 35 6f 77 13 5e 52 e0 3f 44 de 7a d6 d2 5a bb bf
       0.5100546245771286 -0.10685460792853357

lin1.bias f8 [64]
000000 f9 36 a9 05 99 69 ae 3f 7e 6c 93 e4 52 a3 a8 3f
       0.05939939684013313 0.0481210617087635
000010 89 6c f4 d7 da 2f c8 3f c0 b6 54 3c eb ed cf bf
       0.18896041435877844 -0.2494482082924403
000020 3b 7e 1d 89 9a 98 d4 3f 88 65 80 bb ad 71 d4 3f
       0.3218141879096696 0.31943839369486016
000030 05 7e 5c e9 c9 3d d1 bf aa 82 ab d7 9c 26 d1 bf
       -0.2693962840002942 -0.2679817300941446
000040 0d a2 ea 31 f7 fa f0 bf 43 35 da cb 5a 0c e3 3f
       -1.0612708997597367 0.5952581387988761
000050 58 c4 fd de 7d 70 b5 3f f2 ab e2 ce 6f 2b cf 3f
       0.08374773687479953 0.24351308442905367
000060 58 d3 ed c4 57 f4 e1 3f bb 2c b8 80 47 ea e4 bf
       0.5610770078916216 -0.653598548321859
000070 10 7b 4e f7 fc c2 a8 bf 83 ac d4 75 62 5d c7 bf
       -0.04836264151457759 -0.18253737214522311
000080 d9 b1 5f 05 2e ef d5 bf 3a 67 78 73 ce 6f c4 bf
       -0.3427233746031369 -0.1596620620555827
000090 32 c4 50 39 77 ea c6 3f 50 3e ae b1 55 79 d2 bf
       0.17903032587631312 -0.28865568496346317
0000a0 c9 fc 8c 26 09 8a d2 bf fd 7a 67 92 60 7a ae 3f
       -0.2896750332328791 0.059527414199456154
0000b0 f4 df 3b 0d b1 48 c2 3f 34 51 b9 c5 23 6f b4 3f
       0.14284337183175888 0.07982085778468645
0000c0 48 b7 11 a1 3d dd 92 3f 5f 70 e5 bc 76 f3 a3 bf
       0.018422091441997496 -0.038966856535552756
0000d0 b1 67 2c 48 34 fc b6 bf 87 34 f6 0b 54 d5 98 3f
       -0.08978583108947082 0.024251282911383256
0000e0 97 ce a4 ca 5a f3 dc bf 72 6e b0 de 19 8b e0 bf
       -0.45235318936759356 -0.5169801091573858
0000f0 fc 85 7b 26 bc 21 dd 3f a5 13 9b c3 22 8f d1 3f
       0.45518401868875435 0.2743613157475074
000100 45 ab 76 96 e2 f2 b0 bf 19 7c 5f af 86 2b d3 bf
       -0.06620613263536963 -0.2995316231371717
000110 56 db e5 1e a2 ae c3 3f 3c bf 97 64 a9 d4 e0 3f
       0.1537668848866029 0.5259596790983561
000120 ce 94 3e 57 9e 5f b6 bf 4b cd b3 5a 72 cb ca bf
       -0.08739652280799534 -0.20933370045495744
000130 7e 81 f6 2e db 60 ba 3f 22 f9 ba 29 9f ad a0 bf
       0.10304040810161116 -0.032574628681219644
000140 f9 66 8e 89 48 1f cd 3f f5 d3 d3 e7 29 90 d2 bf
       0.22751719204534718 -0.2900490535678835
000150 e9 ca 25 8a c5 6f db bf f3 2f 2b 56 51 a6 e5 3f
       -0.42869699946383705 0.6765524561865263
000160 eb 39 08 92 c4 c0 ba 3f 91 46 3d 39 5d b9 b7 3f
       0.10450390401113167 0.09267218253560318
000170 a4 5a dd 19 b6 41 dd bf 42 c8 b6 4c 22 83 d2 bf
       -0.45713570142599225 -0.2892537831459131
000180 17 63 54 a7 7b 2d e1 3f 97 5e 8f f7 a2 17 d9 3f
       0.5368021267086956 0.39206766296181556
000190 7b 5f 87 19 f4 e9 d1 3f 91 32 44 cb a2 05 db 3f
       0.27990438931509914 0.42221898889764825
0001a0 31 fa 51 d7 02 f5 e0 3f 70 60 ea ec 21 27 c1 bf
       0.5299085813019869 -0.13400672977582273
0001b0 69 f4 a6 08 49 88 d3 3f 31 2f 50 e9 c2 6a b3 bf
       0.30519319386423277 -0.07584779926417863
0001c0 57 d2 ad 5c ef 10 ba bf 3b c0 79 3a 2c 60 f1 bf
       -0.1018209077136104 -1.085979679508468
0001d0 9b 10 bf 91 1b 51 de 3f 37 27 7a 28 0f 84 d5 3f
       0.473700420694749 0.3361852546009802
0001e0 1d 10 74 fd e2 9e e0 3f e7 d6 94 b2 24 eb e4 bf
       0.5193953466664457 -0.6537040222089815
0001f0 5b 78 3b 9e 59 a4 cf bf 12 06 99 31 40 ea c4 3f
       -0.24720306612192897 0.16339876577153284

lin2.weight f8 [64, 64]
000000 42 ed 2f 13 eb 97 e0 bf 08 b1 01 cd 68 24 f6 3f
       -0.5185447096586489 1.3838890083380324
000010 3c cc 2d cf 3c d9 de bf 63 bd 8c 8f 65 92 d5 bf
       -0.48200912697138043 -0.3370603467801258
000020 72 3f 9e b5 4e f1 e0 3f e5 a1 34 da 7d 0f 82 bf
       0.5294564769010164 -0.008818610402685454
000030 62 bb 1e fd 21 30 d6 3f 7d 1c 7f 6e 3e 0a bf bf
       0.34668779104952396 -0.12125005910557891
000040 7f 82 d9 37 50 d1 f3 bf 70 ee 3c 38 96 12 db bf
       -1.2386018926264624 -0.42300944797509654
000050 fa eb 25 f6 06 4f d4 bf c3 a4 dd d5 a2 3d c0 3f
       -0.3173234370985366 0.12688098375955378
000060 39 db 62 bd 87 3d c3 bf a4 fa 09 22 e0 6c e7 bf
       -0.1503152537095163 -0.7320404686759798
000070 09 c3 c6 50 b7 b7 e4 3f 0c 8e 18 31 84 e2 a1 3f
       0.647426278845246 0.03493130778613471
000080 56 5d 29 9c f6 75 c2 3f 14 de 13 d8 2f d8 cf 3f
       0.14422495484425707 0.2487850003305857
000090 44 51 18 7d 3c b9 d6 bf 15 53 c3 78 a9 18 f1 3f
       -0.35505592552478427 1.0685209958366546
0000a0 ff ed 7e bc 65 79 43 3f fa 19 2f 59 a2 6f e0 3f
       0.00059430568307256 0.5136272184252555
0000b0 1a 75 6c 4f 85 7a d2 3f 9b a6 2c ec fb 48 dc bf
       0.2887280727025697 -0.4419545942679208
0000c0 92 04 e5 39 0f 91 f1 bf 39 30 b7 55 9b 4f f6 3f
       -1.0979149114139415 1.39443524820946
0000d0 dd 7d 8e c1 2f 37 e4 3f 9f 98 44 63 a9 ac da bf
       0.6317366390612126 -0.4167884320653545
0000e0 60 e5 fe f1 cf f8 c8 3f ea 7a e6 c1 c0 54 ee 3f
       0.19509314838596037 0.9478458201518525
0000f0 08 e6 57 17 41 f3 92 bf fc 5d 92 14 e2 09 dd 3f
       -0.018506066369786495 0.45372821816405895
000100 29 ca 78 a7 cf 33 b2 bf e9 9f 7c ad 71 c8 e0 bf
       -0.07110307539623108 -0.5244682682432514
000110 91 7f 32 90 69 fb b1 bf 62 eb 8d 91 9c 23 d5 bf
       -0.07024249811592954 -0.33029855932516317
000120 6c d6 9a 47 ff 9e b3 3f ac 05 cd 3d 34 9a e0 3f
       0.07664485452809239 0.5188237387703132
000130 4b 87 fd 5e 3c 7e eb bf 40 6d 2c 0a 94 b2 be 3f
       -0.8591596465377987 0.1199123883092641
000140 30 09 2c 1a cf 9d d0 3f 84 38 da a8 b9 2b b1 3f
       0.2596318965517126 0.06707344410298971
000150 56 a4 61 de af 5e cb bf 60 c5 93 29 d8 d3 c0 bf
       -0.21382711752383682 -0.13146497755182462
000160 2a da 66 5e 2a e1 a7 bf a4 c3 f1 c2 0d 1f c4 3f
       -0.04663975145688355 0.15719768542069545
000170 dd 59 00 bf 97 8d dc 3f c9 21 38 73 2a de a0 3f
       0.4461421361205831 0.03294499069676566
000180 4f 79 cb d8 da ba 7f bf a1 92 03 82 46 cb d6 3f
       -0.0077465580659164665 0.35615694710421947
000190 e6 b9 4f 22 13 48 ed bf 10 00 d0 e3 9b 88 d3 3f
       -0.9150481863160251 0.30521294829668566
0001a0 fd a4 8b 67 96 53 ba bf 14 f7 b0 34 b4 0a d4 bf
       -0.10283794429746602 -0.3131533159793076
0001b0 e6 13 c7 c7 63 01 ac bf a7 68 cc 3f c9 b4 c1 bf
       -0.054698103081626745 -0.13832965483817825
0001c0 ae 80 30 6f b7 01 ea 3f 82 f9 61 0a 18 18 d8 3f
       0.812709538618966 0.37647057546555385
0001d0 ae 4f ae d2 4d 90 bd bf e3 aa 0e d0 cb 4a a0 bf
       -0.11548315423561803 -0.03182064928781416
0001e0 10 50 a8 f7 25 f3 f3 bf d0 30 86 dc 4a 25 d7 3f
       -1.2468623804206835 0.36165114913525276
0001f0 58 06 9b 44 f4 05 e9 3f 56 a7 f3 78 fa ac 00 40
       0.7819768276169254 2.0844621133191295
000200 f1 4d 93 e5 14 ff ea 3f e2 cd 1e ef ec 37 90 3f
       0.8436378940481842 0.015838338942286152
000210 0b 73 26 f1 a0 17 c6 3f 33 7a 52 fa 45 9e ee 3f
       0.1725960900775124 0.956820477400305
000220 31 e1 6b c1 fb ff cb 3f 76 ee c6 32 9a 8a f8 3f
       0.21874949402241264 1.5338384612540756
000230 4b da 06 92 b1 eb c1 bf 77 d4 c0 99 cb ce da 3f
       -0.14000529890263844 0.41887178435292277
000240 f3 41 62 9b 49 ab e0 bf 08 69 54 96 e0 fa ab bf
       -0.5209091219749652 -0.05464841685371097
000250 21 a7 3d 3a 5c fd e0 bf c9 0d 6a d5 05 a6 fc bf
       -0.5309277665630568 -1.7905329071517022
000260 29 83 b4 4a ac 68 eb 3f ad 4e 9a f2 b1 4d f9 bf
       0.8565274676403521 -1.5814685322447233
000270 46 8d e8 de bc 4c d1 3f 62 d9 12 6a 10 6a f3 bf
       0.27030870216750136 -1.2133945601941254
000280 0c 5f 9e 09 b8 90 c9 3f 61 bd 53 7e 6d 4c c8 3f
       0.1997289702383046 0.18983238857570497
000290 1d 2e f2 20 31 9c f2 3f ad 55 f6 63 3e 2e c0 bf
       1.1631327902749782 -0.12641124611824975
0002a0 9b d5 c2 d5 5a 47 e9 3f fe a6 ea c9 79 02 9c 3f
       0.7899603056927619 0.027353194188129308
0002b0 b3 1c af 90 ca d2 e3 bf c9 f5 13 9c 5c 81 e4 3f
       -0.6194813562259668 0.6407912300489268
0002c0 8e d3 12 1e 92 48 ed 3f 41 9b 1e 2b b1 46 d8 bf
       0.9151087367414321 -0.37931470118421734
0002d0 f1 06 33 0c 7b 5d d6 3f fa 2a 5a 56 5a 53 d2 bf
       0.34945560637798595 -0.2863374560626394
0002e0 de 50 6f de 8b 50 e6 3f d2 16 74 54 13 37 e7 bf
       0.697332319682143 -0.7254730844003581
0002f0 e8 3a f4 01 35 86 f2 3f f6 25 0a dc 20 0f da 3f
       1.1577653957680756 0.4071733616661669
000300 f4 5e 85 6e f6 54 cf 3f ec 86 4e 41 64 c6 d1 3f
       0.24478035351307137 0.2777338636170572
000310 d0 e3 2f 77 d5 6b d0 bf a0 fa c1 b9 a2 09 ee bf
       -0.2565816558777074 -0.9386762264328645
000320 1b 0b 3e 5d c2 83 e0 bf 85 c6 45 1e eb af 5d bf
       -0.5160838910236153 -0.0018119617535287413
000330 e3 0e 8d 51 58 fb d4 3f 91 51 c4 aa 42 a9 c1 bf
       0.32784088100400605 -0.13797791803575568
000340 ab b9 d8 b3 db 77 c3 3f e4 60 57 03 e9 65 f0 3f
       0.152095282378878 1.0248804216881178
000350 f3 bc 64 3c cf 16 e0 3f c8 11 30 5d 50 57 ea bf
       0.502784364658423 -0.8231584377359065
000360 a8 d2 91 c8 66 0d a6 3f 9a 62 17 bb ba a8 e3 3f
       0.04307099531516673 0.6143468526962181
000370 1c 8c 72 b6 f4 89 8b bf 57 c5 94 65 5e fe 9a bf
       -0.013446723764280626 -0.0263609647274213
000380 4d 65 45 bf 8a 8f d0 bf 59 52 14 db b1 9b b2 bf
       -0.2587611072427379 -0.07268821333520616
000390 a4 66 72 2b 4c eb c7 3f 6d e2 1f 0a 32 e7 e0 bf
       0.1868682109969103 -0.5282221029038517
0003a0 0d b5 7c c5 f8 2a a9 bf 15 ea 6b 30 71 be ca 3f
       -0.04915597353679333 0.20893683304150615
0003b0 3b 36 d4 ee 48 24 e5 3f 60 ac 24 02 d1 b5 bf 3f
       0.6606793083789805 0.12386804869008605
0003c0 bc d1 ba 10 b8 dd bb bf a5 76 88 45 41 6f db 3f
       -0.10885191353265261 0.4286654643091004
0003d0 32 f5 05 58 f5 57 ef bf 9f fd bd 3e e2 81 f9 3f
       -0.9794871062473816 1.594209904753235
0003e0 b2 d4 83 4e 52 09 c9 3f 20 bf 2c a8 f0 c6 e5 3f
       0.19559696992624748 0.680534676042928
0003f0 14 12 ff 4a b6 6e b1 bf 6e 10 2a 38 20 ae c3 3f
       -0.06809558230367713 0.153751399444562
000400 c2 ee 88 b9 66 dd d2 3f 74 d2 b9 13 66 ef b9 bf
       0.29476326101915273 -0.10130918485249102
000410 44 12 d7 eb d4 20 d4 3f 39 62 03 3e a5 5b ce 3f
       0.3145038893819996 0.23717179801930557
000420 dd 1b a4 84 39 0a d1 bf bb db f8 ac 56 be d9 3f
       -0.2662490649531131 0.40224234477812687
000430 1b d1 91 a6 7d 23 dd 3f ec 60 ac ad 51 1f ec 3f
       0.4552911879211636 0.8788231269891447
000440 36 dc 03 5f c3 d1 d4 bf 9f c9 4d a6 43 be ed bf
       -0.3253029277688627 -0.9294756172296735
000450 b6 ed 3e be e8 cd ca bf c4 6c fa 7f 5f 24 84 bf
       -0.20940884866091175 -0.009835001080594437
000460 eb c0 e9 bc 9b 76 a6 bf 9a b2 cc 9b 22 77 e8 bf
       -0.04387365990703692 -0.7645428698502486
000470 9b 1d 4e 4b 6f be bc bf 83 bd 82 26 74 57 d5 3f
       -0.11228080357078911 0.333462751014814
000480 5b 96 45 8d f4 77 d5 3f 88 ed e4 db fb 85 a9 3f
       0.335446489296691 0.04985034045463538
000490 e2 d4 ef a6 75 61 f3 3f 7a 6c 42 cf 25 2d e0 bf
       1.2112938424082178 -0.5055111930881957
0004a0 ce 01 90 24 54 f9 f8 3f 0b 24 19 68 2a ad da 3f
       1.5608712604736072 0.4168191925605817
0004b0 4d 0c 94 a1 b9 eb e5 3f a4 67 c1 69 96 e0 e6 3f
       0.6850250392748279 0.7149154725586766
0004c0 9b cf ed cb 1c 72 cc bf 04 d3 e3 e3 fa a8 e2 bf
       -0.22223243672817436 -0.5831274462676395
0004d0 ed 12 a0 27 ff 2b df bf 30 17 c8 4c df e4 b0 3f
       -0.48706034536034687 0.06599231361914515
0004e0 49 5a f7 70 eb 1c c4 3f b5 c6 be 3b ec 7b e1 3f
       0.1571325589745405 0.5463772932909793
0004f0 ed 2f 76 99 40 aa e4 bf 97 56 fa ef 96 f6 ac 3f
       -0.645782756547758 0.05656882934014822
000500 d3 7d bb 12 11 0e d2 3f 7d ec 4c 5d 66 42 c9 3f
       0.2821085627492412 0.19733886295020744
000510 00 67 b9 8c 09 b7 9e bf 20 95 9b d6 0a 11 b3 bf
       -0.02999510690128826 -0.07447879542776947
000520 2a 0d 5b 46 7e d3 af 3f b2 cc a6 16 2e f9 f0 3f
       0.06216044052919252 1.0608349690271948
000530 db 10 ae a9 ce fe 9b 3f a3 c8 13 89 63 1c 9d bf
       0.027339200121347367 -0.028428607217343537
000540 40 f1 b8 c1 7d 04 d2 bf 35 65 d8 25 4c 84 d6 bf
       -0.28152412336546107 -0.35182479568318864
000550 bb b8 70 1c 6d 83 db bf 4a 8e bf 6f 44 46 d4 3f
       -0.42989661958098296 0.3167887774745607
000560 2a 82 3d 26 1e 29 e2 3f 14 dd 15 91 7b b9 b4 3f
       0.5675192591552947 0.08095524112819802
000570 03 48 c5 4a b4 88 d2 bf cb 75 ae f2 e9 60 b2 3f
       -0.289593766229814 0.07179128813591899
000580 b4 13 6d c0 ef f5 e8 3f fa 8b 17 8b b5 42 df 3f
       0.7800215490648186 0.48844660361481795
000590 0c 65 ac 3a d0 d8 e8 bf 7a 55 44 bb 50 54 c5 3f
       -0.7764664789166615 0.16663560050862342
0005a0 d5 56 64 c4 b3 24 e7 3f df 9b 33 e2 d0 89 d4 3f
       0.7232302509098313 0.32091161813735697
0005b0 51 14 10 87 58 fa ee bf 61 80 30 53 7e 25 c7 3f
       -0.9680597913690098 0.18083170949921892
0005c0 8c 46 a9 b0 4a c4 e7 bf d3 a6 19 75 03 41 f5 3f
       -0.7427113962568952 1.3283724378801949
0005d0 c4 31 77 a3 69 83 be 3f 60 57 6b d9 10 71 de 3f
       0.1191926979146905 0.4756509898410197
0005e0 09 1e 06 70 bc d7 d0 3f 50 e8 8b ac 83 3f dd 3f
       0.26316748561700415 0.45700160837407555
0005f0 d9 66 95 df f0 06 ef bf c8 32 5c 51 97 cd d7 3f
       -0.9695972792498778 0.3719232840092386
000600 b3 2a 8d 96 2e 13 e8 bf 16 c5 8b ab bf 36 dd bf
       -0.7523415508706733 -0.45646659615074847
000610 35 3b 45 ee 94 4c f5 bf 9d 89 05 ba a1 71 f5 3f
       -1.3311967189253668 1.340242125174519
000620 1c 57 16 3b 79 a6 c5 bf 35 57 8f b4 e4 77 d6 bf
       -0.1691428698074383 -0.35106771118931884
000630 b3 c0 04 76 0c 8b ef 3f 5c ca b1 97 3e 81 f2 3f
       0.9857237153101067 1.156553833538644
000640 34 2c bf 2e 87 71 d4 bf c9 7b f3 5c 02 35 e5 3f
       -0.31942920270074926 0.662720853371746
000650 b5 33 02 8d d9 69 f8 3f 16 77 ed cb 98 18 c8 bf
       1.5258422382496353 -0.1882506366481997
000660 5f 83 1f 62 2a f1 f0 3f 37 2c 0f 37 18 aa e6 bf
       1.0588783104833153 -0.7082634997726761
000670 a0 04 6c 72 c7 7a ef 3f d6 2b 87 3b 3c 52 aa bf
       0.9837376818469643 -0.05140865542087851
000680 05 16 d0 4c 5e 25 df bf 32 ba b2 42 6f 02 f3 3f
       -0.4866557836652137 1.1880943875691057
000690 61 6f ec 06 27 74 e3 3f 32 d4 16 3b 46 e1 cf bf
       0.6079287657953324 -0.249062327243935
0006a0 c9 5d b9 ba 3c b4 dd bf 5c f4 c0 6e b2 0d d3 3f
       -0.4641258071401038 0.2977109986857778
0006b0 e0 db e7 45 53 23 e7 bf 7f 31 51 55 a5 d0 16 c0
       -0.7230621686311416 -5.703755696373604
0006c0 48 6e d6 e3 d1 ee 00 c0 eb 87 2a 72 89 0a 04 c0
       -2.1166112708868106 -2.5051449698666963
0006d0 c3 e4 e8 90 01 82 cd 3f f1 67 9b ce 05 33 fb bf
       0.23052997184439591 -1.6999567099178388
0006e0 af c8 15 3d 8d b0 f4 bf 3b 94 7e 7d a9 22 cd bf
       -1.2931034456383192 -0.2276203024640909
0006f0 f3 09 8d 0b ad 24 01 c0 6f 41 d2 c8 8c 6b e1 3f
       -2.1429081823746343 0.5443786546984891
000700 62 f5 e8 33 c7 39 f1 bf 6a 77 39 46 4a b0 a2 3f
       -1.0766059901937628 0.03650123698456194
000710 de 61 cb e2 a9 a7 ed 3f e7 6c a3 cb dc 01 b3 3f
       0.926716750104841 0.07424716922416828
000720 41 6a 02 95 b8 6f e8 bf 22 c5 45 d0 ae ca 6e 3f
       -0.7636378202763084 0.0037587560965951653
000730 67 9e 18 f7 ff 9f e8 bf a0 27 ec c5 69 f0 05 c0
       -0.7695312334153187 -2.7423892462438317
000740 c4 ff 68 07 2d d9 f0 bf 33 75 ad 6f 03 41 fe bf
       -1.0530214585742081 -1.8908724176793157
000750 7e 70 5d f8 05 73 dc bf 5a 3e e8 c7 6d e9 f2 3f
       -0.44452046636957465 1.1819894608378463
000760 89 f4 bb 1b 43 ec e9 bf 1c 0b cf 5f 64 8d ef 3f
       -0.8100905934985728 0.9860097762360485
000770 f3 44 0c 7e 04 d1 d0 3f 3e 0a c7 2e 1b 51 f3 3f
       0.2627574187218464 1.20730131409131
000780 8c d5 a6 b2 e3 ed f4 3f 0b a6 ac 41 9c 03 d6 3f
       1.308078477724254 0.34397035993114916
000790 7b f4 e1 ba 06 23 a0 3f f4 21 db 2f ba 1e 86 3f
       0.031517229378530374 0.01080079515976793
0007a0 49 b5 dd 5b eb e5 e6 3f bd 5b 42 9e f0 a1 ea bf
       0.7155663294085254 -0.8322680560112229
0007b0 c9 12 71 e3 ba 61 f7 bf d4 b1 ed 81 3c a2 ff bf
       -1.4613598713341835 -1.9771084857303451
0007c0 c8 f8 00 7d 66 bf 00 c0 48 af 33 86 e5 46 f7 3f
       -2.0934571996614046 1.4548087351094683
0007d0 c2 9b 2f f7 98 dd d3 bf 65 a6 10 24 57 ef df 3f
       -0.3104002393651478 0.4989831783483168
0007e0 d4 b7 be 24 a7 ed f1 bf 4a b5 50 34 7d ec e5 3f
       -1.120520728621604 0.6851182958395523
0007f0 f6 e3 b6 2a bd 01 d2 3f da 1b 46 50 e8 ae f1 3f
       0.2813561360486 1.1052020202348474

lin2.bias f8 [64]
000000 5a 7a f3 0d c6 14 c5 bf c3 50 3c 41 d5 6e c2 3f
       -0.16469646149831157 0.1440073555501212
000010 b0 1e 56 f5 9c 22 ce bf 78 e5 bc 43 1b 12 3d bf
       -0.23543130854908645 -0.0004435841144530754
000020 8d f0 90 b4 b2 b2 cc 3f dd da 10 cb 15 82 d8 bf
       0.22420343224246544 -0.3829397662224617
000030 d0 e5 a2 70 aa 42 ad 3f 8f 75 aa d2 a0 64 d1 bf
       0.05714924454646175 -0.2717668587955239
000040 73 21 f4 74 9a ac d5 3f 74 78 d8 fd 37 c4 ac bf
       0.33865987225774247 -0.05618453000737214
000050 c2 21 8e 87 cb 95 88 bf 1f 19 4b 57 7b 31 c3 bf
       -0.012004461359325872 -0.14994756471987444
000060 b8 24 f9 84 4f 10 af bf 7a 19 c8 8a b2 03 bd bf
       -0.060671315176088425 -0.1133376683065758
000070 30 ad 7c d7 7b f0 a3 bf 3e 29 11 b3 d0 49 bf bf
       -0.038944120459144194 -0.12222008105996893
000080 90 58 e1 72 ee 9d d6 bf 82 e4 68 2f 60 e5 b9 bf
       -0.35338937014365346 -0.10115624577965046
000090 a1 d2 a7 ef 41 91 d5 bf 76 29 7c f3 d2 ab c6 bf
       -0.3369908180605226 -0.17711865319172276
0000a0 99 21 b0 73 d5 ad ca bf 59 32 ad 65 f9 43 d5 bf
       -0.20842998646572822 -0.33227381638861214
0000b0 87 61 27 01 fa cb ce 3f 5b ac 23 26 9f 6f c2 bf
       0.24059987121905754 -0.14403142320893178
0000c0 08 11 6d b2 5e 9f a7 3f dc 71 6d c2 56 2f d2 bf
       0.04613777092029819 -0.28413933741628994
0000d0 6e b9 9b 2f 6c 97 d7 bf a9 0f c5 fa 26 0d d3 bf
       -0.3686171021389758 -0.2976777504848039
0000e0 f7 2f 08 7f a8 6b 6b 3f 09 22 48 fb ab 80 a0 3f
       0.003347233862092121 0.03223168795017634
0000f0 29 56 c0 62 06 36 bc bf dd 1f 16 dc b5 2d d5 bf
       -0.11019935522957582 -0.33091494076552214
000100 0a 68 50 dd 09 70 a9 3f c5 c6 af a6 7d 3e c3 bf
       0.04968291117275221 -0.15034456862445303
000110 12 d7 28 35 17 f4 c1 bf 33 c7 ac 2e f6 e4 82 bf
       -0.14026155563049564 -0.009225772189526893
000120 a4 a2 60 ab 10 bf b9 bf aa 83 4a f8 21 b1 d7 3f
       -0.10057167228718328 0.37018632170844035
000130 73 ff 56 9e 54 5d a7 bf 16 67 5f 47 bf 98 de bf
       -0.045633930519669706 -0.4780729481695841
000140 53 fa 31 f8 08 ce c7 bf 87 91 36 98 b1 81 d5 bf
       -0.1859751903429748 -0.33604087700430124
000150 0e 3f e8 75 ae d1 c0 bf f4 77 34 e9 0a 69 a4 bf
       -0.13139897114933102 -0.039863911597635054
000160 72 81 0f 6c 99 00 93 3f 8f d8 fd cf bd 35 a0 bf
       0.018556973667615613 -0.03166001476249491
000170 6d 91 03 6c d5 33 c0 bf 2e 13 24 a3 70 98 bb bf
       -0.12658183836095863 -0.10779479964191971
000180 03 67 a6 d9 8a 6f bc 3f 6e d1 e1 98 e0 1a b5 3f
       0.11107700170250827 0.08244136555169287
000190 8e 0f ff e5 0e 17 e3 3f 16 01 12 47 da 29 b2 3f
       0.5965647213092653 0.070951120711474
0001a0 18 ff c5 4b b0 fa d5 bf e7 8c 7b 89 11 7b 79 bf
       -0.3434258213019219 -0.006220882896488456
0001b0 d8 1e 12 6f 14 15 d4 bf d9 fa cc db c2 43 b5 bf
       -0.31378661009555975 -0.083065203344613
0001c0 0d cd 83 0d ef b9 d5 bf f6 39 db 9f fb 30 8f bf
       -0.3394734985333379 -0.015230146232537028
0001d0 4e 11 45 ae 54 9a b0 bf 38 2d 22 d2 17 07 b5 bf
       -0.06485490088113474 -0.08213948135578597
0001e0 ce 2e e6 d4 56 ba b6 3f 68 7c 94 2e 03 e9 97 bf
       0.0887808103345222 -0.023349809377688407
0001f0 3a 20 8a 34 ce cc c6 bf d0 6a 79 69 b7 7f c6 bf
       -0.17812516751678392 -0.17577259683715463

lin3.weight f8 [16, 64]
000000 74 9c 07 77 bf 91 e0 bf 09 8f 44 a6 69 f5 d9 bf
       -0.5177914929198679 -0.40560380208101826
000010 81 50 67 a5 df 0d c0 bf c9 f5 76 c7 ba 94 b5 bf
       -0.12542338920923515 -0.08430068368666989
000020 5b 73 1a 0a f4 ce 03 40 69 7d 8e 89 bf a2 e2 bf
       2.476051405842026 -0.5823667227413526
000030 a2 30 74 3b 78 28 b7 bf d5 92 8f 97 c7 64 7e 3f
       -0.09046126796255519 0.0074203297199104306
000040 74 4b a9 08 aa 25 07 40 08 6f 6c 2a 09 fd f3 bf
       2.8933907200493483 -1.2492763192339584
000050 36 bd d3 02 24 43 e6 bf 94 19 12 10 bd 3c c0 bf
       -0.6956958823410904 -0.12685359272672925
000060 8a 14 60 4f a9 6f e7 bf 71 59 9d b6 16 f8 f1 bf
       -0.7323805380152788 -1.12306853612753
000070 c1 c5 8d 9b ad 8c f7 3f 06 64 99 c7 66 63 e1 bf
       1.4718452526397956 -0.5433839701100858
000080 cd a3 4d ae 33 3c b4 bf dc 17 48 5d 3d 14 fa bf
       -0.07904360776377857 -1.6299413341343927
000090 07 e3 15 83 79 78 e5 bf df 42 4d 2a 05 21 e3 bf
       -0.6709563789619047 -0.5977807832915366
0000a0 94 3f 07 f1 75 35 ac bf 05 d3 b9 e5 98 fc cc bf
       -0.05509537284126434 -0.22645865647395894
0000b0 5a 59 81 e1 b7 b3 d1 bf 25 29 08 e7 1c 81 af bf
       -0.2765941335868739 -0.061531928255208514
0000c0 13 27 0a 78 4e fb a5 bf 05 76 2c 06 83 06 bc bf
       -0.04293294158294549 -0.1094743623802615
0000d0 99 00 3b aa 77 79 d4 bf b1 bc ac 90 6b be e9 bf
       -0.31991378425665 -0.8044946504286569
0000e0 90 44 6e 9f 76 d5 e2 bf 74 9b c2 7c 63 79 dd bf
       -0.5885575403100507 -0.4605339735375573
0000f0 01 f8 50 a8 26 27 ad bf 98 65 70 ba ec 51 98 bf
       -0.05693932346956388 -0.023750018004738388
000100 3c 9d 1f ce 20 84 b4 bf 07 b3 35 3d 4b 12 9c bf
       -0.08014111549674835 -0.027413535700747917
000110 ef 51 33 3c 29 05 04 40 6b c4 15 7d d8 be e1 bf
       2.5025200560723913 -0.5545465891901932
000120 a6 34 cf 56 e1 5f d0 bf e4 10 96 8b fa 91 ee bf
       -0.25585206487159906 -0.9553196646016002
000130 e0 95 e2 b0 1f f8 b9 3f 78 7c 87 a5 71 39 d2 bf
       0.10144231861575959 -0.28475609936680923
000140 ed dc 54 80 f0 d5 b0 bf 9f 8a ea 6d 16 07 95 bf
       -0.06576445706456342 -0.02053484960436924
000150 1c 9c 3d 69 a7 e6 c0 3f be 9a a6 46 4e 5f dc bf
       0.13203899992660773 -0.44331700229160365
000160 1a 5f 85 3e da e3 ab bf 09 2a 73 c4 15 a6 ec bf
       -0.05447275174327455 -0.8952740513717014
000170 46 21 ac 14 f0 29 8e bf f3 0a 9a ae 26 a8 c9 bf
       -0.014728427534934096 -0.2004440643832691
000180 ee 1a 10 f1 e0 51 e7 bf b6 0e 35 0d 59 a0 fc bf
       -0.7287449558505992 -1.7891474262150218
000190 22 dc 2d f8 d3 c4 e9 bf 43 c4 bf 3e 32 a6 a6 bf
       -0.8052768561600525 -0.04423672691326221
0001a0 88 99 44 05 76 1b f9 bf b0 01 0f b7 d8 3c b3 3f
       -1.569204350069045 0.07514719456867769
0001b0 85 93 13 5a 11 e1 c2 bf 19 07 7b 00 d4 0a ec bf
       -0.1474935235811722 -0.8763217934976836
0001c0 bd a7 f8 7e a5 21 ee 3f 16 8c de be 4d 83 fa bf
       0.9416072349460972 -1.6570565658410081
0001d0 f8 40 69 1a 9a 34 bb 3f 92 a7 97 0b 0a 25 cd bf
       0.1062713922958699 -0.22769284788165273
0001e0 64 84 51 a1 a3 06 b7 bf fc b8 75 6a 18 fa fa bf
       -0.08994505585134643 -1.6860584410274546
0001f0 53 eb 3d df 4f 1f b5 bf ef 19 b5 23 de dd 0c c0
       -0.08250903320542351 -3.608333853687547
000200 15 69 eb f5 7a df e2 3f 82 04 36 e5 46 27 d8 3f
       0.589780311881699 0.3773972738636716
000210 ae a5 59 65 a5 65 d9 bf ff dc 19 39 6d 58 99 3f
       -0.39682898423651636 0.024751383409662427
000220 23 14 8f 53 a8 c1 dd bf d8 68 a4 08 0f 48 ef bf
       -0.4649449172978299 -0.9775462311547711
000230 61 51 65 e6 95 43 bb 3f 0a 4b 12 d4 13 2c 01 c0
       0.10650002360245515 -2.14652219467951
000240 d3 a7 bb 43 6d 7e f2 bf 88 0f 41 fc 00 9b cf bf
       -1.1558659215756861 -0.24691784207436407
000250 b7 d0 12 99 a0 ba be 3f a2 79 5c 9b eb 15 d4 bf
       0.12003520714898995 -0.3138379113387605
000260 db 39 48 fb b8 18 d1 bf 4c da 9c 82 5f e7 d1 3f
       -0.26713394679327757 0.2797468925013262
000270 41 29 b4 0a 1f 52 01 c0 33 bd c5 45 e8 e3 04 c0
       -2.1650982700568027 -2.6112828684778377
000280 67 07 25 34 61 71 ec 3f ba 96 5e 87 9b df fe bf
       0.8888402956438143 -1.929591683184681
000290 4f bb 88 f0 b8 ca d9 bf be af 4a 9e 4a 73 d2 bf
       -0.40299819459589953 -0.2882868333642782
0002a0 7f ac bf b5 b0 da cd bf 04 8f f7 24 bc 2e f0 3f
       -0.23323639749955657 1.0114098972343877
0002b0 93 67 c3 61 fe 28 d5 3f 61 ef 2b 7d ef c3 dc 3f
       0.3306270556182593 0.44945895408431197
0002c0 17 25 da b2 39 9c 96 3f 41 50 ac 61 bf 0a f3 bf
       0.022080327550189596 -1.1901239219050839
0002d0 f0 f6 42 60 9a 9d da bf 20 2c 95 87 01 97 04 c0
       -0.4158693256430146 -2.5737333862685006
0002e0 00 aa 1f 62 62 5b 05 c0 27 6c 6a 1a b3 04 a9 bf
       -2.6696212449944596 -0.0488639802690261
0002f0 5b 3e 06 76 a9 d6 a4 bf 43 51 d1 c1 32 f9 e6 bf
       -0.040700240762018246 -0.7179197106839087
000300 9e 72 84 c6 c9 f1 ac bf 1f 2d 43 bd b2 0d 02 c0
       -0.05653219745929515 -2.2566885744214598
000310 a4 f5 1e f7 32 ca d7 bf 64 9f 52 a6 9a 62 d6 bf
       -0.37171625264076114 -0.34976831667380837
000320 f1 83 4a 49 8c bf f1 bf 9f 62 e9 32 4c 89 ff bf
       -1.1092646468098304 -1.971019934533764
000330 83 34 2f 05 38 36 e8 3f 7c 63 42 bb f0 5f d9 3f
       0.7566185094125476 0.3964807347015762
000340 9e ce 65 5c 99 8b eb bf 4d 67 d2 d2 3d b0 ea bf
       -0.8607909016268029 -0.8340138547530188
000350 b7 f3 f0 cf 9b 7e 8f 3f 46 79 dd 4e 55 6c d2 bf
       0.015378205569612875 -0.28786213590310117
000360 d3 11 42 c6 2b 68 fb bf 43 30 10 32 27 f3 b1 bf
       -1.7129323715645242 -0.0701164719795893
000370 4c 43 68 f5 0b 69 b3 3f 53 ed d1 39 92 18 c4 bf
       0.07582163564098926 -0.15699985335582287
000380 8e 94 af 6b 74 4d ea 3f bc 34 87 3f c2 3b e4 bf
       0.8219549277533973 -0.6322947731765889
000390 22 0a 39 17 0b 18 ed 3f 09 35 a7 a1 d5 35 b9 bf
       0.9091849759645962 -0.09847769924745732
0003a0 98 57 58 9d 8b 86 cd bf 98 00 82 bf e7 32 fe bf
       -0.23066849882951312 -1.8874280434393196
0003b0 20 0b 9f 38 35 f2 c3 bf c3 d5 87 46 2d fa ff bf
       -0.15582909836492664 -1.9985783343412187
0003c0 c9 d8 95 cd 75 4a e1 3f 28 60 8f 10 4b 0b 03 c0
       0.5403393760050444 -2.38051426827953
0003d0 20 ea ea d0 86 9d 08 c0 61 e1 09 97 a8 2b d2 3f
       -3.0769172975244743 0.28391470670569247
0003e0 79 b2 7a cd 23 7a d1 bf 14 b5 4c 2d 9c fa e2 3f
       -0.273079825080266 0.5930920490988307
0003f0 13 3c 8b b1 f8 d5 bc 3f aa cc 78 04 16 13 cb 3f
       0.11263994535987391 0.21151995867112322
000400 be 9e c9 48 5e 0b df bf 05 a8 ad d0 64 6c e0 3f
       -0.4850688658539005 0.5132316661595274
000410 17 a1 9f 21 38 f3 e2 bf cb 32 de 6b 9b 68 c7 bf
       -0.592189851447105 -0.18287985579481467
000420 1e f6 e6 b4 c2 dd de 3f 23 54 66 ef 34 d7 ef bf
       0.4822851912138918 -0.9950203586364562
000430 b1 e2 34 dc 79 91 aa 3f 84 20 69 52 58 5d d7 bf
       0.05189114392346051 -0.3650723271171119
000440 56 0b 01 09 d0 9d e5 3f c1 e4 7e 2e 1e fb ab bf
       0.6755142379628107 -0.0546502525098247
000450 bf 75 d3 6b 97 89 e6 3f 13 ce 55 81 19 0c cc bf
       0.7042958360649932 -0.21911925139612318
000460 97 fe 2d 85 5d f2 d3 bf d0 31 ca e5 60 9f 88 3f
       -0.31166780477358585 0.01202274037611853
000470 42 79 28 26 93 08 ef bf d3 92 79 1c 48 dc dc bf
       -0.9697967286372562 -0.45094492703200934
000480 fc fb 59 1a de e4 cb bf 3b e2 8b d5 98 4e d6 bf
       -0.21792198454565426 -0.3485471806921258
000490 d4 4d f0 ef c8 f4 b1 bf be 4c 95 36 2a 8b cf bf
       -0.07014137132528414 -0.24643447556682035
0004a0 60 11 04 8f 2a 98 d9 bf b2 5f 42 7d 9d 7f d4 bf
       -0.39991249052424926 -0.3202890132174573
0004b0 42 0b b2 aa 9f 90 0b c0 a7 83 29 4f 4a 57 06 c0
       -3.4456170402130804 -2.7926222023529195
0004c0 16 8c 52 ca 6b 8e 90 bf ab fd 92 fd 14 6b ef bf
       -0.01616829321268306 -0.9818215324993863
0004d0 1e aa 5e 51 95 ec d4 bf 40 4a 87 ba 1f fd 85 3f
       -0.3269398970248022 0.010736701850793229
0004e0 95 50 81 a0 c7 a7 f6 bf 2d 8a a5 c4 9c fc ef 3f
       -1.4159618634921902 0.9995864716295891
0004f0 51 f5 3b a1 71 cd 92 3f e9 06 77 72 13 ca d9 bf
       0.01836183115573437 -0.4029587381192941
000500 31 35 a3 4e df 31 db 3f d1 25 e9 4d 63 0a d8 3f
       0.4249189632362969 0.37563402756185577
000510 fc d8 ba ef 3b 25 f2 3f 59 6b 72 07 fe 92 c0 bf
       1.1340903629730397 -0.12948584903355245
000520 cd a6 0e 4a 66 86 bf bf be fc 57 c9 93 9b f0 3f
       -0.12314452465093524 1.037982737063245
000530 c0 2a ae 7a 2a a0 fb bf a9 01 c7 14 29 29 db 3f
       -1.7266030113411688 0.42438723591842603
000540 1c 59 c5 1f 43 79 cd bf c8 60 5d 02 a3 42 c5 3f
       -0.23026312876999888 0.16609609237162304
000550 aa 6f f2 45 91 fe c0 bf 87 3f 40 98 1a 78 bb 3f
       -0.13276878276235254 0.10730138985695535
000560 7b 8a 88 7c 42 34 bb 3f 65 8b 3e 28 d1 f3 d5 3f
       0.10626616993298825 0.3430064099322208
000570 5d 8b 30 d7 b2 d2 ca 3f a2 0b f7 15 87 2c 92 3f
       0.20955501086526854 0.01774798461498118
000580 0b 7b 3e 6f fd 0d 6a 3f d0 45 48 3a 51 d1 ed 3f
       0.0031804990666864977 0.9318014276815862
000590 dd 8b 9c 40 5b 5b d5 3f a1 5f f7 c0 7c 27 9e 3f
       0.3337009554836053 0.02944750716946454
0005a0 53 fa 6b 69 47 5e dc bf 5c 84 c7 8d 6f 63 f0 bf
       -0.4432543305883076 -1.024276307893408
0005b0 5b 01 0d 38 6f 1f f3 bf f3 43 e6 ae 49 a1 9d bf
       -1.1951744260296298 -0.02893557672502207
0005c0 0f ec 9e a0 a8 c7 f8 bf e6 ed b9 b5 99 20 e5 bf
       -1.548744800019225 -0.6602295445767907
0005d0 b5 35 11 8b 9f 2c 06 c0 17 4b af 79 f9 ec 02 c0
       -2.771788679564191 -2.3657102114315296
0005e0 b2 9c 85 59 ff 52 82 3f 0a d0 8a d8 a1 fb d2 3f
       0.008947367591373687 0.29660841128065896
0005f0 89 4a ec 58 ba ad b7 3f e5 07 45 2b 05 0b cf bf
       0.09249462767574292 -0.24252380955482447
000600 6f 77 63 8c de 0d cf bf 96 91 20 81 1e a3 e2 bf
       -0.24261075835141407 -0.5824120065704388
000610 88 a3 37 84 be 3f e1 bf 11 0e a8 4f 3e ca 0a 40
       -0.5390312750215438 3.348751661602144
000620 03 a0 56 85 13 10 e5 3f a4 61 b6 46 0e ad cf 3f
       0.6582124332680909 0.24746874287371867
000630 b0 a3 80 6d f0 7d a4 bf 8b 4d 4c 59 ca 50 e3 bf
       -0.040023339621547804 -0.603612112436552
000640 f9 02 71 69 8a 67 d6 bf ca 4c 5a f8 bb f9 d3 3f
       -0.3500696210576702 0.3121175694770498
000650 8e ed f0 e1 35 bd f5 bf 0c 0b b5 94 36 b2 00 c0
       -1.3586939645600498 -2.0870181672811494
000660 df 74 02 47 cf 66 b9 bf 14 6a 45 d7 36 51 ef bf
       -0.0992250011790534 -0.978663845492806
000670 e4 42 75 7b a6 9a 00 c0 5a c6 83 b8 6e b3 b0 bf
       -2.075512852207213 -0.06523792271379972
000680 70 a2 af 37 f0 55 cf bf 09 a5 66 37 39 9c cb 3f
       -0.24481013030096532 0.21570506291508476
000690 b3 d8 ce bd 48 25 d6 bf a8 c3 3d 72 69 f4 e1 bf
       -0.34602564369141503 -0.5610854369425526
0006a0 77 17 c0 64 18 b7 aa 3f d4 e3 d3 c3 d0 20 fa bf
       0.05217815618384141 -1.6330115937728253
0006b0 3e 33 9c 7e 1e 04 69 3f 09 12 78 71 82 e4 f3 bf
       0.0030537219616974245 -1.2432884628661915
0006c0 57 31 1a 1b fa 81 94 bf 28 e2 04 ab b0 44 aa bf
       -0.02002707281512647 -0.05130531394610599
0006d0 d6 f4 63 cc cc 44 db bf d7 8f 4a 0e 51 3d eb bf
       -0.42607421836858117 -0.8512349394918556
0006e0 98 32 20 f2 dc dd dd bf 63 df 17 8b 3c 2d e5 3f
       -0.4666664471158497 0.661772033373364
0006f0 3b 84 7a c8 d9 0a b5 3f 38 82 05 f9 f0 c7 ef 3f
       0.08219681877609812 0.9931568969441917
000700 8c 48 0e 61 35 5d fa bf 27 8e 2d 9b 5d d2 d3 3f
       -1.647755984424779 0.30971470026108466
000710 78 f8 5e 3d 04 b7 f6 bf 2c 63 4a ba e4 8e e0 bf
       -1.4196817776969777 -0.5174430502403076
000720 6a 0a 89 5f 0e 51 d8 bf 8f 76 12 41 a5 13 d4 3f
       -0.3799472744905531 0.31369906763743755
000730 71 fe 84 df 21 99 df bf bc b0 2d b1 8c 46 e2 bf
       -0.4937214548881235 -0.571112009097781
000740 90 1d 4e 8f f9 97 d8 bf f4 9e 24 09 6e cc fa bf
       -0.3842758082832569 -1.6749096257353218
000750 d5 2c 64 54 5e 5e b2 3f 3d 44 b2 5b e0 4d dd bf
       0.0717524486573667 -0.457878198191853
000760 90 f8 29 8c d0 c3 d6 bf 24 26 f1 61 2e 5d ee bf
       -0.355701577071053 -0.9488746560029466
000770 4c 8f c8 c2 0c 8e f8 bf bc 09 35 cc 4d 38 98 bf
       -1.5346801384666433 -0.023652282322709203
000780 ca 34 7c f4 a9 af cb bf e8 a0 7c de 32 3d bf bf
       -0.21629833638909296 -0.12202756816680316
000790 e3 bc 28 36 9e 46 e3 3f 98 6b d6 1e c4 32 97 3f
       0.6023703630252409 0.0226545947858586
0007a0 b1 3a 9e 30 6a ff e0 bf 9d ff 0d 84 5a 8d db bf
       -0.5311785649845061 -0.4305025376888752
0007b0 a9 8c 0e c9 ef 85 f3 bf a3 af e8 99 d3 2c 78 3f
       -1.2201993802816935 0.005902124945844553
0007c0 8b 92 ad e9 94 4f e7 3f f6 0b f3 92 5d 08 c6 3f
       0.7284645618461395 0.17213029551757558
0007d0 bc dd f2 34 df cf d5 bf 26 c0 70 b8 da 0f db 3f
       -0.34081249399920543 0.4228426743675321
0007e0 a9 41 99 4a a3 62 d7 3f de 43 0b 46 60 64 ce bf
       0.3653953770163079 -0.2374382345210781
0007f0 40 bd 19 6a 44 0e bb bf 7a 1e 2a 81 12 c6 cd bf
       -0.10568645086617767 -0.23260718638288208

lin3.bias f8 [16]
000000 49 fb ec 61 f2 02 d7 bf 0f 5f ec be 3c 43 bd 3f
       -0.3595548588090663 0.11430720959867478
000010 4a 2a 74 b8 f5 53 e2 3f eb 58 fe 0a 99 73 c6 bf
       0.5727490046131802 -0.17540276562494425
000020 2d ec 7a 7a ef 3a f0 3f 94 33 5d 05 b6 15 be 3f
       1.0143885406857962 0.11751878386458109
000030 fe ae 93 84 27 e2 c6 bf ce e5 7a b5 41 1f e5 3f
       -0.17877668355446724 0.6600655121357535
000040 d6 6a 20 49 78 21 df bf 6a 50 fe fe 85 c2 f0 bf
       -0.4864178384902237 -1.0474910698585753
000050 f0 a9 da 41 59 05 a7 3f 4c 30 d6 57 4a 2e c5 3f
       0.044962682045781466 0.16547517098331566
000060 02 d5 b2 da 71 b0 e0 3f 65 30 c9 98 7c ba c9 bf
       0.521538664956694 -0.2010036226296307
000070 fa 7c c0 f3 b6 78 e3 bf 9c 68 0c b5 a1 e3 e1 3f
       -0.6084856758861001 0.5590370689490274
