LP4-MachineLearning/HW_B_tetris/Strategy/dqn_target_5000.pth (torch, 54615 bytes, 6 tensors)

lin1.weight f8 [64, 20]
00000000: f96e 813d a876 633f a8dd f4a0 6cd2 c73f
00000010: e50f 7c3e 666b a83f b3b7 4835 06bd b83f
00000020: 4a7e dcef 0988 aabf 4fbc c628 da7c b73f
00000030: a621 fc8b e125 b5bf 2cfa a71f 4aeb b53f
00000040: 64cd 6313 a70f aebf b411 ec21 674a c5bf
00000050: 79fc c34d 4b56 d8bf 268f 623b d002 c73f
00000060: 6fe0 3c8f 96bc cbbf 8d3a 69da 4c9c b93f
00000070: a9c7 d4aa c207 b63f 8f73 5dd7 6675 cdbf
00000080: 5c3f 53eb ae97 d8bf 3efb 1514 f1a1 ddbf
00000090: c1d8 3638 28a6 c0bf 8602 3c1a 1a13 ddbf
000000a0: 5103 3ba3 9acf b03f 2de5 bc50 0819 c33f
000000b0: 90f9 f1d1 5edb ba3f 66c2 3112 b723 ca3f
000000c0: e9fd 0208 335e 903f 72c5 4490 f021 b53f
000000d0: 72f5 9275 ea4b 903f b328 7fca 0c57 bbbf
000000e0: e9de e3cd 59a2 db3f ef47 bb32 be36 e5bf
000000f0: 72b1 d773 d60c e03f 8edf 5bd3 bac5 e0bf
00000100: d2b6 7cce d637 d33f afa0 c18f 6427 c9bf
00000110: 6e0e 114c f4fa d6bf ab81 b0d9 ce6b d43f
00000120: 56d3 b1eb ee83 c9bf 9c33 0a70 fea8 a53f
00000130: 655f 1255 2634 c5bf 4ee2 44db 279b e5bf
00000140: 782d fb72 9adc c13f c1b2 d13e d7f3 c6bf
00000150: cbff f32c 6403 d3bf b576 1913 a99b bb3f
00000160: ebf5 fdec bac3 9f3f 435e 87cd 7c06 d83f
00000170: e9a6 b55c 31cd c83f b65d 8ea4 9d3b ce3f
00000180: b2d9 7bc8 33ba d9bf 7159 2224 b633 d83f
00000190: 947c fe8f 51cc d73f c52a f1f6 7cb0 a13f
000001a0: f727 be35 b1b3 9b3f 8eca 85da f748 ca3f
000001b0: 3fb6 b592 bb46 c6bf 43b9 bbac 8e95 a73f
000001c0: d6d9 c6fa 4366 c3bf 0174 844b f22e b73f
000001d0: 6c22 0c5a 3857 c23f d09b 2059 8602 cebf
000001e0: 27ee ab3f 7c73 d03f b75a 8cb5 b145 ba3f
000001f0: 8717 6ca4 9de5 cabf dc92 844a 9cb3 cabf
00000200: 1310 8e8e 50bf c03f 992a 27ea be66 d6bf
00000210: 9a75 f997 0407 d03f c1e0 1161 ed55 c5bf
00000220: 9e1a 810e d9df 923f 74aa fcb9 a001 89bf
00000230: 033c 3ee7 7028 a33f 1674 9b2d ef0c cd3f
00000240: 8369 ae47 3fe4 d5bf 1891 7849 71a6 c4bf
00000250: 6da7 3840 b489 d5bf 0004 1390 e1b5 cebf
00000260: 12ad 5f7a bb91 d63f 50fd 02ee 49b6 b4bf
00000270: 02e2 3714 fb50 edbf 2255 1f1e 0a94 c4bf
00000280: 78fd 24ae 59a7 cfbf c38b 4175 eea2 d2bf
00000290: ca5f bf68 1bbb c3bf 86e5 bf7a 2529 b43f
000002a0: 9196 f445 b3bb b53f 8a4c 3312 3993 a83f
000002b0: 3e9b 777e 785c b8bf 07c8 6d06 2470 adbf
000002c0: 9163 0530 9114 c13f 4db4 06ba d22e c83f
000002d0: 9c65 ca0f c029 d7bf 8151 85dc 40dd a63f
000002e0: 0355 2d6b 5ab5 c63f 7d4e aef4 9579 b9bf
000002f0: 968a 9afe 71b7 ce3f a128 90b4 bf6b d6bf
00000300: 1c12 dbd1 1a07 e3bf 8d08 a414 735e d4bf
00000310: e456 db34 c9ed cabf 115d 405d b706 bcbf
00000320: 6e0c 920a 4047 b53f f4d6 4fb6 9f71 cbbf
00000330: 60da 8909 d808 c2bf 5566 9ef7 439e 8fbf
00000340: 2e06 a1f2 c361 acbf bca4 179d 64d0 b13f
00000350: 9181 5c3e 5292 b63f b48d abf2 a04e bcbf
00000360: e1c9 6f9d 5ca7 e23f 96d3 9bd6 03ab e0bf
00000370: a4f5 16bf 5c86 c9bf a83c 0c47 1be8 e53f
00000380: 1991 969c 5f06 c8bf c5b9 4e09 367a c33f
00000390: 56d5 05fe c080 cabf 81cd a37a e811 89bf
000003a0: f06f 6630 2345 67bf 1bf1 43a5 389e acbf
000003b0: 1ec4 e7f5 b7c5 c6bf fb8e 7a7f 5937 e1bf
000003c0: 6fd0 f0a4 35de c33f e3c8 a1c5 1956 a53f
000003d0: b066 784b da2e cf3f 15bb 1ed4 afeb b7bf
000003e0: 6c40 5db8 9f54 cbbf d792 d4e0 b367 89bf
000003f0: e186 0a91 7588 bebf 4d00 e8d2 3d25 c2bf
00000400: 52e3 f471 01ed db3f dbd6 c532 5b4a ccbf
00000410: f22e 3eaa ca37 dd3f aa46 d0d0 2317 df3f
00000420: 822e a9b9 ec3f 733f 0d08 928e 646b c8bf
00000430: 357a 31e8 1dbb adbf 5b93 eefc 0d4e d43f
00000440: 831a 2916 d3d1 bb3f a86b 6f4f 3e52 d5bf
00000450: 426b 5d6b 35dc d8bf 87d6 60bf 9b50 c03f
00000460: 13f7 fa6a 63b6 b3bf 2484 3122 e357 cbbf
00000470: c786 1a17 8808 d03f a3a2 73b8 1b16 c93f
00000480: 80f2 4ae8 91ec a53f 3387 6670 53fd c43f
00000490: 7a2d fc18 dfdf d2bf 85d2 be85 322c 9bbf
000004a0: db3e 29fb fb28 aa3f 7cdd 1e82 59e4 d0bf
000004b0: d58d f845 fd75 c23f 4fa0 15bb d354 d43f
000004c0: 3417 9a2a 8ea9 aebf bb13 c0f1 0777 be3f
000004d0: 0965 00a5 98ad d13f a18a e1f5 03dd debf
000004e0: db75 5023 16ce b3bf b9f7 302c 537d d7bf
000004f0: 0193 b0de 81a8 e2bf 008b ce9d 28f9 ab3f
00000500: 1d97 500c 1471 c1bf 7beb 3090 2c5c a4bf
00000510: efbf cc2e c3c6 c8bf fc1d 1a0e b39a b5bf
00000520: d21b 127e 0d92 b43f 9587 3613 719c cf3f
00000530: ec77 270e 36d7 c2bf bf7c 1ab9 1339 be3f
00000540: 0cdc a0dc 3dfa bfbf 324a 3612 be5b d0bf
00000550: 7bb9 0985 5d9f debf 8c75 9e0e ecc2 d7bf
00000560: 0580 d780 a5ca a63f 1146 7b1b 71b5 bebf
00000570: 27e3 6dda 2ceb e2bf f476 e557 3160 d6bf
00000580: 936f 62df 27f9 e63f 95d6 cb58 df11 8fbf
00000590: b75f 9bd8 ec4f b3bf 1e3b 09c7 5272 cf3f
000005a0: cd81 a4e4 0066 d03f 2fa5 e77e 6e5f cabf
000005b0: dbf5 c814 91ee c8bf b8d7 0baf 10ee b33f
000005c0: cc49 e56e a594 b13f 8a3e 3a2f dd5c d1bf
000005d0: 3baa d5ee c350 d53f e310 83d0 b810 cdbf
000005e0: 61de 5d54 d9b5 b23f fae4 d73e 0e28 d43f
000005f0: c767 e263 94e0 e03f 90b1 4267 2ed8 d9bf
00000600: fa96 f6d1 4046 b83f 8dde 438c 7997 b33f
00000610: ab62 5a2e a1e1 cf3f 8988 d045 bbf2 dcbf
00000620: ad7e 6b95 e9a9 bd3f d9fa 88d3 7104 b83f
00000630: d9a3 09e7 b24d babf b52b 9431 8647 d2bf
00000640: 29ed 89dc 2850 b4bf 10ca 51df 9129 883f
00000650: 5d5b 449e 331c 86bf 9c5f edc1 6999 c8bf
00000660: 1715 be76 6f21 c2bf 7cd0 de03 49ca dc3f
00000670: e523 9f89 7c1c e53f da1f fd54 6ff1 e0bf
00000680: 1561 a0ad 85a7 8abf 768c 102c 93ad d43f
00000690: db54 9928 88e4 cc3f 250e 040a ccff dabf
000006a0: 5253 81b0 25d6 dabf 5f74 6e42 22c2 d0bf
000006b0: cdeb 815a b29e 95bf 23f9 22f4 d6fc c1bf
000006c0: ad51 1846 ced3 c23f 5434 e405 1d96 c73f
000006d0: ae0b f7cc 2120 b03f dec8 a456 3dcb eabf
000006e0: 1ffe 7631 8e23 bd3f 56d4 0839 a012 acbf
000006f0: 8029 7b60 ba25 c33f 59d8 d2d1 0d10 743f
00000700: 2149 bebb 5dfc bdbf 8dc5 7751 d8df b5bf
00000710: e90f b225 f0e3 d1bf f03e cada 3e1c 62bf
00000720: 20d1 af09 557d c2bf 375d 01bf 53e9 d0bf
00000730: 322b bd67 3a2b 9d3f 11eb cd07 ba4b c3bf
00000740: 1ef1 4de9 01f1 c43f de24 415b 5d87 a1bf
00000750: c262 d2f6 e568 e0bf 83ea 217e 1929 c6bf
00000760: eda7 5717 41e9 ebbf fa80 7c79 f326 87bf
00000770: 7f26 ead8 ea6f dd3f 82df 41ba 771a d83f
00000780: d0c1 b393 f25b c93f b7c8 8090 8fc3 a53f
00000790: 3edd e31b 578e ca3f dc83 325a c5f5 b2bf
000007a0: e26d 7132 e17d a83f 737f 1afc e49e b73f
000007b0: f3e6 5edc 1518 c2bf 646b c94a 0f50 b4bf
000007c0: 40cf 3c8d 14f7 a83f deae 3702 6afa b23f
000007d0: 1c00 44c6 dbe4 dbbf f6eb b7f0 010b abbf
000007e0: 3825 e608 ea3f d23f 147b 1326 72a6 c13f
000007f0: ccde ff8e 3d3b df3f 74d5 a930 3c53 d0bf
0.002375916094065175 0.18610914096073583 0.047694392325894154 0.09663428116684152 -0.05181914380068216 0.09174884315028574 -0.08260926883315864 0.08562148354392524
-0.058713170163083445 -0.1663330951343035 -0.3802669772557646 0.1797733583417706 -0.21669275278123076 0.1000412018995382 0.08605591459925556 -0.23014531627532306
-0.38425801259017134 -0.4630091377402329 -0.13007071251712968 -0.45429089128450817 0.0656677864562998 0.1492014307239428 0.10490982652297576 0.20421493900677773
0.01598434196853119 0.08254912874396839 0.015914596010352118 -0.10679702705161524 0.43178410631615677 -0.6629324904299646 0.5015671026754218 -0.5241369369605182
0.3002831474758355 -0.19651467341760084 -0.35906703403836715 0.3190800786851706 -0.19933878429915336 0.04230494611429167 -0.16565398363013198 -0.6751899035071547
0.139544778960367 -0.17931643073406714 -0.2970819891925173 0.10784393993659587 0.031020088877530865 0.37539596625490307 0.19376198794207447 0.23619432959524794
-0.40198988512511413 0.3781562188027215 0.3718456178848524 0.03454962267331533 0.02705265894432071 0.2053518120770445 -0.17403359092297596 0.0460629068237375
-0.15155839676817945 0.09056009620367435 0.14328674694867816 -0.23445205070421915 0.2570486661713595 0.10262594873743579 -0.21013231781415362 -0.20860627783363028
0.13083846054735257 -0.3500211035394983 0.2504283413053031 -0.1666847919439132 0.018432036886475538 -0.012210136104461734 0.0374179155615977 0.22695722319522876
-0.3420561027538939 -0.1613294228310529 -0.33652979156123913 -0.23992557082058852 0.35264479589996356 -0.08090650616485573 -0.9161353487862132 -0.1607678076822277
-0.24729462626599363 -0.29119454813752216 -0.15414755453707435 0.07875284430328663 0.08489532907386833 0.04799822184727372 -0.09516099059656555 -0.05749619081952067
0.13344015927102906 0.18892892916975015 -0.3619232324795918 0.04465677921203604 0.17740946038490088 -0.09951150153784201 0.2399733060056703 -0.35032646782986815
-0.5946172808403989 -0.3182647420472982 -0.21038165169618772 -0.10947748209615706 0.08311844118183995 -0.21440502550074536 -0.14089489427324775 -0.015438586229538457
-0.055433390968130034 0.06958607516539222 0.08817018530363031 -0.11057477879108185 0.5829299044547122 -0.5208758536888236 -0.1994129117064577 0.6845833194401125
-0.18769450326829754 0.15216708616703847 -0.20705425647217152 -0.012241188280745831 -0.002840584496153646 -0.055894632505415674 -0.17790889269920823 -0.5380065431422446
0.15521879724258578 0.04167252099513676 0.24361733136247699 -0.09344004563056914 -0.2135200166908392 -0.012404828356531379 -0.11926970282595618 -0.1417615203681656
0.4363406765801773 -0.22101917246953104 0.456530252697788 0.48578734771681786 0.004699635227165213 -0.19077736817786253 -0.05806821307554736 0.3172640771902501
0.10867041865376774 -0.3331447387442332 -0.3884404705510641 0.12745997280733354 -0.07700177537750745 -0.2136196057281562 0.2505207276936798 0.19598719126158412
0.04282051048855795 0.16398089397721946 -0.29491403045604836 -0.02653578702275407 0.051093935403171385 -0.2639373560627616 0.14422574917362732 0.31767743368118756
-0.05988735456507613 0.11900376941782913 0.27622047532493404 -0.48223971378153335 -0.07736338007131087 -0.36702422442965205 -0.583069739285378 0.05463530470230715
-0.13626337624844434 -0.03976573238511257 -0.19356574807306923 -0.0843917760304222 0.08035358741663792 0.2469617217839725 -0.14719272318956145 0.11805842656257236
-0.12491213451799882 -0.2555995157100909 -0.4784768866728865 -0.3712721007121551 0.04451482007766575 -0.11995608254371627 -0.5912079111286389 -0.34962113937022754
0.7179145205477532 -0.015170807740541728 -0.07543831146483525 0.2456763717513803 0.2562257988775201 -0.20603734203840804 -0.1947804786195054 0.07785133622732487
0.06867441136754521 -0.27129296886503396 0.33305452655500617 -0.2270728128552327 0.07308729467137588 0.31494480263752644 0.5274145079485998 -0.4038196571734938
0.09482197881751722 0.07653007196847224 0.24907316935857202 -0.4523151571066895 0.11587390802332705 0.0938178197329579 -0.10274809017722876 -0.28561549035719774
-0.07934813865897596 0.011798038127584426 -0.010795977847505684 -0.19218179673293612 -0.14164536760305488 0.4498465097233362 0.6597273528979001 -0.5294720325409756
-0.013014835702094755 0.32309417060077494 0.2257242391812387 -0.4218626115618654 -0.4193205093081832 -0.2618489884133108 -0.021113192342891374 -0.14052855416043383
0.14708879873854866 0.1842685965315548 0.06299029592541558 -0.8373095218905993 0.11382378299367034 -0.05482960411283304 0.1495888682459956 0.0048981227711718195
-0.11713205178810827 -0.08544685353242283 -0.27953723603445596 -0.0022107341413358725 -0.14444983456599747 -0.2642411580358898 0.028485214788172182 -0.15074849492142353
0.16360496417826992 -0.03423587550111916 -0.5128049679506932 -0.17312925967037893 -0.8722234207064027 -0.011304762024849858 0.45995589430877 0.3766154593390568
0.19811851703663175 0.042507635488065736 0.2074688802892783 -0.07406266643603437 0.047835385711291215 0.09226828722830564 -0.14136002788818977 -0.07934661460732922
0.04876007293787987 0.07413351587427594 -0.43584341394307713 -0.05281835616548129 0.2851510130791044 0.13789202555832303 0.4879907509307315 -0.25508026840483145

lin1.bias f8 [64]
00000000: c0e0 9620 66ed e33f c899 c3ed 7524 d03f
00000010: 8cf9 575c c868 e03f b836 a732 4736 c23f
00000020: 56a1 475e 4b6f e43f aaf3 a893 b865 da3f
00000030: 03a9 e77b e5a6 d23f e7af 3f60 5bcb d03f
00000040: ae7e 0e85 89e6 cbbf 6c80 b95b 96a7 e03f
00000050: fb91 70cc d412 b73f ee5e 50a2 d12a d03f
00000060: 7fb1 0795 2d7b e53f 7b9f 775a 6e12 debf
00000070: 6544 a247 4b67 dd3f a7fc f897 46de c53f
00000080: 4550 cc29 edc6 b83f 3f13 459a 56c9 d63f
00000090: d332 3a03 6875 c43f 9d8c 5483 71d8 9fbf
000000a0: e2f1 20f4 eed3 c2bf 9ba4 a087 fd42 b5bf
000000b0: 23a3 05ae 3f4a c63f 5494 002f a276 d53f
000000c0: e46f bca0 da88 d83f d904 24e9 c7e0 df3f
000000d0: f104 16a4 7920 d43f a89b 29ff 9468 b5bf
000000e0: 00a8 79db 3db0 d23f 34ce a52e a1ef b23f
000000f0: f2f4 781b d994 e03f bdbe 2e24 e355 d53f
00000100: c9d8 8d2a 5f20 db3f 7f7c 06f7 996e b83f
00000110: d627 a52b 493a c43f d20d a3e2 c4e8 d43f
00000120: 20be 73cb b8d5 c73f d5ac 4083 b68d ce3f
00000130: 76ab a4f2 57ff d03f d546 d826 5088 ce3f
00000140: fe3d d5a8 6781 d73f 1354 da9c a5e4 e03f
00000150: cd6d 03b3 9bb0 eb3f 9ac5 b79b 26bc e53f
00000160: ce57 dc98 7188 c53f 1a91 f050 5fff cb3f
00000170: 8199 e7d1 7b4d c13f d078 c5ec d260 d43f
00000180: f6c1 338b 0ff5 d93f bb24 e8fe 4d6e c43f
00000190: df51 c4cf eee2 df3f f234 d912 d97d e43f
000001a0: ec8d 1fd6 dcfc d73f 472d de9d 67ab d2bf
000001b0: b2e4 0eb0 4d18 e13f c71e 1e60 45c9 c7bf
000001c0: f376 072c 6f06 d23f 88b0 b6ec a057 c73f
000001d0: 9d1e 8222 f943 d03f adda deff 3b5f d43f
000001e0: 308d ce4b cd35 cd3f 222f 7cbb 35b8 c73f
000001f0: d6fb d1e5 99a8 d43f ed8f 07b1 dc99 c4bf
0.6227293621550629 0.2522253820337963 0.5127908519350952 0.1422814366655325 0.6385857430841877 0.41245855731886627 0.29143654918756584 0.2624119224481078
-0.21797293660073563 0.5204574386116412 0.09013109198765072 0.25261345721217665 0.6712863836997228 -0.4698749431104187 0.4594295692014099 0.1708458177617775
0.09678537626706525 0.35603871407902327 0.15983295590958466 -0.031099103585017763 -0.14709269447656853 -0.08305344163149402 0.1741408920018098 0.33536581602158333
0.38335290619738616 0.4980945374264372 0.3144821264650793 -0.08362704495958317 0.2920069354355519 0.07396895779475515 0.5181699310848258 0.3333671429963763
0.4238508143965985 0.09543764382259388 0.15802874213323886 0.3267070973635927 0.18620977338967837 0.23869973572559525 0.26558493323926 0.23853494545669798
0.36727324950786044 0.5279110015422951 0.8653086181979518 0.6792176286091263 0.16822643245603647 0.21873084499487377 0.13517711400272606 0.3184096634121376
0.40558231920206766 0.1596162314092789 0.4982258824323064 0.6403622978338304 0.3748085108802275 -0.2917117158583164 0.5342167318950912 -0.18582980340237595
0.2816427164051298 0.18236171301157733 0.2541487538332861 0.3183126448379124 0.22820440484529447 0.1853091397718965 0.3227905983293885 -0.1609454979326296

lin2.weight f8 [64, 64]
00000000: 9427 76a0 890a e03f ac20 4afe ecc2 d13f
00000010: 420a 7733 c8df e03f cb23 dcbc 6ac4 d23f
00000020: d30f befc 8b56 d73f 5a2b f60e a1f8 e33f
00000030: 3b0b a0d8 888f ca3f d84f a9ff b61f cb3f
00000040: 56e4 dbec 0abf cdbf 9e58 6c92 dd34 c53f
00000050: 2688 3347 1289 b9bf fe80 20f8 1b9b cb3f
00000060: 6e57 b820 0a91 d83f 3542 acf8 d228 e4bf
00000070: 390a 0417 3b3a 69bf 5730 608c cd5c c83f
00000080: 0226 3803 8475 cc3f cbc8 eca2 3185 c53f
00000090: fd12 ce96 199c b93f 9c1a e0f2 579a d73f
000000a0: 12b6 2005 72f2 b03f 1816 f301 7b96 a73f
000000b0: d145 8899 5775 be3f 991a 3a9d fa55 9abf
000000c0: 239c 0e12 c4a6 c93f 59fa 52bd 0514 c73f
000000d0: a84d ccd7 2599 d63f e2c7 5e37 c033 c93f
000000e0: dd8f 5c79 879c bd3f eb6e a2ec 205e c73f
000000f0: 00c0 40d2 28eb c93f 601a 1275 7aec c83f
00000100: e472 ea20 5e38 c63f f99d f8d1 dba8 b33f
00000110: 0e75 2457 605c d43f 6166 9a92 4aae c93f
00000120: 3015 272d 9ce3 d13f ef2b 9313 8b53 bbbf
00000130: 414a a877 f444 ce3f 3ed9 6b1c 7890 b63f
00000140: 2289 b18e 5546 c03f 19bb 6356 8ee6 d73f
00000150: 50d0 eaa6 4d75 e83f 98a8 bbc3 d482 d73f
00000160: 9611 aa98 169d ba3f 3fac 2469 ac4b d23f
00000170: 618b 1c88 34f0 d13f 4d42 2c87 45d9 c83f
00000180: 9f63 3f7c a642 d43f 2c48 bb1f e073 d73f
00000190: 66b5 fdbd 9ae8 a53f 9802 ecbe 9ae9 d33f
000001a0: 1846 9142 dbb7 93bf 85dc 4aaa a66d a8bf
000001b0: ea0c 8219 d1e2 de3f 350b f072 5729 dd3f
000001c0: 5df6 137b 4602 c33f 9130 b82f e8d6 e13f
000001d0: 293b 754a f64c cc3f 5643 0b99 d394 da3f
000001e0: 4c7f 0d0e d7a5 a6bf 2279 fd58 e81e c23f
000001f0: 80cf 3537 f5e3 bd3f 309d e93b a686 d43f
00000200: a404 07e7 28a7 d13f 68db 0777 9cd0 b6bf
00000210: ba8a c2d8 62f6 d93f 583c c3c2 6759 c93f
00000220: 6c46 44b5 673f d43f 5d01 1045 f347 cb3f
00000230: 01aa 9167 f01a 7ebf 47b0 c1f6 014a c23f
00000240: 94b0 c9b9 385c d6bf e8e3 b976 581e 9bbf
00000250: 0573 92cb c145 abbf 70eb 7290 bc35 c13f
00000260: fef2 caaf 8811 d63f 965b de8d 57d7 d6bf
00000270: 0145 2f6d 4336 bf3f 23a4 a9e6 cb7b bebf
00000280: fa27 08c4 028c d83f fe91 f116 783a b0bf
00000290: 5ae3 ca86 4416 a33f 90be 4f7c 0c7f 84bf
000002a0: a307 617c 3177 da3f d0d1 adbc c017 c23f
000002b0: d463 f1f5 3a4d a4bf fc8b edab f4ed c03f
000002c0: 6ba0 d00c 580d d33f 3dd8 7c09 e995 b33f
000002d0: da9e 2c90 7b1e cf3f eba0 a8a5 a550 c03f
000002e0: d186 c309 e517 c13f ed16 1c26 097f c4bf
000002f0: d0fa 279f 80a4 cc3f 694a 7773 cfe6 b73f
00000300: a500 0c3a 278a cabf f1ff c028 1166 c43f
00000310: f632 8853 d227 cf3f 61b6 cf60 e2f1 c8bf
00000320: 020f f44e 83ce ccbf 096b 2d6c b761 90bf
00000330: b38c 8806 c24c cd3f 6493 92e0 8419 c13f
00000340: 9cab d532 46ac 7bbf 02eb 3c64 92df df3f
00000350: e7ee ba8e 4f84 a53f 7422 6ef6 7659 a83f
00000360: 34bb 8a35 639e 95bf 1341 ecda e142 b93f
00000370: ea34 14af bd71 b53f 9d6a a185 acfd b03f
00000380: 43fd 0100 6af4 a4bf b0be bfa9 5d84 b9bf
00000390: db00 1385 4dca bf3f fe61 5bff 0bc2 c03f
000003a0: d47d e2c4 cf3f c2bf 598d cfab f418 d3bf
000003b0: a154 8ed8 7e2e e33f c5e3 ab50 6b89 acbf
000003c0: b2db 7935 8c43 cd3f a84e b80b 2eac d23f
000003d0: 3aa1 a7b1 b142 b03f 099e 383b 3a83 c13f
000003e0: 869e cc00 3506 b7bf b791 26db 463a ca3f
000003f0: 7855 1c2f eab2 cc3f c06f c972 d161 dc3f
00000400: 4d84 af40 405b de3f f1e9 0188 5e6f da3f
00000410: 30cd 5848 d8d8 d53f 38f1 ab63 d72d da3f
00000420: 5957 a133 d56a b63f bc94 4177 ca42 d33f
00000430: bcc8 8f8a 1a82 d43f 74bd 6d35 24cc d63f
00000440: 2aa8 326e c5dc c4bf 9d0d f11a b499 af3f
00000450: d053 7750 de81 c13f 6804 9683 2df4 c93f
00000460: c668 247d 92a6 e33f d6b3 542f 83c6 e2bf
00000470: 212f 07b7 cdcf d03f cf64 348c 27e4 aabf
00000480: d66d 5c19 8637 dd3f a4ff fdf0 3f6c ba3f
00000490: a193 a31b 9b0f cd3f 80d5 ff11 7979 d03f
000004a0: fa60 8cd6 f89c dd3f fd26 d458 4865 55bf
000004b0: 2d0d 5b89 0da3 c83f 1c64 f1ec 6da1 c23f
000004c0: 280e 2d37 6b8b c83f 1a51 3584 49a2 aabf
000004d0: 7233 4603 b3a1 cb3f f3b7 efa6 e283 d43f
000004e0: 4803 8fa7 9abd b13f 2519 8e95 87b5 c93f
000004f0: 854f 17a5 d8f7 c23f 0d59 d37b 7d92 b73f
00000500: 73e1 654f c025 8cbf 41fb 45e4 f46f d53f
00000510: 7cf5 406a fe30 d23f ae3f 8327 89d6 d23f
00000520: 4841 a118 a110 cd3f 9585 bb52 223e c03f
00000530: 9e54 7661 dadf d43f 6763 145f 29a4 ab3f
00000540: a044 52d0 89d3 c53f aab2 1966 4a90 cd3f
00000550: 3582 a4ce 36a3 e13f 9f43 9e96 27c7 d43f
00000560: 5c47 4eee 13cd a93f f4f2 7802 6673 d03f
00000570: 9e45 373e ccbb 9abf cd7d 499e c73a c23f
00000580: 184c 145d 88b4 ca3f 1e4e 825b 222d c43f
00000590: ce04 5645 b6a3 bf3f 0be6 2ac9 12b9 cb3f
000005a0: 5812 f499 83ed e03f 0067 3d7e f387 b0bf
000005b0: 85f1 5709 2536 d23f e97e e25d e81e 8ebf
000005c0: ff88 c87d 06ea cf3f e26f fc6c 7487 d03f
000005d0: 02df 6ab7 4466 c73f e6c1 e67d 0be1 d83f
000005e0: 9a5d 4340 7a33 e13f 1382 813e 8cb2 ca3f
000005f0: 22c7 211d e702 863f 47c5 6c12 56c2 e43f
00000600: 7973 0dc2 c1ff cd3f 84c6 911c b5fe bdbf
00000610: ab08 da9f fdc8 d93f 1686 b823 862d a63f
00000620: 45ab 3247 848d a33f 4baf 47e9 c64f cdbf
00000630: 2adc e92a ee34 d9bf ee8f 1e9c b853 c03f
00000640: 144a 80ba 46c2 ce3f d8d0 867e b800 da3f
00000650: 9cc8 2076 6d20 a2bf 9f5f d6b3 f208 df3f
00000660: bd8e b851 246e dc3f 6645 c930 891c d43f
00000670: 21d5 565c 1330 d23f c85d 8d05 936b de3f
00000680: e4b6 311b ab15 a23f 0c2f 61f2 9a66 c33f
00000690: b9ea 8c9e 7a1b a5bf 5167 cf91 5f1d debf
000006a0: 99a1 b1da 4dd5 cc3f 0549 c994 af13 d43f
000006b0: 9d0b e93b 22aa de3f 302f 5b36 48c1 d6bf
000006c0: 2501 5c3a 48a9 ce3f 57c9 747d 960c b0bf
000006d0: 9030 3b12 0ed4 c03f 1c1b 21e3 28b1 a5bf
000006e0: f773 4bc8 5989 d63f ec44 8964 6f89 bcbf
000006f0: 2b62 f43d 06ae cb3f 1dc5 a39b 554b d9bf
00000700: 1566 9c64 73ca a1bf 968d b1e8 2608 b83f
00000710: 0785 ab84 c6f4 d63f 0f0c 9a1f d145 d13f
00000720: d385 03eb c021 b5bf 7c3b cc46 4c7f e73f
00000730: 85b9 5568 5c1e ce3f 548a 079a 8756 db3f
00000740: a1a9 cc11 a6c5 adbf 018e d256 fa16 b63f
00000750: da86 5338 7900 62bf dd2b 10c8 46a1 d03f
00000760: 20d5 1d40 0219 c03f 8577 2b83 835b d43f
00000770: 5c69 06c6 f123 cf3f 8bad b682 54c3 c2bf
00000780: 6ca5 d60a 3c9a e03f e331 7c0a d463 cebf
00000790: 9568 a965 ce52 d33f 8b65 f53b c19d d3bf
000007a0: b358 dd8b 1f98 d83f e4dc 066d 5ef8 a23f
000007b0: ee5f 3fe5 4e6f e23f 3a9c aa52 f588 a4bf
000007c0: 9be4 ada5 4207 d43f be01 18ae b99a dabf
000007d0: d438 5bf0 fc55 b83f 15b0 f558 4a08 e23f
000007e0: 2b18 8b2a 2382 e83f b0a5 72c7 ee2d 903f
000007f0: 77b8 e7c3 3ee3 e43f fdff b477 aeeb ae3f
0.5012863286985856 0.27752232392277665 0.5273171429801737 0.2932383388838928 0.36465739900472477 0.6241002361506205 0.20750532700921007 0.21190536006417804
-0.23239265981081542 0.1656758274991192 -0.09974779356301208 0.21567105880331633 0.38385251231499395 -0.6299834114925661 -0.003079524431201433 0.1903321204594046
0.22233629376596303 0.16812725501364975 0.1000381463218893 0.3687953826742303 0.06619942307653329 0.04606995009229936 0.11897799967143576 -0.025718608709690647
0.2004017913979804 0.180298535769867 0.35309740137128154 0.1968918104517448 0.11566969597748718 0.18256007723254383 0.20248899713760693 0.19471674648612503
0.17359520537583883 0.07679532886742625 0.3181382037162884 0.20063144834857652 0.27951721581878797 -0.10674351909544531 0.2364793380989614 0.0881419247997188
0.12714642970520013 0.37344702183229256 0.7643192539312711 0.3673602973418695 0.10395947672993197 0.2858687426366408 0.28028596202982753 0.19413060283888442
0.3165680135112385 0.3664474782827962 0.04279025620676684 0.3111330856773207 -0.019256044328647887 -0.04771157101407034 0.48259379855171736 0.4556482908666795
0.1485069371191682 0.5574837619801817 0.22109869609490687 0.415333651978519 -0.04423400923292195 0.14156822533818408 0.11675961110978328 0.3207183442195456
0.2758276229979606 -0.0891206541635775 0.4056632153316674 0.19804093370337017 0.3163699407751668 0.21313324806397818 -0.007349909859025506 0.1428835348955337
-0.34937875884384906 -0.026482946630924348 -0.053266578769784835 0.1344524102513236 0.3448201863027832 -0.35689343313554767 0.12192174354210651 -0.11907648450291268
0.38354558128105476 -0.0633921676649791 0.03727926392952581 -0.010007951301275214 0.4135249819411177 0.14134988034096674 -0.039651720545130026 0.13226183314245066
0.2976894498010611 0.07650619966156653 0.24311775722275436 0.1274611529236219 0.13354170777079458 -0.16012682305170448 0.2237702157144299 0.09336563652986175
-0.2073411019737296 0.1593648385041884 0.24340275839531217 -0.19488172270887374 -0.2250522742762016 -0.01599775884401836 0.22890496558202286 0.1335912796540938
-0.006756090367484282 0.4980207423101747 0.04202507607757671 0.04755756147557558 -0.021112012999476806 0.09867679209515172 0.08376679920566557 0.06637075674499689
-0.040927231312702726 -0.09967599291098383 0.12418064593203175 0.13092184036828763 -0.14257237542641 -0.2983981778945313 0.5994257192238771 -0.055735925290668877
0.22862389193661908 0.29175902504469287 0.06351767146373258 0.1368172444501712 -0.0899384619666482 0.20490346623149744 0.22421004581762438 0.44347034654287754
0.4743195182509837 0.4130474403570182 0.34136015954136933 0.409047934852214 0.08756763945106395 0.30095159193144716 0.3204408982411555 0.3562098047031761
-0.16298740273242746 0.061719539917727696 0.13677576951036352 0.20276421475503814 0.6140835231956536 -0.5867324757033383 0.26268332361063257 -0.05252193056566911
0.4565139053026689 0.1032142604217357 0.22703875398215437 0.25741411931752367 0.4627058119963433 -0.0013058859361216306 0.19247597891635718 0.1455514342258376
0.19175472444668284 -0.05201940287466496 0.21587217006563325 0.32054964353926535 0.0692993792608948 0.20085234453672132 0.14818866787993215 0.09207901261411085
-0.013743879721673768 0.33495828907318886 0.2842403447756039 0.2943442235818975 0.22706998541480972 0.12689618148492046 0.32616290586276786 0.05398682866706999
0.17051813766423596 0.23096590028162228 0.5511735950459015 0.32465543469248276 0.050392744865475264 0.25704336396647354 -0.02610701684699778 0.1424188158880341
0.2086344198692991 0.15762738674367055 0.12359179680608465 0.21658549139628777 0.5289934164907875 -0.06457444984462413 0.2845547286267663 -0.014707389226088679
0.24932938710941951 0.25826750415012445 0.18280848461085247 0.38873565001543253 0.5375338797702398 0.2085738473133608 0.010747724129234696 0.6487226829396285
0.23436758017751538 -0.11716777751441937 0.4028925000240046 0.04331607042355416 0.03818906182399088 -0.22899710074067978 -0.3938556117131521 0.12755496619240553
0.240303841652875 0.4062939868556561 -0.0354036528300565 0.48492114603276976 0.44422252636489273 0.31424169315604045 0.2841843034505747 0.4753158144207785
0.035321566648105734 0.1515687640661486 -0.04122527299337748 -0.4705428050925678 0.2252595250931904 0.3137015297881052 0.47913413859003545 -0.355547001917091
0.23954108094768248 -0.06269207537551345 0.13147140398212231 -0.04236724636625963 0.35213322219880133 -0.11147209362504257 0.21624830269935677 -0.3952230472487644
-0.03474770167504119 0.09387438946719437 0.35868990856222677 0.26988628469570214 -0.08254628884926456 0.7342893011826699 0.23530154318309485 0.4271563533967868
-0.05814856498030286 0.08628811473550259 -0.0021974914148906568 0.25984353578013303 0.12576320772829153 0.31808555421400114 0.24328443688575419 -0.14658600218295378
0.5188274585427002 -0.2374215174862818 0.3019290917196796 -0.3065035901577963 0.38428486498504383 0.03705115395444539 0.5760874249926908 -0.04010740884887594
0.3129431360208145 -0.415693683637098 0.09506207340311629 0.5635120141500943 0.7658859091686784 0.01580021946270954 0.6527398897431017 0.060391857254671756

lin2.bias f8 [64]
00000000: 81d9 1cc4 39ff d93f ca3c 6725 43d9 c13f
00000010: 2e78 dd33 d1d6 cb3f 4418 f46c 2635 d43f
00000020: a49f f691 0228 d33f f545 8129 9ecf d33f
00000030: edeb 3a7f af97 d13f 68dc e5af 2c73 c23f
00000040: 9ef8 c79e b1c4 c33f 3254 ff69 6193 c23f
00000050: 523a 2af6 3244 cf3f 3e61 db2c e74e d13f
00000060: 0d5b 7902 37e5 dc3f e64f 5455 8be6 c63f
00000070: b680 9dca bfc1 9abf 97dc 2093 84ce d73f
00000080: b92f c347 d954 d03f 4637 2094 22c4 dc3f
00000090: 133f 4fd9 fd91 da3f 483c 6573 bb56 d93f
000000a0: 4f45 ef1a 8f6b d73f 5c30 0257 e838 c83f
000000b0: a78d c14b 859a c5bf 1ab7 fe8b 1f4c c33f
000000c0: a404 5130 108e b43f 7920 e321 0e34 d13f
000000d0: 673f f92b 63a9 d43f 5eb8 7366 7c64 d53f
000000e0: 7b8e a56d 0457 d93f f651 52b0 30c6 cd3f
000000f0: 4957 1e39 719f b4bf a734 6c5d 7dea cf3f
00000100: 7f37 f852 5ff9 bc3f 7426 0c08 4a0c cf3f
00000110: 47bc 20ff f749 b7bf 97c1 b701 02ff dc3f
00000120: 62f7 e70f aa1c cf3f d5ca ea43 e593 d43f
00000130: 07dd 1dbc 3aa1 c33f 8601 03ed ffb6 c83f
00000140: 3be0 88aa d999 d83f 3fee 1af8 8536 c13f
00000150: 52f3 28e0 485f b9bf 42c0 c07a 7453 d73f
00000160: a019 e332 d763 cc3f 959e 8c4f 8b1f d83f
00000170: 7975 f69c b315 d93f 9063 5395 1b09 d33f
00000180: f53c 166d 6a4a d83f 9200 cb39 4f59 dd3f
00000190: b545 483b f4f7 ab3f 60c5 ba16 4011 d63f
000001a0: 48ae dfcb 8493 c83f 6375 d797 3cba d13f
000001b0: 29f3 49d8 44f2 c93f 65f5 968d 741f bdbf
000001c0: c9c9 5bcd a683 ce3f 4a62 5e0c 478c d53f
000001d0: 549f bc21 e99a d13f a003 ca44 4842 d43f
000001e0: e1a0 06d5 4cee da3f fb9d ad62 1c7e d03f
000001f0: 5c5c c34b b6b9 c6bf d9ec 4a4e add5 c73f
0.40620273734693774 0.13944281889278037 0.21749320061184235 0.3157440246581056 0.29931701902614294 0.309546986133767 0.2748831503374152 0.14413984860195517
0.1544401192949793 0.14512269664433713 0.24426877040646616 0.270440858655565 0.4514901661072351 0.1789106527945698 -0.02612971948781314 0.37197985046390997
0.2551787567906519 0.4494711348096313 0.41516061994205805 0.3959187151821806 0.36593988066041033 0.18923668144668937 -0.16877809714342826 0.15076059661571933
0.08029271297074786 0.26880219754503504 0.3228385857992095 0.3342581749446988 0.3959361143845183 0.2326107846207745 -0.08055789608473875 0.24934355794576854
0.11318012023568079 0.24256253617231816 -0.09097242335040888 0.453064443280732 0.24306226517358726 0.3215268290761462 0.15335783181556215 0.19308470795477833
0.38439027456070435 0.13447641958724607 -0.09911017868666974 0.36446868884650396 0.22179689392778545 0.37692530411229913 0.391949561389843 0.29743089277831647
0.3795419755269472 0.4585760177979036 0.05462611411725097 0.34480287761387807 0.19200191454671 0.27699198559078847 0.2027059608552915 -0.11376121956614822
0.23839268710396613 0.3366868611133539 0.27507999701127983 0.3165455505150536 0.4207946853953342 0.2576971973089425 -0.17754248332377898 0.18620840380558581

lin3.weight f8 [16, 64]
00000000: ee1f f8be 9995 cbbf 628a 89bb e5a3 a6bf
00000010: b1ee 630d 1f68 c8bf d3d9 3e86 38f3 a6bf
00000020: d3da cea0 dc3b e3bf f20d a2f2 b7a6 98bf
00000030: e647 b697 ed63 e2bf 7b63 e80b 00ba e83f
00000040: 1b9d 5490 c865 d0bf d5bd 3f5e a1ac aa3f
00000050: 7fd3 3cd2 41b5 b4bf 91c7 bad7 ff0d b4bf
00000060: 51b4 9c11 94a4 e2bf d2f4 0f0c fd0a d5bf
00000070: 807d 21b9 eec8 943f 6fbf 9cfe 8eb5 c5bf
00000080: 5142 563c 8639 b8bf d0b6 f6f4 83b2 c6bf
00000090: 4c70 8ac3 4141 d4bf a5d8 8921 598f d0bf
000000a0: a1e4 13fa ac52 bcbf c958 efcf 9b3c a4bf
000000b0: d248 47b0 9162 fc3f 1a00 c006 bd7d 9d3f
000000c0: 0c94 398e 58dd 943f c24c 2c36 2542 bebf
000000d0: 9958 6f89 b970 cebf c5ce 3d64 680c c2bf
000000e0: 4404 a4b7 a2f3 9ebf 177b a7aa 315c d4bf
000000f0: 15a5 c9b0 caed b2bf 068f 97b1 7f46 77bf
00000100: 1784 03c2 be6d b23f d943 99ad a66d b93f
00000110: 6973 c665 7a21 e53f 2ea3 5c6c ebef cabf
00000120: fccb 61ab fc9f 943f ebcf 9c57 59f9 e1bf
00000130: 7adb 2c9a e840 bfbf 4358 4334 c2d2 d2bf
00000140: 58cc 9a7e dcf2 acbf 8d8a 2433 00c8 bbbf
00000150: e83f 6047 701c b53f 6e6e 5431 d9b6 c5bf
00000160: e8a8 eacb 720b a43f 0656 aa9c a77b d4bf
00000170: 4006 e189 c4ba b4bf df30 550d 2528 ae3f
00000180: c1f0 ea48 5b18 d1bf 23c2 ee5d b82b e7bf
00000190: 100a 6031 8848 dd3f 51df f674 45c4 dfbf
000001a0: ae3f f5c5 9ab7 c1bf 88d3 2e3c ab11 7a3f
000001b0: 9e46 7aa1 50b0 a3bf 3c6e d01f 3bcc 713f
000001c0: ce37 549e 21ec 813f 6b45 36b0 0b0e cbbf
000001d0: 3b57 4cb9 82c8 923f a636 df8d db0b ab3f
000001e0: 4aae 9832 52be c4bf bf7b 285a facf e1bf
000001f0: 35c9 a894 a884 b8bf 45e3 be21 ad51 dfbf
00000200: a565 3628 7452 863f 343d bb04 8350 85bf
00000210: 3c96 3ec8 5a34 ccbf baa6 719a 986e ecbf
00000220: 23f3 bdcb 0f48 cfbf e5cc a109 f3fc c5bf
00000230: 6c49 fdfa e3c7 c0bf 416c 847b 0524 d3bf
00000240: 1acc 039f d58f dcbf efae 4067 ec7b cabf
00000250: bd84 bed4 7c8e 9bbf 7bfe 6be3 0f64 b1bf
00000260: 401f cd94 2580 d7bf 2c04 cc68 30c1 a3bf
00000270: fe4a 82bd 4873 86bf f4ab 95dc 7d2a d2bf
00000280: a095 63f0 f326 c4bf 9387 9b60 611d cfbf
00000290: caec 68d2 0c7d bdbf fe5d 3e6f d2ff c1bf
000002a0: 381b a419 2e64 ccbf 3864 96ac d99e aebf
000002b0: be35 759f 66d5 bdbf 9d1c ff76 083a d1bf
000002c0: a9d5 d2f9 f3b0 b33f 6c19 3450 7978 cbbf
000002d0: dac3 cdd9 8124 cbbf 812e 2e07 edf5 ccbf
000002e0: 48e1 60e1 9b5b c9bf 861e f28c 974e d0bf
000002f0: b1ae 2d46 78d1 a8bf faa0 b03e 0b5e b9bf
00000300: ddff e01e c626 c4bf 5358 25ef d31c d8bf
00000310: d0ea 6ae6 55da d13f 8b25 63dd c022 c9bf
00000320: b295 cf5a 4f37 b4bf d30f db91 91ad d8bf
00000330: 8372 d6b6 c781 b8bf b2f0 0f17 9f6d 9d3f
00000340: 49cd daa3 fab5 cabf fddb 922d 7c27 d1bf
00000350: 6120 6c13 1af6 ac3f 9b8e 645f 4cd3 c0bf
00000360: 9662 1a79 d7b2 c8bf 22f0 63b5 d4c0 c9bf
00000370: 5051 2395 58c4 cbbf 93c8 cdb3 32dc c4bf
00000380: f224 1883 700a 823f a27e 8343 4b35 c0bf
00000390: 1c55 cba9 9610 b23f 815b 21bb 2174 e2bf
000003a0: a1dd 89ca d665 983f 2c68 eb99 17f9 d1bf
000003b0: 3abf b5fd 22cc c3bf 8ab4 a554 cfd9 b5bf
000003c0: 4430 f6db ada7 ccbf b5bb 218c c158 e7bf
000003d0: 57f6 dd4e cc1b d1bf 5e88 accb c4a0 c0bf
000003e0: 9031 a84b c7e6 d0bf d22d 93aa 001c b13f
000003f0: 6b0e 5268 023e bf3f 5b67 d8fd 298a b43f
00000400: de4c a171 8ece ccbf 49d6 1710 0ae5 98bf
00000410: 3a05 0acc c1b9 d1bf 4c6f 6523 0e5e a33f
00000420: 39aa 96b9 4648 c6bf 90f1 e294 b894 c8bf
00000430: 630a 8878 6f2d c73f de38 f273 5504 a4bf
00000440: 0213 5aeb efbf ab3f 5f53 6f18 a32c c2bf
00000450: 4809 eb01 3a1b c4bf b1b1 d0e3 b8ad cabf
00000460: fc70 2921 e2fb c3bf 5812 178f 71af ccbf
00000470: 7a56 1c14 d067 bbbf bd4c 0746 f2df b7bf
00000480: 907c 28c0 075b c1bf 54c3 48b1 d34c b6bf
00000490: b9e4 f7d3 8156 c4bf 4178 be56 60ca c9bf
000004a0: 22b3 b711 3e03 cbbf 503a 19b4 e8d7 cbbf
000004b0: dbfd ba54 f327 ca3f a1e8 3311 c1eb cbbf
000004c0: 67ba ff90 9e12 74bf 7c11 7fe2 9c0f d1bf
000004d0: c32f b676 14eb d0bf 0748 3068 cab9 c8bf
000004e0: 5a92 b8d3 5a11 cdbf 54a1 98eb c345 e13f
000004f0: 2718 ba9a d9a2 8f3f 9269 8147 7780 cebf
00000500: 10fd b055 437f babf 5c86 3e00 9697 b9bf
00000510: fd8a b931 a79b dabf 4f1b 8edb 81b2 bebf
00000520: 915d f15a 8dd8 b6bf d670 bd94 cfc1 e13f
00000530: 5e9a 9f99 2221 d7bf 3bb5 c8cb 3f35 c2bf
00000540: e23a 5048 3a30 c5bf 026f 4133 f9aa d6bf
00000550: 5cdb 39a0 0182 bbbf 6a2e dd54 09e1 c6bf
00000560: 77ab c875 71d5 c0bf d51d 4783 d77c c3bf
00000570: 4d14 d7ea efcc bdbf c598 bd73 d440 a4bf
00000580: 9b43 8c43 dc2f c7bf 4c74 2f77 721a a9bf
00000590: 2a5f fc5a f576 dbbf 6864 7da4 7cae b03f
000005a0: 19ed 709c 06e6 cebf ec71 2d31 3b48 d9bf
000005b0: 5f4a c5d9 bf8e d6bf 6717 d42d 586e bd3f
000005c0: 72af 18e6 b0b4 c3bf 10f5 2ced db97 e23f
000005d0: e25d 5f34 de20 d3bf face eb85 f109 d4bf
000005e0: e939 ad90 7c96 babf 0c4f 921c a758 d0bf
000005f0: 7679 56e7 8b20 ba3f fbdc b550 5661 c7bf
00000600: ed17 4360 2051 cebf 4783 2e66 ff42 d8bf
00000610: a210 049a ad0c d5bf e69c c304 1e95 a23f
00000620: 9905 dc48 9d87 bf3f 648e 34dc c5ea c3bf
00000630: 49ad 0650 2101 973f fdae f8c0 a3fd dc3f
00000640: 960b 4ac0 5845 8fbf be1f eda9 1532 bebf
00000650: 331f 387d 6538 cebf 66d1 6978 fff3 c8bf
00000660: b4e4 9577 ef43 bdbf 27ee 44b2 bbf4 cabf
00000670: 1024 2a41 49b9 b3bf 6240 8156 6991 c6bf
00000680: 75d0 7c2c 4ffe c1bf bb0f 96ea 343c b0bf
00000690: 3b46 a3c5 468f c6bf 5adf db51 096c d1bf
000006a0: 5a41 209c edae d3bf 4ca9 1969 969e c9bf
000006b0: 4dbb f080 afbb d43f 102e 2933 a5dd babf
000006c0: d187 6540 7712 7a3f bbc7 9194 faa2 cabf
000006d0: 38c1 4b82 11f4 d1bf 6fb0 f485 cc7c d3bf
000006e0: 7258 7f0d fa00 c9bf 1846 df90 813e c63f
000006f0: b128 be6a 05c8 b53f 9c2e c09e f031 a83f
00000700: 6889 aab9 2c7b ccbf 1d04 65d2 72e8 d7bf
00000710: 85d5 3a00 f7a2 e43f f50b c11f 75eb d1bf
00000720: b1ce fea9 52bb a5bf b78f 4741 b730 cb3f
00000730: 1b7c edf1 d1ca d8bf 2af4 0983 1e37 d7bf
00000740: ef81 14c2 fd04 acbf 2062 6275 b912 d0bf
00000750: e352 3aab ef85 bd3f 391b d754 ead9 c8bf
00000760: b7a9 bd3d 5281 cebf b6ab 9f98 b860 d3bf
00000770: e05f 3872 a522 d7bf ca68 65c1 572a d4bf
00000780: 5f58 78bd cb1d b2bf 2275 43e8 ad32 c3bf
00000790: c963 84aa 98fe ef3f 16ee 31a1 fac0 a03f
000007a0: a49c 3d48 5874 c5bf 51e6 a9cd 01b6 c3bf
000007b0: b9ca 9401 edc5 c8bf 70c5 c822 c4dc 7b3f
000007c0: eb5e c5d3 27de d5bf 73e0 fee1 9895 e53f
000007d0: a428 feba a55a cdbf 0543 f6c0 e8ec b13f
000007e0: 971d 006d 884b b8bf 1c4f b62a 9550 973f
000007f0: bbed 3c59 604d bcbf 49ed 1b87 ba3a bbbf
-0.2155029470889071 -0.04421918787263192 -0.19067752984834876 -0.044824377429381855 -0.6010573521405952 -0.024073480781693087 -0.5746982539296794 0.7727051003049462
-0.2562123689153439 0.05209831500530596 -0.08089076407197913 -0.07833861367069363 -0.5825901359545559 -0.3287956826969324 0.020297746705521202 -0.16960322792283075
-0.09462775204725317 -0.1773228593933056 -0.31648296447543056 -0.2587492778324168 -0.11063653092777993 -0.03952490723865904 1.7740647207142968 0.028799966370570564
0.020375617676467825 -0.11819679806312691 -0.2378150864667006 -0.14100365538216955 -0.030226271112955297 -0.31812707581950533 -0.07394091430764534 -0.005682467273320451
0.07198707806266245 0.0993293927979403 0.6603366840168806 -0.21044676581484495 0.020141551933601662 -0.5616881095106668 -0.12208417667430452 -0.29411368469061844
-0.05654038472621242 -0.10852051972009687 0.08246518843247908 -0.16964259060556536 0.039149844543617196 -0.32004728602746046 -0.08097484937845767 0.058900030019317866
-0.267111607750632 -0.7240869364378039 0.45755200216095293 -0.49635445043849297 -0.1384156672088443 0.006364506613796624 -0.03845455142176245 0.004345160440631764
0.008751166004483137 -0.2113661394510403 0.018343012389855345 0.05282484156451277 -0.16205813856628232 -0.5566379319096696 -0.09577420834901747 -0.4893601254985252
0.010899455525577315 -0.010407470304385137 -0.22034773614466185 -0.8885005012973217 -0.24438664863910117 -0.17178190203012558 -0.13110017543165087 -0.29907357275232377
-0.4462789585952024 -0.20690684358247988 -0.026910734639049794 -0.06793307592669777 -0.36719646006939755 -0.0385832908559752 -0.010962074550012964 -0.28384348432035655
-0.1574387477659629 -0.24308411805310168 -0.11518936287841366 -0.14061956817452875 -0.22180725337985918 -0.05980568153172111 -0.11653748887075374 -0.26916705723528783
0.07691883897026365 -0.2146140710467067 -0.21205161223363583 -0.2262550625858815 -0.19810818199926872 -0.2547968746589294 -0.048473127905564246 -0.09909124641911041
-0.15743328578719132 -0.37675951341714614 0.27895114423487843 -0.19637308893133495 -0.07896896330892991 -0.3855937885639353 -0.09573028768358864 0.028738485128983533
-0.20867856026380086 -0.2680349774413456 0.056565108176130925 -0.13144831331111537 -0.1929578152965134 -0.20119723183586397 -0.21692950517775467 -0.16296991137966596
0.008808974266701661 -0.12662640377583495 0.07056562085502488 -0.5766762404335709 0.023825985061618152 -0.28082838088232864 -0.15466725719624624 -0.0853547650965131
-0.22386716118160355 -0.7295844780872957 -0.26732166005954155 -0.1299062723638284 -0.26408560169581907 0.06683353580881793 0.12203993842018128 0.08023321578403168
-0.22505360172599514 -0.024311215622182556 -0.2769627087182759 0.03782695943911438 -0.17408069669666462 -0.19203860540245588 0.18107407937357597 -0.03909556427343984
0.054198739509081065 -0.14198721593006788 -0.1570808896413587 -0.20842658160962693 -0.15612436885101733 -0.22410411345312542 -0.10705280772193673 -0.09326090058975729
-0.13559052355501366 -0.0871097858259991 -0.15888998842254923 -0.20148853526638003 -0.2110364519607169 -0.21752651971697157 0.20434419285991975 -0.21813214626292157
-0.004900569343574724 -0.2665779315832635 -0.2643481406491867 -0.19316988074621141 -0.22709212625445013 0.5397662736404905 0.015447330507651525 -0.2382954692028077
-0.10350437967371229 -0.09996926790201982 -0.41575031143126734 -0.11991130457145725 -0.0892418238666919 0.5549085526540931 -0.3613974094609257 -0.14225003672019362
-0.16553429156234417 -0.35418539052419373 -0.10745248948829328 -0.17874256747960554 -0.13151376963773106 -0.15224737081574227 -0.11640834315683542 -0.039557112816326824
-0.1811480836700213 -0.049029900597567705 -0.4291356457265346 0.06516245857109626 -0.24139483107305962 -0.3950336437463011 -0.3524627329508458 0.11496497267589022
-0.15395175204445938 0.5810374862991541 -0.29888110270027657 -0.31310690000758223 -0.10385874302048816 -0.2554109362620103 0.10205912015815052 -0.1826579946607366
-0.2368507833509165 -0.3790892122142861 -0.32889881172764934 0.03629392440944361 0.1231630614165823 -0.1556022000523739 0.022465248593716045 0.45298093647828336
-0.01526898705311001 -0.11795173071470708 -0.23609608282299063 -0.19494622592504668 -0.11431786222046264 -0.2105936642127386 -0.07704599228794984 -0.17631260608550564
-0.14057340309375702 -0.06341868140412903 -0.17624745035441144 -0.27221901887923183 -0.30755176779441273 -0.20015220767829545 0.32395541755515894 -0.1049445390610162
0.006365266634334747 -0.20809871916168085 -0.28052175258837364 -0.30449212152121324 -0.19534230860762453 0.1737825353034601 0.08508333068872066 0.04725601137041943
-0.22250899377565792 -0.37356253191325256 0.6448931698311503 -0.2799961862658045 -0.042444785357841915 0.21242418944814087 -0.38737915635823733 -0.3627392081905919
-0.05472558015958728 -0.2511428495722914 0.11532495432249905 -0.19415024893370417 -0.23832157149020158 -0.3027783861604648 -0.36148964075391454 -0.31508439909306374
-0.07076714874014688 -0.1499841102694655 0.9998286562359847 0.032722313096169284 -0.1676130631196645 -0.15399191419764915 -0.19354021622856069 0.006802335887685515
-0.3416843002391789 0.6745113767601779 -0.2293288386393374 0.07002119742379527 -0.09490254079002224 0.022768336040441914 -0.1105556695810525 -0.10636487768708948

lin3.bias f8 [16]
00000000: 0d91 caac c8e0 d1bf f5e1 9f18 e0a5 d1bf
00000010: 4470 2fca 8558 943f cb4e da90 def4 babf
00000020: 1a26 b31d 7020 b2bf e2d2 98c0 5291 d3bf
00000030: d1f9 d7d0 bd05 ccbf c911 caa3 1b00 b2bf
00000040: 48ae e264 55da b8bf b2b2 8c9b 3893 cbbf
00000050: 767c a685 d726 bcbf aae5 3f2c ef6e b0bf
00000060: e038 8f48 4fa7 aabf cc31 c866 48dd d1bf
00000070: 59ee b824 b8da d0bf dfc6 7c57 bd44 a93f
-0.27934471964023616 -0.2757492294763602 0.01986893698254756 -0.1052989104885526 -0.07080746388523843 -0.30574482734964026 -0.21892521569675563 -0.07031414746058497
-0.09708150589966025 -0.2154303321380176 -0.10996768010089561 -0.06419272260963874 -0.05205772171722045 -0.27913103139215134 -0.2633495672814426 0.04935256665193121
